TrainedModels/volcano/2020_08_13_13_42_59_video_train_depth_3_lr_scale_0.1_act_lrelu_0.05/4/netD_a.pth (torch_old, 454648 bytes, 9 tensors)

head.conv.weight f4 [64, 3, 3, 3]
0	0x3cf9ff5f	0.030517278
1	0xbc17ef07	-0.009273297
2	0xbbb7362d	-0.005591175
3	0x3ca337e4	0.019924112
4	0xbb946b94	-0.004529426
5	0x3c52b1e1	0.012859792
6	0x3d4b3370	0.0496096
7	0x3d02ad1e	0.03190338
8	0xbd5b08eb	-0.0534753
9	0x3c42499a	0.011858368
10	0x3baea71b	0.005329979
11	0x3cee4b37	0.0290886
12	0xbc6ccda9	-0.01445333
13	0xbc80795e	-0.015682872
14	0x3c253d63	0.0100854365
15	0x3cef6311	0.029222043
16	0xbbebff00	-0.007202029
17	0xbcd9bc96	-0.026579183
18	0x3b5dbd3b	0.0033834714
19	0x3b3966f0	0.0028290115
20	0xbaccc080	-0.0015621334
21	0x3b0bb819	0.0021319448
22	0xbcfcfce2	-0.030882303
23	0xbd0a7c74	-0.033810094
24	0x3d122752	0.03568203
25	0xbb068894	-0.0020528184
26	0xbcc1893c	-0.023625009
27	0x3d59488c	0.0530477
28	0xbcdb246a	-0.026750762
29	0xbd878727	-0.06617575
30	0x3cb86dcf	0.022513298
31	0xbc69628d	-0.014244688
32	0xbce046c7	-0.0273775
33	0x3ce57f62	0.028014842
34	0xbc850159	-0.016235994
35	0xbd184322	-0.037173398
36	0x3d54e07b	0.051971894
37	0xbd453cec	-0.048153803
38	0xbd3be2d4	-0.045870617
39	0x3d30855d	0.043095935
40	0xbceb1ece	-0.028701212
41	0xbc70f4f4	-0.014706839
42	0x3cb09e5c	0.021559887
43	0x3afca0ea	0.001927403
44	0xbd372c55	-0.044720013
45	0x3db1854c	0.086680025
46	0xbce547f2	-0.027988408
47	0xbcf121dd	-0.029435093
48	0x3d7ba314	0.06143482
49	0x3cb7c68f	0.022433547
50	0xbc0f0e18	-0.008731388
51	0x3d0b83ba	0.03406117
52	0xba310318	-0.0006752475
53	0x3be54899	0.0069971797
54	0x3b5ca4fb	0.0033667672
55	0x3babfc6a	0.005248596
56	0x3ce0ce09	0.027441995
57	0x3c6d1ae9	0.014471748
58	0x3d04a234	0.03238125
59	0x3d0d95fb	0.03456686
60	0x3c6074d6	0.013699731
61	0x3d65038c	0.055911586
62	0x3c81472b	0.015781006
63	0x3b0c5017	0.0021410042
64	0x3b9dc9bf	0.00481531
65	0xbc78d027	-0.015186346
66	0x3c38d1ff	0.011280536
67	0x3c900d2b	0.017584404
68	0xbc903a89	-0.017606037
69	0xbcdaf70f	-0.026729135
70	0x3c134339	0.008988195
71	0x3bb7d26c	0.005609801
72	0xbd0d53ae	-0.03450363
73	0xbc05d8e1	-0.008169384
74	0xbc41ad99	-0.011821174
75	0xbd0e3908	-0.034722358
76	0xbd77e8d5	-0.06052478
77	0xbc781291	-0.015141145
78	0xbd6cb52b	-0.057789963
79	0xbd76f824	-0.06029524
80	0xbcaf5e80	-0.021407366
81	0xbd75329d	-0.05986272
82	0x3cb697ac	0.02228912
83	0x3c98fa9f	0.018674193
84	0x3c0f26d6	0.008737287
85	0xbc07b37d	-0.008282539
86	0xbb9db543	-0.004812868
87	0x3d7cdd1f	0.061734315
88	0x3d0e29cc	0.03470783
89	0xbb9d8d05	-0.0048080706
90	0xbd983ced	-0.07433496
91	0xbc48541e	-0.012227086
92	0xbc674524	-0.0141156055
93	0x3cc49717	0.023997827
94	0xbd03e398	-0.032199472
95	0x3b0cea33	0.0021501898
96	0x3d926988	0.07149035
97	0x3bd3bf3e	0.006462007
98	0xbce578b7	-0.028011663
99	0xbdc7e90f	-0.09761249
100	0xbd0efa4f	-0.03490668
101	0xbbbf1747	-0.0058316323
102	0xbcd56a33	-0.026051616
103	0x3c896453	0.016771471
104	0xbacacd7e	-0.0015472618
105	0x3d83ac9a	0.064294055
106	0x3ce470fa	0.027885903
107	0x3d1e8f74	0.038711026
108	0x3c9dac4e	0.0192472
109	0xbbbc222e	-0.005741379
110	0x3d5f5813	0.054527353
111	0xbc385245	-0.011250083
112	0xbc9a64a5	-0.01884682
113	0x3c3e6068	0.011619665
114	0xbce190fc	-0.027534954
115	0xba9fdbd4	-0.0012196251
116	0xbc91e340	-0.017808557
117	0x3cca5bea	0.024702031
118	0x3d0019b7	0.031274524
119	0x3c3b825e	0.011444656
120	0x3cc6006e	0.024170127
121	0xbcf1ff95	-0.029540816
122	0xbcd0fb3a	-0.02551042
123	0xbd031f78	-0.032012433
124	0x3c271221	0.010197193
125	0x3b1a4951	0.0023542235
126	0x3d3d71ca	0.046251096
127	0x3c09e1e6	0.008415675
128	0xbc47d938	-0.012197785
129	0xbbe28766	-0.0069131134
130	0xbc882cb7	-0.016622884
131	0x3c86fb38	0.016477212
132	0xbc61a483	-0.013772133
133	0xbd3c66bf	-0.045996424
134	0xbce46844	-0.027881749
135	0xbd9dbe71	-0.077023394
136	0xbcc64ff1	-0.02420804
137	0xbd8ddf29	-0.0692733
138	0xbc1c8ff8	-0.009555809
139	0x3dab450b	0.08362778
140	0xbbff4b19	-0.0077909348
141	0xbd83e794	-0.064406544
142	0xbb2662c3	-0.0025388456
143	0xbd85fcd8	-0.06542367
144	0xbd277bd0	-0.04088956
145	0xbc8231a1	-0.015892806
146	0xbd2d8b87	-0.04236939
147	0xbcb4679c	-0.022022061
148	0x3d9495e1	0.0725515
149	0xbb7c2f06	-0.0038480177
150	0xbd908159	-0.07055921
151	0x3c318cbf	0.010836779
152	0xbd848ab8	-0.06471771
153	0xbd461d18	-0.04836759
154	0xbd0b5bb3	-0.034022998
155	0xbd68e7c1	-0.056861643
156	0xbb3d149e	-0.00288514
157	0x3d81acd3	0.06331792
158	0xbd1d44b6	-0.038395606
159	0xbd925f38	-0.07147068
160	0x3c24db84	0.010062102
161	0xbdc13eab	-0.09435781
162	0xbcbdc6b6	-0.023166042
163	0xbd8a39c0	-0.06749296
164	0xbd381fc2	-0.04495216
165	0xbd12cb90	-0.035838664
166	0xbca7f0c9	-0.020500557
167	0xbda81bfd	-0.08208463
168	0x3b83d4cf	0.0040231715
169	0xbcd09b0e	-0.02546456
170	0xbd5686c0	-0.0523746
171	0x3b1d01ab	0.0023957293
172	0x3cacb4da	0.02108233
173	0x3d4b75bd	0.04967283
174	0xbb24f1c6	-0.0025168522
175	0xba431318	-0.0007441505
176	0x3d3822ad	0.044954944
177	0x3d800569	0.06251032
178	0xbcf23f4f	-0.029571204
179	0x3cdd5b4f	0.027021078
180	0x3d6c6e01	0.057722095
181	0x3d78d16b	0.06074659
182	0x3daf25c1	0.08552123
183	0x3d6dadfc	0.058027253
184	0x3d3c588a	0.045982875
185	0x3d911915	0.07084862
186	0x3d6bc4a9	0.057560597
187	0x3c486e6d	0.012233359
188	0x3d1da29c	0.038485155
189	0x3c052ae0	0.008127898
190	0x3ca988bc	0.020695083
191	0x3cae0966	0.021244716
192	0x3d06286e	0.0327534
193	0x3c65eab0	0.014033005
194	0x3d01f719	0.03172979
195	0x3c8ce5c7	0.01719941
196	0x3d1e36b8	0.038626403
197	0xbdbbb02e	-0.09164463
198	0x3ca6dd98	0.020369336
199	0xbb29b52f	-0.0025895347
200	0x3aa8975d	0.0012862493
201	0xbb2a8717	-0.0026020461
202	0x3c764b45	0.015032594
203	0xbc442c72	-0.011973487
204	0x3c822799	0.015888022
205	0xbc9fbdf7	-0.019499762
206	0xbe077b0a	-0.1323053
207	0xbce6847d	-0.028139347
208	0xbc9abde4	-0.018889375
209	0xbcd5a27c	-0.026078455
210	0xbcfcd7df	-0.030864654
211	0xbcd4ac22	-0.025960986
212	0xbd240f13	-0.04005344
213	0xbd151fb3	-0.036407184
214	0xbd2f4afc	-0.04279612
215	0xbe59a068	-0.21252596
216	0x3dbaa719	0.091139026
217	0x3c0edc54	0.0087195225
218	0x3d57e043	0.052704107
219	0x3da54e4e	0.08071576
220	0x3ce8b5f9	0.028407084
221	0xbb16b9dc	-0.0022998964
222	0xbcbabac7	-0.02279414
223	0x3d218e35	0.03944226
224	0xbcbff2ba	-0.02343117
225	0x3da7329c	0.0816395
226	0x3ac42658	0.0014965041
227	0x3d822ad9	0.06355829
228	0x3d4c3fb4	0.04986544
229	0xbb5027a4	-0.003176191
230	0x3c605970	0.013693199
231	0xbd50b54d	-0.050954152
232	0x3ce2cc41	0.027685286
233	0xbc5fecc7	-0.013667292
234	0xb9686f89	-0.00022166794
235	0xbd6953ae	-0.05696457
236	0x3cee9da0	0.029127896
237	0xbd03f06d	-0.03221171
238	0xbdb4f11b	-0.0883505
239	0xbd79379f	-0.06084406
240	0xbdc4d841	-0.0961156
241	0xbd826e95	-0.06368748
242	0xbce4d849	-0.027935164
243	0xbdaf7440	-0.08567095
244	0xbcb66984	-0.02226711
245	0x3c8b9a07	0.01704122
246	0xbcf13147	-0.029442443
247	0xbc5d1970	-0.013494834
248	0x3d4f0c73	0.050548982
249	0xbd260a95	-0.040537436
250	0x3c20e1ff	0.009819507
251	0x3d90685e	0.070511565
252	0xbd739813	-0.0594712
253	0xbd18925f	-0.037248965
254	0x3ccff51c	0.025385432
255	0xbca34b5e	-0.019933399

head.conv.bias f4 [64]
0	0x3933b2f3	0.00017137434
1	0xb7672a37	-1.3778502e-05
2	0x3ac4d240	0.0015016273
3	0xb7f3eac8	-2.9077186e-05
4	0x3df8e680	0.121533394
5	0x3e31cf88	0.17364323
6	0x3aa03fbe	0.0012226028
7	0xbaf9a8a0	-0.0019047447
8	0x3a93e298	0.001128274
9	0x38101d8d	3.4359797e-05
10	0xbba04719	-0.004891288
11	0xbe0ec396	-0.13941798
12	0x3964f099	0.00021833404
13	0x3a474e15	0.00076028827
14	0x3db1e8a4	0.08686951
15	0x39def5c2	0.00042526243
16	0x3ad52e18	0.0016264347
17	0xb789b098	-1.6413906e-05
18	0x35c9a08c	1.5022392e-06
19	0x3aebd63f	0.0017992927
20	0x3c21254d	0.009835553
21	0x3b020f93	0.0019845709
22	0x3d98e73a	0.07465978
23	0xba3baff2	-0.0007159702
24	0x399a109d	0.00029385547
25	0x3e07c059	0.13256969
26	0x3cd9f049	0.026603835
27	0x37aaf5e3	2.038008e-05
28	0x39354b79	0.00017289621
29	0x3dd3286f	0.103104465
30	0xb83c898f	-4.4950804e-05
31	0xb9034191	-0.00012517559
32	0x3ddc5a45	0.10759405
33	0x3bc0f3df	0.0058884467
34	0x3dabe0ec	0.0839251
35	0x374684b9	1.1832622e-05
36	0x3c1b69c0	0.009485662
37	0x38886639	6.504026e-05
38	0x389ed040	7.572817e-05
39	0x3a8fa6d1	0.0010959749
40	0x3ae4a841	0.0017445163
41	0x3925c293	0.00015808111
42	0x3c06c5cd	0.00822587
43	0xb718f8f1	-9.117867e-06
44	0x3ddfa60c	0.10920343
45	0x3e4a74c8	0.19771111
46	0x37da7c67	2.6045554e-05
47	0x395db2e0	0.00021142839
48	0x3e17a931	0.14810635
49	0x3d669efb	0.05630396
50	0xb4833d52	-2.4445268e-07
51	0x399cfbd5	0.00029942268
52	0x389ea264	7.564275e-05
53	0x3e12ac98	0.14323652
54	0xb6c83280	-5.9663435e-06
55	0x39a96e3e	0.0003231633
56	0xb649f81b	-3.009575e-06
57	0x3762e425	1.3523769e-05
58	0x3da06b75	0.07832996
59	0x3985aeb9	0.00025497915
60	0x3b08c1bd	0.002086743
61	0x392071df	0.0001530121
62	0x3c318f34	0.010837365
63	0x39e72a3d	0.00044091223

body.block0.conv.weight f4 [64, 64, 3, 3]
0	0xbbdf67f2	-0.006817811
1	0xbd2e667c	-0.042578205
2	0xbbc60c00	-0.006043911
3	0x3ca43ab8	0.02004753
4	0xbc87dfaf	-0.016586153
5	0xbcc24521	-0.023714604
6	0xbc223d55	-0.009902318
7	0xbd8d9302	-0.06912805
8	0x3cb78c44	0.022405751
9	0x3c9c4f06	0.01908065
10	0x3bf05213	0.0073340028
11	0x3bf92e80	0.00760442
12	0xbc0deb9c	-0.008662131
13	0xbc862588	-0.016375318
14	0xbd92aa91	-0.07161439
15	0xbcd6b968	-0.026211455
16	0xbcef352a	-0.029200155
17	0xbd33b778	-0.04387614
18	0xbd26a839	-0.040687773
19	0xbcd80a18	-0.026372
20	0x3c73b8d2	0.014875608
21	0xbdab9ca8	-0.08379489
22	0xbc92d2e9	-0.017922835
23	0xbd3fc03c	-0.04681419
24	0xbc026054	-0.007957537
25	0x3c8f21e2	0.017472211
26	0x3c56f8ec	0.013120871
27	0xbc70ff51	-0.01470931
28	0xbc6c9d5a	-0.014441812
29	0x3ca7fa18	0.020504996
30	0x3c9bb10d	0.019005323
31	0x3c0d2476	0.00861465
32	0x3d141f19	0.03616247
33	0xbd67db1b	-0.05660544
34	0x3c1c54cb	0.009541701
35	0x3c0f6436	0.0087519195
36	0xbd557cc3	-0.052120935
37	0xbaff7f7a	-0.0019492947
38	0x3b252582	0.0025199358
39	0xbc6be58d	-0.014397991
40	0xbc1fc30f	-0.009751095
41	0x3a93da6d	0.0011280306
42	0x3d1cd725	0.038291115
43	0x3cbb4ff7	0.022865279
44	0x3d08c568	0.033391386
45	0x3cb0e1fd	0.021592135
46	0x3cdbe048	0.026840344
47	0x3cd6a930	0.026203722
48	0x3cf22073	0.029556489
49	0xbb15bac5	-0.002284692
50	0xbc0fff6f	-0.008788927
51	0xbbaafdbb	-0.0052182353
52	0xbc93f78c	-0.018062375
53	0xbc7eefd5	-0.01556011
54	0xbcfa299a	-0.030537415
55	0xb8baa560	-8.899975e-05
56	0xbce19cc0	-0.027540565
57	0xbc07f916	-0.008299133
58	0x3c26df65	0.010185097
59	0x391da1f9	0.00015033026
60	0x3c40080c	0.0117206685
61	0x3c5ee8b9	0.01360529
62	0xbc8fba6d	-0.01754495
63	0xbbd36354	-0.00645105
64	0x3823e595	3.9076043e-05
65	0x3d3342e9	0.043764982
66	0x3b8170fc	0.0039502364
67	0xbc985acb	-0.018597981
68	0x3de03fbb	0.109496556
69	0x3c72de7e	0.014823554
70	0x3c9312d0	0.017953306
71	0x3dff9fbf	0.12481641
72	0x3d1eabe1	0.038738135
73	0x3d155999	0.0364624
74	0x3ce3ee89	0.027823703
75	0xba8fe313	-0.0010977708
76	0x3c8d4d63	0.017248815
77	0x3ca6ada9	0.02034648
78	0xbc239db8	-0.009986334
79	0xbd2b2b3c	-0.04178928
80	0x3c934bc9	0.017980473
81	0x3d5fc17f	0.05462789
82	0xbb12cd00	-0.0022400022
83	0x3c8973f7	0.01677893
84	0x3d33f134	0.0439312
85	0x3c837693	0.016047752
86	0xbd1af1c5	-0.037828226
87	0x3cb8c30d	0.022553945
88	0x3c7c154b	0.015385936
89	0x3c930e85	0.01795126
90	0xbcdf953d	-0.027292842
91	0x3ca57c35	0.020200828
92	0x3c9e875f	0.01935166
93	0x3c8c8b8b	0.017156383
94	0x3c011dc0	0.007880628
95	0xbcfadd9e	-0.030623253
96	0xbd2ac85a	-0.041694976
97	0xbcbc9649	-0.02302088
98	0xbc741e36	-0.014899781
99	0xbcad3a83	-0.021146065
100	0x3cbb9082	0.022896055
101	0x3d513852	0.0510791
102	0xbc25c691	-0.010118143
103	0x3cdaacfb	0.026693812
104	0x3d1624d8	0.03665623
105	0xbb04e967	-0.002028072
106	0x3ca6f252	0.02037922
107	0x3c9754a1	0.018472971
108	0x3cb254cc	0.02176895
109	0x3d09a7f4	0.03360744
110	0xbccb8262	-0.024842445
111	0x3bbcc19a	0.005760384
112	0x3ce5c181	0.028046371
113	0xbd393ebc	-0.045225844
114	0x3d6811bc	0.056657538
115	0x3cddecfb	0.02709054
116	0x3d0ba0c2	0.034088857
117	0xbcee997b	-0.02912592
118	0x3c4251dd	0.011860338
119	0x3d68462c	0.056707546
120	0xbcf33b09	-0.029691236
121	0x3c576f20	0.013149053
122	0x3d016902	0.031594284
123	0x3c8d7b16	0.017270606
124	0x3d0c1cf3	0.034207296
125	0x3d116097	0.035492506
126	0xbc9ce168	-0.01915045
127	0xbafb397c	-0.0019166912
128	0xbbb137d5	-0.005408267
129	0xbbc9a1c8	-0.006153319
130	0xbb9501d6	-0.004547338
131	0xbd39f969	-0.04540387
132	0x3b99c6a2	0.0046928683
133	0x3c82e286	0.015977155
134	0x3c2ed67a	0.010671252
135	0xbcef003f	-0.029174922
136	0xbd1d6518	-0.03842649
137	0x3c17eb7d	0.009272453
138	0x3b5c45c1	0.0033610913
139	0xbd8ecae6	-0.069722936
140	0xbbb39f4b	-0.0054816357
141	0xbd995307	-0.07486539
142	0xbd204db6	-0.03913661
143	0x3ac7426c	0.001520229
144	0xbc7eb0ae	-0.015545053
145	0x3d4c05d7	0.049810257
146	0x3bedadbf	0.007253378
147	0xbc909b3d	-0.017652148
148	0x3d167eb8	0.036741942
149	0xbd0f6307	-0.03500655
150	0x3c82acb9	0.015951501
151	0x3d3ec9aa	0.04657904
152	0x3d2ff32c	0.042956516
153	0x3b9649c7	0.0045864317
154	0x3bbd4e02	0.0057771215
155	0x3ce319c1	0.027722241
156	0xbc76a279	-0.015053385
157	0x3cb7ccf0	0.022436589
158	0xbd23fc8a	-0.040035762
159	0xbc684741	-0.0141771445
160	0x3c27f7ff	0.010251998
161	0xbc8b654c	-0.017016076
162	0xbd8ab67f	-0.067730896
163	0x3c04127b	0.008061047
164	0xbb7e6202	-0.0038815741
165	0xbc9ec0b5	-0.019379
166	0xbb026a39	-0.001989974
167	0xbcbe51a2	-0.023232285
168	0x3c410cc9	0.011782833
169	0x3c5b1617	0.013371966
170	0xbc4910e0	-0.01227209
171	0xbbf3932f	-0.007433317
172	0x3c95fe9b	0.018309882
173	0x3a90cabe	0.001104675
174	0x3c9127c3	0.017719155
175	0x3d24f4c2	0.04027248
176	0x3d1d52b4	0.03840895
177	0x3d71602d	0.05892961
178	0x3d31139b	0.043231588
179	0x3dcc6e5b	0.09981986
180	0xbcb357ee	-0.021892514
181	0xbd4c3edd	-0.04986464
182	0xbbdae234	-0.0066797975
183	0xbd275a9f	-0.040857907
184	0xbcb64fae	-0.022254791
185	0xbd2ea6a1	-0.04263938
186	0xbcf4d42b	-0.029886326
187	0xbcb0fe6f	-0.021605698
188	0xbcedc33b	-0.029023757
189	0x3cb23249	0.021752493
190	0xbc5f3ee4	-0.013625834
191	0x3ca44db3	0.020056581
192	0x3bc30efa	0.005952713
193	0xbc0350d6	-0.008014878
194	0xbd1860e7	-0.03720179
195	0xbd3fd225	-0.04683127
196	0xbd407b7e	-0.04699277
197	0xbd0f72ff	-0.03502178
198	0x3d422dcc	0.047406957
199	0x3cdc6081	0.026901485
200	0x3c2b1f65	0.010444497
201	0x3c8d62e8	0.017259076
202	0xbc8ead79	-0.017416703
203	0x3c41f81a	0.011838937
204	0xbca12622	-0.019671503
205	0x3c8dd7c2	0.017314795
206	0x3c4dc2f5	0.012558688
207	0xbc66fff6	-0.014099112
208	0x3d6a7686	0.05724194
209	0x3d12c188	0.035829097
210	0x3ca61284	0.0202725
211	0x3cbd4947	0.02310623
212	0x3d0c4797	0.03424796
213	0xbcb79552	-0.022410069
214	0xbcce2ced	-0.025167907
215	0xbcc57aff	-0.0241065
216	0x3bbd5393	0.005777785
217	0x3d3d67a5	0.04624142
218	0x3c89f37c	0.016839735
219	0x3d2b3e5a	0.04180751
220	0x3cbd0b92	0.023076806
221	0x3d0b2cfe	0.033978455
222	0x3cd36d2d	0.025808895
223	0xbcaeaa0c	-0.021321319
224	0xbd301a5b	-0.042993885
225	0xbd3d42bd	-0.046206225
226	0xbbdcec8f	-0.006742067
227	0x3aba81cf	0.001422936
228	0xbd29f84e	-0.041496567
229	0x3b3863fa	0.0028135763
230	0x3c88ecf2	0.016714547
231	0xbc6408ac	-0.013918083
232	0x3c07978a	0.008275876
233	0xbc2cb06e	-0.010540111
234	0x3be153ca	0.0068764435
235	0x3d1578eb	0.03649227
236	0xbc867de4	-0.016417451
237	0xbc883663	-0.016627496
238	0x3cabd2a3	0.020974463
239	0xbcd3747a	-0.025812376
240	0x3cf2eab4	0.02965293
241	0xbd2b4d16	-0.04182156
242	0x3ca9d9a1	0.020733656
243	0xbd1b59e1	-0.037927512
244	0xbd1bcb6f	-0.038035806
245	0xbcc4403c	-0.02395641
246	0xbca3def3	-0.020003771
247	0x3cfa45bf	0.030550836
248	0x3d2699d6	0.040674053
249	0x3b440c1f	0.0029914451
250	0x3d3f7aa1	0.046747807
251	0x3d782ed2	0.060591526
252	0x3cfe44ac	0.031038605
253	0xbc6ce870	-0.014459714
254	0x3b7513e3	0.0037395887
255	0x3c8be49f	0.017076788

body.block0.conv.bias f4 [64]
0	0x3d25637d	0.040378083
1	0xbc7665ca	-0.015038917
2	0xbb1dd1f1	-0.0024081434
3	0x3ccdca01	0.025120737
4	0x3db88682	0.0901003
5	0xbb610088	-0.0034332592
6	0x3d4f4b62	0.050609
7	0xbc8af601	-0.016963007
8	0x3d07bfd8	0.03314194
9	0x3d588f7a	0.052871205
10	0xbd34b757	-0.04412016
11	0x3d56e305	0.052462596
12	0x3c3f0101	0.011657954
13	0x3d160d00	0.03663349
14	0xbcced78a	-0.025249261
15	0x3bc8f9da	0.0061333003
16	0xbd668492	-0.056278773
17	0x3d835101	0.06411935
18	0x3d2966a3	0.041357648
19	0xbc1da246	-0.0096212085
20	0x3b644810	0.0034832992
21	0x3d8758e2	0.0660875
22	0x3c0474a0	0.008084446
23	0x3d622dc6	0.055219434
24	0xbd51c55d	-0.05121361
25	0xbbcef95c	-0.006316347
26	0x3d2595e7	0.04042616
27	0x3cc8ab65	0.02449579
28	0xbc5b0d2a	-0.013369838
29	0x3cde52b3	0.027139043
30	0x3d7c1523	0.061543595
31	0xbd297b2b	-0.041377228
32	0xbccd14ec	-0.02503439
33	0x3d7fa646	0.06241443
34	0xbd15ba05	-0.036554355
35	0x3c12cf77	0.008960596
36	0x3d211653	0.03932793
37	0xbca6fac3	-0.020383244
38	0x3ba2d94d	0.004969752
39	0x3d5df7e6	0.054191492
40	0x3d79cf08	0.060988456
41	0x3cbad554	0.0228068
42	0x3ca46d49	0.020071642
43	0xbcafccfb	-0.021460047
44	0x3a1b8f19	0.0005934104
45	0x3cf2e259	0.029648947
46	0xbca5416a	-0.020172793
47	0xbc119e12	-0.008887785
48	0x3c09c595	0.008408924
49	0xbc8cb7fa	-0.01717757
50	0x3d49632e	0.04916685
51	0xbbc3b778	-0.005972799
52	0xbd20e04f	-0.039276417
53	0x3cd98028	0.026550367
54	0xbc226a91	-0.009913103
55	0x3d5feba5	0.054668088
56	0xbc600b82	-0.013674619
57	0x3cd11b1d	0.025525624
58	0x3d05e70b	0.032691043
59	0xbd0d3d44	-0.034482256
60	0x3c4407f1	0.011964784
61	0xbd24ecee	-0.040265016
62	0x3c76e3ff	0.015069007
63	0x3cafb5c1	0.021448972

body.block1.conv.weight f4 [64, 64, 3, 3]
0	0xbb912bb2	-0.0044302577
1	0x3ce31bb5	0.027723173
2	0xbca6c154	-0.020355858
3	0x3cd7c0d3	0.026337063
4	0x3d1781e4	0.036989108
5	0x3ce9568f	0.028483657
6	0x3cc34190	0.023834974
7	0x3c88ce3d	0.016699905
8	0x3c393e2b	0.011306326
9	0xbd2f95bb	-0.042867403
10	0xbd71c877	-0.05902907
11	0x3c8aaa75	0.016926983
12	0xbd0f24e0	-0.034947276
13	0x3d1224e0	0.035679698
14	0x3cfa635c	0.030564956
15	0x3a10664c	0.00055084075
16	0x3d05e0d7	0.032685127
17	0x3d60b84d	0.054863263
18	0xbc175979	-0.009237641
19	0x3d423ffa	0.047424294
20	0x3ca9d514	0.020731486
21	0x3cca3b1f	0.024686394
22	0x3d8e41ed	0.06946168
23	0x3d0da09c	0.034576997
24	0xbc99bd93	-0.018767154
25	0x3c950c5a	0.018194366
26	0xbd62d28a	-0.055376567
27	0x3d1eef55	0.038802464
28	0x3d5eb149	0.05436829
29	0x3c99b023	0.018760746
30	0x3d42b943	0.04753996
31	0xbc210a03	-0.009829047
32	0xbb4d29b2	-0.003130537
33	0xbc2fd09d	-0.01073089
34	0xbcdc048e	-0.02685764
35	0xbd42e8be	-0.04758524
36	0xb72456c6	-9.795365e-06
37	0xbcd0a19d	-0.025467688
38	0x3cac7d59	0.021055864
39	0xbb8dbeec	-0.004325738
40	0x3cf35e71	0.02970812
41	0x3d13275e	0.035926215
42	0x3d1ddf36	0.03854295
43	0x3d1a3c1a	0.037654974
44	0x3dd35d98	0.10320586
45	0xbb46d927	-0.0030341835
46	0xbc77bc91	-0.015120641
47	0x3d063398	0.032764047
48	0xbd343fc8	-0.04400614
49	0xbc7c33d6	-0.015393218
50	0x3cc3bd09	0.02389385
51	0xbd8f02da	-0.06982966
52	0xbac5294b	-0.0015042213
53	0x3ccc8a73	0.024968361
54	0x3d01f058	0.03172335
55	0x3c9eaecf	0.019370465
56	0x3d637833	0.055534553
57	0xbbd68f3b	-0.006547836
58	0x3c04ea50	0.008112505
59	0xbbfabcac	-0.007651886
60	0xbc73ee53	-0.014888364
61	0xbc6e82de	-0.014557568
62	0x3af03db7	0.0018328939
63	0x3d15018a	0.03637842
64	0x3cf8d6ee	0.030375924
65	0x3c68eed1	0.0142170945
66	0xbc098320	-0.008393079
67	0x3c9604cb	0.018312832
68	0x3d1ce29b	0.038302045
69	0x3c8a7acf	0.016904263
70	0x3beefd03	0.007293345
71	0x3d2cba7c	0.042170033
72	0xbc3c61bd	-0.011497912
73	0xbc1b9a66	-0.009497261
74	0xbc9ca2d7	-0.019120617
75	0x3c47eca0	0.012202412
76	0x3889f435	6.578156e-05
77	0x3d34828f	0.044069823
78	0x3b3675cc	0.0027841209
79	0xbc1d743a	-0.00961023
80	0x3d89d44b	0.06729945
81	0xbd2330da	-0.03984151
82	0x3b9bbf3e	0.0047530225
83	0x3c6611a3	0.014042291
84	0xbd30e2c4	-0.04318501
85	0xbceecdc3	-0.02915085
86	0x3bdbaca1	0.0067039286
87	0xbcfeef47	-0.031119956
88	0xbd1d0905	-0.03833868
89	0xbc5819fd	-0.01318979
90	0xbcba6d6c	-0.022757255
91	0xbca910d6	-0.02063791
92	0xbd7e5ba2	-0.062099107
93	0x3c19b406	0.0093813
94	0x3aa74b5e	0.001276355
95	0xbc853919	-0.016262578
96	0xbb1fb60b	-0.002436998
97	0x3b9a2974	0.0047046486
98	0xbac0fec8	-0.0014724368
99	0xbc8ddfde	-0.017318662
100	0x3babe5fd	0.0052459226
101	0x3ca86cd5	0.020559708
102	0x3d56e81c	0.05246745
103	0x3cc9d931	0.024639698
104	0x3ba7eb5c	0.0051244926
105	0xb98270a9	-0.0002487947
106	0xbd31a63d	-0.043371428
107	0x3b2c10ae	0.002625506
108	0x3c1e628e	0.009667052
109	0xbc80e9dd	-0.015736515
110	0x3c798f48	0.015231915
111	0x3c960457	0.018312616
112	0x3c6b2784	0.014352683
113	0x3ac37fee	0.0014915445
114	0xbba23434	-0.0049500708
115	0x3b813ff5	0.003944392
116	0x3b8b29fc	0.0042469483
117	0x3bea09bf	0.007142275
118	0xbc557d4f	-0.013030364
119	0x3c266ff8	0.010158531
120	0x3d5c0e1a	0.053724386
121	0xbc3c1042	-0.011478486
122	0xbbc8b8dd	-0.006125553
123	0x3ce52fff	0.027976988
124	0xbb98488a	-0.004647319
125	0x3c5a0b8d	0.013308418
126	0x3d1f18c8	0.038841993
127	0xbabfa5d2	-0.0014621562
128	0x3ba8271a	0.0051316144
129	0x3c3c6a79	0.011499994
130	0xbc34471f	-0.011003285
131	0x3a218d44	0.0006162713
132	0xbc226dbb	-0.009913857
133	0x3c3ce416	0.011528989
134	0x3c2a70da	0.0104028825
135	0x3d8a92df	0.06766295
136	0x3db971a7	0.090548806
137	0x3d85aa4a	0.06526621
138	0x3d5911af	0.05299538
139	0x3d228eff	0.039687153
140	0x3ce96c0a	0.0284939
141	0x3d955858	0.07292241
142	0x3d80e63c	0.06293914
143	0x3c90511e	0.017616805
144	0xbc0f8e5e	-0.00876197
145	0x3c237566	0.00997672
146	0xbcc05c81	-0.02348161
147	0x3b8f5440	0.004374057
148	0x3ce4a4af	0.027910559
149	0x3adeee52	0.0017008281
150	0x3cc543d5	0.024080196
151	0x3c06646f	0.008202656
152	0x3c971d4e	0.01844659
153	0xbce42ab7	-0.0278524
154	0xbd252b1d	-0.04032432
155	0xb9f9d546	-0.00047651882
156	0xbc68f0d4	-0.014217574
157	0xbc3fdd56	-0.011710485
158	0x3c7fdb3f	0.015616237
159	0x3a5b361e	0.0008362251
160	0x3cb8036e	0.022462573
161	0x3d293a6f	0.041315492
162	0xbc3b2ebd	-0.0114247175
163	0x3c38b6a4	0.011274014
164	0x3c8b7091	0.01702145
165	0xbb999c20	-0.004687801
166	0xbcdcc473	-0.026949143
167	0x3d66a0fe	0.056305878
168	0xbcda09fc	-0.026616089
169	0xbbb9f7d9	-0.0056752977
170	0x3cde7319	0.027154492
171	0x3c10d1c3	0.008839074
172	0x3d0f818d	0.03503566
173	0x3bc7da2f	0.0060990076
174	0x3b2773fe	0.0025551314
175	0x3c016245	0.007896964
176	0x3d4d8fa7	0.050185826
177	0x3c390a89	0.011294016
178	0x3c3e9426	0.011632001
179	0x3d171e8a	0.03689436
180	0x3dab0b5e	0.083517775
181	0x3da1b7a9	0.078963585
182	0x3d4e3ece	0.050352864
183	0x3dc9b06c	0.09848103
184	0x3d7a09e0	0.061044574
185	0x3d3d01a4	0.046144143
186	0x3d9e350b	0.07724961
187	0x3d998512	0.07496084
188	0x3d9cec4f	0.0766226
189	0xbc975526	-0.01847322
190	0xbb1094a7	-0.002206126
191	0xb95f3cf6	-0.00021289647
192	0x3c36b85c	0.011152353
193	0xbc6389a7	-0.013887799
194	0x3b9d9073	0.0048084795
195	0xbcf62b49	-0.030049937
196	0x3c97f2ad	0.018548334
197	0xbcbfa0f9	-0.023392187
198	0xbd0c76e7	-0.03429308
199	0x3ccd8542	0.025087956
200	0xbd67ebe7	-0.05662146
201	0xbc2c28e8	-0.0105078
202	0xbb15792f	-0.0022807827
203	0xbae5648f	-0.0017501282
204	0xbc0343cd	-0.00801177
205	0x3cca5891	0.024700435
206	0x3aea985c	0.001789819
207	0x3ca4baaa	0.02010854
208	0x3c66c572	0.014085161
209	0xbcc1d68c	-0.023661874
210	0x3c328534	0.010896016
211	0x3cf4082f	0.029789058
212	0x3c631786	0.013860589
213	0x3cb076b8	0.021540985
214	0x3cd52d8c	0.026022695
215	0x3c02073c	0.007936295
216	0xbd2654e2	-0.040608294
217	0xbd0c280f	-0.03421789
218	0xbca85ba1	-0.020551505
219	0xbcd14a75	-0.0255482
220	0x3bb5bd6a	0.0055462616
221	0x3c6e1b39	0.014532858
222	0x3ccbc50d	0.024874235
223	0x3d10a956	0.03531774
224	0xbbe38048	-0.0069427826
225	0xbc6c2858	-0.014413916
226	0xbca65284	-0.020303018
227	0xbcded89a	-0.027202893
228	0x3ca4f27c	0.020135157
229	0xbb3e8f71	-0.0029077197
230	0xbd129727	-0.03578868
231	0xbd304e58	-0.043043464
232	0xbd18ba79	-0.03728721
233	0xbd9b90ee	-0.075960025
234	0xbd40ef93	-0.047103476
235	0xbcc35f4d	-0.023849154
236	0x3ce52a8a	0.027974386
237	0xbd0d1016	-0.03443917
238	0xbc5cbad4	-0.013472278
239	0x3cfe809e	0.031067189
240	0xbd07d19c	-0.033158883
241	0xbd306de1	-0.04307354
242	0x3c1a0524	0.00940064
243	0xbda28bd1	-0.07936824
244	0xbd04189c	-0.03225003
245	0xbcb06114	-0.021530665
246	0xbcafe606	-0.021471988
247	0x3c973f5e	0.018462833
248	0xbc28d159	-0.010303819
249	0xbcb29576	-0.021799784
250	0xbd681ab2	-0.056666084
251	0x3c2d2619	0.010568165
252	0xbd19c5b8	-0.037542075
253	0xbd1ca7c2	-0.038245924
254	0xbcfd19a7	-0.030896021
255	0xbc9826c6	-0.018573176

body.block1.conv.bias f4 [64]
0	0x3e815fbf	0.2526836
1	0x3e5db016	0.21649203
2	0x3e3b2490	0.18275666
3	0x3e763e61	0.24047233
4	0x3e6acc07	0.22929393
5	0x3e48965e	0.1958861
6	0x3d63874e	0.05554896
7	0x3caf12ca	0.021371264
8	0x3e573473	0.21016102
9	0x3ce4ec9b	0.027944854
10	0x3e8e677f	0.27813336
11	0x3ea35177	0.3189809
12	0x3ab21a9e	0.0013588255
13	0xbdffe946	-0.12495665
14	0xbe40366b	-0.18770759
15	0x3e8bd9aa	0.27314502
16	0x3c316b93	0.01082887
17	0x3e745c98	0.23863447
18	0x3cb4c4c6	0.022066485
19	0x3cf790a3	0.030220335
20	0x3e4c8a3b	0.19974606
21	0x3e0b2246	0.13587293
22	0x3e8dcea2	0.2769671
23	0x3d64363a	0.055715777
24	0x3dc2b7af	0.09507691
25	0x3e99957b	0.29996857
26	0xbac1615d	-0.0014753748
27	0x3e3b5b89	0.18296637
28	0x3c695d1e	0.014243392
29	0x3cf7c26a	0.030244071
30	0x3e24d975	0.16098578
31	0x3e82a9b4	0.25520098
32	0x3c4df913	0.012571591
33	0x3e8613b1	0.26186898
34	0xbe3c2694	-0.18374091
35	0x3e12537b	0.14289658
36	0x3e5c746f	0.21528791
37	0x3e23e7ab	0.16006343
38	0xbe08cb74	-0.13358861
39	0xbca94773	-0.020663952
40	0x3cdeee11	0.027213128
41	0x3e77be70	0.2419374
42	0x3e95df1c	0.2927178
43	0x3dfcd482	0.1234522
44	0x3e5ed622	0.21761373
45	0xbe0519b6	-0.12998089
46	0xbd5daec6	-0.054121755
47	0x3e8a6b7c	0.2703513
48	0xbe0a91bd	-0.13532157
49	0x3bb4d459	0.005518478
50	0x3e936e2e	0.28794998
51	0x3e708580	0.23488426
52	0xbcc6b00d	-0.02425387
53	0x3e73d84e	0.23812982
54	0x3d1ec19a	0.03875885
55	0x3d0f75d7	0.03502449
56	0x3d2c9221	0.042131547
57	0x3e61ef1a	0.22063866
58	0x3d1c9aef	0.038233694
59	0x3d6aa671	0.057287637
60	0x3e5d4e0f	0.21611808
61	0x3d185062	0.037186034
62	0xb9d7c517	-0.0004115484
63	0xba787237	-0.00094774686

body.block2.conv.weight f4 [64, 64, 3, 3]
0	0xbb999bd0	-0.0046877638
1	0xbc0effaf	-0.008727952
2	0xbadec3e8	-0.001699564
3	0x3ba089b2	0.004899227
4	0x3d06262b	0.032751244
5	0x3c4abfa7	0.012374795
6	0xbb92b368	-0.0044769533
7	0xbcf1c4a0	-0.029512703
8	0xbc06293f	-0.008188545
9	0x3cf95b40	0.03043902
10	0x3c862dcb	0.016379258
11	0xbcb054e3	-0.021524852
12	0x3900c50b	0.00012280435
13	0x3d1de65c	0.038549766
14	0xbcbd6067	-0.023117257
15	0x3cbeaf73	0.02327702
16	0xbd107bea	-0.035274424
17	0xbd23e475	-0.040012795
18	0xbc3b0202	-0.011414053
19	0x3c088c5a	0.008334244
20	0xbc4cff5e	-0.012512056
21	0xba8310c9	-0.0009999509
22	0x3ce7c86b	0.028293809
23	0x3d3a4dd9	0.045484398
24	0x3c0e65a0	0.0086912215
25	0x3d4b3139	0.04960749
26	0x3d178d49	0.036999974
27	0x3cc5e853	0.024158632
28	0x3ca33746	0.019923817
29	0xbb8c04bf	-0.0042730267
30	0xbcd036e2	-0.025416795
31	0x3c8512c6	0.016244303
32	0x3d0e1f1d	0.03469764
33	0x3d0547d3	0.0325392
34	0x3d1e2b9d	0.03861581
35	0xbcdac600	-0.026705742
36	0xbc1cc5e7	-0.009568668
37	0x3abfcc4f	0.0014633032
38	0xbd1cbd22	-0.03826631
39	0xbb0b83f5	-0.002128837
40	0x3bf12f73	0.0073603927
41	0x3ccc2aad	0.024922693
42	0xbc8684d1	-0.016420754
43	0x3d14ca09	0.03632549
44	0x3cc88f30	0.02448234
45	0xbd6dd988	-0.058068782
46	0xbca3a9b7	-0.019978387
47	0xbd429914	-0.047509268
48	0xbca9338c	-0.020654462
49	0x3cae4b8c	0.021276258
50	0xbd36dad4	-0.044642285
51	0x3c53f4ea	0.01293681
52	0x3c0af3ee	0.008481009
53	0xbc0df5d4	-0.008664567
54	0xbb191e49	-0.0023363999
55	0xbb1a6c08	-0.0023562927
56	0xbd22ec49	-0.03977612
57	0x3c8f0c92	0.017462049
58	0xbc5de38a	-0.013543019
59	0xbc8b8a61	-0.017033758
60	0x3db75996	0.08952634
61	0x3d097f03	0.033568393
62	0x3d1e9d63	0.038724314
63	0x3ccfb011	0.02535251
64	0xbc060edc	-0.008182254
65	0x3d377bbb	0.044795733
66	0x3cb89b10	0.022534877
67	0xba0ac0bd	-0.00052930025
68	0xbcdbb41b	-0.02681928
69	0x3d31b182	0.043382175
70	0xbc6a4264	-0.014298055
71	0x3d407b1d	0.04699241
72	0x3c766b61	0.01504025
73	0xbc462128	-0.012092866
74	0xbcaff0b7	-0.021477086
75	0x3d721e8b	0.05911116
76	0x3bacdaad	0.0052750916
77	0xbd1bafeb	-0.038009565
78	0x3dbf8f3c	0.09353492
79	0xbcdd7736	-0.027034383
80	0xbccdcbcc	-0.025121592
81	0x3b878ac5	0.0041364157
82	0x3cd03866	0.025417518
83	0x3bf10280	0.0073550344
84	0x3d29ba6d	0.041437555
85	0xbcb2d2b6	-0.02182899
86	0xbd4d7208	-0.050157577
87	0x3d98e57f	0.07465648
88	0x3cda21e2	0.026627485
89	0x3d1883bb	0.037235003
90	0xbdb86ab2	-0.090047255
91	0xbd1b704f	-0.037948903
92	0xbc84b41e	-0.016199168
93	0x3bcc5910	0.006236203
94	0xbcc88dd9	-0.0244817
95	0xbc4d259a	-0.012521172
96	0x3a84fec2	0.0010146725
97	0x3ccdf299	0.025140094
98	0x3d81e95f	0.0634334
99	0x3d52c457	0.051456776
100	0x3b216121	0.0024624544
101	0xbd621212	-0.055193014
102	0xbc934e81	-0.01798177
103	0x3c9ff44e	0.019525673
104	0xbd1ef14d	-0.03880434
105	0xbca2df6b	-0.019881925
106	0xbd0ac036	-0.033874713
107	0xbd95de7e	-0.07317828
108	0x3c17b9a5	0.00926057
109	0x3c2aa7d0	0.010415986
110	0xbc9ba9c8	-0.019001856
111	0x3d320a88	0.043467075
112	0x3cb830af	0.022484152
113	0x3c836227	0.016038014
114	0x3d400d88	0.046887904
115	0x3d499dce	0.04922276
116	0x3c2cebd9	0.010554277
117	0xbcfc212a	-0.030777533
118	0x3ba77e56	0.005111496
119	0x3c0d65ec	0.008630257
120	0xbcb7d885	-0.022442112
121	0x3b7c8e1d	0.0038536855
122	0xba8c8822	-0.0010721723
123	0x3bcded49	0.00628439
124	0x3d67334a	0.056445397
125	0x3d3f0100	0.046631813
126	0x3d32a9fc	0.04361914
127	0x3ce993f2	0.028512929
128	0xbd14be6d	-0.036314417
129	0xbd33ba74	-0.043878987
130	0xbb39a8f4	-0.0028329464
131	0x3bbc309b	0.005743099
132	0xbd0e8378	-0.034793347
133	0xbd9668c0	-0.07344198
134	0xbd4f093f	-0.050545927
135	0xbce630e4	-0.028099485
136	0xbad5be1e	-0.001630727
137	0x3cf8e4e6	0.030382585
138	0xbca2b5ec	-0.019862138
139	0x3d5c35c2	0.053762205
140	0x3d101458	0.03517565
141	0xbcf5da66	-0.030011367
142	0xbc11cd87	-0.008899099
143	0x3d2679da	0.04064355
144	0xbabc54bc	-0.0014368515
145	0x3ca678a0	0.02032119
146	0xbcb85300	-0.022500515
147	0xbb77ad85	-0.0037792635
148	0x3cd2154c	0.02564492
149	0xbc84e867	-0.0162241
150	0x3d0f3736	0.034964763
151	0x3c530ee8	0.012881972
152	0xbc720ab2	-0.014773058
153	0x3bc4c27a	0.0060046287
154	0xbc102768	-0.008798458
155	0xbd09dfd5	-0.03366073
156	0x3d245960	0.040124297
157	0x3d345905	0.04403021
158	0xbc982dbd	-0.018576497
159	0x3d6a6b68	0.057231337
160	0x3b945a3b	0.004527358
161	0xbc1dd5f0	-0.009633526
162	0x3cccb4cd	0.024988556
163	0x3ce71efd	0.028213019
164	0x3d0bd2b8	0.034136504
165	0x3ca63fa5	0.02029402
166	0x3cb448fe	0.022007462
167	0x3c8dabc4	0.017293818
168	0x3caca4ec	0.021074735
169	0xbcc985f7	-0.024600012
170	0x3d926841	0.07148791
171	0x3c839a72	0.016064856
172	0xbc475450	-0.012166098
173	0x3d1d72db	0.038439613
174	0x3d10a665	0.035314936
175	0xbc9704b5	-0.018434862
176	0xbd0c8ef3	-0.034316014
177	0x3d393b79	0.045222733
178	0x3cd9d0bc	0.02658879
179	0x3bb21958	0.00543515
180	0xbd66c545	-0.056340475
181	0x3cb4f5ea	0.022089917
182	0xbcf97bbd	-0.03045451
183	0x3cc7a81d	0.024372155
184	0x3ca494dc	0.020090513
185	0x36621c0b	3.3692947e-06
186	0xbbfc508c	-0.0077000316
187	0xbc8ceb58	-0.017202064
188	0x3bef84dc	0.0073095392
189	0xbc91dcff	-0.017805574
190	0x3cf2f704	0.029658802
191	0x3c780fec	0.015140515
192	0xbc413029	-0.011791267
193	0x3d0dc234	0.034609035
194	0xbca4ef90	-0.020133764
195	0x3bc8234e	0.0061077243
196	0x3d3e9b7f	0.04653501
197	0x3bcf42c1	0.0063250964
198	0x3d24b75c	0.040213928
199	0x3c81cbc8	0.01584424
200	0xbd1088dc	-0.03528677
201	0x3d82569b	0.06364175
202	0x3ac7c46a	0.0015241031
203	0xbd45d161	-0.048295382
204	0xbc9c078d	-0.01904657
205	0xbc83a590	-0.016070157
206	0xbd4748e1	-0.048653487
207	0xbc5dfc50	-0.0135489255
208	0xbce35036	-0.027748208
209	0xbce5693b	-0.02800428
210	0x3d14d53d	0.036336172
211	0xbcd9bcb7	-0.026579244
212	0xbd08e233	-0.033418845
213	0x3d44a3fd	0.048007954
214	0x3cdaa819	0.026691483
215	0xbc6810a1	-0.014164121
216	0x3c3bd244	0.011463705
217	0x3d22fbec	0.039791033
218	0xbc916535	-0.017748455
219	0x3d30d33f	0.04317021
220	0x3c5aadb4	0.013347078
221	0x3c8c5814	0.017131843
222	0x3c7e9269	0.015537837
223	0x3d3459bd	0.044030894
224	0x3cb2e582	0.021837953
225	0x3d15cc31	0.036571685
226	0x3c1981e2	0.009369345
227	0x3c2f4ec4	0.0106999315
228	0xbbb9b75c	-0.00566761
229	0x3ce55f25	0.02799947
230	0x3ba6fb83	0.0050959005
231	0xbbe75af0	-0.007060401
232	0x3b030a48	0.0019995142
233	0x3c140008	0.009033211
234	0xbd43555b	-0.047688823
235	0x3ad6719b	0.0016360761
236	0x3d031188	0.03199914
237	0x3b188f32	0.002327871
238	0xbc9035dd	-0.017603809
239	0x3c3b2d09	0.011424311
240	0x3becb995	0.0072242715
241	0x3b8ae98f	0.004239268
242	0x3cbe50ee	0.02323195
243	0x3d33c214	0.04388626
244	0xbbfb34e0	-0.0076662153
245	0xbac7a243	-0.0015230853
246	0x3d789a5f	0.060694095
247	0x3d066bc0	0.032817602
248	0xbcfa0851	-0.030521544
249	0x3cd0e857	0.025501413
250	0xbba111d2	-0.0049154544
251	0xbc4235b0	-0.01185362
252	0x3bccea94	0.00625355
253	0xbcc70f14	-0.024299182
254	0xbcf191b4	-0.029488422
255	0xbbc5b843	-0.0060339286

body.block2.conv.bias f4 [64]
0	0x3d8481cc	0.06470069
1	0xbad205ec	-0.0016023493
2	0x3f20c472	0.6279975
3	0x3ec2dfa4	0.3806125
4	0x3eff5aa7	0.4987385
5	0x3ccbcea3	0.024878806
6	0x3f271fc3	0.6528284
7	0x3eff72a0	0.4989214
8	0x3edbf0ae	0.42957062
9	0x3d7d7f92	0.06188924
10	0x3e6ea625	0.23305567
11	0x3e199ea8	0.15001929
12	0x3f35a9cc	0.70962214
13	0x3f21e12a	0.632342
14	0x3dbd780f	0.09251415
15	0xbd177aeb	-0.036982458
16	0x3eb27be4	0.34860146
17	0x3f2501a1	0.6445561
18	0xbc4af9c7	-0.012388653
19	0x3f2b5609	0.66928154
20	0x3f32cc78	0.69843245
21	0x3de5bc9b	0.11217614
22	0x3f57095d	0.8399866
23	0x3f3d7b58	0.7401633
24	0x3eb2ca28	0.34919858
25	0x3f251480	0.64484406
26	0xbc58dfc4	-0.013236944
27	0x3da319fc	0.079639405
28	0x3f24ca30	0.64371014
29	0xbcd5255e	-0.026018795
30	0xbd914a5e	-0.070942625
31	0x3f5b4a42	0.85660183
32	0x3f49ac91	0.7877894
33	0x3f32c6cd	0.69834596
34	0x3f3fb875	0.74890834
35	0x3f0e01d6	0.5547155
36	0x3f385758	0.72008276
37	0x3f0b2019	0.5434585
38	0xbbad512c	-0.0052892175
39	0xbd529185	-0.05140831
40	0x3e543f48	0.20727265
41	0x3e1da9cf	0.15396808
42	0x3f3d68aa	0.7398783
43	0x3c1d7e0b	0.0096125705
44	0x3f33d1b8	0.7024188
45	0x3f43c107	0.7646641
46	0x3f222960	0.63344383
47	0x3d9a6f4b	0.07540759
48	0x3dbac178	0.091189325
49	0xbd4079a4	-0.046991006
50	0x3f255244	0.6457865
51	0x3f1f1044	0.62134194
52	0x3e33eb78	0.17570293
53	0x3f1a65fb	0.6031186
54	0xbd11f7a0	-0.035636544
55	0x3f2def4a	0.6794325
56	0xbcd51866	-0.02601261
57	0x3f12c4dc	0.57331634
58	0xbd16a274	-0.03677602
59	0x3f2a7c61	0.6659604
60	0x3e44d812	0.1922305
61	0x3f2d3817	0.6766371
62	0x3f33bd8f	0.7021112
63	0x3f0ae0ed	0.5424946

tail.weight f4 [1, 64, 3, 3]
0	0x3ba3b235	0.004995609
1	0x3d12baa1	0.035822514
2	0xbae94166	-0.001779598
3	0x3c93cc24	0.018041678
4	0x3d19ce4a	0.03755025
5	0x3c2459fe	0.010031221
6	0xbd94917f	-0.07254314
7	0xbc3b4557	-0.011430106
8	0xbc912a61	-0.017720403
9	0xbd6f5b17	-0.05843648
10	0x3d117528	0.03551212
11	0xbcc88dd6	-0.024481695
12	0x3c418fce	0.011814071
13	0x3ceff8d5	0.029293457
14	0xbae7bc2b	-0.001767998
15	0xbd85c256	-0.06531207
16	0x3bd16588	0.0063902773
17	0x3d6f3bee	0.058406763
18	0x3d55e208	0.052217513
19	0x3d1b9687	0.03798535
20	0x3dadb839	0.08482403
21	0xbca28733	-0.019839859
22	0xbc881b17	-0.01661448
23	0x3c8252bc	0.015908591
24	0xbcb428b1	-0.02199206
25	0xbcf7b433	-0.030237293
26	0x3c1ca2c0	0.009560287
27	0x3d827058	0.06369084
28	0x3d9739af	0.07384049
29	0x3d604309	0.05475143
30	0xbd0392ad	-0.032122303
31	0x3814441b	3.5349378e-05
32	0x3cf9156e	0.030405726
33	0xbd9a89ea	-0.07545836
34	0xbd547918	-0.051873296
35	0xbd71b004	-0.059005752
36	0xbbe4c97f	-0.006982028
37	0xbcc9f683	-0.024653679
38	0x3db8c35a	0.09021635
39	0xbd46ff92	-0.048583575
40	0xbcd8ed9f	-0.026480494
41	0x3d45627e	0.048189633
42	0xbd483c27	-0.04888549
43	0xbdbeefca	-0.0932308
44	0xbc0850a7	-0.00832001
45	0x3d0ad5ab	0.033895176
46	0x3b4b629b	0.0031034115
47	0xbd4f5e70	-0.050627172
48	0x3cc69dbc	0.024245135
49	0xbc568463	-0.013093087
50	0xbd15cf61	-0.036574725
51	0xbda1d973	-0.07902803
52	0xbd1533cc	-0.03642635
53	0xbdda731d	-0.10666487
54	0x3d3cf31e	0.046130292
55	0x3cf7c611	0.030245813
56	0x3d11049c	0.035404786
57	0x3c11bba6	0.0088948365
58	0xbb04e467	-0.002027774
59	0xbd00ea93	-0.031473707
60	0xbca82bcb	-0.020528695
61	0xbd16e977	-0.036843743
62	0xbc3bacdf	-0.01145479
63	0xbc79e87a	-0.015253181
64	0x3c71e806	0.014764791
65	0x3d5c7b61	0.0538286
66	0xbd5c5d18	-0.05379972
67	0xbbc438f8	-0.0059882365
68	0x3d4ae698	0.049536318
69	0xbd1b8221	-0.037965897
70	0xbd958584	-0.07300857
71	0x3c49524f	0.01228769
72	0x3a38cbf5	0.0007049435
73	0x3bbb4621	0.005715147
74	0x3ccc76c5	0.024958977
75	0xbd3ea5ed	-0.046544958
76	0xbd719e74	-0.058989003
77	0xbd2ec9d0	-0.042672932
78	0xbcb5b9f5	-0.022183398
79	0xbd483799	-0.048881147
80	0xbcdbb37f	-0.026818989
81	0x3cb6aff1	0.022300692
82	0x3d03d83f	0.03218865
83	0x3d1b3069	0.037887964
84	0x3afc535b	0.0019250916
85	0x3ccbbae9	0.0248694
86	0x3c6ca14a	0.014442751
87	0xbdd5dcba	-0.10442491
88	0xbccfffbd	-0.0253905
89	0xbc0e0eec	-0.00867055
90	0xbd545feb	-0.051849287
91	0x3d062d20	0.03275788
92	0xbb279558	-0.0025571194
93	0xbc2b7b20	-0.010466367
94	0x3ce40309	0.027833479
95	0x3d3301f7	0.043703046
96	0xbd1696d3	-0.03676493
97	0xbcc1e5fc	-0.023669235
98	0x3b4ca715	0.0031227518
99	0xbb611a71	-0.0034348036
100	0x3d19bc04	0.03753282
101	0xbbe83dd4	-0.0070874486
102	0xbcdde688	-0.027087465
103	0x3d381b2e	0.044947796
104	0x3d4320ef	0.04763883
105	0xbd6958e2	-0.05696953
106	0xbd179ba3	-0.03701366
107	0xbb370e41	-0.002793208
108	0x3d0494a1	0.032368306
109	0x3a322705	0.00067959755
110	0x3d753e2c	0.059873745
111	0xbd5dd205	-0.05415537
112	0xbd0bb5da	-0.034108974
113	0xbb5f67ee	-0.0034089047
114	0x3c8e3f62	0.017364208
115	0x3b05c9f1	0.0020414556
116	0x3ba317fb	0.004977224
117	0xbc509f92	-0.012733357
118	0xbd70f90e	-0.058831267
119	0x3d7e0258	0.062013954
120	0xbb95c22e	-0.004570267
121	0xbd00c065	-0.03143348
122	0x3d19ac9d	0.037518132
123	0x3bb28f2a	0.0054491954
124	0x3c441830	0.011968657
125	0x3d9874b8	0.07444137
126	0xbcf3f0aa	-0.029777844
127	0x3c9cff2c	0.019164644
128	0xbd135adb	-0.03597532
129	0x3bd9c5e1	0.0066459035
130	0x3d586b6e	0.052836828
131	0xbc981036	-0.018562417
132	0xbd7ed7e8	-0.062217623
133	0x3cb625b7	0.02223478
134	0xbd3b6b68	-0.045756727
135	0xbca0dcf9	-0.019636618
136	0x3ccd021e	0.025025424
137	0xbce70c71	-0.028204175
138	0xbc97509f	-0.01847106
139	0x3d769431	0.06019992
140	0x3a39d45a	0.0007088833
141	0xbd10e977	-0.0353789
142	0x3c3ae49f	0.011407047
143	0xbc1a72b7	-0.009426764
144	0x3d834928	0.06410438
145	0x3cc4ecc7	0.024038685
146	0x3c897a31	0.016781898
147	0xbcae1f09	-0.021255033
148	0xbd1e686b	-0.0386738
149	0xbc662fac	-0.014049452
150	0xbcdb5808	-0.026775375
151	0xbd61ba90	-0.05510956
152	0xbc3ba52f	-0.011452957
153	0x3c2f0707	0.010682828
154	0xbc99edf8	-0.01879023
155	0xbc1f901f	-0.009738951
156	0x3c0604c2	0.008179845
157	0xbd720fad	-0.05909698
158	0x3cb4b613	0.022059476
159	0x3d925220	0.0714457
160	0x3c9a5163	0.018837636
161	0x3dbf4758	0.093397796
162	0x3ce67c31	0.028135391
163	0x3c41bc91	0.011824743
164	0xbd529d3b	-0.051419478
165	0x3cb9ebd6	0.022695463
166	0x3d0d2dba	0.034467436
167	0x3b490457	0.0030672753
168	0xbd6210b7	-0.05519172
169	0xbd2d576b	-0.042319696
170	0xbd247c5b	-0.040157657
171	0x3b587b80	0.0033032596
172	0x3c4b69d6	0.01241537
173	0x3d46300f	0.048385676
174	0xbcc3e5bf	-0.023913262
175	0xbc81b1c5	-0.015831837
176	0x3d618258	0.055055946
177	0x3c8a5fab	0.016891321
178	0x3c951a17	0.018200917
179	0x3d94bff5	0.072631754
180	0x3db59dd2	0.088679925
181	0x3c5ea39c	0.013588812
182	0x3c85fcca	0.01635589
183	0xbb9c2c05	-0.0047659897
184	0xbd8df26a	-0.069310024
185	0xbd911f59	-0.07086057
186	0x3d53c9ab	0.051705997
187	0x3b20c9f4	0.0024534436
188	0x3c0287bd	0.007966933
189	0x3cf50de9	0.02991386
190	0x3d227be1	0.03966892
191	0x3c1dda00	0.009634495
192	0x3bba7252	0.0056898976
193	0x3c7d2953	0.015451747
194	0x3d0242df	0.031802054
195	0xbdd32d1c	-0.10311338
196	0x3c3039f9	0.010756009
197	0xbdbbb2d4	-0.09164968
198	0xbd173dbb	-0.036924105
199	0x3af86607	0.0018951305
200	0x3d359f2a	0.044341244
201	0xbdced92d	-0.10100017
202	0xbd8b5c47	-0.0680471
203	0x3dd3a032	0.10333289
204	0xbc16fa3f	-0.009214937
205	0x3d0192ff	0.031634327
206	0x3e274abb	0.16337101
207	0x3cb809b8	0.022465572
208	0x3af97370	0.0019031595
209	0x3d8bb15f	0.0682094
210	0xbd4d54fe	-0.050129883
211	0xbd20120d	-0.039079715
212	0x3bb24f11	0.0054415544
213	0x3aa8719d	0.0012851242
214	0xbd0aa6fe	-0.033850662
215	0x3d8506a9	0.06495411
216	0x3d23c9a8	0.039987236
217	0x3c6e13ac	0.014531057
218	0x3c5f4aee	0.0136287045
219	0xbd3b1e68	-0.045683295
220	0xbd6e7034	-0.058212474
221	0xbd7d6b8b	-0.06187014
222	0x3d62a0ac	0.05532901
223	0xbd4946e1	-0.04913986
224	0xbbc78086	-0.0060883192
225	0x3d85b24c	0.06528148
226	0x3d647f02	0.055785187
227	0x3cd314f7	0.025766833
228	0x3ca98b5b	0.020696333
229	0xbc059c9b	-0.008155013
230	0xbcb104e2	-0.021608774
231	0x3b61861f	0.0034412218
232	0xbc0720c2	-0.008247556
233	0xbd17c482	-0.03705264
234	0xbb866823	-0.0041017695
235	0x3d2a2e7e	0.041548245
236	0x3d875105	0.0660725
237	0xbd0f8461	-0.035038356
238	0x3c2f1b03	0.010687592
239	0x3d3efe65	0.04662933
240	0xbdef200e	-0.11676036
241	0xbd6a5d00	-0.057217598
242	0xbd5e03e1	-0.054202918
243	0xbc4f0c56	-0.012637218
244	0xbc69e6b8	-0.014276199
245	0xbc52f501	-0.012875796
246	0x3c26fc40	0.010191977
247	0x3da6030e	0.081060514
248	0x3bcd8999	0.0062725064
249	0xbd439d45	-0.047757406
250	0x3c27faa0	0.010252625
251	0xbca2f5d1	-0.019892605
252	0x3d9083e7	0.070564084
253	0x3d91ec9d	0.071252085
254	0x3d3a0666	0.04541626
255	0x3c0a7efb	0.008453126
