TrainedModels/volcano/2020_08_17_13_30_08_video_train_depth_3_lr_scale_1.0_act_lrelu_0.05/0/netD_a.pth (torch_old, 454648 bytes, 9 tensors)

head.conv.weight f4 [64, 3, 3, 3]
000000 75 bf 11 3d 8b 20 0b bd 4d fc 22 3b a9 53 af bc
       0.03558298 -0.033966582 0.0024869621 -0.021402197
000010 12 01 95 bb 97 5b 06 3d 0b f3 52 bd fe 28 67 3c
       -0.0045472467 0.03280219 -0.051501315 0.014108894
000020 01 15 10 3d 94 20 ed bc 6b 90 3a bc 81 86 b1 bc
       0.03517628 -0.028946199 -0.011386971 -0.021670582
000030 78 a6 a0 3b 1a 55 06 3b 0f be 14 3d 01 7b 36 bc
       0.004902657 0.0020497502 0.036314066 -0.011137725
000040 c7 a3 e1 3c 72 06 25 3d df ec f9 bc 61 c4 0d ba
       0.027543915 0.04028935 -0.030508457 -0.0005407986
000050 58 eb 74 bc 78 95 71 bc 77 64 22 bd dc c8 25 bc
       -0.014948688 -0.014745109 -0.039646592 -0.010118689
000060 b2 e8 61 bd 27 f4 e9 3c 5f a6 42 3d e3 86 0c 3d
       -0.055153556 0.028558804 0.047521945 0.034308325
000070 51 54 96 bc 3e fc 4f 3c cf fe 65 bc 54 21 ac bc
       -0.018350752 0.012694417 -0.014037802 -0.021011986
000080 7b 08 06 3c e9 0d 94 39 8b a5 6b ba 1d ca d7 3c
       0.008180733 0.00028239124 -0.00089892064 0.026341492
000090 8d 62 52 3d 33 74 f9 bb 1d 5a 03 3d e2 2e 7f bc
       0.051363517 -0.007612729 0.03206836 -0.015575143
0000a0 aa 88 05 bc 31 b5 fd 3c 6b ee 7b 3b c7 16 a5 bc
       -0.008150259 0.030970188 0.0038441669 -0.020152463
0000b0 91 7b 8f bb 91 19 c0 3c 10 1b 57 bd 7f 72 0e 3d
       -0.004378744 0.023449691 -0.052516043 0.03477716
0000c0 72 d3 2e 3c 4a 3c 81 bd 04 1d d1 3c 30 be db 3c
       0.01067053 -0.06310327 0.025526531 0.026824087
0000d0 5e b1 99 bc b6 70 7f 3c 4d 6b 77 3d 1e 02 36 bc
       -0.018761333 0.015590837 0.060405064 -0.011108903
0000e0 a1 d5 2a 3d d8 d8 a2 bb 7c f3 a6 3c d1 db 9d 3b
       0.04170764 -0.0049696974 0.020379774 0.004817464
0000f0 eb 6f 33 bd f3 fc 66 bd 97 08 5c bd 08 ed a2 3c
       -0.043807905 -0.056393575 -0.05371913 0.019888416
000100 40 17 20 3c 8d a0 9c 3c 2d 53 08 bc 12 cd 25 3d
       0.009771168 0.019119525 -0.008320612 0.040478773
000110 43 1b ba ba 84 2d 2d bd c2 90 4b bd aa 8c 18 bd
       -0.0014198798 -0.042279735 -0.0496986 -0.037243523
000120 eb bd 07 3d c8 a2 33 3d c0 91 be 3c 31 68 ef 3c
       0.033140104 0.043856412 0.023262858 0.029224487
000130 7a b6 71 bc 38 8e ab 3b 44 a1 86 bc 1d ad 23 bd
       -0.014752978 0.0052354597 -0.01643432 -0.039960016
000140 76 0b 44 bd 0d f2 06 3e 1c ee 96 3c 65 51 10 3c
       -0.047862493 0.13178273 0.018424086 0.0088084685
000150 f4 7a 84 3d 22 90 10 3b c2 b4 54 3b bd 41 ca 3c
       0.06468764 0.0022058566 0.0032456373 0.02468955
000160 63 2d 01 bc 58 dc 85 3c cf 3f d6 3d eb a1 b5 3b
       -0.007884356 0.01634042 0.10461389 0.0055429838
000170 bd 2f 1e bb 7d 6f 20 3d c9 c7 bd bb 4a a1 6b 3c
       -0.002413734 0.039168824 -0.0057916385 0.014381716
000180 22 ce a2 3c ba 90 cf bc b0 09 4a bc 3b 89 d3 3d
       0.019873682 -0.025337566 -0.012331411 0.10328909
000190 ab 5e e5 3c d1 55 21 3a bd c6 9c 3d 80 90 b7 3c
       0.027999243 0.000615445 0.07655094 0.02240777
0001a0 5a 55 5c bc 3b 17 fc 3c 06 16 95 ba a3 7f 5e 3a
       -0.013448084 0.030772796 -0.0011374361 0.0008487647
0001b0 98 30 bf 3d 92 b9 83 3d 76 36 cf 3c 1d 2e 24 3d
       0.093354404 0.06431879 0.025294524 0.04008304
0001c0 d3 4d b2 bc 5b 4b 6e bd 86 91 01 bd ef c3 8f bd
       -0.021765625 -0.058177333 -0.031632923 -0.07019793
0001d0 44 ca b0 bd 73 9e e3 3d b7 59 98 3d 83 40 b6 3c
       -0.08632329 0.11114206 0.07438987 0.022247558
0001e0 c8 82 7e 3c 78 82 a8 bc 11 fa 0c bd 16 2c 95 bc
       0.01553411 -0.020570025 -0.03441817 -0.018209498
0001f0 67 72 a0 bd 64 28 9d bd 31 68 df 3d a9 57 a4 3d
       -0.078343205 -0.076737195 0.10908545 0.08024532
000200 03 6a 8e 3c 0c 1e c9 3c ad 61 66 bc f1 0e 2a bc
       0.017384535 0.02455046 -0.014061374 -0.010379539
000210 e4 8e a6 bc c0 55 b0 bd 65 57 ba bd 88 17 9d bd
       -0.020331807 -0.086101055 -0.090987004 -0.07670504
000220 0c 01 b3 3a 7e 2e b6 3c 4f 22 b9 bc 15 ec fb 3c
       0.0013656928 0.022238966 -0.022599367 0.030752221
000230 b8 a3 55 3c ca 28 16 3d a3 d1 a3 3c 22 cc ed 3b
       0.013039522 0.036659993 0.019997424 0.0072570005
000240 2a 33 16 bd cc 7c b7 bb f4 44 8c 3b 42 0d 0b bd
       -0.036669888 -0.0055995937 0.004280681 -0.03394819
000250 45 d0 21 3c c0 00 a8 3b f5 1f e2 3c f4 aa 56 3c
       0.0098763155 0.0051270425 0.027603129 0.013102282
000260 b6 55 e9 bb 2d c2 b4 bd d3 26 99 bc 29 ab a0 3c
       -0.0071208132 -0.088260986 -0.01869527 0.019612866
000270 92 e2 01 bd 3b 42 8a 3c 9c fe df bc 31 83 03 ba
       -0.031710215 0.016877284 -0.027343087 -0.00050168025
000280 28 cf d6 3c d7 71 a1 3a 6e 16 90 bd 20 40 e4 3b
       0.026221827 0.0012317252 -0.07035528 0.006965652
000290 89 7b d5 3b da d2 68 bc 03 0e 09 bd b8 96 17 3c
       0.0065149707 -0.014210427 -0.03346063 0.009252243
0002a0 99 a0 15 bd a6 dc aa 3c 01 f5 02 3d e0 30 82 bd
       -0.03653011 0.020857166 0.031971935 -0.063569784
0002b0 98 3a 09 3c 64 32 6a 3c e2 04 3a bd 75 bc 60 bc
       0.008375786 0.014294241 -0.045414813 -0.013716807
0002c0 08 da 85 3d 89 cb 00 3b a9 ad d2 ba a8 f0 25 3d
       0.06535727 0.0019652566 -0.0016073483 0.04051271
0002d0 03 97 59 bd e3 34 a9 3c 6d 55 60 bd fd 27 c3 bc
       -0.05312253 0.020655101 -0.05476897 -0.023822779
0002e0 3b 31 32 3c dc c1 da 3c 07 a4 73 bd 9c 15 15 3d
       0.010875995 0.026703767 -0.0594826 0.03639756
0002f0 99 30 a5 3d 9e ec 7e bc 1f 99 8b 3c 70 a4 26 3d
       0.0806591 -0.015559344 0.017040787 0.040684164
000300 90 44 7a ba 74 d2 7a bc d2 11 04 3d a6 02 14 3c
       -0.000954696 -0.015308965 0.032243557 0.009033835
000310 57 b8 cf 3c a6 8d 0e 3e 77 0a 23 3c bc a6 8f 3b
       0.025356455 0.13921222 0.0099512255 0.00438389
000320 4b 6b cd 3c 36 01 27 3b a3 09 b7 bc 41 49 26 3d
       0.025075575 0.00254829 -0.022343462 0.040597204
000330 07 7f 0a bc e6 84 d9 3c 07 c6 ee 3d a9 39 01 3c
       -0.008453137 0.026552629 0.116588645 0.007887282
000340 45 99 dd bb 31 b0 c3 3c 64 7b eb bb 5a 70 21 bc
       -0.006762656 0.023887726 -0.00718634 -0.009853447
000350 53 d0 e7 3c c8 8c dd 3b ad e6 64 3c 3c 86 f1 3d
       0.028297579 0.006761167 0.013971013 0.11793181
000360 47 9a 2f 3d 60 26 2b bb 5c 7b c0 3c 63 22 f5 3b
       0.04287174 -0.0026115403 0.023496322 0.007480906
000370 11 d1 c6 bc ce 7c e1 3b a9 e5 5e 3b 47 9d 1f bd
       -0.024269613 0.006881333 0.00340114 -0.03896835
000380 d4 45 fd bc bc d9 9f 3c e8 c5 8d 3c 02 23 17 3d
       -0.030917086 0.019513004 0.017306283 0.03689862
000390 8e 65 64 3c 52 98 2a bd 6e 14 85 bc 5b b5 80 bc
       0.013940228 -0.04164917 -0.016245093 -0.015711477
0003a0 bc ad 9d bb f8 d9 ca bc 2f 33 86 ba b2 61 8a 3c
       -0.0048119705 -0.024762139 -0.0010238643 0.016892288
0003b0 70 22 b9 3c a3 85 21 bc cd c1 54 bc 80 f2 17 3d
       0.022599429 -0.009858522 -0.012985659 0.0370965
0003c0 00 cd 3e bc 68 0d 87 bc 8a 04 9f 3b 5f a9 be bd
       -0.0116455555 -0.016485885 0.004852836 -0.09309649
0003d0 dc f0 cb bb 7a 54 63 3d 45 fc 82 bd 3a af 80 3c
       -0.006223781 0.055500485 -0.06395773 0.015708555
0003e0 43 bf a7 3d 47 96 81 bd 04 25 08 bd ae ed be 3d
       0.08190777 -0.06327491 -0.033238426 0.093226776
0003f0 03 d6 a1 bd 70 04 55 3c eb 79 22 3d 3d ea 33 bd
       -0.079021476 0.013001546 0.03966705 -0.04392456

head.conv.bias f4 [64]
000000 53 90 9b 3d d7 9b 34 3c ab 96 73 3e 41 38 14 3c
       0.07595887 0.011023483 0.23787944 0.009046615
000010 a5 af 92 3b 8d 20 1d 3e a8 ec 84 3e ea 1c 68 3b
       0.004476505 0.15344448 0.25961804 0.0035417625
000020 cd a1 b8 3d 37 35 1e b8 2f bd 28 bb 8b 78 0b 3e
       0.09015236 -3.7719696e-05 -0.0025747528 0.13620202
000030 c2 82 f2 3d 55 6e 8f 3d 46 35 db 3d d5 b3 18 3e
       0.11841346 0.07003466 0.107035205 0.1491235
000040 71 3b 7a 3d 67 4e 5b 3d 7d 81 6b 3e 3f 21 99 3a
       0.061091844 0.053541567 0.22998615 0.0011682882
000050 6f 05 00 3e 02 ff e7 3d 95 05 df 3b c7 dc fc 3d
       0.12502073 0.11327936 0.0068060854 0.123467974
000060 d2 2f bc 3b b8 57 04 3c ff f8 45 39 b8 f8 ea 3d
       0.0057430053 0.008077554 0.00018880142 0.114732206
000070 38 a7 40 bb cd 41 ac 3d 7a e0 1b 3e ef 54 3b 3e
       -0.0029396545 0.08410988 0.1522235 0.18294118
000080 cc 69 17 3c 04 8b fb 3c 13 88 a3 3d 24 b7 44 3e
       0.009241533 0.030705936 0.079849385 0.19210488
000090 c6 a8 15 3e a1 df 66 3e 47 f7 11 bb 05 d9 d5 3b
       0.14615163 0.22546245 -0.0022272633 0.006526115
0000a0 3c eb 5e 3b ba 3c 22 be a9 98 a5 3c 94 2b 72 3d
       0.0034014722 -0.15843478 0.020214396 0.05912359
0000b0 b2 f0 b8 3d 13 3b a6 3d 56 37 9f be e8 03 0b 3e
       0.09030284 0.08116736 -0.31096905 0.13575709
0000c0 66 e9 82 3e ce 88 76 3e 9e 17 f7 3d ef f3 30 ba
       0.25568694 0.24075624 0.120650515 -0.0006750216
0000d0 22 26 1f 3d 19 f4 b6 3d 10 d2 cd 3d 34 ec dc 3d
       0.038854726 0.08933277 0.10049832 0.1078724
0000e0 7e 6b 92 3a a8 fe 91 bd 5a 3c 12 3e a0 55 d9 3d
       0.0011170951 -0.0712865 0.14280835 0.10612035
0000f0 87 2f 32 3d 19 2d 80 3a 3e 56 97 b9 d2 1e 48 3e
       0.043502357 0.0009779065 -0.0002886522 0.19543007

body.block0.conv.weight f4 [64, 64, 3, 3]
000000 33 1c 3c bd 45 33 84 bd 77 01 4f 3b 4e af 71 bb
       -0.04592533 -0.064550914 0.0031586566 -0.0036878171
000010 c1 11 76 bd 38 7f 0a 3d ae 7f c1 3d 5d 73 3d 3d
       -0.060075525 0.03381273 0.09448181 0.046252597
000020 f0 49 c8 3d 09 72 50 bd 60 d4 19 bd 1d d4 99 3c
       0.097797275 -0.050890002 -0.037556052 0.018777901
000030 41 d7 9c bd fb 87 7d bd b6 f9 72 3d f0 8e 4c 3d
       -0.07658244 -0.06189726 0.059320174 0.049941003
000040 b4 16 17 bd bd 2d b3 3d 54 98 dd bc 24 56 e7 bc
       -0.036886886 0.08748958 -0.027050175 -0.028239317
000050 88 59 05 bd 36 e2 c5 3c d6 3e d3 bc a9 19 6e bc
       -0.032556087 0.024155717 -0.025786798 -0.014532485
000060 99 4e dd 3d fd 39 0d 3d 64 be 52 bd 59 d3 c5 3a
       0.10806007 0.03447913 -0.051451102 0.0015092894
000070 bd 41 ae 3b 52 34 f8 3c d0 b8 01 bd df 69 29 3c
       0.005317895 0.030298386 -0.03167039 0.010340183
000080 82 58 92 3c dc 45 b5 bd 6c 6d 7a bd 15 bc 25 bd
       0.01786447 -0.08851215 -0.06113951 -0.040462572
000090 7d a5 ac bd 30 6c c9 bd 41 58 1a be 44 fc 21 bc
       -0.08430002 -0.09835088 -0.15072729 -0.009886805
0000a0 06 fc 0c 3d a8 e0 f4 bc 70 76 0f 3e 5f fe 04 3d
       0.034420036 -0.02989228 0.14010024 0.03246915
0000b0 59 0e 4b 3c 31 a9 9c 3d ed 19 b2 3d 38 9d 13 bd
       0.0123935575 0.07649458 0.08696351 -0.036038607
0000c0 0a ff 51 3d 11 29 df 3c 74 07 30 bd 64 28 3c 3d
       0.051268615 0.027241262 -0.042975858 0.045936957
0000d0 c2 f2 4f 3d 5f 97 7e 3d e0 96 8e 3c ed 06 8c 3c
       0.05076862 0.062156077 0.017405927 0.017093146
0000e0 e2 ec e0 3c 6d 43 33 3d 1a f2 bf 39 79 28 5f bc
       0.027456705 0.043765474 0.0003661074 -0.013620489
0000f0 e6 48 fb 3c 59 71 1e 3d 1b 40 76 3c 09 e4 5d 3d
       0.03067441 0.038682315 0.015029932 0.05417255
000100 b8 45 06 3d d3 02 b5 3d ab d8 23 bd a1 fb c1 bc
       0.032781333 0.08838429 -0.040001553 -0.023679556
000110 a8 ea f3 3c 51 45 9b bd 00 12 12 3d 48 f9 b6 3d
       0.029774979 -0.075815804 0.035661697 0.089342654
000120 70 03 03 ba e5 da a0 bb b3 09 8c 3d 55 79 f2 bc
       -0.00049977656 -0.0049089068 0.068377875 -0.029598871
000130 1b de 14 bb d8 bf cf 3c 32 b1 8b 3c 3f be 47 bd
       -0.0022715393 0.025360033 0.017052267 -0.048765417
000140 47 7f 9b ba a6 84 b2 bd 44 5c 77 bd d5 5e 1a 3d
       -0.0011863493 -0.08716707 -0.060390726 0.037688095
000150 cd 2e 0d bd b4 a9 85 bc c7 62 f5 3c 9b 3f 96 3d
       -0.03446846 -0.016316272 0.029954327 0.073363505
000160 d0 c9 54 3d f7 ac 12 3e 33 9d 32 3d 8b a6 d3 3c
       0.051950276 0.14323793 0.043606948 0.02583625
000170 7a 51 7d bc 03 e0 e4 3d 40 e5 f0 3c 31 40 5b 3c
       -0.01546132 0.11175539 0.02940619 0.013382004
000180 e2 1c 2e bb 39 66 ee 3c 87 2e 50 3d 11 5a 4b bc
       -0.0026567508 0.029101478 0.050825622 -0.01241161
000190 02 d1 a6 bc ca 2b 5e 3d ac b2 a3 3c 93 61 93 39
       -0.020363335 0.05424098 0.019982658 0.00028110723
0001a0 95 17 0f 3d 06 dc fa 3d 94 5a 66 3d 8f 90 c8 3b
       0.0349346 0.122489974 0.056238726 0.0061207484
0001b0 4b 27 f9 bc 20 96 59 bd 25 ab 15 bd e9 7c 53 3d
       -0.030414244 -0.053121686 -0.03654017 0.051632795
0001c0 ee 9f dd 3c b5 16 cd 3c 99 cf 0f 3e 6b c3 d0 3d
       0.0270538 0.025035242 0.14044036 0.10193523
0001d0 9d 26 5d 3d e8 8d a4 bb 73 62 e7 3b 96 1d a1 bd
       0.053991903 -0.0050217994 0.0070612966 -0.07866971
0001e0 14 a0 50 bc 79 af c9 ba fb 62 06 bd 8f 5e 79 bc
       -0.012733478 -0.0015387378 -0.03280924 -0.015220298
0001f0 e5 a3 03 bd 6b b3 52 bd 76 3d 37 bd 1f d9 ec 3c
       -0.032138724 -0.051440638 -0.044736348 0.028912125
000200 83 38 77 bc 0b 5d 31 3d 8d 6c bf 3b d0 de 4f bd
       -0.015089157 0.043301623 0.0058417977 -0.0507496
000210 79 4c 88 3d b5 d4 7e 3c 35 1c 61 bb d6 01 bd bb
       0.06655211 0.015553643 -0.0034349088 -0.005768041
000220 87 bf 32 3d d0 50 d4 3b 92 74 99 ba af 10 53 bc
       0.043639686 0.00647936 -0.0011707714 -0.012882396
000230 37 3a 39 3c 28 b8 d6 3c aa 6a 8d bd ae 8a 8f bc
       0.011305383 0.02621086 -0.0690511 -0.017522182
000240 8c c1 45 3c 76 b5 0e 3d 2a f9 bd 3c 56 90 95 bc
       0.012070071 0.034841023 0.0231901 -0.018257301
000250 22 c7 d5 3c 0c 59 51 bc a0 56 0e 3b b0 6a 0d bd
       0.02609593 -0.012777578 0.0021719113 -0.034525573
000260 21 3b 2e bd 4a e8 06 3b f7 93 af bc cb 77 82 3d
       -0.04253686 0.0020585232 -0.02143286 0.06370505
000270 8e 77 81 3c 09 0a 73 bd 4e 87 4c 3d 41 01 d2 3d
       0.015804078 -0.059335742 0.049933724 0.102541454
000280 bc 3a 66 3d 73 35 e1 3d e3 f0 4f bb 41 e5 35 bd
       0.056208357 0.10996523 -0.0031729273 -0.044408087
000290 53 32 44 be c2 36 78 3d 53 62 09 3d 2a 81 ac bd
       -0.19159822 0.060599096 0.033541035 -0.084230736
0002a0 e8 4a cf 3c b1 c7 a2 3d 8e 5d 34 bd 84 f8 aa bc
       0.025304273 0.07948244 -0.044034533 -0.020870455
0002b0 2b 73 08 3d 4d 38 28 bd d1 7c 02 bd b2 84 fe 3c
       0.033312958 -0.041069318 -0.031857315 0.031069133
0002c0 b3 9e 27 bc 4f 2c 8f bd 35 b5 08 3d e4 35 ef 3d
       -0.010230708 -0.06990873 0.033375937 0.11680201
0002d0 aa 60 58 bd a8 92 88 bd 63 20 16 be a1 4b 11 bd
       -0.05282656 -0.066685975 -0.14660792 -0.035472516
0002e0 0d aa dc bc 36 4d 94 bd 46 71 c8 bd 05 70 82 3d
       -0.026936555 -0.07241289 -0.0978723 0.06369022
0002f0 2f 44 a7 bd 7b 32 15 3d 58 99 af bc 5e ab 07 3b
       -0.08167302 0.036425095 -0.021435425 0.0020701508
000300 9c 5b 6e 3b 0d 67 1c bd fe af 81 3b 6e f7 74 3d
       0.0036370521 -0.038184214 0.0039577475 0.05980628
000310 35 9a 94 3c 3e 9c 52 3d 20 72 d6 3c c3 14 76 3d
       0.018139938 0.051418535 0.026177466 0.060078394
000320 05 49 df 3d b4 cc 37 3c 95 1e 3d 3b 7d a4 9a 3d
       0.10902599 0.011218239 0.002885734 0.07550905
000330 6f c7 01 bd 99 5c 94 bd d8 1b 49 3d de 42 22 bc
       -0.031684335 -0.07244224 0.04909882 -0.009903638
000340 f9 84 a8 bb b1 16 7e 3b 7e ae 3a bb cd 1f b6 bc
       -0.0051428047 0.003877085 -0.0028485353 -0.02223196
000350 00 12 91 bd bf 12 1a bd 89 a5 43 bd 49 1d 20 bd
       -0.07083511 -0.037615534 -0.04776529 -0.03909043
000360 7b 92 09 3d 74 90 61 3b 6b 32 06 3d eb 7f 3c bb
       0.03358696 0.0034418376 0.032762926 -0.0028762768
000370 0d e3 df bb 13 b7 2a 3d 9b 3d 3d bc f8 4d 70 bc
       -0.0068324865 0.0416785 -0.011550332 -0.014667027
000380 09 d1 1d 3d 70 1a 3a 3d 83 a6 f9 39 ca 54 1d bc
       0.03852943 0.04543537 0.00047617042 -0.009602735
000390 64 23 dd 3c 83 65 f1 bb d9 db a9 3c 0e cd 1e bd
       0.026994415 -0.0073668375 0.020734714 -0.038769774
0003a0 80 9f 65 3c 4d e9 07 3e 15 ec b7 3a ec 91 02 3d
       0.014015079 0.13272591 0.001403215 0.031877443
0003b0 93 cd a6 bc af cf bb bc 4d 82 86 3b cd 76 02 3d
       -0.020361697 -0.02292618 0.0041048885 0.03185158
0003c0 a5 7b 9e bd 7d 3f c8 3c aa f2 b3 3d ea de 05 bc
       -0.07738427 0.024444336 0.08786519 -0.008170823
0003d0 82 61 62 3a dc 0f d5 bd 18 46 13 3d 13 f4 37 bb
       0.00086357456 -0.104034156 0.03595552 -0.0028069064
0003e0 87 ab 06 bd cb f0 31 3c a0 0a b8 bc ca 5d 2e bd
       -0.032878425 0.010860632 -0.022466004 -0.042569913
0003f0 90 9a cf 3c 17 f0 80 3d 9c 28 e7 bc 1b 26 0e 3d
       0.025342256 0.062957935 -0.028217606 0.03470431

body.block0.conv.bias f4 [64]
000000 be 14 fa ba 63 ae b8 3d a5 29 03 3d b0 57 d7 bb
       -0.0019079668 0.090176366 0.032022137 -0.0065717325
000010 59 dd 05 bc ba 7f 7a bd ca d8 2c bd ba 93 09 3d
       -0.008170449 -0.061156966 -0.042198934 0.03358815
000020 23 1c 2a 3d 68 45 9f bd 20 15 8d bb ab 3e 03 bd
       0.04153074 -0.0777691 -0.004305497 -0.032042187
000030 1d ba 97 3d 07 8a 69 3d 63 6b c8 3d 27 36 93 bc
       0.07408545 0.0570164 0.097861074 -0.017970158
000040 14 3b 06 bc 92 e2 a3 3d 35 41 47 3d 27 ff 86 3b
       -0.008192796 0.08002199 0.04864617 0.004119772
000050 aa 35 aa bd 5f 56 76 bd 5f 56 a3 3d 6b b8 c6 3d
       -0.08311017 -0.060140964 0.07975458 0.09703144
000060 9b e5 22 bc c4 6f 72 3d 6e f1 59 3d 72 5c 8d bd
       -0.0099424375 0.05918862 0.05320876 -0.06902398
000070 bb f1 44 bd ab 2e 6b 3d 6a cd 03 bd 83 6b b5 3d
       -0.048082095 0.057417553 -0.03217832 0.08858397
000080 88 a5 e0 3c be a3 5b 3d a1 c2 a1 39 e8 50 1b 3d
       0.027422681 0.053622954 0.00030853323 0.037918955
000090 2a af 9e 3d f8 62 c4 bc c8 3e 2d 3d 25 d8 dd 3d
       0.07748254 -0.023972973 0.0422962 0.10832242
0000a0 ee 62 27 3c 79 ed ec 3d 64 73 89 3b 7f 6f 0d 3c
       0.010216458 0.11568732 0.004194664 0.00863254
0000b0 7e 85 4d 3d 1a 7b c1 bc 84 a5 b5 bc cc ea a2 3d
       0.050176136 -0.02361827 -0.02217365 0.0795494
0000c0 6d 5e 92 3c 77 14 ad 3d d5 a6 01 3d 58 13 bd bc
       0.017867291 0.08451169 0.031653244 -0.023080513
0000d0 06 1c 16 3d b4 9b 47 3d 32 c9 eb 3c c9 33 5a 3c
       0.03664782 0.048732474 0.02878246 0.013318011
0000e0 69 77 0a 3e 38 8a ab 3d 3a a5 0f 3d 62 f3 e6 b9
       0.13522114 0.083759725 0.03506968 -0.00044050353
0000f0 87 2a 39 bc 53 29 82 3d 1f 7f e1 3c 25 ab b6 38
       -0.011301643 0.06355538 0.027526436 8.7103144e-05

body.block1.conv.weight f4 [64, 64, 3, 3]
000000 be ca 95 bd d2 43 73 ba 29 ab 08 3e b6 18 24 bd
       -0.07314061 -0.00092798204 0.13346542 -0.04006263
000010 6c 51 4e bc 39 b5 af 3d 4f 60 05 bd ea d0 5b 3b
       -0.012592655 0.08579487 -0.03256255 0.003354127
000020 c7 6e 90 3d 7e c2 ae bc b2 e3 67 3b 20 32 c8 3d
       0.07052379 -0.021332975 0.003538352 0.097751856
000030 16 9f 60 bc c8 13 b4 bb fd 2a 4a 3d 89 21 8d bb
       -0.013709804 -0.005495522 0.049357403 -0.004306976
000040 78 c7 c4 3b a5 6e 76 3d c8 0c 18 3d 74 db 54 bc
       0.006005224 0.060164113 0.037121564 -0.012991775
000050 4a 2c 18 bc dd a2 24 3d 27 9e 2b bd 3c cc 64 bc
       -0.009287903 0.04019438 -0.041898873 -0.013964709
000060 39 e8 a6 bc 10 27 56 bd 1f 00 f2 bc fb 83 cb 3d
       -0.020374404 -0.052283347 -0.029541073 0.09937283
000070 e5 d6 88 3d 39 a4 7a 3d 11 15 7b 3d 94 ab 0d 3d
       0.06681613 0.06119177 0.061299387 0.034587458
000080 58 66 2e 3d d3 bc d2 3c 23 b8 58 3d 79 aa 33 3c
       0.04257807 0.025724804 0.05290998 0.010965937
000090 38 fc a2 bc 69 ca 75 3b 13 f2 dc bc bb dd f3 3a
       -0.019895658 0.003750468 -0.026970899 0.001860551
0000a0 57 99 d7 3b 98 fe 00 3d a3 a6 0c bc 8a 06 3b 3d
       0.006579559 0.0314928 -0.008584651 0.045660533
0000b0 22 46 12 3d 6c c7 ff 3a 8d 20 fe bc 18 5c ce bb
       0.035711415 0.0019514388 -0.03102138 -0.0062975995
0000c0 cc 5f 0b bc 1d 99 da bc 3b 7d e5 bc d2 14 a9 3c
       -0.0085067265 -0.026684338 -0.028013816 0.02063981
0000d0 07 e2 47 bb 14 c8 79 bd ec 20 65 b9 36 22 24 bd
       -0.0030499713 -0.060981825 -0.00021851406 -0.04007169
0000e0 ae dd 02 bc bb 90 c2 3c 43 c0 57 39 30 09 df bc
       -0.007987423 0.023750653 0.00020575621 -0.02722606
0000f0 2e cb df 3d f8 19 08 3d 42 63 ac 3d c2 02 f7 bb
       0.10927425 0.03322789 0.084173694 -0.0075381706
000100 f7 02 09 bd 82 35 2f bd df 89 ac 39 f8 d2 ab bc
       -0.033450093 -0.04277564 0.00032909118 -0.020974621
000110 cd 83 8e bd 77 7a 9e 3c 98 55 66 bd 1b c0 62 bd
       -0.06958733 0.019345505 -0.056233972 -0.055358987
000120 c6 74 91 bd 00 1a 0e bd 56 82 6a bc b6 d6 04 bc
       -0.07102351 -0.034692764 -0.014313301 -0.008107832
000130 a0 5c 0f bc c4 61 e9 bb 82 0e 44 3d 58 4f a8 3c
       -0.008750111 -0.0071222503 0.0478654 0.020545647
000140 06 28 16 3d 0d dd a9 bd 11 0e de bc 4c 25 6e ba
       0.036659263 -0.08294115 -0.027106317 -0.0009084537
000150 54 c8 1b 3c 47 b3 f4 3b 2f 64 3b 3b ad 72 9c 3d
       0.009508211 0.0074676606 0.002859365 0.0763906
000160 fa e2 01 3d 97 c6 a1 3c 15 83 ac bc a8 53 25 bc
       0.031710602 0.019748015 -0.021058599 -0.010090746
000170 13 8a 3b bd 02 8d 52 3b 75 93 41 bb 13 ab 8a bc
       -0.045785975 0.0032127504 -0.0029537354 -0.016927278
000180 30 b4 a2 3d d0 27 c2 3c d1 28 b1 3d 79 cb 48 3c
       0.07944524 0.023700625 0.08650363 0.012255543
000190 2e d2 a0 3c d4 55 fb bc c6 e3 46 3c 36 86 40 3d
       0.019631471 -0.030680574 0.012139266 0.047002994
0001a0 1e 74 1a 3c 91 90 78 39 fc 00 ca 3b 79 d9 45 3c
       0.009427099 0.00023704978 0.006164668 0.012075775
0001b0 da 90 81 3d 80 b5 c3 3c 57 cc 40 bc a4 6b 9f 3d
       0.06326456 0.023890257 -0.011767468 0.07784203
0001c0 eb 56 00 3d ae ca 00 bd f9 2f 2c 3d f5 4a 85 3a
       0.03133289 -0.03144329 0.042037938 0.0010169434
0001d0 c2 38 0d bc 99 da 33 bd ee df 7b bd a5 a1 83 3d
       -0.008619489 -0.043909643 -0.061492853 0.064273156
0001e0 ac 63 d8 bc 2c 1e 92 bd e3 4f c7 3c 95 c0 fa bc
       -0.026414715 -0.07134661 0.024330085 -0.030609408
0001f0 70 62 85 bd b4 6d 96 bb 16 46 7c 3d d5 1d 28 3d
       -0.06512916 -0.0045907144 0.061590277 0.041044075
000200 36 26 a0 bd dd 25 23 3c 54 de 3f bc fd e6 99 bd
       -0.07819788 0.009957758 -0.011710722 -0.07514761
000210 8b c5 0e bc 0b 2f 96 bc f3 16 2f bd 3a d9 ad bc
       -0.00871409 -0.018332979 -0.042746495 -0.021221746
000220 f1 65 ce 3b a1 d9 cc 3d b1 5c 87 bd 3a e7 d9 bc
       0.0062987735 0.10002447 -0.06609476 -0.026599515
000230 ac 15 c7 3d 82 e0 a8 bd d7 16 be bd 8f 66 97 3d
       0.097209305 -0.082459465 -0.092817 0.073926084
000240 74 8b 2d bb af 37 35 3d 4b 5b 4a 3c 4c ca df bb
       -0.0026480826 0.044242557 0.0123508675 -0.0068295356
000250 66 22 1d 3d 84 24 a8 3b d5 e2 d8 bc fc 9f 18 bd
       0.038362883 0.005131306 -0.02647535 -0.037261948
000260 d6 a7 d5 bc e5 b5 8d 3d ae 81 22 3d 0c d5 37 ba
       -0.026081007 0.06919459 0.039674453 -0.00070126425
000270 50 48 5e 3d 25 e4 63 bc 1b 11 0d bd 00 f3 b3 3c
       0.05426818 -0.013909374 -0.03444014 0.021966457
000280 28 eb 6e bc d0 a3 13 bd 09 92 9d 3d d8 2b 5d 3c
       -0.014582433 -0.036044896 0.076938696 0.013499223
000290 61 6c c3 bc a8 b5 8a 3c c1 c1 3e bd 22 1c b3 bd
       -0.02385539 0.016932324 -0.046571497 -0.087456
0002a0 f6 ba 72 3c ff fc d2 bc 92 99 ff bd 41 33 de 3c
       0.014815083 -0.025755404 -0.12480463 0.02712405
0002b0 83 96 7c bc fa 6a 0b be e0 51 cc bb 40 c5 b2 bc
       -0.015416744 -0.13615027 -0.006235346 -0.021822572
0002c0 fa dc c3 bd 4a 46 ac 3c e6 7b 69 bc 07 45 d4 bd
       -0.09563632 0.02102961 -0.014250731 -0.103647284
0002d0 7b ef 2f bd d5 1e 6b 3c 6a 5a 73 3d 8c 0a 23 bd
       -0.042952996 0.014350613 0.059412397 -0.03980498
0002e0 22 2b e3 bc ff 3a 0a 3d 2a a5 0d bc 5d 02 cd bb
       -0.027730528 0.03374767 -0.008645335 -0.0062563852
0002f0 2d 41 6a 3c c6 62 4f 3c 34 8f 08 3d 5d 32 2b 3d
       0.014297766 0.012657827 0.033339694 0.041796077
000300 7e 87 a8 3c 37 04 42 3d a3 11 68 3d 44 1f 95 3c
       0.02057242 0.0473673 0.056657445 0.018203385
000310 b9 3b a0 bb 89 59 6a 3c 91 67 a1 3d 1b 18 46 3d
       -0.004889932 0.014303573 0.07881082 0.048362833
000320 87 dc 5e bc 79 50 cb 3d b2 d5 84 3d 48 b6 83 3d
       -0.0136023825 0.09927458 0.06486072 0.06431252
000330 bc dd 28 3e 27 71 b9 3d 94 09 c1 3d 2c d4 5c 3d
       0.16490835 0.09054785 0.09425655 0.05391328
000340 db 67 45 3c 98 fc a3 3c 09 f4 db 3c bb bc 22 3a
       0.012048687 0.020017907 0.026849763 0.00062079326
000350 a4 7f 1d 3d ea 19 0e bc 02 f5 bc bc ab b9 5e 3d
       0.038451806 -0.008673171 -0.023066048 0.054376286
000360 c8 38 a6 bb 52 6a 5f bc 97 4b 77 3b 01 cc 33 ba
       -0.005072687 -0.013636189 0.0037734264 -0.0006858707
000370 fc d0 f0 bc 2c 70 26 3a b3 7e 04 3d a1 a4 12 bd
       -0.029396527 0.00063491124 0.032347392 -0.035801534
000380 6f 8b 48 bb 16 3b be 3c 16 b3 f4 ba d9 25 66 3c
       -0.0030600687 0.023221534 -0.0018669094 0.0140471095
000390 c8 73 26 bd 86 fa 0b bd ec f9 34 3c bc fe 51 3c
       -0.04063776 -0.034174465 0.011045914 0.012817081
0003a0 67 d8 35 bd e7 95 3c bb 7f 41 8f 3d 55 8f 99 3d
       -0.04439583 -0.0028775872 0.06994914 0.074980415
0003b0 84 f2 14 bd 6b c3 ad 3d 72 88 95 3d 5b 1e 8f bb
       -0.036364093 0.08484539 0.073014155 -0.0043676323
0003c0 97 4a 15 3d 84 cb be b8 17 eb 91 bd 2c 53 73 bc
       0.036448088 -9.097814e-05 -0.07124918 -0.014851373
0003d0 d1 58 5d bd 02 1d 1e bd 23 b7 1c 3d e0 fa c4 bc
       -0.05403978 -0.038601883 0.03826059 -0.024045408
0003e0 cc bb 54 bc 18 7f 2e 3d 9e 38 28 3d 1a 77 15 3c
       -0.012984227 0.042601675 0.04106962 0.009122634
0003f0 98 82 21 bd 8c c1 34 bd cd c2 06 bd 08 e1 90 bc
       -0.039431185 -0.044129893 -0.03290062 -0.017685428

body.block1.conv.bias f4 [64]
000000 54 7f f4 3d 71 94 2b 3d 89 4c 6e bb 3a 20 51 3d
       0.119383484 0.04188961 -0.0036361536 0.051056124
000010 d4 16 1e 3c 30 06 3c 3d 20 80 e9 bc 7b c4 a9 3d
       0.009648997 0.04590434 -0.028503478 0.08289429
000020 e9 47 3d bd 8d 7c d0 3d 98 c0 19 3e 74 57 77 bd
       -0.046211157 0.10180006 0.15014875 -0.060386136
000030 97 a6 18 3d ad 55 99 bd 67 e5 06 3e 26 fe 76 3d
       0.037268247 -0.074870445 0.13173448 0.06030097
000040 0e 04 27 3d 93 40 80 bd 54 bf 72 3c 8d fb 07 ba
       0.04077535 -0.062623166 0.014816124 -0.00051873253
000050 1d 2e 13 3e 4e c9 d7 3d 7e e4 e2 3d 70 e5 05 bd
       0.1437306 0.10536443 0.11078738 -0.03268951
000060 5a 35 84 bd fb 23 36 3d c1 db 57 3d 3b 69 e7 3b
       -0.064554885 0.044467907 0.052699808 0.007062105
000070 08 65 0d 3e c2 24 9a 3d 02 83 19 bc 7e 14 d6 3d
       0.13808072 0.07526542 -0.009369614 0.10453127
000080 36 99 99 3c 82 34 0c bc c6 cb 83 3d 5b 0c 04 3e
       0.018749814 -0.008557441 0.06435351 0.12895338
000090 e3 75 0e bd 42 d4 ec 3d e6 c6 af ba ef 64 67 3d
       -0.034780394 0.115639225 -0.0013410717 0.056492742
0000a0 31 ef d4 3d a1 82 b1 3c c4 5d 23 3d 05 1b 0a 3d
       0.10397185 0.021668734 0.039884344 0.033717174
0000b0 af f4 68 3c 4f eb 51 3d 69 9e c9 3c eb 69 93 bc
       0.014218493 0.0512498 0.024611669 -0.017994842
0000c0 7f 80 d6 3a bf 40 6c bd ed 7c a9 3d d1 c9 9c 3d
       0.0016365199 -0.057678934 0.08275781 0.07655681
0000d0 b2 b9 f8 3d 58 5f f2 3d 24 75 0c bd 42 df 51 3d
       0.121447936 0.118345916 -0.0342914 0.051238306
0000e0 60 87 ba bd b9 2d 20 3d 48 a7 55 bd 2a a9 a2 bc
       -0.09107852 0.039106105 -0.052161485 -0.019856054
0000f0 27 7c 6d 3d 0c 98 c4 3c 01 6c 9d 3d 77 e3 1d 3d
       0.05797973 0.023998283 0.07686616 0.038547006

body.block2.conv.weight f4 [64, 64, 3, 3]
000000 37 f5 89 3d 81 10 3a bc e4 9c d5 3c e2 ab 8b 3c
       0.06736224 -0.011356474 0.026075788 0.017049734
000010 13 05 1c 3d 75 e2 a7 bc aa a1 1b 3b 2f 0b 5c bc
       0.038090777 -0.020493725 0.0023747482 -0.013430401
000020 bf 51 11 bd 26 a2 74 3a de aa 11 bd b8 ef 14 bd
       -0.03547835 0.00093320233 -0.035563342 -0.036361426
000030 d6 09 dd 3c 65 a1 46 bc e4 75 0c bd bb 37 86 bc
       0.02698223 -0.01212344 -0.034292117 -0.016383996
000040 91 24 20 bd cd 4f f4 bc d6 79 9d bc 42 a8 85 3c
       -0.039097372 -0.029823208 -0.019223135 0.016315583
000050 12 9e 50 3c cf 15 c4 bc f5 1d 60 3c c2 84 4a 3c
       0.012732999 -0.02393618 0.013679017 0.0123607535
000060 f5 a5 1f bd 87 5e 38 bd 6e 6d 66 bc 12 47 41 3d
       -0.03897663 -0.045012023 -0.014064176 0.04718692
000070 33 6f e3 3b 82 ec 8e 3b ba 15 c8 3d 00 aa 4e 3c
       0.006940746 0.00436169 0.09769769 0.012613773
000080 38 de a6 3c 17 44 67 3d 90 d7 19 bd 5d a8 e0 bb
       0.020369634 0.05646142 -0.037559092 -0.006856008
000090 8e 39 8e 3d 7a 49 8e 3b d9 83 f9 bb c9 eb 64 3c
       0.069445714 0.004342255 -0.0076145944 0.013972231
0000a0 b7 e5 97 3c 4c 81 4d 3d e9 19 b3 3d ef bf 56 3d
       0.018542154 0.050172135 0.08745176 0.052429136
0000b0 28 62 f9 3c d6 03 40 3d 9e f4 d0 bc f3 a1 65 3d
       0.030442312 0.04687866 -0.025507268 0.05606265
0000c0 62 ba 92 3c 8c 51 1b bc 47 e7 5d 3d 31 8d 71 3c
       0.01791114 -0.0094798915 0.05417564 0.014743135
0000d0 22 cc e0 3b 9a 88 cb 3c 1a 9a 13 3d 28 d1 d2 3c
       0.006860272 0.02484541 0.036035635 0.0257345
0000e0 a6 6b 00 3d 2a 9a 52 3d 24 0f 15 3d 37 56 ca bc
       0.03135266 0.051416554 0.036391392 -0.024699314
0000f0 63 dd 5b 3d 7c a8 0d 3d e6 6c 50 3d ff 78 5b 3c
       0.053677928 0.034584507 0.050885104 0.013395547
000100 aa 6b a8 3c de 4a a2 3c 92 aa 6f bb 8c 7e 32 3d
       0.02055915 0.01981109 -0.0036570174 0.043577716
000110 b4 1e 34 3d c3 c0 4a bd ab 83 de bc 58 4e f0 3c
       0.043974593 -0.04950024 -0.027162394 0.029334232
000120 2c 5d 8c ba b9 94 c2 bc 44 14 07 3c 26 06 cf 3b
       -0.001070892 -0.023752557 0.008244578 0.0063178716
000130 79 37 62 bc 45 c0 92 3b ce 51 8c bb 13 50 b3 bc
       -0.013807171 0.0044784867 -0.004282213 -0.021888768
000140 50 a8 1a 3d 04 d3 2c 3c b5 be b8 3c f9 8d 73 3d
       0.03775817 0.010548357 0.022551874 0.059461568
000150 14 00 86 bc 54 0a db 3b 54 f6 f6 3c 0c 72 07 bd
       -0.01635746 0.006684581 0.030146755 -0.033067748
000160 7a 91 d0 3b d0 f8 f7 bc bc ce 30 bc de e4 08 3b
       0.0063649984 -0.03027001 -0.010791477 0.0020888369
000170 d5 51 18 bd 14 77 ce 3c 05 ea 03 bc 7d b7 ce bc
       -0.037187416 0.025203265 -0.0080514 -0.025233978
000180 81 78 29 bd 34 9d 80 bd 26 77 81 bd 75 22 e4 bd
       -0.041374687 -0.06279984 -0.06321554 -0.11139385
000190 23 73 00 be d3 12 84 bd 65 08 a5 bd 75 c6 a7 bd
       -0.12543921 -0.06448903 -0.08058242 -0.081921495
0001a0 76 be ca bd 7d 78 e2 bd 49 df d7 bd c1 f1 20 be
       -0.09899609 -0.110581376 -0.10540635 -0.15717222
0001b0 5a 04 21 bc f4 4c 29 3d eb 2c 35 bd 22 f8 34 bd
       -0.009827698 0.041333154 -0.04423229 -0.04418195
0001c0 64 21 01 3d 65 aa 15 3d b2 25 df bc 9c 11 1f 3c
       0.031525984 0.036539454 -0.027239654 0.009708788
0001d0 78 bf 1d bd 02 e7 88 3c f5 7e 88 bb f5 1d 5f bb
       -0.038512677 0.016711716 -0.004165525 -0.0034044955
0001e0 f8 79 f3 bb 3c b3 81 bc 1e 8f cf ba 57 59 a4 3c
       -0.0074303113 -0.015832536 -0.0015835499 0.020062132
0001f0 60 6a d8 3b 3c cb 28 3d 19 75 f1 bc a0 19 6d bd
       0.0066044778 0.041209444 -0.029474782 -0.057885766
000200 11 94 9b bd a6 cd 7e 3b 88 93 1b bd 53 ca fc bc
       -0.07596601 0.00388799 -0.037982494 -0.030858194
000210 67 6b a9 bc 03 f0 91 bd 89 ba 98 3b f3 78 55 bd
       -0.020681096 -0.07125857 0.0046609086 -0.0521173
000220 e4 46 6d 3c f8 25 a5 bb ea 1e 41 bc 62 25 b3 3c
       0.014482234 -0.0050399266 -0.011787156 0.021868411
000230 32 e6 e5 3c 77 be 5c bb b6 47 1d 3c 8d 42 1c 3d
       0.028063867 -0.0033682862 0.009599617 0.038149405
000240 a2 77 f9 3c 48 06 ab 3a e8 1d bd bb c0 88 03 3d
       0.030452553 0.0013048137 -0.0057713874 0.032112837
000250 bd 70 4b 3c f0 60 8c bc 02 87 d2 3b 4f 67 0a bc
       0.012417016 -0.017136067 0.0064247856 -0.008447482
000260 64 4b d7 bb ca cd 4e bb 39 2f b2 bc 9e 2b 73 3d
       -0.0065702666 -0.0031555765 -0.021751033 0.05936777
000270 a4 3d 0c 3d db 15 11 b9 51 21 4b 3d 8b 5c 3a 3b
       0.034238473 -0.0001383642 0.04959232 0.0028436508
000280 5b 54 cb bb e5 2c ae 3d ae f7 30 bd 9e 40 71 bd
       -0.0062051243 0.08504657 -0.043204956 -0.058899514
000290 77 20 43 bc 20 02 2d bd e6 83 f5 bb 2d 10 6e bd
       -0.011909596 -0.042238355 -0.00749253 -0.058120895
0002a0 ea a1 26 bc 89 50 a0 bc 69 d3 38 3c 35 96 74 bc
       -0.010170439 -0.019569652 0.011280873 -0.01492839
0002b0 d4 92 1a 3d cf cc 05 3c db d3 1e 3d 48 41 fb 3c
       0.037737682 0.008166506 0.03877626 0.030670777
0002c0 09 82 4a bd 11 3c 23 3d 00 ea a9 3b 27 2d 08 bd
       -0.049440417 0.039852206 0.0051853657 -0.033246186
0002d0 83 f5 85 3c 5b d5 3d 3c 66 4f 7d bc 0f 8c 4c 3b
       0.01635242 0.011586512 -0.015460825 0.003121141
0002e0 34 7d 15 3d 12 79 00 3d bd 66 84 bc a9 b1 6b 3b
       0.036496356 0.03136546 -0.01616227 0.0035964048
0002f0 d7 58 83 bc ca c4 b6 3c e8 5a bf bb 13 d8 67 bd
       -0.016033573 0.022310633 -0.0058396943 -0.05660255
000300 fa 74 d2 3b c0 19 45 bc 2b 63 5b bd 0f d3 47 bc
       0.006422636 -0.012030065 -0.05356137 -0.012196316
000310 64 19 60 bd 0a 09 1b 3c 2a 8c 10 3d e9 7a 4d 3d
       -0.054711714 0.009462604 0.03528992 0.050166044
000320 af 6d 1b 3d 6b 4a f4 bb 1b e6 05 bc cb 0c 2f 3b
       0.0379464 -0.0074551604 -0.008172537 0.0026710506
000330 49 92 18 bd c8 c8 71 3d 6d cf 5b 3c 92 ea 18 3d
       -0.037248883 0.05902937 0.013416153 0.03733308
000340 d6 24 51 bb cc c6 15 bd 06 d9 ca 3c 3e 63 60 3c
       -0.0031912825 -0.03656654 0.024761688 0.013695536
000350 93 2c 55 bc 44 9a ab 3c bc ea 1c bd b3 b3 78 3c
       -0.013011116 0.020947583 -0.038309798 0.015179562
000360 3c e9 63 3d b7 ed 30 3d b5 4d d9 3d 53 0f 45 3d
       0.05564235 0.043195453 0.106105246 0.048110317
000370 e2 15 ff 3c 53 00 bf 3d 6f 8a 68 3d 01 e1 dc 3c
       0.031138364 0.09326234 0.056772646 0.026962759
000380 72 ac 0e 3d bc b1 3b 3d ad 06 3c 3c 5d 06 08 3d
       0.034832425 0.045823798 0.011476201 0.033209193
000390 53 7e 85 3d d8 d2 2a 3d bf 0f 28 3d 60 93 b6 3d
       0.06518235 0.041704983 0.04103064 0.08914828
0003a0 aa ac 40 3d 89 fe 78 3d fc e2 cb 3d 7a bc 17 3e
       0.047039665 0.06078962 0.09955403 0.14817992
0003b0 3d d8 81 3d 67 f6 e3 3d 0f e7 a9 3d 07 7c 00 3e
       0.06340072 0.11130982 0.08296024 0.12547313
0003c0 2e d3 c1 3d 91 26 ed 3d e8 fa fb 3d 3c 22 c8 3b
       0.094641075 0.115796216 0.12303716 0.0061075967
0003d0 f1 30 ba bc b4 6b 0c bd ab f8 1d 3d 95 96 f6 bc
       -0.022728415 -0.0342824 0.038567226 -0.0301011
0003e0 ff 42 d0 bc f5 4b 6b 3d b9 29 45 3c 75 f4 3c bc
       -0.025422571 0.057445485 0.012033873 -0.0115328925
0003f0 9b 89 1e 3d a4 85 3f 3c 2b 08 24 bc c2 f3 d6 bb
       0.03870545 0.011689577 -0.010011713 -0.00655982

body.block2.conv.bias f4 [64]
000000 b1 f3 39 3d 9d 86 e1 bc dd de e8 bc 67 99 e7 bc
       0.045398418 -0.027530009 -0.028426582 -0.02827139
000010 89 99 53 3e 04 40 12 3d b0 63 c1 bc 38 4d fc bc
       0.20664038 0.03570558 -0.023607105 -0.03079854
000020 7e 68 a6 3c 68 a6 f4 3d 77 fc 2a 3e 80 fb bb 3c
       0.020313498 0.11945802 0.1669787 0.022947073
000030 74 d0 f3 3d 5e d9 00 3e a1 66 dc bb f4 f3 cc 3d
       0.11904994 0.12582919 -0.0067261015 0.10007468
000040 05 70 d2 3b 5d c2 88 3e 8e 9e e8 3c f4 07 da 3d
       0.006422045 0.26710787 0.028395917 0.10646048
000050 77 5a 6e 3c be 6e 81 3e 8f d5 18 3e 60 e8 79 3c
       0.014547936 0.25279802 0.14925216 0.015253156
000060 4c 25 7d 3d ac 4b 23 3d f5 e0 64 3d 36 7f a7 bc
       0.061803147 0.03986709 0.0558786 -0.020446401
000070 e4 b4 48 3e ef 72 9c bc 65 45 1a 3e 91 81 d9 bc
       0.19600254 -0.019097773 0.15065534 -0.02655104
000080 08 d8 28 bd 49 60 3a bd 47 a1 c1 bb 6d 33 e7 3d
       -0.04122165 -0.04550198 -0.0059091183 0.112891056
000090 28 b2 5b bd f9 92 a0 3d 53 c2 91 3e e1 6b 9a 3d
       -0.0536367 0.07840533 0.2846857 0.075401075
0000a0 ef 7e e1 3d b0 a4 82 3e c2 b0 d0 3c 7d d8 77 3d
       0.11010539 0.25516272 0.02547491 0.060509194
0000b0 ab 63 ce bc 22 ce 60 bd 7a df 4d bb e0 fa 9d 3d
       -0.02519401 -0.054884084 -0.003141372 0.07713866
0000c0 57 e5 bb bb f3 0d c6 3c 43 5f 23 bc d5 db 3b bc
       -0.0057341265 0.024176573 -0.009971443 -0.011465986
0000d0 6d cb 38 3e 3e 34 91 3c a6 1d 2d 3d 13 85 f3 3a
       0.18046351 0.017725106 0.042264603 0.0018579088
0000e0 54 76 dc 3d 4f 76 3d 3e da 79 d3 3d 67 b6 01 3d
       0.10764757 0.18502162 0.10325976 0.031668093
0000f0 2a e2 7c 3e 37 e6 d3 3c 6a 8f 80 3c 67 14 c3 3c
       0.2469565 0.02586661 0.015693385 0.02381344

tail.weight f4 [1, 64, 3, 3]
000000 b9 d0 16 bd e7 3a c3 bd e3 e3 1c bd 76 ea 8f bc
       -0.036820147 -0.09532719 -0.038303267 -0.017567854
000010 3e 26 3c bc 75 ae c2 3c 49 b2 a3 3b cd 0f 4a 3c
       -0.011483727 0.023764828 0.0049956185 0.012332869
000020 4e 4c 1d 3d 9b cd 5a bd 9b 5b 92 3a 20 7e a1 3b
       0.038402848 -0.053418737 0.0011166217 0.0049283653
000030 97 fc 75 3c a7 1a 14 bd ea 8e 82 3d 2a 0a 74 3c
       0.015013835 -0.03615823 0.06374915 0.014895001
000040 8d 55 33 bb a1 ab 98 3d 0e 37 70 3d c2 02 a5 3c
       -0.0027364225 0.074546106 0.058646254 0.020142917
000050 88 99 f3 3c 21 65 1d 3d 50 a6 c4 bc de b6 45 3d
       0.029736295 0.038426522 -0.024005085 0.0482701
000060 ae aa a2 3d 70 4b b4 bc 72 9c 96 3c 2f 93 8b bb
       0.07942711 -0.022008628 0.018385146 -0.004259489
000070 77 31 0d bd 20 be c7 bc e7 ac 8d 3d 49 08 e3 3c
       -0.034471 -0.02438265 0.06917744 0.027713912
000080 43 73 73 3c c8 52 b3 3d cc b0 b8 3c 04 9e 50 3d
       0.0148590235 0.08756024 0.02254524 0.050931945
000090 e6 69 4c 3d a4 39 b4 3d 8e 3c 90 3d 2b 2e 90 bc
       0.04990568 0.088000566 0.070428 -0.01760014
0000a0 c4 99 54 ba 84 35 3d 3c 26 e2 de bd 77 53 85 bd
       -0.0008110071 0.011548404 -0.10882978 -0.0651006
0000b0 34 4d 3c bd 32 0d 40 bc ed e1 a2 ba 50 12 65 3c
       -0.045972064 -0.011721896 -0.001242695 0.013981417
0000c0 91 a9 99 3c 2c 41 3e 3d a4 26 6f 3d 04 72 03 bd
       0.018757613 0.04644887 0.05838646 -0.032091156
0000d0 cd fb 9a bc a1 3f f1 3a b0 02 60 bd 02 6e 17 3d
       -0.018918896 0.0018405804 -0.054690063 0.036970146
0000e0 7e c1 c3 3d 9f 2d c5 bc 16 ff 92 3d f8 42 bc 3d
       0.0955839 -0.024069605 0.0717756 0.09192461
0000f0 5e 09 bf bc 79 67 e0 3d 03 02 ec 3d 29 82 5d bb
       -0.023319896 0.10957236 0.11523821 -0.0033799505
000100 93 6a 87 bd 18 bf 24 bd 79 8d 5a 3b 1d e1 2a bd
       -0.06612124 -0.040221304 0.0033348484 -0.04171859
000110 c0 4e e9 bc 3f 8a 66 3d c7 99 c2 3c cc bb 4f 3d
       -0.028479934 0.056284185 0.023754967 0.050716206
000120 cc 5c b3 bd e3 dc 4d bd 9d 65 78 bc 4e 3a 60 bd
       -0.08757934 -0.050259482 -0.015160945 -0.054743104
000130 88 23 98 bc 89 2d 08 bd 46 51 43 3d d8 a6 e2 bc
       -0.01857163 -0.03324655 0.04768493 -0.027667448
000140 7a 11 79 3d a2 ef 8f 3d a9 66 1b 3d 02 3c 2d 3d
       0.060807683 0.07028128 0.0379397 0.042293556
000150 35 25 dc ba ce d6 35 3b aa 04 14 3c 49 03 a7 bd
       -0.0016795757 0.0027746442 0.009034315 -0.081549235
000160 06 68 c9 bd 76 68 65 ba 17 13 44 3c fa 88 54 3d
       -0.09834294 -0.00087512226 0.011967442 0.051888444
000170 0c c3 62 3d 28 34 8f bc 27 42 29 3d 76 57 b0 3d
       0.055361792 -0.017480925 0.041322853 0.08610432
000180 5a cd d2 bd 25 73 ba bd 2e bb 3f bd 4d 64 ab 3d
       -0.10293074 -0.09103993 -0.046809368 0.0836874
000190 92 ce 06 3d d5 89 b6 3c 25 e2 39 3d b3 0a 6d 3a
       0.032911845 0.02228252 0.045381684 0.0009042427
0001a0 30 bf ca bc 94 47 5b 3d 8a 04 13 bd f7 bb c2 bd
       -0.024749368 0.05353506 -0.035893 -0.09508508
0001b0 52 80 ba bc 2a 69 5d 3b 82 92 61 3d 08 79 3d bd
       -0.022766266 0.0033784606 0.05507136 -0.046258003
0001c0 a0 3a 54 bd a9 43 16 3d fa 0c 61 bd 17 54 0b bb
       -0.05181372 0.03668562 -0.054944016 -0.0021259838
0001d0 87 18 24 3d d0 97 b8 3c 33 b5 04 3d a5 5b d0 3c
       0.040062454 0.022533327 0.032399368 0.025434325
0001e0 b2 b3 0b 3c 5a cf 66 3c 55 c9 96 3b a3 8f 89 bd
       0.008526729 0.014087522 0.0046016374 -0.0671685
0001f0 d8 0b 7b bd 34 42 b4 bd 8a 43 70 bb 6c c6 a4 bd
       -0.061290592 -0.0880169 -0.003666135 -0.080456585
000200 9d b2 50 bd 33 b3 63 bc 70 11 8f bd 1f b3 df bc
       -0.05095159 -0.013897705 -0.06985748 -0.027307091
000210 90 65 f4 3d e7 9c ef 3c 92 66 9f 3c 5a 0d 82 bd
       0.11933434 0.029249622 0.019458089 -0.06350203
000220 a4 50 05 3d 7a 55 dd 3c b9 2b d8 bc dc 78 d1 3d
       0.032547608 0.027018297 -0.026388036 0.1022813
000230 13 c1 ec 3c ed af b7 bd 45 46 63 3c 94 7b f2 3a
       0.028900659 -0.08969102 0.013871734 0.0018499964
000240 b3 ae fa 3b a0 99 15 bd 31 f5 19 3d 21 90 1b 3c
       0.0076502203 -0.03652346 0.03758735 0.009494812
000250 87 55 4b bc dc c4 01 bc 52 0b da 3d 1b 86 21 3c
       -0.012410528 -0.00792047 0.106466904 0.009858633
000260 83 8b 80 3d d5 29 2d 3d e4 0a 04 3d c8 d0 a7 3d
       0.0627661 0.042276222 0.03223695 0.08194119
000270 df f8 ff bc 9f de 9d bc 94 5f ca 3d c2 7d 0f be
       -0.0312466 -0.019271193 0.09881511 -0.14012817
000280 8c a4 8a bd cd 0b ca bc 9a a0 bd 3b f0 72 3f 3d
       -0.06769666 -0.02466383 0.0057869675 0.046740472
000290 ee 3c 86 3b e4 ee fa 3b a8 a9 71 3c 4c 1e 86 3d
       0.004096619 0.0076578725 0.014749922 0.065487474
0002a0 da b3 d4 bd 3b 9b 3a bd 44 ae a1 bb 30 13 c6 3c
       -0.103858665 -0.045558196 -0.004934104 0.024179071
0002b0 98 af f0 3c 1d b2 96 3c a4 34 b3 3b 4c 8c 56 3d
       0.029380605 0.018395478 0.0054689217 0.05237989
0002c0 f2 64 fd bb 4a 7f e7 bd 7f 2b e1 bc 21 cd 15 bd
       -0.007732981 -0.11303575 -0.02748656 -0.03657258
0002d0 f6 70 f1 bc 18 33 aa 3c 35 b5 7b 3d e7 10 8d 3c
       -0.02947281 0.020776317 0.06145211 0.017219974
0002e0 58 a7 60 bc cf c7 91 3d 40 89 e3 bd 2e 8e 94 bc
       -0.013711773 0.071181886 -0.11110163 -0.018134203
0002f0 e9 57 cb 3b f7 7e a2 3d 1d 26 b9 3d 38 4d b7 3d
       0.006205548 0.07934373 0.09040473 0.08950275
000300 f8 de a0 bc 9c 24 e1 bb 16 fc 86 3d 8c a6 26 be
       -0.01963757 -0.0068708193 0.0659105 -0.1627447
000310 0a 1d 76 bd d3 ea 1f bd 22 c0 6d 3d 2d f7 02 3c
       -0.060086288 -0.039042305 0.05804456 0.007993502
000320 10 80 7e 3c 0b eb a4 bc a7 9c ee bc 8b 84 6c 3d
       0.015533462 -0.020131608 -0.029127432 0.05774359
000330 81 63 21 bc 0d 65 52 bc f3 a5 1b bd ea 71 1e bd
       -0.009850384 -0.012841475 -0.03800006 -0.038682856
000340 48 c9 48 3c 4c e5 0e 3d df 86 e1 bb e5 71 07 3d
       0.01225502 0.034886643 -0.006882533 0.033067603
000350 3c cb 75 3d d2 87 eb bd 92 a5 82 3b c6 43 7e bc
       0.060008273 -0.11500515 0.0039870227 -0.015519088
000360 f6 62 85 bd c6 4a 5c 3d 74 43 10 bd 95 e9 45 3d
       -0.06513016 0.053782247 -0.03522058 0.048318464
000370 ab 81 93 3d 3e 6f 84 bb f8 b1 f3 bc ad eb 93 bc
       0.072024666 -0.0040415814 -0.029747948 -0.018056715
000380 8f 2e 85 bd 4b 35 b6 3c 33 17 2b 3d b2 7e cb bb
       -0.06503021 0.022242209 0.04177017 -0.0062101716
000390 41 6d 86 3b 64 6e 5e 3d b1 1f 86 bb 27 51 82 bd
       0.0041023795 0.054304495 -0.0040931334 -0.06363135
0003a0 7d 40 79 39 1f 75 4a bd 1c 52 bd bd 8a ba 0d bd
       0.00023770514 -0.0494281 -0.09244177 -0.034601726
0003b0 0a 16 a2 bd d6 a2 84 bd 42 c8 99 3c bc d0 5b bd
       -0.0791436 -0.06476371 0.018772248 -0.05366586
0003c0 6b ec e9 3b 9b b6 03 3d cb f8 38 3d cc 02 04 3d
       0.007138779 0.032156568 0.045159142 0.03222923
0003d0 06 17 22 3c 0a 7d a2 3c 06 03 8d 3c 58 21 13 3c
       0.0098931845 0.019835014 0.017213356 0.008980118
0003e0 20 68 d5 ba ec b7 e3 3d 49 dd 6e 3d f7 7e 8c 3d
       -0.0016281642 0.11119065 0.058316503 0.06860154
0003f0 09 02 a8 3d d0 6e d6 3c a0 1c 96 3d d5 7e 52 3d
       0.08203513 0.026175886 0.073296785 0.051390488
