TrainedModels/volcano/2020_08_15_15_35_16_video_train_depth_3_lr_scale_0.1_act_lrelu_0.05/1/netD_a.pth (torch_old, 454648 bytes, 9 tensors)

head.conv.weight f4 [64, 3, 3, 3]
000000 61 77 72 3c e0 02 9a bb ab da 35 3d 81 e8 87 3c
       0.01479897 -0.0047000498 0.04439799 0.016590359
000010 3e 05 62 bd 1f 21 d3 bc 1e 17 f3 3c bb 99 07 bb
       -0.05518078 -0.02577263 0.02967411 -0.0020690996
000020 ea 19 f6 bc 9f 5c 8a 3d f3 09 08 bd 0c fc 46 3c
       -0.030041654 0.06755947 -0.033212613 0.012145054
000030 64 5a 2c 3c 2f 48 aa bc f6 7f 18 3c 79 0c 82 bb
       0.010519598 -0.020786373 0.009307852 -0.003968772
000040 a7 68 1a bd 0d e9 27 bc 66 8a d6 3c a4 bd c4 3c
       -0.03769746 -0.010248435 0.02618904 0.024016209
000050 09 5a b2 3c a3 85 31 3c f0 68 89 3b 3f be 34 bc
       0.021771448 0.010835084 0.0041934177 -0.011031686
000060 d4 a0 ed bc 0f cf 69 3c d2 c2 cf bb db 28 2c 3d
       -0.029007353 0.014270558 -0.006340363 0.04203115
000070 07 8a b9 3c 92 b6 1e 3c 8c 28 d9 bc 4e 84 c5 39
       0.022648824 0.009687083 -0.026508592 0.00037673343
000080 01 94 73 ba 8d 4c d4 bc 55 b4 05 3b 48 98 b8 bc
       -0.00092917687 -0.025915409 0.0020401676 -0.02253355
000090 4e bb c4 ba 2d c6 d8 3b 81 95 17 3d 29 18 89 3c
       -0.0015009434 0.0066154213 0.037007812 0.016735153
0000a0 87 8c 0f bc 8d de 14 bc 5b e0 d1 bc 43 f0 14 bc
       -0.008761532 -0.009086263 -0.025619676 -0.009090486
0000b0 a2 9b 71 bc 06 33 75 3c 9b db d5 3c 54 0d 25 3d
       -0.014746578 0.014965778 0.026105693 0.040295914
0000c0 83 76 4d bc d7 2e a4 3c 34 b7 76 bc 18 7a 0f bd
       -0.012540462 0.020041866 -0.0150583275 -0.035028547
0000d0 de d6 52 bb 35 de ed bc 34 ac 7f 3b 34 30 8f bc
       -0.0032171528 -0.02903662 0.0039012553 -0.01747904
0000e0 5f 97 f5 ba a8 32 bf 3c 04 ff 81 3c 11 6c 94 ba
       -0.0018737129 0.023339584 0.015868671 -0.001132371
0000f0 4f 49 59 bc 70 12 87 3d 53 0a ac 3c ee fe c3 ba
       -0.013262107 0.065953135 0.021001017 -0.0014953294
000100 93 f8 07 bb c3 59 84 3c ef c9 a4 3b 41 8a c1 3c
       -0.0020747527 0.016156083 0.005028955 0.023625495
000110 1b 5b 48 3b 19 c6 26 3c 96 56 94 3c 6f c6 09 3c
       0.0030571881 0.010179066 0.018107694 0.008409127
000120 fc 73 b8 3a 4b 20 08 3c 68 8f 33 bc cf 3d 01 bd
       0.0014072652 0.0083084805 -0.010959484 -0.031553086
000130 de 5b f3 3c 84 af 08 bb 7a fc ab 3c 8d db 7b 3d
       0.029706892 -0.0020856569 0.020994414 0.061488677
000140 d4 8b 64 bc c2 82 e8 bc 5a fd b9 bc 47 3f 0a bd
       -0.013949353 -0.028382663 -0.022703815 -0.033751752
000150 8c d8 95 bc 7c f0 c9 3c 72 da ac bc 5e e8 5c bb
       -0.018291734 0.024650805 -0.021100257 -0.0033707838
000160 ef 15 8b 3c 91 a9 97 bd d8 e5 b6 bc 8d b2 47 bc
       0.016978232 -0.07405389 -0.022326395 -0.012188566
000170 b5 86 35 bd ba 78 e8 bc 8b 83 63 3c fa 8b 45 3b
       -0.04431792 -0.02837788 0.013886343 0.0030143247
000180 2a a8 18 bb 43 56 30 3b da 19 76 bd 9f c2 55 bd
       -0.0023293593 0.0026906885 -0.060083248 -0.05218756
000190 a0 5a 76 ba 3e 38 22 bd 4c 82 f0 bc f7 b9 2e 3d
       -0.00093976595 -0.039604418 -0.029359005 0.04265782
0001a0 ec 4d 78 bc a2 3d 7b ba 22 43 0a bd dc 9f 2a bd
       -0.015155297 -0.0009584074 -0.03375543 -0.04165636
0001b0 27 88 2b 3c 43 e7 9d 3b 0e 66 f4 3b 40 e6 97 3c
       0.010469473 0.0048188283 0.007458455 0.018542409
0001c0 c4 85 80 bc 35 77 a9 bb 88 78 74 bc 57 34 5f bd
       -0.015688784 -0.0051716813 -0.014921315 -0.054493275
0001d0 0d 17 c3 3c fe e4 e5 3b 94 e2 19 bb 0b ef 01 bb
       0.023814702 0.0070158234 -0.0023480998 -0.0019826319
0001e0 85 19 8d bc 8c 68 de bc 86 2f bd 3a 52 d7 03 3d
       -0.017224083 -0.027149461 0.0014433719 0.032187767
0001f0 3a 10 1c bd 6a 6d dc 3c 23 2f 55 bc c5 01 ea 3b
       -0.038101412 0.026907641 -0.013011727 0.007141324
000200 d4 42 a6 bc 2a d1 c5 3c 71 eb 01 bc e6 94 21 3d
       -0.020295538 0.024147589 -0.007929669 0.03944864
000210 b9 31 b4 bc b4 ae 31 bd 8e 33 12 bc 67 fe 9a bc
       -0.021996366 -0.0433795 -0.008923424 -0.018920137
000220 d3 71 0f bd 8f 68 2e 3d 6c c6 91 bb 89 ec b7 bc
       -0.03502066 0.042580184 -0.0044487026 -0.022451656
000230 80 fa 4f 3c 3d 24 8f 3b 2d e6 4b bd 00 2d fb 3b
       0.012694001 0.0043683336 -0.04978006 0.0076652765
000240 08 a4 9f 3c 48 b0 3d 3d 75 92 ca bc 14 5c 57 3d
       0.019487396 0.046310693 -0.02472804 0.052578047
000250 5d 50 83 3d 80 05 ff bb cf 9a 06 3d a4 30 1b 3d
       0.064118125 -0.007782638 0.03286248 0.037888184
000260 b3 32 41 ba a5 ba c3 bb e8 3f ca bc f7 9f 21 bd
       -0.00073699205 -0.0059731775 -0.024688676 -0.039459195
000270 41 d6 e2 bc a2 a0 5c bc f2 1c dc 3c 8c e1 46 bd
       -0.027690055 -0.013466032 0.026869271 -0.048554942
000280 9b 29 4d bc 5d 92 57 bc f8 d4 3b bc 76 70 8a 3c
       -0.012522127 -0.013157454 -0.01146435 0.016899329
000290 e1 21 8c bc 4d 3f 44 3d f3 64 3a 3d dd 39 dd 3c
       -0.017105998 0.04791193 0.04550643 0.02700513
0002a0 a2 40 d1 bc 8e 4a 77 3a 59 14 4d bd 71 d5 13 bd
       -0.025543515 0.0009433412 -0.050068233 -0.036092225
0002b0 09 1d df 3b 0a 43 41 3c 6a 6e b3 bc 12 bf 81 3d
       0.006808881 0.0117957685 -0.021903235 0.06335272
0002c0 03 41 05 3d 07 95 2c bd a6 9c 1d 3c c8 87 07 bd
       0.032532703 -0.04213431 0.009619867 -0.033088475
0002d0 51 88 31 bd a4 52 11 bc 90 33 1b bc 74 b4 fb 3c
       -0.043342892 -0.008869801 -0.009472743 0.030725695
0002e0 09 6b 48 3d b7 02 3a bc 96 6c 84 bc d3 3c c9 3c
       0.0489302 -0.011353186 -0.016165059 0.024565136
0002f0 6c 59 11 bd 2c 6e d3 3c a8 43 77 bc fa f9 a0 3b
       -0.03548567 0.02580937 -0.015091814 0.004912612
000300 fe ee b2 3b 23 1b b4 bc 8c 1f 8f bc 52 4a f0 3b
       0.005460619 -0.021985596 -0.017471097 0.0073330784
000310 93 66 e6 b9 81 af 0d bd e0 48 4e 3c 93 80 a1 b8
       -0.00043945442 -0.0345912 0.012590617 -7.701027e-05
000320 e0 74 f1 bb 61 8e 21 3c 83 d2 cd bb 8f c9 06 3c
       -0.007368669 0.009860606 -0.0062811985 0.008226766
000330 ab e1 62 bc 69 3a b6 3c 8e 23 50 bd 5c a0 e8 3c
       -0.013847749 0.022244649 -0.050815158 0.028396778
000340 96 42 8e ba 68 fe 16 3d 6c da 5c 3c b6 35 15 3d
       -0.0010853584 0.036863714 0.01347981 0.036428176
000350 e9 12 18 bc 9e 9f 88 bc ed 90 5f bc ee 1d a0 bc
       -0.009281852 -0.016677674 -0.013645393 -0.019545522
000360 ed 8a 1d bd cc f1 58 bd 7c f1 6a 3b ca 23 0f ba
       -0.038462568 -0.05296497 0.0035849502 -0.000546035
000370 c3 eb 02 3c 25 e6 21 bc d6 95 8a bc 30 4e 34 3c
       0.00799078 -0.009881531 -0.01691715 0.0110049695
000380 f8 85 2c bc 8f 7f 7a bb 7b 92 07 bd aa 93 4b bd
       -0.0105299875 -0.0038223004 -0.03309868 -0.04970137
000390 fb 0a 8e bc a5 5c 9d bc ac 2e 5e bc 95 33 3c bc
       -0.01733922 -0.019209215 -0.013560932 -0.0114869075
0003a0 89 8d 55 bb ed 6d 66 bd 63 e8 36 bd bb 07 6d bd
       -0.0032585582 -0.056257177 -0.044655215 -0.0578687
0003b0 b5 28 82 bd fd 1d 13 bc e6 5a f6 bc 3d 57 34 3c
       -0.063554205 -0.008979318 -0.03007264 0.011007127
0003c0 04 11 7d 3b 10 27 bb bc 2f 58 f9 bc 01 ad 65 3d
       0.0038614878 -0.022845775 -0.030437557 0.056073193
0003d0 b9 4e 8a 3c d8 dd 24 bb 57 34 d3 3c 00 c9 2a bc
       0.016883241 -0.0025156643 0.025781794 -0.010423899
0003e0 9a 2c 5f bd c1 20 1e 3d 4c a2 e2 bc 73 0f 4d bd
       -0.054485895 0.038605455 -0.02766528 -0.05006356
0003f0 94 2e 61 3d 57 f4 3a 3d 7d ae 25 bc d5 2e 04 3b
       0.05497606 0.045643177 -0.010112402 0.0020169516

head.conv.bias f4 [64]
000000 6d 65 50 3d c3 2b b4 3d 74 e3 72 3a a3 43 cd 3d
       0.050877977 0.087974094 0.00092654605 0.10022666
000010 8d 2d a1 bd f2 6a 29 b8 af 31 32 39 6a 19 fe 3d
       -0.07870016 -4.039234e-05 0.00016993911 0.12407191
000020 8d 58 df bd 9a c4 c6 bc 52 82 2d 3e 51 f9 93 3d
       -0.109055616 -0.024263669 0.16944245 0.07225288
000030 88 5f 05 bd 50 77 14 be 9c dd 39 3e 0c 40 d4 39
       -0.03256181 -0.14498639 0.18150944 0.0004048351
000040 83 ed d3 3d 4a e3 8a 3d e9 f2 b0 bc 12 ca e6 39
       0.10348036 0.06781633 -0.021600204 0.00044019573
000050 51 2b 3b 3e d8 f8 02 3e 99 d9 e7 3d ce 5e 24 be
       0.18278243 0.12790239 0.113208 -0.1605179
000060 8b 5f d5 3d bd 4c 07 3d a8 fe e2 3d 6c 90 81 3d
       0.10418614 0.033032168 0.11083728 0.063263744
000070 76 f3 29 be 0a 85 0b be 49 d0 49 be 59 b1 fe 3a
       -0.16596779 -0.13624969 -0.1970836 0.0019431516
000080 d3 45 ba 37 cb da 07 3e 00 06 1a be 28 2a 0b 3e
       2.2205442e-05 0.13267057 -0.15041351 0.135903
000090 1d 6a 9b 3d d1 26 27 be 1f 3e b3 39 fb 46 27 3e
       0.07588599 -0.16323401 0.00034187824 0.1633567
0000a0 59 62 c8 3d bb a8 cd 3d 55 41 e0 bd 5f 6d ee 3d
       0.09784383 0.100419484 -0.10949961 0.11641955
0000b0 7f 1f df 3c b7 f9 7e 3d 6c b0 c9 3d 68 84 2d 3e
       0.027236698 0.062249865 0.09848103 0.1694504
0000c0 63 bf 48 bd dc f1 21 3e cc ed 46 3a d7 ba 4a be
       -0.049010646 0.15814918 0.0007588535 -0.19797836
0000d0 41 b7 1f 3e dc ae 2c 3e 21 60 f3 bd 9e 08 95 bd
       0.1559725 0.16863579 -0.118835695 -0.07277034
0000e0 6b 6f db 38 37 92 b6 3a 3e 03 c2 39 e5 45 22 bb
       0.00010463487 0.0013929073 0.0003700498 -0.0024760899
0000f0 90 65 1a 38 63 5c 93 bd 84 ed 42 3d 46 36 15 3d
       3.681105e-05 -0.07195356 0.047589794 0.036428712

body.block0.conv.weight f4 [64, 64, 3, 3]
000000 37 bc b7 bc 78 8a 29 bd 15 bb 5b bc c7 49 0e bc
       -0.022428615 -0.04139182 -0.013411303 -0.008684582
000010 24 d5 25 3d 27 ca 97 3b 2a 68 18 bc 10 aa d1 3c
       0.04048647 0.0046322527 -0.009302178 0.025593787
000020 1e fc fb bb 67 c5 e8 bc a1 18 a3 bc 57 f4 ca bc
       -0.007689967 -0.028414441 -0.019909205 -0.024774713
000030 09 fb e0 bc 1c 13 2e bc 63 07 33 bd 3d c0 98 bd
       -0.027463453 -0.010624673 -0.043708216 -0.074585415
000040 73 a6 63 bd 86 76 d3 bd f2 32 3d bc 31 ee c3 bc
       -0.05557866 -0.10325341 -0.011547791 -0.02391729
000050 7b 42 83 bb 44 69 80 bc 14 f9 34 3b 5b 88 c3 3b
       -0.004005728 -0.015675195 0.0027614282 0.0059671826
000060 ea 63 1e 3d f5 48 1d bc f1 ba 49 3d f1 53 04 3d
       0.038669504 -0.009599914 0.049250547 0.032306615
000070 46 ad 3e 3d d4 69 05 bc e5 bb 09 bc 01 f2 ce bc
       0.046551965 -0.008142907 -0.008406614 -0.02526188
000080 45 1d 5f 3a 65 c6 b1 bc eb c1 5e bc 18 5b 23 bd
       0.00085111364 -0.021701047 -0.013596038 -0.039881796
000090 fa 99 cf 3c 64 fb d6 ba 99 7e 19 ba 77 29 be 3b
       0.025341976 -0.0016401825 -0.00058553513 0.005803283
0000a0 af 23 6e 3d bc fc 92 bc 22 6e 05 bd 15 b9 ed 3c
       0.0581395 -0.017942779 -0.032575734 0.029018918
0000b0 1f 71 d6 3a df 79 49 3d 12 4f 85 3c 00 bc 13 3d
       0.0016360617 0.04918849 0.016273055 0.036067963
0000c0 5d 50 0b bd 68 f3 93 bd f9 d6 4e bd 7a 3f 9b bc
       -0.034012187 -0.072241604 -0.050497983 -0.018951166
0000d0 31 50 04 bc f8 fb 76 bc 64 5a e5 3c ae f2 53 bc
       -0.00807576 -0.0150747225 0.027997203 -0.012936277
0000e0 fa a9 73 3d 5c 7b b6 bc 69 ca 1d bd d8 33 e7 bc
       0.059488274 -0.02227562 -0.03852311 -0.028222963
0000f0 6f 70 2a bc 39 93 c7 bc 93 a9 2d bd 2f 66 8f bc
       -0.010402783 -0.024362193 -0.042398047 -0.01750478
000100 af 3a 36 bd 2e 6d a1 bc 75 d3 65 bc d0 a1 29 3d
       -0.04448956 -0.019705381 -0.014027466 0.041414082
000110 83 a0 b0 bb 91 61 9f 3c 80 9e a3 bb f2 26 57 bd
       -0.0053902282 0.019455703 -0.00499326 -0.052527376
000120 d5 c7 03 bc ae a8 01 bc ff 36 d0 3c d9 3c 79 bc
       -0.008043249 -0.0079137515 0.02541685 -0.015212261
000130 66 4a 61 bc e1 14 2f 3d 48 d1 35 bc b1 16 e8 3b
       -0.013750648 0.04274452 -0.01109726 0.007082783
000140 62 f9 24 bd db 68 03 3d 84 c3 7f 3c c1 ed 1b 3d
       -0.040276892 0.03208242 0.015610579 0.038068537
000150 cc 90 c9 bc 91 8c 06 3d 99 3d 92 3c b8 cf 2b 3b
       -0.024605177 0.0328489 0.017851638 0.002621634
000160 70 0e 8a ba b9 bc f6 3b 64 56 81 3b 63 a3 82 bb
       -0.0010532867 0.0075298217 0.003947066 -0.0039867624
000170 51 b0 94 3c b4 48 90 bc 69 e2 de 3b bc 2d 3c 3b
       0.01815048 -0.017612793 0.0068018925 0.0028713783
000180 32 e2 ff 3b 75 71 ae 3b 08 3a 91 bc b3 17 0c 3d
       0.007808947 0.0053235837 -0.017727867 0.03420229
000190 ad 55 c5 3a f8 4e 0a 3c 4c 47 62 3c 9c 6f e2 bc
       0.0015055441 0.008441679 0.013810944 -0.02764111
0001a0 af 4f 10 bd ca d7 d0 bc fb 9e 8f bc 1f e4 79 3c
       -0.035232242 -0.025493521 -0.017531862 0.015252142
0001b0 ac 95 c9 3c 60 78 53 3c 1d e5 70 bc 07 e4 44 bc
       0.024607502 0.012907118 -0.014703062 -0.012017257
0001c0 fe f6 ba bc 46 fb c3 ba 59 64 45 3b 8c c1 a4 bc
       -0.022822853 -0.0014952205 0.0030119626 -0.020111822
0001d0 31 28 85 3d f1 a3 1d bd 8d 63 9a bc c4 a7 73 bc
       0.065018065 -0.038486425 -0.018846298 -0.014871541
0001e0 1a c8 55 3c 3d 9c 01 3c ff 3c 52 bc 23 7b 85 bb
       0.013048196 0.007910785 -0.012831925 -0.004073517
0001f0 a9 cf 1d bc 58 8a 8b 3c b2 c6 12 3d 30 5c 2e 3c
       -0.00963203 0.01703374 0.035834022 0.010642096
000200 0d fb 41 3c 0a 1f 9b bc 4f ff 86 bc 02 d2 b1 bc
       0.01183964 -0.018935699 -0.016479162 -0.021706585
000210 5f a4 0c bb df 09 48 3c 17 2c 67 bc 5c 53 9c bb
       -0.0021460277 0.012209385 -0.014109633 -0.0047706794
000220 61 fb 4a bd 32 4e 4a bd e9 e9 21 3d 4f ba a1 bc
       -0.04955614 -0.04939098 0.039529715 -0.01974216
000230 e3 54 d6 bc 16 4d 5c 3d 91 f0 cd 3b f4 7e 61 3b
       -0.026163524 0.053784452 0.0062847813 0.0034407945
000240 96 82 a7 3c 83 c6 6b bc e9 7a 1f bc 5d 87 1c 3d
       0.02044801 -0.014390591 -0.009733894 0.03821503
000250 e1 ac e0 3c 83 79 0c bc 30 ca 44 3d 68 ce 04 3d
       0.027426185 -0.0085738925 0.048044384 0.032423407
000260 62 fd f6 3c 68 0c 8f bc 29 b0 b1 bc 08 91 e4 3c
       0.03015012 -0.01746197 -0.021690445 0.027901188
000270 12 ea ab ba c1 d3 8f 3d b4 f8 4e 3c d6 50 21 3d
       -0.0013116023 0.07022811 0.012632538 0.03938373
000280 89 d5 ef 3c 14 e8 73 3d 4e 40 76 bd c8 65 df 3c
       0.029276626 0.0595475 -0.06011992 0.027270213
000290 08 8a 22 3d f7 4f 24 bd 9b bc 86 3a 14 a2 08 3d
       0.039682418 -0.040115323 0.0010279597 0.033357695
0002a0 2a 96 fd bc 6d 3e 44 bb bf 91 13 bb 0e cd 90 bd
       -0.030955393 -0.0029944435 -0.0022517291 -0.07070361
0002b0 e3 f4 89 bc f4 f4 bd bc a7 bf 6c 3b cb fd c5 bc
       -0.016840404 -0.023188092 0.0036124976 -0.02416887
0002c0 b8 b0 0e 3a 9e af 0a 3d 1c e6 4a bc d7 f5 37 bc
       0.0005443203 0.033858888 -0.012383964 -0.011228046
0002d0 55 4c 15 bc 31 77 66 bb 8b a7 a7 3b 74 be 94 3c
       -0.009112437 -0.0035166258 0.005116408 0.018157221
0002e0 e2 6f 17 3c bc 72 36 3c a0 09 0e 3c 78 06 ef 3c
       0.009242984 0.011135753 0.008669287 0.02917789
0002f0 80 72 82 3c ce a4 76 3c f1 25 91 3b c6 4b f9 b9
       0.015923738 0.015053941 0.004429572 -0.00047549437
000300 e6 f2 2e 3c f5 fd d1 3c 5b c0 01 bd 68 64 7e bb
       0.010678029 0.025633791 -0.031677585 -0.003881717
000310 94 69 3e 3d 82 6a 64 3c e6 d4 e1 3c 2f c1 0c bd
       0.046487406 0.013941409 0.027567338 -0.03436392
000320 06 20 dd bc 5c e1 4e 3c c3 c1 e5 3c 51 6e 6e 3c
       -0.026992809 0.012626972 0.028046494 0.014552669
000330 2e e2 b2 3c 08 55 5c bc cb 13 47 bb 85 7f 45 3b
       0.021836367 -0.013448007 -0.0030376788 0.0030135822
000340 21 5b 04 3d 69 75 09 bc 32 70 88 bb dd b7 da 3b
       0.03231347 -0.008389809 -0.0041637653 0.0066747502
000350 85 9e ba 3c 6c b6 1f 3d 64 bc d1 3c af 77 fc 3b
       0.022780666 0.03899233 0.025602527 0.007704697
000360 87 d4 26 3d ac 19 14 3c 7b a4 22 3c d0 ef 96 3c
       0.040730026 0.009039324 0.0099269105 0.018424898
000370 55 f5 51 3c d5 b8 52 3d ef 88 14 bd e5 ad 55 3b
       0.012814839 0.0514458 -0.036263403 0.003260487
000380 c0 40 09 3a 6a 46 47 3d e2 fd 62 3d cc 6a 3c bb
       0.0005235784 0.048651136 0.055417903 -0.002875018
000390 bc a9 9e 3d f2 47 b0 3c a0 8a f9 3c b2 f0 b4 ba
       0.07747218 0.021518681 0.03046161 -0.0013804643
0003a0 a9 14 f1 bb 15 dd 82 3d 41 db 99 3d 5e 3e 05 3c
       -0.007357199 0.06389824 0.075125225 0.008132545
0003b0 6c e2 83 bb 70 0f b5 3b 1c dd 6f 3b 18 86 7f 3c
       -0.0040247943 0.005525522 0.0036600297 0.015595935
0003c0 af 21 2c 3d e9 a3 a8 3b 5f 54 bc bc 50 36 01 bd
       0.04202431 0.0051464927 -0.02298945 -0.031545937
0003d0 30 8b 0f bc 9b 96 83 bc cb 0f 5e 3b 9d b8 87 3b
       -0.008761212 -0.016063025 0.0033883925 0.0041418807
0003e0 bf 01 05 bc 8a f3 5d bb 3e 6f 26 3d 4b a5 83 bd
       -0.008118092 -0.0033867084 0.040633433 -0.064280115
0003f0 21 f4 10 bd 75 a0 b4 bc 16 61 25 bd 91 f1 ab bc
       -0.03538907 -0.022049168 -0.04037579 -0.020989211

body.block0.conv.bias f4 [64]
000000 67 b7 1d bc 33 ce 00 3d 2b a5 5b 3c 42 5a bc bc
       -0.009626246 0.031446647 0.013406078 -0.022992257
000010 40 65 22 bc ea 48 88 3d 66 56 b9 3b 4e 0a ad bc
       -0.009911835 0.06654532 0.0056560514 -0.021123078
000020 41 f6 e8 3c f5 f6 79 3d ec 26 a1 bc 65 c5 fe 3c
       0.028437736 0.061026532 -0.01967188 0.031099984
000030 30 f8 e4 3b aa e6 97 bc 9a 77 5e 3d a6 ff 0e bc
       0.006987594 -0.018542606 0.05431328 -0.0087279435
000040 e4 07 94 bc 1f 35 58 3d df 98 80 3c eb 38 2d 3c
       -0.018070169 0.052785035 0.015697895 0.010572652
000050 22 ee bb 3c 55 22 8c 3d 4b 91 0b 3c 9c a0 bd 3c
       0.022940699 0.06842486 0.008518527 0.023147874
000060 d9 a1 38 bd b2 0b 77 3d 4c 17 72 3d 81 1f 33 3d
       -0.045076225 0.060313888 0.05910425 0.043731216
000070 c2 9b 03 bb 86 2f ee 3c d3 be ab 39 7e c8 c8 bb
       -0.0020081853 0.029075395 0.00032757837 -0.006127416
000080 21 a9 f2 bc 68 03 77 3d dd 09 12 3d 8f c1 15 bc
       -0.029621663 0.060305983 0.035653938 -0.009140386
000090 b9 ef 04 3d 50 a6 b8 3c 32 41 4a 3d 85 56 10 bd
       0.03245518 0.022540241 0.04937858 -0.03523876
0000a0 de 80 7e bc 7a 30 e6 3c 84 eb 96 3b 3a b1 cf 3b
       -0.015533654 0.028099287 0.0046057124 0.0063382657
0000b0 ec c5 04 bc e9 79 5a bc f2 21 8f 3c ef 2b 44 3d
       -0.008103829 -0.01333473 0.017472241 0.04789346
0000c0 61 33 79 3c a7 05 c9 3c 10 21 ed 3c 39 47 e2 bc
       0.015210004 0.024538828 0.02894643 -0.027621852
0000d0 bf d5 14 3d 65 15 30 3d f2 ec 56 bc 95 f6 c1 3d
       0.036336657 0.042989153 -0.013118016 0.0947086
0000e0 79 7f 8b 3c 66 3a b7 bc 15 04 99 3b ec 7a db bb
       0.017028557 -0.022366714 0.004669676 -0.006698003
0000f0 9c 66 2d 3d a2 1c 84 3d 46 4c aa 3c be a9 19 3d
       0.042334184 0.06450774 0.020788323 0.037515394

body.block1.conv.weight f4 [64, 64, 3, 3]
000000 53 38 d5 bb 68 02 b1 bb ca c5 21 bc 2f 73 a1 bc
       -0.0065069585 -0.005401898 -0.009873817 -0.019708244
000010 18 88 2d 3c 08 6b d9 bb 01 0d 25 bd d2 26 24 bb
       0.010591529 -0.0066350736 -0.040295605 -0.0025047553
000020 98 14 81 bc cf 4d f3 3c 6a 96 21 3d 5c 65 fd 3c
       -0.01575689 0.029700188 0.039450087 0.030932121
000030 e4 51 b9 bc d9 a6 11 bd 4f a2 a9 bc 1e bf b7 3b
       -0.022622056 -0.03555951 -0.020707278 0.0056074997
000040 32 00 61 bc 4a 6e 9b 3a f4 52 ab 3c f0 26 1d 3d
       -0.013732957 0.001185843 0.020913579 0.03836721
000050 d6 3f 0b ba 81 ee 01 3d b7 e0 bc 3c 7a 84 a5 bc
       -0.00053119415 0.031721596 0.023056371 -0.020204771
000060 67 09 38 3d e1 28 2c 3d 3e 5e 1a 3c d6 d7 0a bd
       0.04493084 0.042031173 0.009421883 -0.033897243
000070 6e 6a 7b bc d5 fb 3a bc 43 32 53 bc 23 84 e0 bc
       -0.015345199 -0.0114125805 -0.012890401 -0.027406758
000080 7f 0d 94 bd 9f 26 61 bc 2d 29 f1 3a ab 63 a5 bc
       -0.07229137 -0.013742118 0.0018399112 -0.020189127
000090 ec 57 fe 3c 10 44 4c 3c 7a 09 3c 3d d1 e4 9a bc
       0.031047784 0.012467399 0.045907475 -0.018907936
0000a0 7d a4 13 bd 1b 38 08 bb e1 50 20 bc 33 5b 8f bd
       -0.03604554 -0.0020785395 -0.009784908 -0.06999817
0000b0 00 d7 02 3c 1c 9e db 3b 06 f5 cb 3c 7d 51 89 3d
       0.00798583 0.0067021977 0.02489711 0.06704996
0000c0 0e c3 bb 3c 6d 47 1e bb 24 20 97 3b af 17 09 3d
       0.022920158 -0.002415146 0.0046119858 0.033469852
0000d0 3a 0e 1a 3b 0c fe 14 3d 42 6f 37 bc c9 98 65 bc
       0.0023507015 0.03637509 -0.0111959595 -0.014013478
0000e0 56 8f d3 3b 41 d2 41 bd 60 53 8a bc ee f3 7a 3c
       0.006456296 -0.047319654 -0.01688546 0.015316946
0000f0 e3 f9 34 bd 8b ae 79 bc c2 23 8d 3c a0 44 3d bd
       -0.044183623 -0.015239368 0.017228965 -0.046208024
000100 3c d7 09 bb 7a c7 24 bc 92 cc 52 bd 66 ca 25 bd
       -0.002103283 -0.010057325 -0.051464625 -0.040476225
000110 2c ec f3 bc c4 97 91 bd 43 1f 14 bd 04 5e bf ba
       -0.029775701 -0.07109025 -0.036162626 -0.0014600162
000120 39 b1 9a 3d 5a 74 e0 3c 03 5f ec 3c ea 17 80 3c
       0.07553334 0.02739923 0.028853899 0.015636403
000130 d2 d3 ba 3b b8 c4 86 3c 28 00 83 bc 67 20 f3 ba
       0.0057015205 0.016451225 -0.015991285 -0.0018549085
000140 f6 48 d9 3c ce 50 0c 3d 06 17 e3 3c ac ca 01 3d
       0.026524048 0.03425675 0.02772094 0.031687424
000150 3b fe 41 3d 67 13 1b 3c e6 13 2d 3d 2e d6 51 3d
       0.047361594 0.009465075 0.042255305 0.05122965
000160 4c 70 d4 3c b6 a7 c9 bc 72 e6 49 bd a1 53 15 3b
       0.025932454 -0.024616104 -0.049292035 0.0022785442
000170 32 ad 14 3c 70 d9 d0 bc 50 0c d8 3c ad 15 d1 3c
       0.009074496 -0.025494307 0.026373059 0.025523031
000180 7c 31 da bc 19 0f 28 bd d7 33 36 bb 14 28 93 3c
       -0.026634924 -0.041030023 -0.0027801895 0.017963447
000190 45 9f 9e 3d 18 ce a0 3d 76 af a9 3b 51 62 bf 3c
       0.07745222 0.07851809 0.0051783873 0.02336231
0001a0 bf c3 36 3d 7c 93 9a bd 7e 56 70 bc 1a d8 e8 bb
       0.04462027 -0.07547662 -0.014669059 -0.0071058394
0001b0 3d b7 ee 39 cd ad 0c 3d 82 b1 31 3d be 16 3f bd
       0.0004553142 0.034345437 0.043382175 -0.046652548
0001c0 a5 47 38 3d b8 b1 b9 3c 3a 50 c3 bc 78 d8 ce 3b
       0.0449902 0.02266775 -0.023841966 0.006312426
0001d0 fc 19 05 3d 8a 54 5c 3b fa 81 1b 3d 7a 7d ac 3a
       0.032495484 0.0033619725 0.037965752 0.0013159954
0001e0 5b a2 49 bc cf 1a 70 3b 0f 31 cd 3c 39 cc af 3c
       -0.012306775 0.0036637073 0.025047807 0.021459686
0001f0 17 a4 50 ba a0 4e da bb cc 56 ea 3c c7 01 16 3d
       -0.00079590216 -0.006662205 0.028605841 0.03662279
000200 60 d4 b5 bc e0 8c 4d 3d 7f af e9 3b e1 7a 35 bc
       -0.022195995 0.050183177 0.0071315165 -0.01107666
000210 22 56 b3 3c 9c 68 90 bb 6f e3 9c 3a c1 6e 2e 3d
       0.021891657 -0.0044070017 0.0011969636 0.042586092
000220 95 41 30 3d 87 27 4b 3d 0c 69 4c 3c c3 ba 19 3d
       0.043031294 0.049598243 0.012476217 0.037531625
000230 e9 b5 1a 3d 63 47 d0 3c ab 09 88 bb 15 8f 7c 3d
       0.03777114 0.025424665 -0.004151543 0.06165989
000240 71 e6 fe 3b 33 bd 15 3c 77 9e c8 bc b8 f0 15 bc
       0.0077789356 0.009139347 -0.024489624 -0.00915163
000250 fa aa 15 bc 23 68 42 bb d7 71 e4 39 a9 db ac bc
       -0.009135002 -0.002966412 0.00043572366 -0.021100836
000260 2f 42 2d bd 03 1d d8 bc 00 80 11 3d 75 5f fc bb
       -0.042299446 -0.026381021 0.03552246 -0.007701809
000270 e3 e2 cf 3c 36 46 9e bb c1 c7 5a bc 18 76 bb 3c
       0.025376743 -0.004830147 -0.013353289 0.02288346
000280 18 c3 33 3c a8 3a 2d bd e5 a9 19 bc 10 7a 1d 3d
       0.010971807 -0.042292267 -0.009378885 0.038446486
000290 f9 bd 1f 3d a0 49 32 bd 4b 67 27 3c 60 c5 66 3c
       0.03899953 -0.043527246 0.010217498 0.014085144
0002a0 64 66 65 bd 7d 66 45 bc c8 73 0e 3d 9a c9 6c bc
       -0.05600585 -0.012048361 0.034778386 -0.014452362
0002b0 f1 bb b4 3c 0e 82 10 3d 0b ec 25 bc c3 58 07 bd
       0.022062274 0.03528028 -0.010127078 -0.033043634
0002c0 f2 9f 46 3c 40 b8 0a bd ee e1 a3 bc 16 1c f3 3c
       0.012123095 -0.03386712 -0.020005193 0.029676478
0002d0 08 64 81 bc ea 91 69 bc f7 7a 5f bc 61 c3 ed 3c
       -0.015794769 -0.01425598 -0.013640157 0.029023828
0002e0 8e 8a 32 bc da 18 a8 bb 1f 15 b0 3d b6 20 bf 3c
       -0.010897292 -0.0051299157 0.085977785 0.023331027
0002f0 a0 bb 38 bc f7 a4 4c 3d 55 93 01 3d 5b 1f de 3c
       -0.011275202 0.04996201 0.031634647 0.02711456
000300 a4 4c 11 bd 15 a0 3c bc fa 1d a0 bc 3f 86 72 bd
       -0.03547348 -0.011512776 -0.019545544 -0.05921006
000310 bc 68 5d bc 41 aa 24 3c a4 7d da bc 96 d3 8f bc
       -0.01351374 0.010050357 -0.026671238 -0.017556947
000320 83 e4 a7 bc 6f c4 9a 3c 8b 73 06 bd b7 f2 07 bd
       -0.020494705 0.018892495 -0.032825034 -0.033190455
000330 8e 06 71 3d d0 b3 bd bb 37 97 9a 3c 27 05 c9 bc
       0.05884414 -0.0057892576 0.018870933 -0.02453859
000340 8a b5 7e bc ef 98 85 ba f8 d9 85 3c 95 37 51 3c
       -0.015546212 -0.0010192672 0.016339287 0.012769599
000350 d9 86 5c bc c9 eb 0c bc 55 11 84 bc c8 38 fd bb
       -0.013459885 -0.008601137 -0.016121546 -0.007727716
000360 0f 3f af bc f9 f9 f6 bc da c0 0f 3d 0b b0 e7 3b
       -0.021392373 -0.030148493 0.035096027 0.0070705465
000370 9d 95 db 3b c7 01 22 3c 1b 2a e8 bc 30 e8 36 3c
       0.006701185 0.009888119 -0.02834039 0.011163756
000380 43 45 93 3c 9d b5 35 3c 73 1a 29 3d 2b ff 05 3d
       0.017977362 0.011090663 0.04128499 0.03271405
000390 0d aa aa 3c ad 46 c0 bb 85 52 c6 3c 8f 4a 0f 3d
       0.02083304 -0.0058678 0.02420927 0.034983214
0003a0 af 92 c5 3c d6 4c bd 3c 25 30 df bb fc f5 24 bc
       0.024117796 0.023107927 -0.006811159 -0.010068413
0003b0 e4 67 bb 3c 41 43 c8 3c ff bc 56 3d 00 5a 80 3d
       0.022876687 0.024446132 0.052426334 0.06267166
0003c0 18 c8 f9 3c da a4 09 3c 4f 87 11 3d 92 ad 3a bd
       0.03049092 0.00840112 0.03552943 -0.045575686
0003d0 d9 12 fe bc a4 32 c8 bb b2 d7 e1 bc 75 2a 91 3b
       -0.031014847 -0.0061095525 -0.027568672 0.00443011
0003e0 b9 6b 47 3c 9d 44 e3 bc e8 bb 53 3c 1f ee 51 3d
       0.012171679 -0.027742678 0.012923218 0.05125248
0003f0 c3 d1 1f bb 3b 43 a8 bc 8c d1 30 3d 43 b3 dc 3c
       -0.0024386502 -0.02053987 0.04316859 0.026940947

body.block1.conv.bias f4 [64]
000000 e0 b4 4b 3d b3 2d 25 bc c8 7d 02 3d f0 bb 91 3c
       0.049733043 -0.010081696 0.031858236 0.01778981
000010 47 c0 1c 3d db bb ef 3c b5 ae a5 bb 9f cb 87 bc
       0.038269307 0.029264381 -0.005056227 -0.016576586
000020 3c 2c 76 3d 5a 9c 40 3c 3b 88 83 3c 2c 87 62 bc
       0.06010078 0.011756027 0.01605617 -0.013826173
000030 ba f5 b3 3c c0 3a 32 3d fd f3 80 3b 9d 83 41 bc
       0.021967757 0.04351306 0.0039353357 -0.011811164
000040 e7 fb 58 3d f3 b1 08 bd 0b 80 16 3d 1d 95 2b bc
       0.052974608 -0.03337283 0.036743205 -0.010472563
000050 96 6e c6 bb a3 d6 7b 3c 3c f0 27 3d 27 5e 84 3c
       -0.0060556633 0.015370998 0.04100059 0.016158177
000060 c9 7d 3d 3d d4 b5 48 3d 22 1e 3b bc 95 53 95 bc
       0.046262536 0.04900153 -0.011420758 -0.018228332
000070 61 6e 90 3c 34 c2 fb 3c db b3 63 3d 39 ce af 3c
       0.017630758 0.030732252 0.055591445 0.02146064
000080 00 79 0b 3d bd 85 02 bc 88 15 0a 3d 7b f5 b0 ba
       0.03405094 -0.007966456 0.03371194 -0.0013500893
000090 30 c0 0a 3d d6 2a 48 bc ac 27 bd 3c d2 db 02 3d
       0.03387469 -0.012217244 0.023090206 0.03194792
0000a0 3d f6 7f bb 91 5b 2e 3c 8c 70 ed 3a 0c a9 08 bc
       -0.0039056682 0.010641948 0.0018115207 -0.008341085
0000b0 28 be 56 bc e2 d8 96 3c fc 9a b5 bc ea 8e 5a 3d
       -0.01310686 0.018413965 -0.022168629 0.05335895
0000c0 c1 0b 08 bb 1d ba 2a 3d e7 2f a6 3c 2f 9a 4a bc
       -0.002075896 0.041681398 0.020286513 -0.012365862
0000d0 5c 63 14 bc 50 31 d3 3c da 13 2f 3d a9 71 9c 3d
       -0.009056892 0.02578035 0.04274354 0.076388665
0000e0 d8 21 ab bb ee b9 a0 3c 44 47 e1 3b 08 ad 45 bc
       -0.0052225403 0.019619908 0.0068749506 -0.01206518
0000f0 fa 77 ed 3c 51 5a 58 3d 62 d3 04 3d 8f ba 41 3d
       0.028987873 0.052820507 0.032428153 0.047297057

body.block2.conv.weight f4 [64, 64, 3, 3]
000000 f2 9f 8b 3b 9a 09 9e 3a ce 6d 90 3c 27 8b a9 3c
       0.0042610103 0.0012057305 0.017630484 0.020696236
000010 fd 64 2b 3d 27 38 93 3c 88 1e 4f 3b 52 5c bc 3c
       0.041844357 0.017971111 0.0031603891 0.02299324
000020 bb 97 69 bc 6c 97 7f 3c c3 83 0b 3d 61 1c 9e bb
       -0.014257367 0.015600067 0.034061205 -0.0048251604
000030 43 dc 26 bd e1 1c ec 3c ed 17 8d bc c9 36 3e 3c
       -0.0407374 0.028822364 -0.017223323 0.0116097415
000040 f3 23 21 3b b0 c7 65 3c 52 54 fe 3c 45 f7 2c 3c
       0.0024588078 0.01402466 0.031046066 0.0105570005
000050 4e 6c 3d 3c ac 31 13 3b 2b 25 e6 3b cf 1a 9a 3c
       0.011561466 0.0022460027 0.0070234737 0.018811611
000060 81 b1 11 3d d3 d1 d5 3c 4a b4 41 3d 9f 7e c6 bc
       0.03556967 0.026101029 0.047291078 -0.0242303
000070 dd 86 60 3c 51 bd 48 3c d1 9c d3 3b 2f 65 b7 3c
       0.013704029 0.012252168 0.006457903 0.022387115
000080 7c ee c2 3c 82 cf 4f 3d ba ee bd 3c a4 0a 6c 3d
       0.023795359 0.050735004 0.023185123 0.057627335
000090 01 35 8d 3c 5a e5 9d 3c c1 ea de bc 22 85 05 3c
       0.017237188 0.019274402 -0.027211549 0.008149417
0000a0 f5 04 03 bd 30 f5 94 3c 7d 7c 35 3c 8e 8c 89 3c
       -0.03198715 0.01818332 0.011077044 0.016790655
0000b0 78 00 d2 3c 26 b3 44 3d a7 2d 1a 3d 31 de eb 3c
       0.02563499 0.04802241 0.037641194 0.028792473
0000c0 c5 31 81 3d 6a 31 89 3b 89 dd 1c bc 32 78 30 3c
       0.06308321 0.004186799 -0.0095743025 0.010770844
0000d0 5b af b9 3c 82 82 61 bc 16 7d 0e 3d 11 6c 3d 3c
       0.022666624 -0.013764026 0.03478726 0.01156141
0000e0 82 e4 c1 3c 6c 94 fa bb 2b 1b ee 3c 67 f7 24 3d
       0.023668531 -0.007647088 0.02906569 0.040275004
0000f0 7c d0 02 bb 6f 2b 3c 3d c5 58 6f bc b6 fe 81 3c
       -0.0019960692 0.04593986 -0.014608567 0.015868526
000100 0f 4a 05 bc 5b 6b 0d bd 8d e0 8d 3b ad bd 53 bb
       -0.008135333 -0.03452621 0.004329747 -0.00323091
000110 f1 79 0a bd 09 ec 2c 3d 56 3e 82 3d 80 c4 a7 3c
       -0.0338077 0.04221729 0.06359546 0.02047944
000120 fd 9a b3 bc d1 a5 1e bd 7b 95 8e bc 91 5c c3 3c
       -0.02192449 -0.038732354 -0.017405262 0.02384785
000130 cb 32 d0 3c 2c a7 5d 3c 87 a5 b6 3c b9 1d 71 3d
       0.025414845 0.013528626 0.022295726 0.058866236
000140 0d 86 95 3c f4 c5 3c bc 48 84 50 bc 85 28 c7 bc
       0.018252397 -0.011521805 -0.012726851 -0.024311313
000150 12 37 4c 3d 7f 91 c9 3c bb dc ee 3b c0 11 9e 3d
       0.049857207 0.02460551 0.0072894967 0.07718229
000160 89 d9 20 3d 7f a4 52 3d 6c e5 cb bb c2 27 99 3c
       0.039269958 0.051426407 -0.0062224176 0.018695716
000170 93 74 1b bd 38 ab 39 3c 43 d4 b1 bc b3 c2 bc bc
       -0.03795297 0.011332326 -0.02170766 -0.023042059
000180 e7 6e 78 3d 04 1d 7a 3d 7e 1e fb 3c 8c 6b 77 3c
       0.06065264 0.061062828 0.030654188 0.015101325
000190 44 ac 2e bc 86 02 54 3d a8 f0 1d bd 3b 24 bf 3c
       -0.0106611885 0.05176022 -0.038559586 0.023332706
0001a0 d6 39 21 3d 9c b1 67 bd 3a ee 4c bc 17 c0 62 3d
       0.039361797 -0.056565866 -0.0125079695 0.055358972
0001b0 92 49 99 bc 83 a9 cc bc d4 e6 9f bc 7f 31 b9 bb
       -0.018711839 -0.024983173 -0.019519247 -0.0056516523
0001c0 f1 0d 93 3c ee 72 0f 3d 71 03 6f 3d 43 e1 a0 3d
       0.017950984 0.035021715 0.05835289 0.07855465
0001d0 4d 11 5a 3d 49 d8 07 3c fa 5c 26 3d 44 cb aa 3c
       0.053239156 0.0082913125 0.040616013 0.020848878
0001e0 9e 95 33 3b 60 1a 93 3b 9f 37 b4 3c a0 33 58 3d
       0.0027402411 0.004489228 0.021999178 0.05278361
0001f0 47 2e 7c 3d a6 6f 8b 3c 56 99 99 bc 3c d6 9e 3c
       0.06156757 0.017021012 -0.018749874 0.019389264
000200 fd c0 b7 3b 2e 68 70 ba 0c a9 96 3c 39 18 9a 3d
       0.005607723 -0.00091707974 0.018391155 0.07524151
000210 f9 54 0e 3d 19 6b 08 3d dd 36 8e 3c 37 8f e6 ba
       0.034749005 0.03330526 0.017360145 -0.0017590289
000220 16 ca 8b 3a 37 e9 a0 3c 68 92 07 bc be f0 0b 3d
       0.0010665085 0.019642456 -0.008274652 0.034165137
000230 f4 e0 9e 3c 21 17 b5 bc b1 77 5f bc be 1a a9 bc
       0.019394375 -0.022105755 -0.0136393765 -0.020642634
000240 bf 0c 82 bc 87 0b 39 3d be 2f 92 bc b4 93 82 3d
       -0.015875218 0.04517701 -0.01784503 0.063758284
000250 a0 ab c1 3b 85 2d 89 3a 0f 86 99 bb e1 ca 7a 3c
       0.005910352 0.0010465836 -0.0046851705 0.015307159
000260 0e 53 5b 3c 16 3d a2 3a 74 04 45 3c 37 32 24 bc
       0.013386501 0.0012377824 0.0120249875 -0.010021738
000270 12 ea 61 bd 91 61 08 bd 5f 03 f1 3c db ce 8d bc
       -0.055154867 -0.03329617 0.029420553 -0.01731055
000280 ff 36 94 bd 2c 08 4d bc 09 d2 ea 3c 89 71 52 3b
       -0.07237052 -0.012514155 0.028664606 0.003211113
000290 1c a9 82 3c 7a 49 2e 3d ca de e9 3b 85 2e 08 bd
       0.015949778 0.04255054 0.007137154 -0.03324749
0002a0 e6 ce 54 3d 0a 3d 97 3d 03 93 20 3d fc d1 b0 3c
       0.051955126 0.07384689 0.0392027 0.021584503
0002b0 b4 1f 8c 3c 93 6d e4 bb cc 8a fa 3b 71 78 8d 3c
       0.017104961 -0.00697107 0.0076459404 0.017269345
0002c0 27 be 3e 3a 85 6c 2c bb 33 34 91 3c d5 99 87 3b
       0.000727626 -0.00263098 0.017725086 0.0041382113
0002d0 35 33 38 3c c7 b0 5b 3c c4 d6 5c bc 42 70 3c 3c
       0.011242677 0.013408846 -0.0134789385 0.011501374
0002e0 d9 b2 8b 3c a9 a1 30 bb 2a 58 6e 3d 7a 4f 88 3d
       0.017053055 -0.0026951826 0.05818955 0.06655784
0002f0 53 3a 92 3d 6f a0 2c bc b3 d0 28 bd 4c 9e 97 bc
       0.07140031 -0.010536297 -0.041214656 -0.018508099
000300 08 e6 88 3d 47 19 19 3a 8e f2 2b 3b 0a c9 aa 3d
       0.066845 0.00058402534 0.0026237103 0.083391264
000310 73 f3 88 3d df b5 e8 3c 86 84 1e b9 dd 90 dc b9
       0.06687059 0.028407035 -0.00015117423 -0.00042069601
000320 5d ad 25 3d fb d8 d5 bd 4c db ae bc 38 57 9b 3c
       0.040448535 -0.10441776 -0.021344803 0.018962488
000330 50 81 dd bd de 1a ad bd 94 4d b5 bd eb b7 2c 3d
       -0.1081568 -0.0845239 -0.088526875 0.042167585
000340 74 83 10 bc ea f8 08 3d d2 4e 6d 3d 07 46 8e 3c
       -0.008820403 0.033440508 0.057936497 0.017367376
000350 c6 50 fb 3b b0 32 77 3d a5 87 9c 3d 95 3b 53 3d
       0.007669541 0.060351074 0.0764306 0.051570494
000360 5d 8f 9f 3c c0 b4 76 ba f0 33 e5 bb 79 fd 4e 3c
       0.01947754 -0.0009411089 -0.006994717 0.012633675
000370 58 9d d9 3c 90 d7 06 3d 93 a6 ba 3c 36 71 91 bb
       0.026564285 0.03292042 0.022784507 -0.0044385446
000380 e1 81 5a 3c 1f ff c0 3c 4d 83 52 bb 17 c9 8c 3c
       0.01333663 0.023559151 -0.0032121718 0.01718573
000390 e7 34 c0 3c 9f b6 bb 3c 33 a3 a7 bc 5e ae 81 3c
       0.023462726 0.022914229 -0.020463562 0.015830215
0003a0 0e 2f 29 3c e7 14 d2 3c 77 92 44 bc 89 31 6e 3c
       0.01032616 0.025644733 -0.011997811 0.014538177
0003b0 d8 1e 41 bc 83 d0 24 3c e8 54 02 bc 2a 53 6b bc
       -0.011787139 0.010059479 -0.007954814 -0.01436309
0003c0 03 1e f2 bb ee d5 b2 bb ee 51 28 bc 30 7b 9a 3b
       -0.0073888316 -0.0054576313 -0.01027344 0.004714392
0003d0 f8 4a 27 3c 99 dc a3 3b 58 42 62 3a 52 ef 3e 3d
       0.010210745 0.0050006625 0.0008631102 0.046614952
0003e0 f2 5e c9 bc b7 4b d9 bc 8e 5a 2a bd 7f 93 1e bd
       -0.024581406 -0.026525361 -0.041590266 -0.038714882
0003f0 8c c5 59 ba b2 57 12 3d 62 e4 84 3d e9 fe e9 bc
       -0.000830733 0.035728164 0.06488873 -0.028563933

body.block2.conv.bias f4 [64]
000000 4f ca fa 3b e5 66 9d bc 90 04 35 3d 55 68 11 3d
       0.0076535116 -0.019214103 0.044193804 0.03549989
000010 c0 31 46 3d 42 93 8d 3d ae c9 82 3c 9a 1e 1e 3d
       0.04838729 0.06912853 0.015965309 0.038603403
000020 6a 08 30 3d 45 06 8e 3c 42 67 03 3d 9a 9a 5e bc
       0.042976774 0.017336974 0.032080896 -0.013586665
000030 f4 a7 b3 3c 7a 13 e7 3c 9b fd d4 ba d8 12 84 bc
       0.021930672 0.02820753 -0.0016249897 -0.016122267
000040 35 5a eb bb 12 1f 8b 3d 1a 60 8e 3d 23 56 04 3d
       -0.0071823844 0.067930356 0.06951924 0.03230871
000050 25 56 c5 3b c3 aa 94 3c bf b2 79 3d 4f 6d 85 3c
       0.006022232 0.018147832 0.06096148 0.016287474
000060 96 9a 0b 3c a8 07 0e 3d c9 36 3c 3d 87 21 0b 3d
       0.008520743 0.03467527 0.045950685 0.03396752
000070 32 50 87 3d 35 68 29 3d 4e b5 ed 3c d1 8f e4 ba
       0.06607093 0.041359145 0.029017117 -0.001743788
000080 99 2e 08 3d 69 68 03 3d ba 57 02 3d 20 ee 20 3d
       0.033247564 0.032081995 0.031821944 0.039289594
000090 bf 7d 8e 3d ae fb 4c 3b 94 b4 cb 3b 6f 03 ed 3c
       0.06957578 0.0031277942 0.006216595 0.028932301
0000a0 7c 07 c4 bc 68 1f bf bb c3 d7 98 3d c5 10 95 3d
       -0.02392935 -0.0058326013 0.07463028 0.07278589
0000b0 72 54 36 3d 2e 63 ad 3d c0 4f 26 3d cc c3 2b 3d
       0.044514127 0.08466183 0.0406034 0.041934773
0000c0 85 86 ad bc 8c 93 2d bc b5 2e 6c 3d ea de 3e 3d
       -0.021182308 -0.01059426 0.05766173 0.046599306
0000d0 88 29 b6 3a b7 ca 0e 3d 50 79 73 bc 07 7c 12 3d
       0.0013897875 0.034861293 -0.014860466 0.035762813
0000e0 a9 39 19 3d be 78 1f 3d 7e 93 9d 3c 3e ca 0d 3d
       0.037408505 0.038933508 0.019235369 0.0346167
0000f0 84 02 a3 bc 1e 47 03 3d 0e f9 ae 3d db 3d 99 bc
       -0.01989866 0.032050245 0.08543597 -0.018706253

tail.weight f4 [1, 64, 3, 3]
000000 d7 25 c4 3c b2 2f 49 3d 9d 74 a7 ba 77 83 13 bd
       0.023943825 0.04911775 -0.0012775842 -0.036014047
000010 25 a5 75 bc de a5 b1 bb 9c 91 b4 bd 7f 35 81 bd
       -0.014992987 -0.0054213842 -0.08816835 -0.06309032
000020 d3 6f 55 bd e7 d1 94 3d c7 f4 71 3d 64 66 85 3d
       -0.052108597 0.07266598 0.05907133 0.0651367
000030 fc 60 b5 3c 39 29 f8 3c 25 60 9f 3b ac b8 9c bc
       0.022140972 0.030293094 0.0048637562 -0.019131027
000040 a1 09 0b 3c d7 e0 12 3c 5b 27 e8 3b f7 78 c4 3c
       0.008486182 0.008964739 0.0070847697 0.023983462
000050 c7 97 b8 bc 60 a0 26 3d 2e b3 08 bd 52 24 d0 bc
       -0.02253331 0.04068029 -0.033374004 -0.025407944
000060 d5 80 43 bd 0f 08 37 bd 05 ac 85 bd 4b 2c 6b 3d
       -0.047730286 -0.04468542 -0.06526951 0.057415288
000070 f6 50 88 3d 6d 0f 34 3d 8b 6a 37 3d b6 b3 46 bc
       0.06656067 0.043960024 0.04477934 -0.012127807
000080 3a 39 00 3d 90 c4 c3 3c b3 1e f8 bb 84 f4 c6 3c
       0.031304576 0.02389744 -0.007572019 0.024286516
000090 22 fb 0b 3d 72 f1 67 3d fe 18 0b bc d5 ac f3 bc
       0.034175046 0.056626745 -0.008489845 -0.029745499
0000a0 b7 33 85 3c 9d 1e c6 bc 66 f9 76 bc 54 76 f0 bc
       0.016260011 -0.02418452 -0.01507411 -0.029353298
0000b0 dd 8a 94 bd b7 64 95 bc 72 90 aa bb f7 3e 3f 3d
       -0.072530486 -0.018236501 -0.0052052075 0.046690907
0000c0 01 f5 30 bb 5e bf 51 bc 95 1f 91 bb 99 e8 86 ba
       -0.0027001502 -0.012801973 -0.0044288137 -0.0010292708
0000d0 3e 6c 1b 3d 4b 2d b8 3d af 70 d2 3c 85 6e 22 3d
       0.037945025 0.08993014 0.025688497 0.03965618
0000e0 0b 18 9f 3b 12 50 c8 bc c4 de 27 bc d8 5b d5 3b
       0.004855161 -0.024452243 -0.010245983 0.006511193
0000f0 80 a5 85 3d 40 93 fc bc bf 1e 52 3d 55 c9 8a 3d
       0.06525707 -0.030831933 0.051298853 0.06776682
000100 bf 39 84 3c c4 2a 8f 3d ba ce 41 bc 5e fe 0f bc
       0.016140817 0.06990579 -0.011829073 -0.008788673
000110 4b 63 34 3c 36 bc a4 bb f3 72 4a 3c 01 3a d9 3b
       0.011010001 -0.0050273193 0.012356508 0.006629229
000120 c3 48 40 3d 0f d9 1a bc f4 91 65 3d 06 9b 6d bb
       0.04694439 -0.009451165 0.056047395 -0.0036255731
000130 2d 8d b5 bc 21 82 f7 bc fa 93 d8 3c a0 d1 54 3c
       -0.022162044 -0.030213417 0.026437748 0.012989432
000140 84 60 00 39 6d 07 7b 3d d9 8c 5b 3d 59 76 22 3d
       0.00012242986 0.06128638 0.05360112 0.039663646
000150 1c c3 c4 3c 6e f1 0c 3d 88 ad 52 bc 01 d5 12 3d
       0.024018817 0.034409933 -0.012858756 0.035847668
000160 d2 14 f9 3c ea 5e c6 bc a9 76 97 3d 47 b7 2c 3d
       0.030405436 -0.02421518 0.073956795 0.042166974
000170 46 8f 2d 3d bf 46 e3 bb 15 f0 5f bc 1c 60 49 3c
       0.042372964 -0.006935924 -0.01366808 0.012290981
000180 59 52 be 3b 8a ca 07 3c ca ca c5 3b 95 b7 8a 3d
       0.0058081564 0.008288035 0.006036137 0.06773297
000190 e0 49 54 3d e8 9d 84 3d 02 ea ef bb 41 89 14 3d
       0.051828265 0.06475431 -0.007321597 0.036263708
0001a0 0d 07 b0 3c 94 c4 37 bd ee 30 9a 3b 7f 93 40 bc
       0.021487737 -0.044865206 0.00470554 -0.011753916
0001b0 56 16 0c 3c 24 53 6d 3d 7d 94 c6 3c 40 00 87 bc
       0.008550247 0.057940617 0.024240727 -0.016479611
0001c0 c6 c0 24 3c c0 56 b9 bc 40 a8 9e bd aa b2 37 bd
       0.010055726 -0.022624373 -0.07746935 -0.04484812
0001d0 9e d8 99 bc 47 30 58 3d e3 2d 21 3d 7f 22 b8 3b
       -0.018780049 0.052780416 0.0393504 0.0056193466
0001e0 f6 d2 1a bd 39 9b ed bc 68 59 41 3c 03 a9 8f 3c
       -0.037798844 -0.02900468 0.011801101 0.017536646
0001f0 6c 67 2d 3c ca 19 d4 3c e2 2a 68 3b e2 c3 08 3c
       0.01058374 0.025891203 0.003542595 0.008347483
000200 63 25 a7 3d d5 83 b5 bc bb 9a 68 3b e4 28 97 3c
       0.08161428 -0.022157589 0.0035492617 0.018452115
000210 57 3d 2e b9 14 62 f4 ba 1d f1 a7 3d b2 e5 54 3c
       -0.00016616784 -0.0018644952 0.082002856 0.012994217
000220 67 e8 d2 b9 0b 4d bb bc 02 bc 51 bd 28 7f 12 3d
       -0.00040227475 -0.022863885 -0.05120469 0.035765797
000230 41 de 05 bc 8d 3a 85 bd 88 92 5e bd b3 38 2f bd
       -0.008170665 -0.06505308 -0.05433896 -0.042778682
000240 e7 44 0a 3d f7 91 44 bb 74 81 f3 3b ca 46 8f bc
       0.033757117 -0.0029994228 0.0074312035 -0.01748981
000250 2d 4c f4 bc d1 b1 92 3c 01 c3 eb bc 4c 1f 1c bd
       -0.02982148 0.017907055 -0.028779509 -0.038115785
000260 0d ee 55 bd 4e 6c cd bc ba 64 20 3c c3 a7 16 3c
       -0.052228976 -0.025076058 0.00978964 0.009195271
000270 2a 19 f4 bb 3f 2a 8c 3a 1f f6 9d bb 79 aa 84 3c
       -0.007449289 0.0010693743 -0.0048205997 0.016194569
000280 6a 53 3f 3d 6f a3 9a 3d b5 9c 01 bd e9 c8 bc bc
       0.04671041 0.07550704 -0.031643588 -0.02304502
000290 04 32 db bc 36 fa 09 bd 41 21 41 3d a2 e2 22 3d
       -0.026757248 -0.033685885 0.047150854 0.039766915
0002a0 d0 93 a1 bd c3 14 c0 bc 01 5e 02 3c e2 9c a7 3c
       -0.07889521 -0.0234474 0.007956983 0.02046055
0002b0 d6 9c 53 3d 31 e7 16 3d 76 db 13 bd dc a0 8f 3c
       0.051663242 0.036841575 -0.036097966 0.017532758
0002c0 12 83 e1 3c 7c 60 84 3c 39 a5 0a 3c e4 54 56 3c
       0.02752832 0.016159289 0.008462244 0.013081763
0002d0 f9 0e 7b 3b 4e a8 ba 3b 8a 51 18 3d 59 4e f7 bc
       0.0038308485 0.005696333 0.037187137 -0.030188726
0002e0 cc 58 3c 3c d5 61 86 bc 9e a6 43 bd 2e cd ae bc
       0.01149578 -0.016404072 -0.04776632 -0.021338072
0002f0 99 80 56 bd 10 5b a7 3d 55 9f 48 3d 12 02 b6 3d
       -0.052368734 0.08171666 0.048980076 0.08887114
000300 36 f4 f8 3a d8 c1 b1 39 07 63 ba 3c 3e f9 d1 3c
       0.0018993679 0.00033904496 0.022752298 0.025631543
000310 89 e6 71 bc 3e 2e 4d 3d 12 07 53 be f1 98 5b be
       -0.0147644365 0.050092928 -0.20608166 -0.21445061
000320 62 46 67 be b5 20 14 be 06 52 3f be f5 7a 2b be
       -0.22585443 -0.14465602 -0.18683633 -0.16746123
000330 13 03 10 be a6 18 0b be b3 fb 46 be eb e1 fd 3c
       -0.14063673 -0.13583621 -0.19431953 0.030991515
000340 23 e1 77 3d 9e 6f 62 3d 16 ea 12 3c 89 5d af bc
       0.06051744 0.055282228 0.008966943 -0.021406906
000350 a7 22 25 3d b9 8d 3e 3c c7 14 04 3d 58 2e 21 bc
       0.04031625 0.011630469 0.032246377 -0.009837709
000360 01 5e 03 3d a9 85 66 bb 53 28 88 3c ef ef dd bc
       0.03207207 -0.0035174883 0.01662079 -0.027091948
000370 e6 25 ef bc 17 de a3 3b 83 54 62 bd 3c bf ee bc
       -0.029192876 0.0050008404 -0.055256378 -0.029143922
000380 8f 9d ae bd d2 87 d2 3d 30 cc 28 3c cb 1a b8 3d
       -0.08526146 0.10279812 0.010302588 0.08989485
000390 49 c8 ff bb 81 dc 0f 3d af c8 c2 3c c1 81 da bc
       -0.0078058583 0.0351224 0.023777334 -0.0266732
0003a0 86 7c 08 bd 31 9d ca 3c 5c dc 68 bd f4 da da bc
       -0.03332188 0.024733158 -0.056850776 -0.026715733
0003b0 f2 b1 58 bd bf 11 e0 bc 23 ef 28 bc c6 77 8f 3c
       -0.052904077 -0.027352212 -0.010310921 0.017513167
0003c0 7a 7a a3 bd 8a e5 57 bd b7 7b 82 bd d1 12 42 3d
       -0.07982345 -0.05270914 -0.06371253 0.047381226
0003d0 ce ec fe 3c f3 f3 4d 3c b2 c5 a5 bc cf 5f 4a bc
       0.031118777 0.012570369 -0.02023587 -0.012351944
0003e0 78 f3 92 bc e6 af e2 bc 8d 3c 79 bd 7d b1 70 bd
       -0.01793836 -0.027671766 -0.06084876 -0.058763016
0003f0 5f e7 ce bd 3c 6a 98 b9 21 45 0e 3d 0b f2 fe bc
       -0.10102724 -0.0002907085 0.034733895 -0.031121274
