TrainedModels/volcano/2020_08_17_10_39_56_video_train_depth_3_lr_scale_0.1_act_lrelu_0.05/4/netD_a.pth (torch_old, 454648 bytes, 9 tensors)

head.conv.weight f4 [64, 3, 3, 3]
0	0xbc076514	-0.008263845
1	0xbd062fcc	-0.032760426
2	0x3d5fc0aa	0.0546271
3	0xbd6b64a2	-0.057469018
4	0xbc45e93c	-0.012079533
5	0x3da7fa91	0.082020886
6	0xbb0edc7d	-0.0021798902
7	0xbb9b6215	-0.004741917
8	0xbd16d931	-0.036828224
9	0x3db314c9	0.08744199
10	0x3bd25543	0.0064188554
11	0xbc9eee60	-0.019400775
12	0xbce0c79a	-0.027438927
13	0xbc3d12ee	-0.011540158
14	0x3d1fabd4	0.038982227
15	0xbc597bda	-0.013274157
16	0x3c0d42ec	0.008621912
17	0xbcb5893c	-0.022160165
18	0xbb277273	-0.0025550395
19	0xbd13963e	-0.036031954
20	0x3cbd24b1	0.023088785
21	0xbd5735a9	-0.05254141
22	0xbbaf99e9	-0.0053589237
23	0x3d905119	0.07046718
24	0x3ce0d71e	0.027446326
25	0xbc4107a4	-0.011781607
26	0xbd355602	-0.044271477
27	0x3d19759b	0.037465673
28	0xbd6d5057	-0.057937946
29	0x3c052c56	0.008128246
30	0x3c08fb42	0.008360686
31	0xbc5e88df	-0.013582437
32	0x3cdbcca5	0.02683098
33	0xbd30aa2b	-0.043131035
34	0xbc48176b	-0.0122126145
35	0xbd838f45	-0.06423811
36	0xbc0a8efd	-0.008456943
37	0xbc930d18	-0.01795058
38	0x3d925e25	0.07146863
39	0x3c9d237a	0.019181956
40	0xbca21b67	-0.019788457
41	0x3d7774da	0.060414173
42	0xbd16c405	-0.036808033
43	0x3b545754	0.0032400684
44	0x3affb315	0.0019508327
45	0x3d84191b	0.06450101
46	0xbce1ed5b	-0.027579
47	0xbcde6340	-0.027146935
48	0x3d022ac3	0.031779062
49	0x3c6e546a	0.014546493
50	0xbc40d400	-0.011769295
51	0xbc5f0a98	-0.013613366
52	0x3cda2f82	0.026633982
53	0x3b60c8b0	0.0034299307
54	0xbd7aba2f	-0.061212715
55	0x3d328722	0.043585904
56	0x3c37361b	0.011182333
57	0x3c830c59	0.015997099
58	0xbcd9d78c	-0.026592039
59	0xbcb02b0f	-0.021504907
60	0x3d0365a6	0.03207936
61	0x3cff13cd	0.031137371
62	0x3d28fca1	0.04125655
63	0xbcff773b	-0.031184783
64	0xbd184e82	-0.037184246
65	0x3caba0da	0.020950723
66	0xbcaf6aa8	-0.021413162
67	0xbc1c3e99	-0.009536409
68	0x3c356db3	0.011073518
69	0x3d14bff4	0.036315873
70	0x3c9bbdab	0.01901134
71	0x3d08fe01	0.033445362
72	0xbdacc8a1	-0.084367044
73	0x3bb9fa60	0.005675599
74	0x3d1f9687	0.038961913
75	0xbd3e001f	-0.046386834
76	0xbcd8714b	-0.02642121
77	0xbb479c54	-0.003045817
78	0x3d112cc5	0.035443086
79	0x391dedbe	0.00015061253
80	0xbab57361	-0.001384359
81	0xbd4afb71	-0.0495562
82	0x3cbdf52f	0.023188202
83	0x3da81631	0.08207358
84	0xbd33eb31	-0.043925468
85	0xbb94d31a	-0.004541767
86	0x3d19456c	0.03741972
87	0xbc3de5af	-0.011590405
88	0x39cf8eb2	0.00039588433
89	0x3cc4f49d	0.024042422
90	0xbdb2cd12	-0.0873052
91	0x3c9a835d	0.018861467
92	0x3d1eaafe	0.03873729
93	0x3d076e11	0.033063952
94	0x3c9f922c	0.01947888
95	0x3d0b60dd	0.034027923
96	0xbcf9d25a	-0.030495811
97	0xbcd8d11c	-0.026466899
98	0x3b96e9ea	0.0046055214
99	0xbd966de6	-0.0734518
100	0xbad39538	-0.0016142493
101	0x3dccb554	0.09995523
102	0xbd9b40cd	-0.07580719
103	0xbba7e050	-0.0051231757
104	0x3c552eb6	0.013011625
105	0xbcc5fd2c	-0.024168573
106	0xba5085c7	-0.00079545047
107	0x3cb27d7c	0.021788351
108	0x3c4e833b	0.01260453
109	0x3d733a3d	0.059381712
110	0xbdaff57e	-0.08591746
111	0x3c229634	0.0099235065
112	0x3dbbc301	0.091680534
113	0xbc9bb95d	-0.019009287
114	0xbd9a1c8f	-0.07524978
115	0x3c4056a0	0.011739403
116	0xbca6154a	-0.020273823
117	0x3d47dbd2	0.04879362
118	0x3d75348d	0.05986457
119	0xbde44f56	-0.11147945
120	0x3c7a88b6	0.0152913835
121	0x3d7f68cf	0.062355813
122	0xbd6c3a95	-0.057673056
123	0xbd27805c	-0.040893897
124	0x3ba05c42	0.0048938105
125	0x3c0af21d	0.008480576
126	0x3d2f70aa	0.042832054
127	0x3d933e7c	0.07189652
128	0xbdd27a3d	-0.10277221
129	0x3cf84375	0.030305604
130	0x3dfab3d7	0.12241333
131	0xbbcd83ce	-0.006271816
132	0xbd30f328	-0.043200642
133	0x3d097d9f	0.033567067
134	0xbca06548	-0.019579545
135	0xbd53d6f9	-0.051718686
136	0xbd850fa1	-0.064971216
137	0xbdd42c43	-0.10360005
138	0x3c010b12	0.0078761745
139	0x3c59b444	0.013287608
140	0xbc03e09e	-0.008049158
141	0x3d1303cc	0.035892293
142	0x3d5c9b4d	0.053859044
143	0x3dc3afd6	0.095550224
144	0xbd34c178	-0.04412982
145	0xbd89dd76	-0.067316934
146	0xbddc9134	-0.10769883
147	0xba916083	-0.0011091385
148	0x3d09660c	0.033544585
149	0xbc4b33ac	-0.012402456
150	0x3d55d37a	0.052203633
151	0x3daef22b	0.085422836
152	0x3d81a500	0.063302994
153	0xbd90aefd	-0.07064626
154	0xbdbaf9ce	-0.09129678
155	0xbdecb13e	-0.11557244
156	0xbc883664	-0.016627498
157	0xbc9ef086	-0.0194018
158	0x3c9e38de	0.019314226
159	0x3d2d6a33	0.042337608
160	0x3d53cd38	0.051709384
161	0x3dc2a092	0.095032826
162	0x3de03bc8	0.10948902
163	0x3ba5d548	0.0050608255
164	0xbcdb7408	-0.026788726
165	0xbc8e458f	-0.017367152
166	0xbc1e3275	-0.009655585
167	0xbc160c17	-0.009158156
168	0xbd0b18b3	-0.033959102
169	0xbcda7ff9	-0.02667235
170	0x3d130d93	0.035901617
171	0x3da60c2c	0.0810779
172	0x3d0116ac	0.031515762
173	0x3cc09dc8	0.023512736
174	0xbd9368a6	-0.071976945
175	0xbd114878	-0.035469502
176	0xbd4f8b7a	-0.050670125
177	0xbce8725b	-0.028374841
178	0x3b96f2fd	0.004606603
179	0x3c87f37e	0.016595598
180	0x3db588d5	0.08863989
181	0xbba050bd	-0.0048924373
182	0xbc27bc93	-0.010237831
183	0xbd0f92b9	-0.035052035
184	0xbc109116	-0.008823654
185	0x3c4e5c9a	0.01259532
186	0xbd789687	-0.06069043
187	0xbcbe2bae	-0.023214187
188	0x3d043414	0.032276228
189	0x3c9b9b83	0.018995052
190	0x3d50cae2	0.050974734
191	0xbcdd6c15	-0.027029077
192	0xbd22b427	-0.039722588
193	0x3d1a8d85	0.03773262
194	0x3af0a787	0.0018360474
195	0x3cc906f7	0.024539454
196	0x3d0eafe8	0.034835726
197	0xbd2083b1	-0.03918809
198	0x3d1ae6f0	0.037817895
199	0x3cbc604c	0.022995137
200	0xbcad5304	-0.021157749
201	0xbaa04c30	-0.0012229737
202	0x3d2c4059	0.042053554
203	0xbcfc0499	-0.030763911
204	0x3c371a6e	0.011175735
205	0x3d026081	0.031830315
206	0xbe03a38c	-0.12855357
207	0x3c0809ab	0.008303086
208	0x3d42ee48	0.047590524
209	0xbce02c92	-0.027365003
210	0xbcd6a8cc	-0.026203535
211	0x3d09ff39	0.033690665
212	0xbcbc8237	-0.02301131
213	0x3d0ad24c	0.03389196
214	0xbb40373a	-0.0029329793
215	0xbd228d90	-0.039685786
216	0xbd228be0	-0.039684176
217	0xbc393db9	-0.01130622
218	0xbd4dffcb	-0.05029277
219	0xbd39fd7e	-0.045407765
220	0xbccd0f86	-0.025031816
221	0x3c94d740	0.018169045
222	0x3ca2cbd1	0.019872578
223	0xbb751821	-0.0037398415
224	0xbca4dead	-0.020125711
225	0x3bad4f79	0.005289015
226	0x3d0fab94	0.03507574
227	0xbd49264e	-0.049108796
228	0x3bf367d9	0.007428151
229	0x3d178714	0.036994055
230	0xba80d693	-0.0009829573
231	0xbb6d772f	-0.003623437
232	0xbcb9fe54	-0.02270428
233	0x3ad63826	0.0016343638
234	0xbc859d40	-0.016310334
235	0x3da7027e	0.08154772
236	0xbc3e557b	-0.01161706
237	0x3ca44b21	0.020055356
238	0x3d768529	0.060185585
239	0x3be549eb	0.006997337
240	0x3b16c307	0.002300443
241	0x3d585b45	0.052821416
242	0xbd107bf6	-0.03527447
243	0x3c9799a5	0.01850588
244	0x3c811b82	0.015760187
245	0xbc397193	-0.011318582
246	0x3affccbe	0.0019515974
247	0x3cc43f31	0.023955913
248	0xbc4f9653	-0.012670117
249	0xbcb26a30	-0.02177915
250	0x3c964614	0.018343963
251	0xbd8e2eee	-0.06942545
252	0x3d5a0242	0.05322481
253	0x3bd40c3b	0.0064711845
254	0xbcaa662c	-0.020800672
255	0x3c2410a0	0.010013729

head.conv.bias f4 [64]
0	0x3c321736	0.010869792
1	0xbae62296	-0.0017557915
2	0x3e6e5d84	0.23277861
3	0xbdaa639b	-0.083197795
4	0x3eb4ce61	0.35313705
5	0xb9bae530	-0.00035647443
6	0x3c8c311c	0.01711326
7	0x3e81b5d6	0.25334042
8	0x3e5f8fdc	0.21832222
9	0x3e78fece	0.2431595
10	0x3903e35c	0.00012577832
11	0x3cbe6f8c	0.02324655
12	0xbc5931e5	-0.013256525
13	0x3e07acbb	0.13249485
14	0x39b1c3f8	0.0003390608
15	0x3e77dc96	0.2420524
16	0x3a3d096e	0.0007211183
17	0xbcaeb60b	-0.02132704
18	0xbc15c025	-0.009140049
19	0x391fc7fb	0.0001523792
20	0x3d3cee53	0.04612572
21	0xbcee0c6c	-0.029058658
22	0x3d6087fa	0.054817177
23	0x3e8b9ce4	0.27268136
24	0x3dd2de3b	0.10296293
25	0xbc458d9f	-0.012057691
26	0x3ef923ab	0.48660025
27	0x3dcc0980	0.099627495
28	0xbd0cd063	-0.03437842
29	0x3e086f2f	0.13323663
30	0xbb8145eb	-0.0039451024
31	0x3de5873b	0.11207434
32	0xbd19eb8b	-0.037578147
33	0x39071f3a	0.00012886236
34	0x3a446b19	0.00074927654
35	0xbc94afc5	-0.01815022
36	0x3e5e1a8a	0.21689811
37	0xbb3f6b50	-0.002920825
38	0x3e0850bb	0.13312046
39	0x3e345ce5	0.17613561
40	0x3df58838	0.11988872
41	0xbd0e7a12	-0.034784384
42	0x3e37ccf5	0.17949279
43	0x3dcba945	0.09944395
44	0x3e907e45	0.28221336
45	0x3a093a84	0.0005234855
46	0x3e45a960	0.19302893
47	0x3e339e04	0.17540747
48	0x3e28e3b9	0.1649312
49	0xba2c5ca5	-0.00065750844
50	0x39fdedcf	0.00048433102
51	0x3c45bd87	0.012069113
52	0xbcbf1285	-0.02332426
53	0x3c7f71ad	0.015591067
54	0x3e0c8f4d	0.1372654
55	0xba0d1c4d	-0.000538294
56	0x3e232c8f	0.15934967
57	0x3ddf7207	0.10910421
58	0xbb4f2fae	-0.0031614113
59	0x3a41524f	0.00073746307
60	0x3e6ad860	0.22934103
61	0x3c4b62c7	0.012413687
62	0x3a272235	0.00063756417
63	0xbd13dfa2	-0.036101945

body.block0.conv.weight f4 [64, 64, 3, 3]
0	0x3da0e9d5	0.078571
1	0xbbbc3116	-0.005743156
2	0x3d946304	0.07245448
3	0x3c8285d4	0.015932955
4	0xbbdcc860	-0.0067377537
5	0xbcadbaaa	-0.021207172
6	0xbcb95c9c	-0.022627167
7	0xbcfd275f	-0.030902563
8	0xbdc4b957	-0.09605663
9	0x3d9d74c5	0.07688288
10	0xbc8823c2	-0.016618613
11	0x3d72b5bd	0.05925535
12	0xbb9adce4	-0.0047260392
13	0xbc1686a7	-0.009187377
14	0xbc63b6b3	-0.013898539
15	0x3d303e72	0.043028302
16	0x3c9bd2e9	0.019021468
17	0xbd0ea9be	-0.034829848
18	0x3ca93eb6	0.020659786
19	0x3b556ee3	0.0032567314
20	0x3c9a9a9b	0.01887255
21	0xbcf696c1	-0.030101182
22	0xbda7ced7	-0.081937484
23	0xbd69da2d	-0.057092834
24	0xbda47a2b	-0.08031114
25	0xbd8b1216	-0.06790559
26	0xbd5ebe35	-0.054380614
27	0xbd4d9807	-0.050193813
28	0xbdef8dae	-0.11696945
29	0xbd6175b3	-0.055043887
30	0x3d844307	0.06458097
31	0xbdf5cc12	-0.12001814
32	0xbdc383d4	-0.095466286
33	0x3e13471d	0.14382596
34	0x3ce519e0	0.02796644
35	0x3db0e257	0.08636921
36	0xbddef9d1	-0.108874924
37	0xbd5f9533	-0.054585647
38	0xbcd6d35b	-0.026223829
39	0xbd60aaed	-0.054850508
40	0xbca70ad2	-0.020390902
41	0x3d777c88	0.060421497
42	0x3d505bc5	0.05086877
43	0xbd4606ca	-0.04834632
44	0xbc50f72f	-0.012754246
45	0xbd967c65	-0.07347945
46	0xbccedc93	-0.025251662
47	0x3cea7d09	0.028624075
48	0x3b04e3e3	0.0020277433
49	0x3c8a7829	0.016903
50	0x3e058d74	0.13042241
51	0xbe117842	-0.14206031
52	0x3de985a4	0.11402443
53	0x3e9499f6	0.29023713
54	0xbd92c57e	-0.07166575
55	0xbd54490f	-0.051827487
56	0x3ca67e59	0.02032392
57	0xbdcf1952	-0.10112251
58	0xbd7519a1	-0.059838895
59	0xbd740c67	-0.05958214
60	0xbcd074e9	-0.025446372
61	0xbd920cdf	-0.07131361
62	0x3ccf7caa	0.025328
63	0xbb36f0c7	-0.002791451
64	0x3dabf756	0.08396785
65	0x3cb94d46	0.022619855
66	0x3cdd9f03	0.027053362
67	0x3c635dc9	0.013877341
68	0xbdd42a46	-0.103596255
69	0xbc6ece9e	-0.014575629
70	0xbb415824	-0.0029501999
71	0xbe32a72f	-0.17446588
72	0xbb94a881	-0.004536689
73	0x3d205441	0.03914285
74	0x3ce1e787	0.027576221
75	0x3ca8dcdf	0.020613132
76	0x3c3ecb26	0.011645114
77	0x3b226ede	0.002478532
78	0xbd9a16e1	-0.07523895
79	0xbd9b84d9	-0.07593698
80	0xbd8aed3c	-0.0678353
81	0xbd4f4339	-0.050601218
82	0x3b82c89f	0.003991201
83	0xbd8af8c9	-0.06785733
84	0x3b89d072	0.004205757
85	0x3c089c14	0.008337993
86	0xbdcf6ff0	-0.10128772
87	0x3cd37826	0.025814127
88	0x3c4d445d	0.012528506
89	0xbe169de2	-0.14708665
90	0x3c8e7bd2	0.017393027
91	0xba295598	-0.0006459593
92	0x3d82d97a	0.063891366
93	0xbd4728c5	-0.048622865
94	0xbc75a48d	-0.014992845
95	0x3ddf4535	0.10901872
96	0xbd614630	-0.054998577
97	0x3cc6a9e8	0.02425094
98	0x3defdbcc	0.11711845
99	0xbdcae228	-0.09906417
100	0xbd65b1b7	-0.056077685
101	0x3bdba407	0.006702903
102	0xbd629129	-0.055314217
103	0x3d8f7e45	0.07006506
104	0x3d51f2bb	0.051256876
105	0x3d1f6bda	0.038921215
106	0x3e362f2f	0.17791437
107	0x3d789d50	0.0606969
108	0xbc926c25	-0.017873833
109	0xbdcbd1f7	-0.09952157
110	0xbdf7b770	-0.12095535
111	0xbdd36af6	-0.103231356
112	0xbcf1df4e	-0.029525425
113	0xbde74121	-0.11291719
114	0xbd0926be	-0.033484213
115	0x3dc17d3f	0.09447717
116	0x3d98ecf4	0.0746707
117	0x3d649c71	0.055813257
118	0x3da6e955	0.08149973
119	0xbc36dfa4	-0.0111617185
120	0x3d231881	0.03981829
121	0x3da4aca3	0.0804074
122	0xbd5350f8	-0.05159089
123	0xbc50a0e6	-0.012733674
124	0xbd0f0e29	-0.034925614
125	0xbdf68004	-0.12036136
126	0xbd2b8beb	-0.041881483
127	0xbd8524a8	-0.06501132
128	0xbe00df8b	-0.12585275
129	0xbdde7183	-0.108614944
130	0x3b06562b	0.0020498137
131	0xbd3969c8	-0.045266896
132	0xbe873661	-0.26408675
133	0x3db7553f	0.08951806
134	0x3d53d387	0.0517154
135	0x3d8fd799	0.07023544
136	0x3db5762a	0.08860429
137	0x3d4d3377	0.05009791
138	0x3d454720	0.048163533
139	0x3d33db33	0.043910217
140	0xbb588ce3	-0.003304296
141	0x3ca5bfdb	0.020233085
142	0x3c69b6d9	0.014264786
143	0xbd5c5a1f	-0.053796884
144	0xbe896787	-0.26836798
145	0xbd6f38e6	-0.058403872
146	0x3dde715e	0.10861467
147	0xbd73e6b5	-0.05954619
148	0xbc64b6a8	-0.013959564
149	0xbc8c7629	-0.017146187
150	0xbb2e8a3b	-0.0026632685
151	0x3dbe6ffd	0.09298704
152	0x3daaee82	0.08346273
153	0xbc84e08c	-0.016220354
154	0xbd584430	-0.052799404
155	0xbb745bdc	-0.0037286198
156	0xbbb03174	-0.005376989
157	0xbd84bb80	-0.06481075
158	0x3c3fcffe	0.011707304
159	0xbbd2eec0	-0.0064371526
160	0x39502c5e	0.00019852954
161	0x3d716487	0.05893376
162	0x3c4536fd	0.012037036
163	0xbb357b0f	-0.0027691757
164	0x3df9ff6f	0.12206923
165	0xbd5c32c5	-0.053759355
166	0xbd2def53	-0.042464565
167	0x3c24a6ab	0.010049502
168	0xbc889263	-0.016671365
169	0xbd879d20	-0.06621766
170	0x3b0e3f15	0.002170508
171	0xbd146af5	-0.036234815
172	0xbe209c73	-0.1568468
173	0xbe11fd0f	-0.1425669
174	0x393351b2	0.00017101204
175	0xbc634592	-0.013871567
176	0x3d86226c	0.06549534
177	0xbe1269a4	-0.14298111
178	0xbb9135e8	-0.004431475
179	0x3e549beb	0.20762603
180	0x3afd5f75	0.0019330817
181	0xbcb5abf9	-0.02217673
182	0x3d26b2b8	0.040697783
183	0xbceb1c86	-0.028700124
184	0xbc7a5ce2	-0.015280934
185	0x3d05f6b8	0.032705992
186	0x3d22c4be	0.03973841
187	0x3cc33952	0.023831043
188	0x3dc085de	0.09400533
189	0xbd5dddfd	-0.054166783
190	0x3bd4a0b4	0.006488884
191	0xbc05ee56	-0.0081744995
192	0xbd69f01b	-0.057113748
193	0xbd587f7c	-0.052855954
194	0xbce8e149	-0.028427737
195	0xbc5506e8	-0.013002135
196	0x3c20acb0	0.009806797
197	0x3d9730f0	0.07382381
198	0xbdbf9e87	-0.093564086
199	0xbd5d0a3f	-0.05396485
200	0xbd041557	-0.032246914
201	0xbccfc546	-0.025362622
202	0x3d166101	0.036713604
203	0x3b5304bd	0.003219887
204	0xbc91ca75	-0.017796734
205	0x3cc58ca5	0.024114916
206	0xb99613d0	-0.0002862499
207	0x3bcb2b04	0.006200196
208	0xbc8f1786	-0.017467272
209	0xbbc74895	-0.0060816505
210	0x3ba26d02	0.0049568424
211	0xbd127fe9	-0.035766516
212	0x3cc1b4f4	0.023645855
213	0xbda4c5ee	-0.080455646
214	0xbd88898b	-0.06666859
215	0x3d00206b	0.031280916
216	0xbdc26e76	-0.09493725
217	0xb9b192ac	-0.0003386935
218	0xbd9c2e62	-0.07626034
219	0xbd27b11e	-0.040940396
220	0x3cc6795f	0.024227796
221	0x3d3a6bb4	0.04551287
222	0xbd7635b0	-0.060109794
223	0xbda7ece3	-0.081994794
224	0xbd02a96c	-0.031899855
225	0x3d9edcf1	0.07756985
226	0x3cfa3769	0.030544
227	0x3e03c10f	0.12866615
228	0xbe4aea83	-0.19816022
229	0xbda70d15	-0.08156792
230	0x3dbcdcf7	0.09221833
231	0xbe443412	-0.19160488
232	0x3da19352	0.07889427
233	0x3e6b020b	0.22949998
234	0x3d258029	0.040405426
235	0x3cd5467b	0.026034584
236	0x3dcaecb4	0.09908429
237	0x3d066d23	0.032818925
238	0x3c2bfd86	0.010497456
239	0x3d933a1f	0.0718882
240	0xbcb834b0	-0.02248606
241	0x3c8bffb8	0.01708971
242	0x3d7c3c80	0.061581135
243	0x3d8e286f	0.06941306
244	0x3d16b3dc	0.03679262
245	0x3cdc3b69	0.026883798
246	0xbc88ceee	-0.016700234
247	0xbca9f706	-0.020747673
248	0xbcf0edb9	-0.02941023
249	0x3ccbf35c	0.024896316
250	0xbbd80a33	-0.0065930127
251	0xbd701f3d	-0.05862354
252	0x3cc9e460	0.02464503
253	0xbcfd201e	-0.030899104
254	0xba9fe0bd	-0.0012197715
255	0xbb6b44bb	-0.003589912

body.block0.conv.bias f4 [64]
0	0xbcc535aa	-0.02407344
1	0x3cd169cb	0.025563141
2	0x3e2d076b	0.16897361
3	0x3e4a924a	0.19782367
4	0x3ea0ab79	0.31380823
5	0x3e750810	0.23928857
6	0x3e2718b2	0.16318014
7	0x3ee605fa	0.44926435
8	0x3d0962a0	0.03354132
9	0x3d9a7820	0.07542443
10	0x3c12baa9	0.008955636
11	0x3e027971	0.12741639
12	0x3e1fe6e6	0.15615425
13	0x3dcc1db5	0.09966604
14	0x3e2f7e8c	0.17138118
15	0x3e6911a5	0.22760637
16	0x3e6b12de	0.22956416
17	0x3ec68cd6	0.38779324
18	0x3e3c3819	0.18380775
19	0x3b2db28f	0.0026504134
20	0x3dd6f078	0.104950845
21	0x3d774d8c	0.06037669
22	0x3dfbb86e	0.122910365
23	0x3e8ada88	0.2711985
24	0x3e0f7b07	0.14011775
25	0x3ea640b3	0.32471237
26	0xbd54ed12	-0.0519839
27	0xbc81f09e	-0.015861806
28	0x3e9cd63a	0.30632192
29	0xbc152830	-0.00910382
30	0x3e1a7977	0.15085398
31	0x3e1e0c46	0.1543437
32	0x3e879130	0.26477957
33	0x3bbc3a2e	0.0057442402
34	0x3e8c65fd	0.2742156
35	0x3e48a1a6	0.19592914
36	0x3eb9fa03	0.36323556
37	0x3eda15bd	0.4259471
38	0x3eaddbe6	0.33956832
39	0x3eaa1103	0.33216104
40	0x3d83a6cf	0.064283006
41	0x3e2811d8	0.16413057
42	0x3d760c4a	0.060070314
43	0x3e232992	0.15933827
44	0xbcc832b3	-0.024438238
45	0x3e75fb2c	0.24021596
46	0x3efb9b1c	0.49141777
47	0x3ddac67a	0.10682388
48	0x3d56e15e	0.05246102
49	0x3d867d90	0.06566918
50	0x3e98e177	0.29859516
51	0x3e722c4a	0.23649707
52	0x3e8faf55	0.28063455
53	0x3ddf40e5	0.109010495
54	0x3d350a25	0.044199128
55	0x3e42d6d8	0.19027269
56	0x3f03f16b	0.5154025
57	0x3f02a6f4	0.51036
58	0x3d8e363f	0.0694394
59	0x3d19c396	0.03754004
60	0x3e0b2094	0.13586646
61	0x3d09ccc6	0.033642553
62	0x3f1c1d46	0.6098217
63	0x3d0eabc7	0.03483179

body.block1.conv.weight f4 [64, 64, 3, 3]
0	0x3b066a3f	0.0020510105
1	0xbceb9c4e	-0.028761055
2	0xbcb47b9e	-0.022031602
3	0x3c98481d	0.018589074
4	0xbb38cf7a	-0.0028199838
5	0xbd97c4cc	-0.07410583
6	0xbd930794	-0.0717918
7	0xbe0396dd	-0.12850519
8	0xbde7da9a	-0.11320992
9	0xbd62c250	-0.055361092
10	0xbd01715c	-0.03160225
11	0x3d447c78	0.047970265
12	0xbdf01e6a	-0.11724551
13	0xbdf80d1f	-0.12111878
14	0xbc850c41	-0.016241195
15	0xbe299b17	-0.16563068
16	0xbdb1dad9	-0.0868432
17	0xbce80fbd	-0.028327817
18	0x3d09d1ba	0.033647276
19	0x3dbe832c	0.09302363
20	0x3e251935	0.16122897
21	0xbd67e5f7	-0.056615796
22	0xbcdac35a	-0.026704479
23	0x3c8f1cc1	0.017469766
24	0xbda8026d	-0.08203588
25	0xbdb47582	-0.08811475
26	0xbdd8a4c6	-0.10578303
27	0x3cf86999	0.03032379
28	0x3cb958ba	0.022625316
29	0xbcc6acdf	-0.024252353
30	0x3d9ed95b	0.07756301
31	0x3d12b13f	0.035813566
32	0x3c97d64f	0.018534807
33	0xbcc760e2	-0.02433819
34	0xbac8b3cd	-0.0015312374
35	0x3d2ca90b	0.0421534
36	0x3d75e5cb	0.0600336
37	0x3de72cf9	0.11287875
38	0x3d76036d	0.06006186
39	0x3ce9048d	0.028444553
40	0xbcd0c5fa	-0.025485028
41	0xbca82986	-0.020527612
42	0x3d74974a	0.059714593
43	0x3c4c3799	0.012464427
44	0xbbe5678b	-0.0070008687
45	0xbd8d78d5	-0.069078125
46	0x3d328d2b	0.04359166
47	0x3d9d6690	0.07685578
48	0xbc80a96b	-0.015705785
49	0x3d39791e	0.045281522
50	0x3e03f59a	0.12886658
51	0xbdab2b95	-0.08357922
52	0xbd57dc17	-0.05270013
53	0x3d3d344b	0.04619245
54	0xbc702e24	-0.014659438
55	0xbc6987bf	-0.014253556
56	0x3d9cb628	0.07651931
57	0xbd1ea14c	-0.038728043
58	0xbcafd7e2	-0.021465246
59	0x3ba03b90	0.004889913
60	0xbd5960c3	-0.053070795
61	0xbd2197d0	-0.03945142
62	0x3d4aa4a0	0.049473405
63	0xbd17ba22	-0.037042744
64	0xbd01e98a	-0.03171686
65	0xbd3c1756	-0.045920692
66	0xbc382bd4	-0.011240918
67	0x3c055c5b	0.008139695
68	0x3b92f90c	0.004485255
69	0x3d016f78	0.031600446
70	0x3c26caad	0.010180158
71	0x3c969349	0.018380778
72	0xbe0e4d59	-0.13896693
73	0xbb8ea2d0	-0.004352905
74	0x3dba41de	0.090945944
75	0xbd9fe660	-0.078076124
76	0x3cc53f30	0.024077982
77	0x3e1d8bb8	0.1538533
78	0xbd1b76c7	-0.03795507
79	0x3bbafc31	0.005706333
80	0x3df57289	0.119847365
81	0x3bfb6551	0.00767199
82	0x3cb764eb	0.022386989
83	0x3cbf382a	0.02334221
84	0xbbea8c42	-0.0071578333
85	0x3d724d77	0.059155907
86	0x3cca0561	0.024660768
87	0xbbc3038c	-0.0059513506
88	0x3dd8f67a	0.10593887
89	0x3d6f5fec	0.058441088
90	0x3de2baf0	0.11070812
91	0x3c5f9cf9	0.013648265
92	0xbe1ef423	-0.15522818
93	0x3cc3e613	0.023913419
94	0x3d1a1715	0.03761967
95	0xbda2ee82	-0.07955648
96	0xbdb1cf08	-0.08682066
97	0xbd99651e	-0.0748999
98	0xbcbe242c	-0.023210607
99	0xbdf4d602	-0.11954881
100	0xbd9e31f0	-0.077243686
101	0x3d4e26e0	0.050330043
102	0xbd06c822	-0.032905705
103	0xbd3b093c	-0.045663103
104	0x3da6fd9c	0.08153841
105	0xbc849402	-0.016183857
106	0xbd8e6ce4	-0.06954363
107	0x3d18a4f6	0.037266694
108	0x3d300a43	0.042978536
109	0x3d80e9fb	0.06294628
110	0x3d44d205	0.048051853
111	0xbc563fbd	-0.01307672
112	0x3ca54157	0.020172758
113	0x3c93aacc	0.018025778
114	0xbc1a07dd	-0.009401289
115	0x3db2305b	0.08700629
116	0x3d81daed	0.06340585
117	0x3da9d9e8	0.082935154
118	0x3c0a047a	0.008423919
119	0x3c73058f	0.014832868
120	0x3dd854b8	0.10563034
121	0x3d1575a5	0.036489148
122	0x3bda841c	0.0066685807
123	0x3dd7161d	0.10502265
124	0x3d834e6c	0.06411442
125	0xbcc7a439	-0.0243703
126	0xbd571a2e	-0.0525152
127	0x3c529af8	0.01285433
128	0x3dc19728	0.09452659
129	0xbddc085d	-0.10743783
130	0x3cc38275	0.023865918
131	0x3d7fa418	0.06241235
132	0xbd90fbb9	-0.07079262
133	0xbc268990	-0.010164633
134	0x3d4da741	0.050208334
135	0xbc959339	-0.018258678
136	0x3c6024f5	0.013680686
137	0x3cbd8661	0.023135366
138	0xbcdf32d4	-0.027245916
139	0x3bcf5cff	0.0063282247
140	0x3d1043fb	0.03522108
141	0xbd8f78cf	-0.07005464
142	0x3cc4465b	0.02395933
143	0x3cb8b744	0.022548325
144	0xbdc3d02b	-0.09561189
145	0xbd9c6d06	-0.07637982
146	0xb939e83b	-0.00017729487
147	0xbdc05b38	-0.093923986
148	0xbba180ba	-0.0049286755
149	0x3d79415d	0.06085335
150	0xbd9162a2	-0.07098891
151	0xbc0257a5	-0.007955466
152	0x3de2deab	0.11077627
153	0xbd195bff	-0.03744125
154	0x3da1b3a7	0.07895594
155	0x3e45e7b6	0.19326672
156	0xbd7247f1	-0.05915064
157	0x3cab27b1	0.02089295
158	0x3ddb7c03	0.10717013
159	0xbd1cc0fd	-0.038269985
160	0x3bf0de3f	0.0073507125
161	0x3dd00c79	0.10158629
162	0x3bad4bd3	0.00528858
163	0x3c2b415b	0.010452594
164	0xbbda083a	-0.0066538127
165	0xbd647167	-0.05577221
166	0xbd2e3e1f	-0.042539712
167	0xbcd78083	-0.026306396
168	0xbd1f8e46	-0.038954042
169	0xbcb25a1e	-0.021771487
170	0xbc108faf	-0.008823319
171	0x3dff8448	0.124764025
172	0x3da2df62	0.07952763
173	0x3e256583	0.16152005
174	0xb9cff00c	-0.00039660966
175	0xbd400cdf	-0.046887275
176	0xbcc45490	-0.023966104
177	0xbe0cb823	-0.13742118
178	0xbe58f767	-0.21188127
179	0xbdef1e03	-0.11675646
180	0x3db43db8	0.088008344
181	0x3d41802b	0.04724137
182	0x3db3521e	0.08755897
183	0xbd276628	-0.04086891
184	0xbd4c9cf5	-0.049954373
185	0xbc5e3513	-0.013562459
186	0xbd865b9b	-0.06560441
187	0x3d6badfc	0.05753897
188	0x3e15107b	0.14557068
189	0xbdbea191	-0.0930816
190	0xbc3e1218	-0.011600994
191	0x3e18ff65	0.14941175
192	0xbd82b0cd	-0.06381378
193	0x3d0c4ef7	0.034254994
194	0x3e2af22c	0.16693944
195	0xbdb8f395	-0.090308346
196	0xbc8a2d16	-0.016867202
197	0x3d9f2721	0.07771135
198	0x3d125109	0.035721812
199	0x3db5fd79	0.08886237
200	0x3d991a80	0.074757576
201	0x3bbb2870	0.0057116076
202	0x3d82e956	0.063921615
203	0x3d262f55	0.040572483
204	0x3d1c8777	0.038215127
205	0x3d9bd94c	0.076098055
206	0x3d846a9d	0.06465647
207	0xbca8a5ee	-0.020586934
208	0xbc57cc9e	-0.013171343
209	0x3d82e4fa	0.0639133
210	0xbcd18682	-0.025576834
211	0x3d307096	0.04307612
212	0x3deaea06	0.11470418
213	0xbdacc6ec	-0.08436379
214	0xbcc91a05	-0.02454854
215	0xba2f2506	-0.0006681237
216	0x3d878a24	0.06618145
217	0x3df41a68	0.11919099
218	0x3d7e4275	0.062075097
219	0x3d427011	0.047470156
220	0xbcd18b81	-0.025579216
221	0xbd6d3226	-0.057909153
222	0x3c8b406a	0.016998488
223	0xbde8695c	-0.11348221
224	0xbe34ec68	-0.17668307
225	0xbd922600	-0.07136154
226	0xbdbcf6d9	-0.0922677
227	0xbd9c081e	-0.07618736
228	0x3b86f31e	0.0041183373
229	0xbca302a8	-0.019898728
230	0xbd07a69f	-0.033117887
231	0x3bb8eb29	0.0056432677
232	0xbd097e4d	-0.033567715
233	0xbc24023e	-0.0100103
234	0x3dbc0d23	0.09182193
235	0x3dd9ec0b	0.10640725
236	0x3daef286	0.085423514
237	0x3cefa004	0.029251106
238	0x3b0abf25	0.002117106
239	0xba979a18	-0.0011566309
240	0x3d936a3d	0.07197998
241	0x3cd2089b	0.025638869
242	0xbc1d3e03	-0.009597304
243	0xbdb995ca	-0.09061773
244	0xbdd6d59b	-0.10489961
245	0xbd991a26	-0.074756905
246	0xbd429dfe	-0.047513954
247	0xbd1cd406	-0.03828814
248	0x3d345d97	0.044034567
249	0xbd8b2363	-0.06793859
250	0xbd352ada	-0.04423032
251	0x3df97890	0.121811986
252	0xbd6179a7	-0.055047657
253	0xbd7a1bbc	-0.061061606
254	0xbd089704	-0.033347145
255	0xbd09b119	-0.03361616

body.block1.conv.bias f4 [64]
0	0x3eb35d6d	0.35032216
1	0x3ea52401	0.3225403
2	0x3e89a575	0.26884046
3	0xbe125d40	-0.14293385
4	0x3ec7c0f7	0.39014408
5	0x3eac19ea	0.3361352
6	0x3ebc0862	0.36725146
7	0x3e7baa4e	0.24576685
8	0x3e7521d2	0.23938683
9	0x3ed0ef65	0.40807644
10	0x3ed19cd5	0.40939966
11	0x3e41001d	0.188477
12	0x3eb62488	0.35574746
13	0x3eccb1b9	0.39979342
14	0x3f42982b	0.7601344
15	0x3e550251	0.20801665
16	0x3f1bec05	0.6090701
17	0x3eb620cf	0.35571906
18	0x3eab0350	0.33400965
19	0x3eb5107c	0.3536414
20	0x3f6a6db7	0.9157366
21	0x3f2004cb	0.62507313
22	0x3e5716de	0.21004817
23	0x3e697975	0.22800238
24	0x3e1613cf	0.14655994
25	0x3ed81e3c	0.42210567
26	0x3ca58999	0.020207213
27	0x3e5eba9d	0.21750875
28	0x3e9ccc99	0.30624846
29	0x3d6bdc2e	0.057583027
30	0x3ea418b1	0.32050088
31	0x3ed91308	0.42397332
32	0x3ea711e0	0.32630825
33	0x3d8f8c69	0.07009203
34	0x3f23212c	0.6372249
35	0x3f2bbb33	0.6708252
36	0x3ed867f7	0.4226682
37	0x3ea51cb3	0.32248458
38	0xbd3c5114	-0.04597576
39	0x3e880c18	0.26571727
40	0x3e39e6d5	0.18154462
41	0xbb85b62d	-0.004080555
42	0x3e4dbea1	0.2009225
43	0x3eb91031	0.36145166
44	0x3e8380f8	0.25684333
45	0x3e907083	0.2821084
46	0x3cc0f896	0.023556035
47	0x3f6424d8	0.8911872
48	0x3e4d6083	0.20056348
49	0x3ea3110d	0.31848946
50	0x3e1cbdc9	0.15306772
51	0x3f096451	0.53668696
52	0x3edffb1b	0.43746266
53	0x3ed2b1d2	0.4115129
54	0x3ebb4f26	0.36583823
55	0x3ed2ba5c	0.41157806
56	0x3eb99575	0.3624684
57	0x3c649aea	0.01395295
58	0x3dbd1a19	0.09233493
59	0x3e6ecb7b	0.23319809
60	0x3e9d3d9f	0.30711076
61	0x3f288eb5	0.65842754
62	0x3e291964	0.16513592
63	0x3f006c23	0.50165004

body.block2.conv.weight f4 [64, 64, 3, 3]
0	0x3d0adabd	0.03390001
1	0xbced0776	-0.028934222
2	0xbd09d7c6	-0.033653043
3	0x3c5a7f9b	0.013336088
4	0xbd058772	-0.032599874
5	0xbc787fdf	-0.015167206
6	0x3b735dfe	0.003713488
7	0xbc264964	-0.010149334
8	0xbd169001	-0.036758427
9	0xbcd63f11	-0.02615312
10	0x3d6155a0	0.0550133
11	0x3bfbc1dc	0.007683022
12	0xbd20ebe6	-0.03928747
13	0xbcba804d	-0.022766257
14	0xbd1a8c95	-0.037731726
15	0xbda09953	-0.07841744
16	0xbd736f1c	-0.059432134
17	0xbde40b3c	-0.11134955
18	0xbd08a76f	-0.033362802
19	0xbcb5e1a4	-0.02220232
20	0x3b2164f9	0.0024626835
21	0xbce1d3b8	-0.027566776
22	0x3c0ef731	0.008725927
23	0x3c5fb9dc	0.013655152
24	0xbc6bfeb7	-0.0144039905
25	0xbd9cfe47	-0.07665687
26	0xbd8d5965	-0.06901816
27	0xbd6c869d	-0.057745565
28	0xbcf6d349	-0.030130045
29	0xbd3a5e1f	-0.045499917
30	0xbd8af6ca	-0.067853525
31	0xbcfe420d	-0.031037355
32	0xbcfe5b0c	-0.031049274
33	0xbcf722ac	-0.0301679
34	0x3c862c59	0.016378568
35	0x3d17597f	0.036950585
36	0x3cd9c1bc	0.026581638
37	0xbcb36a79	-0.021901356
38	0x3c7926a1	0.015206964
39	0x3cf939e7	0.030423118
40	0x3cc1beeb	0.023650607
41	0xbc129d49	-0.0089486325
42	0x3c8d7da2	0.01727182
43	0x3cee45ca	0.029086012
44	0xbb6c2146	-0.0036030575
45	0xbd3dd964	-0.046349898
46	0xbd2c58c4	-0.04207684
47	0xbd837206	-0.064182326
48	0xbd601006	-0.05470278
49	0xbd6495ad	-0.055806804
50	0xbdb73ec5	-0.08947519
51	0xbd972357	-0.073797874
52	0xbdbd6eda	-0.09249659
53	0xbdbd7ac0	-0.09251928
54	0x3d380f84	0.04493667
55	0x3d2bbeff	0.041930195
56	0xbcafe466	-0.021471214
57	0x3d4e73c3	0.050403368
58	0xbb49604e	-0.0030727568
59	0xbc9c4736	-0.019076925
60	0xbc94e235	-0.01817427
61	0xbda8531b	-0.08218976
62	0xbda7791d	-0.081773974
63	0x3b5029fc	0.0031763306
64	0x3c929de1	0.017897548
65	0xbce776b3	-0.028254842
66	0xbb3ef186	-0.0029135658
67	0xbc99f5ea	-0.018794019
68	0xbb560400	-0.0032656193
69	0x3a0bd0db	0.0005333551
70	0xbc6448b8	-0.013933353
71	0x3cb5ad89	0.022177475
72	0xbdad12b0	-0.0845083
73	0xbde1a3de	-0.11017583
74	0xbdd7c723	-0.10536029
75	0xbd8ff72f	-0.070295684
76	0xbbb6d476	-0.0055795265
77	0xbdaaca92	-0.083394185
78	0xbd9f720f	-0.07785427
79	0xbd4cdce3	-0.05001534
80	0xbcc1dcd3	-0.023664868
81	0x3d910d7a	0.070826486
82	0x3be8b2de	0.0071014008
83	0x3c5da225	0.013527428
84	0xbc847c4d	-0.016172552
85	0x3b4a3cf3	0.0030859082
86	0x3cb2a3ab	0.021806559
87	0xbd2cb7d0	-0.042167485
88	0xbd349579	-0.04408786
89	0xbd131150	-0.035905182
90	0xbc0356b9	-0.008016282
91	0xbcb170e8	-0.021660283
92	0xbc5acb48	-0.01335413
93	0xbcd4b124	-0.025963373
94	0xbd06de8a	-0.032927074
95	0xba2f0be9	-0.0006677495
96	0xbc16cefd	-0.009204623
97	0xbd5b4af4	-0.053538278
98	0xbc97db81	-0.018537285
99	0x3df8fa62	0.12157132
100	0x3b217931	0.0024638886
101	0xbd125a55	-0.03573068
102	0x3d10c575	0.03534456
103	0x3d14414f	0.036195096
104	0xbd813f71	-0.063109286
105	0x3d8f1d64	0.06988028
106	0x3d0e092e	0.034676723
107	0x3ca8a967	0.02058859
108	0x3d88bcbe	0.06676625
109	0x3c995f5d	0.01872223
110	0x3d25462e	0.04035013
111	0x3d3e8e10	0.0465222
112	0x3d409daa	0.04702536
113	0x3cd5cc26	0.026098322
114	0x3d8156f7	0.06315415
115	0x3d675783	0.056479942
116	0x3d21981a	0.039451696
117	0x3d5246d7	0.05133709
118	0x3cddd13c	0.02707731
119	0xbce349ee	-0.027745213
120	0x3d8b4035	0.06799356
121	0x3d1c1c66	0.03811302
122	0x3cf25d73	0.029585576
123	0x3d3fa6a4	0.04678978
124	0xbc2bfcf3	-0.0104973195
125	0xbc05e046	-0.008171147
126	0x3c90a250	0.017655522
127	0xbc21f9ff	-0.009886264
128	0x3a862005	0.0010232931
129	0x3cb2a6f1	0.02180812
130	0xbc7ccf40	-0.015430272
131	0xbc66d3d8	-0.014088593
132	0x3c44c38f	0.012009515
133	0xbcedbca2	-0.029020611
134	0x3ca432f9	0.020043837
135	0xbd8d2d8c	-0.06893453
136	0xbd912be4	-0.070884496
137	0xbde05676	-0.10953991
138	0x3b777c4b	0.0037763293
139	0xbcad33d8	-0.021142885
140	0x3b9317aa	0.004488905
141	0xbbcaeae6	-0.006192553
142	0x3b7180ee	0.003685053
143	0x3cbb6631	0.022875877
144	0xbc1fc279	-0.009750956
145	0x3cb38783	0.021915203
146	0x3c721d61	0.014777512
147	0xbd2f574a	-0.042807855
148	0xbd7eebc2	-0.062236555
149	0xbd4347f9	-0.04767606
150	0xbe07492b	-0.13211505
151	0xbd4e9d5e	-0.050443046
152	0xbdb32190	-0.08746636
153	0x3c783a88	0.015150674
154	0xbce10119	-0.027466344
155	0xbd5dedbf	-0.05418181
156	0xbcb1a913	-0.021687066
157	0x3ca70414	0.020387687
158	0x3cbcd99a	0.02305298
159	0x3a9c2e61	0.0011915677
160	0xbd0bade8	-0.034101397
161	0x3cb724db	0.022356441
162	0x3d34050f	0.043950137
163	0x3dbad77f	0.09123134
164	0x3d7915da	0.060811855
165	0x3d79c64a	0.06098012
166	0x3d62d83d	0.055382002
167	0x3d22cbca	0.03974513
168	0x3cc5a4b3	0.024126386
169	0x3d6c5a65	0.057703394
170	0x3d5097c0	0.05092597
171	0xbd251417	-0.040302362
172	0xbd77c1cb	-0.06048755
173	0xbd3061f2	-0.043062158
174	0xbd3a5130	-0.045487583
175	0xbdaf8028	-0.08569366
176	0xbd93af55	-0.07211176
177	0xbd530e64	-0.051527396
178	0xbdc102ba	-0.09424348
179	0xbdcec5f0	-0.10096347
180	0x3d931e27	0.071834855
181	0x3d3eb930	0.046563327
182	0xbbf504e4	-0.0074773896
183	0x3d3bba15	0.04583176
184	0x3bbe0a39	0.0057995585
185	0xbcc215d8	-0.023692057
186	0xbd0cae85	-0.034346122
187	0xbc200c5b	-0.009768571
188	0xbdcb61a9	-0.099307366
189	0x3d8eccc7	0.06972652
190	0x3c9476a9	0.018122988
191	0xbcf35e26	-0.02970798
192	0x3cc15f9e	0.023605164
193	0xbc51f488	-0.012814648
194	0xbd2fbded	-0.042905737
195	0x3d3d5d46	0.04623153
196	0xbc0a856e	-0.008454664
197	0xbd31b83a	-0.043388583
198	0xbd722b31	-0.05912322
199	0xbc2f34ae	-0.010693712
200	0x3d821d0c	0.063531965
201	0x3d532e89	0.05155805
202	0x3c0426b7	0.008065871
203	0x3d29df51	0.041472737
204	0x3cb5e685	0.022204647
205	0x3d63337e	0.05546903
206	0x3d3b3dfa	0.045713402
207	0x3b384e6d	0.0028122917
208	0xbd74bfa1	-0.059753064
209	0xbc1feb4e	-0.009760691
210	0xbd3779a4	-0.04479374
211	0xbc3e91d3	-0.011631447
212	0x3babfc1f	0.005248561
213	0xbd830508	-0.06397444
214	0xbcd2f7ec	-0.025752984
215	0xbd24c9d7	-0.040231552
216	0xbd998e1b	-0.074978076
217	0xbd5f9fea	-0.054595865
218	0xbc40293c	-0.011728581
219	0xbca4c3c5	-0.020112881
220	0x3ce361b2	0.027756546
221	0x3d15e69a	0.036596872
222	0x3d37f7af	0.044913944
223	0x3dacc5e2	0.08436181
224	0x3dd8367f	0.10557269
225	0xbdd364b2	-0.103219405
226	0xbde65e1c	-0.11248419
227	0xbd440f83	-0.047866356
228	0xbdd17fb3	-0.10229435
229	0xbd434cf3	-0.047680806
230	0xbc8dc18b	-0.017304203
231	0xbe079a74	-0.13242513
232	0xbce05d58	-0.02738826
233	0x3cac6ef8	0.021049008
234	0x3d0e2c3e	0.03471016
235	0xbcd56900	-0.026051044
236	0xbc1b969b	-0.009496356
237	0x3d03c862	0.03217352
238	0x3c8bc981	0.017063858
239	0xbcdebbef	-0.027189223
240	0xbce13729	-0.027492123
241	0xbc4f50e1	-0.01265356
242	0xbd5d0e4c	-0.053968713
243	0xbd124670	-0.035711706
244	0xbb68e2d9	-0.0035535602
245	0x3d0208ac	0.03174655
246	0xbbc2a0e5	-0.0059395903
247	0x3c8e4dec	0.01737114
248	0x3d621bad	0.055202175
249	0x3c07dca3	0.00829235
250	0x3c1f2a37	0.009714655
251	0x3a2b43b3	0.00065332203
252	0xbd879801	-0.06620789
253	0xbce2651f	-0.027636109
254	0xbd067db8	-0.03283474
255	0xbdb73e15	-0.08947388

body.block2.conv.bias f4 [64]
0	0x3dcf28ae	0.10115181
1	0x3f6c4b91	0.92302805
2	0x3dae5381	0.08512021
3	0x3f0ad6a7	0.54233783
4	0x3f1a2b90	0.6022272
5	0x3f8894ef	1.0670451
6	0x3f2376ce	0.63853157
7	0x3f272d2c	0.653033
8	0x3f565526	0.83723676
9	0x3f9446bb	1.1584085
10	0x3e8dcf2b	0.2769712
11	0x3f4c2fc9	0.79760414
12	0x3f5448ee	0.8292378
13	0x3f2c12e6	0.67216337
14	0x3f1301fc	0.574249
15	0x3d42859b	0.047490697
16	0x3ee4efd2	0.44714218
17	0x3e8e0fae	0.27746338
18	0x3f56bffe	0.83886707
19	0x3f437492	0.7634975
20	0x3f12b19c	0.5730226
21	0x3eb40d6a	0.35166484
22	0x3f7d208f	0.98877805
23	0x3f201616	0.625337
24	0x3f1932fd	0.59843427
25	0x3ea19d18	0.31565166
26	0x3f0c3c32	0.5477935
27	0x3f69f10d	0.9138344
28	0x3facac5e	1.3490102
29	0x3f118796	0.5684751
30	0x3f2b8f73	0.6701576
31	0x3ea4763e	0.32121462
32	0x3f0d02f9	0.5508266
33	0x3ea788d2	0.32721573
34	0x3f8c5e24	1.096623
35	0x3f07d335	0.5305665
36	0x3ef7b9ce	0.48383945
37	0x3f2639a0	0.6493168
38	0x3fb08167	1.378949
39	0x3f6322b6	0.8872484
40	0x3f7247f4	0.9464104
41	0x3eccbf44	0.39989674
42	0x3debb60c	0.11509332
43	0x3edceced	0.4314951
44	0x3f7c4fd5	0.98559314
45	0x3f835ace	1.0262086
46	0x3f1fe0ba	0.6245228
47	0x3ece6ce8	0.40317464
48	0x3f42fa57	0.7616324
49	0x3ed6802a	0.41894656
50	0x3ec1258d	0.3772396
51	0x3f927f63	1.1445125
52	0x3dbc7ee1	0.09203888
53	0x3f6dec46	0.9293865
54	0x3ea660bb	0.32495674
55	0x3f7773ac	0.96660876
56	0x3e5221d5	0.20520718
57	0x3e1d3a66	0.15354308
58	0x3f35dacf	0.71037
59	0x3f6d26ba	0.9263722
60	0x3f853b8c	1.0408797
61	0x3f03155b	0.5120446
62	0x3f4fe17f	0.81203455
63	0x3efa9e61	0.4894896

tail.weight f4 [1, 64, 3, 3]
0	0x3d1248a5	0.03571381
1	0x3cbbb365	0.02291269
2	0x3c07b0f5	0.008281936
3	0x3b28e062	0.0025768508
4	0xbbaef52b	-0.005339285
5	0xbd4e16ac	-0.05031459
6	0x3b602f16	0.0034207753
7	0xbcc0c623	-0.023531979
8	0xbd8b9d56	-0.06817119
9	0x3d20f919	0.039300058
10	0x3bedc2ac	0.0072558727
11	0x3d43067e	0.047613613
12	0x3cb7cb31	0.022435756
13	0x3d02a304	0.031893745
14	0x3c081b61	0.008307309
15	0xbcec3238	-0.02883254
16	0xbd173929	-0.036919747
17	0xbc331b86	-0.010931855
18	0x3cad06f1	0.021121474
19	0xbcfa32c9	-0.030541794
20	0xbc234f39	-0.009967619
21	0x3ce62fac	0.028098904
22	0x3b5bc4c3	0.0033534027
23	0x3c98518b	0.01859357
24	0xbc8ebf60	-0.01742524
25	0x3c81949a	0.015817929
26	0x3b18adae	0.002329688
27	0x3d29534b	0.0413392
28	0x3d15909a	0.036514856
29	0x3d608f10	0.054823935
30	0xbcb66983	-0.022267109
31	0xbce52509	-0.027971761
32	0xbce8e047	-0.028427256
33	0xbc8503ee	-0.016237225
34	0xbd253a0e	-0.04033857
35	0x3cd40759	0.02588241
36	0x3c1785e9	0.009248235
37	0x3d312981	0.04325247
38	0x3ce85292	0.028359685
39	0xbc8886ea	-0.016665895
40	0x3c05a251	0.008156375
41	0x3bed54ce	0.0072427755
42	0xbdb31358	-0.08743924
43	0x3ba93da2	0.005164818
44	0x3c82b662	0.015956108
45	0x3d29cceb	0.04145519
46	0x3d945799	0.072432704
47	0x3d5575a4	0.052114144
48	0xbbb0957c	-0.0053889137
49	0x3a3f082f	0.0007287291
50	0x3ca8cf68	0.020606712
51	0xbdbe5c61	-0.09294964
52	0xbcf213b4	-0.02955041
53	0xbcea5e30	-0.028609365
54	0x3c191616	0.009343645
55	0x3c53f2a6	0.01293627
56	0x3cd3c928	0.025852755
57	0xbc7d1ed8	-0.015449248
58	0x3d329d20	0.043606877
59	0x3c5e1b52	0.013556318
60	0xbced0cf9	-0.02893685
61	0xbcd11243	-0.025521403
62	0xbcc93aa7	-0.0245641
63	0x3cf12f86	0.029441606
64	0x3d63ac9f	0.055584546
65	0x3cc628df	0.02418941
66	0xbd07ac2a	-0.033123173
67	0x3a828dd5	0.0009960482
68	0x3cc38400	0.023866653
69	0xbcc478ae	-0.023983326
70	0xbd10f3b9	-0.035388682
71	0xbc712b5a	-0.0147198085
72	0x3c9d3637	0.01919089
73	0x3d1f347c	0.038868412
74	0x3d84b1c2	0.06479217
75	0xbc6ece18	-0.014575504
76	0xbcb9d7dc	-0.022685938
77	0xbb2f13cb	-0.0026714678
78	0xbd8ca4ae	-0.06867348
79	0x3bb8c8ba	0.005639163
80	0xbb3dac84	-0.0028941939
81	0x3d28cacf	0.04120904
82	0x3d092d45	0.033490438
83	0x3d098d8d	0.03358226
84	0xbc718e17	-0.0147433495
85	0xbca2378b	-0.019801876
86	0x3d12ff85	0.035888214
87	0xbd3e644f	-0.04648238
88	0xbd2d4693	-0.042303633
89	0xbbe23863	-0.0069036945
90	0xbcffb5e4	-0.031214662
91	0x3b282d69	0.0025661832
92	0xbcccf5e8	-0.025019601
93	0xbbf72e1b	-0.007543338
94	0x3d1267d6	0.035743557
95	0x3ba36cd2	0.0049873376
96	0x39f5f1a2	0.00046910072
97	0x3d093a00	0.03350258
98	0x3bc8db32	0.0061296457
99	0x3c73f680	0.014890313
100	0x3d07c5f8	0.033147782
101	0x3c76f5f9	0.015073293
102	0x3c1ec25d	0.0096898945
103	0x3bdc3141	0.0067197387
104	0xbcaa9d94	-0.020827092
105	0xbc83bb3f	-0.016080497
106	0xbca2301c	-0.019798331
107	0xbc065dd4	-0.008201081
108	0x3de42780	0.111403465
109	0x3c4074d3	0.011746603
110	0x3bda8980	0.0066692233
111	0x3cbfbc4b	0.023405215
112	0x3b21c8bb	0.0024686295
113	0xbdb7ef62	-0.089812055
114	0xbcf7b0c1	-0.03023565
115	0xbc948741	-0.0181309
116	0xbe005ab4	-0.125346
117	0x3d45c804	0.048286453
118	0x3c1c08c5	0.009523575
119	0x3d6bf90b	0.057610553
120	0x3b809ec7	0.0039251777
121	0x3c6f6a7b	0.014612789
122	0x3beaaa8f	0.0071614455
123	0xbd1b616a	-0.0379347
124	0xbd812a24	-0.06306866
125	0xbce08a0d	-0.027409578
126	0xbce31327	-0.027719093
127	0xbd033f49	-0.032042775
128	0xbab66f09	-0.0013918589
129	0xbc11cd5a	-0.008899057
130	0x3ccdb3a1	0.025110068
131	0xbbae0506	-0.0053106574
132	0x3d809260	0.06277919
133	0xbc1a2453	-0.009408074
134	0xbcdcc2cb	-0.026948353
135	0xbd29b6db	-0.04143415
136	0xbc7a6a1a	-0.015284086
137	0xbcdbb6ab	-0.026820501
138	0xbc8f5c6f	-0.01750013
139	0x3b80adb6	0.003926958
140	0x3ca9ad5c	0.020712547
141	0x3d29af64	0.04142703
142	0xba92607d	-0.0011167672
143	0x3d2bfd6b	0.041989725
144	0x3c714fc7	0.014728493
145	0x3cf82aeb	0.030293902
146	0x3c849845	0.016185889
147	0x3a9f68f1	0.0012162012
148	0xbbf9de5a	-0.0076253833
149	0xbbf3b27e	-0.0074370494
150	0x3c1011ff	0.008793353
151	0xbd4a622a	-0.049410023
152	0x3aa73b69	0.0012758794
153	0x3cde5558	0.027140304
154	0x3bb57d5a	0.0055386247
155	0x3cbc228e	0.022965696
156	0x3cee5d57	0.029097242
157	0xbd175a54	-0.036951378
158	0xbbaecccb	-0.005334472
159	0xbcc5ef56	-0.024161976
160	0xbd130f1f	-0.035903092
161	0x3c02629a	0.007958079
162	0xbd00afb1	-0.031417552
163	0xbd834ba9	-0.064109154
164	0xbd526d06	-0.051373504
165	0xbc621bf8	-0.013800614
166	0xbabfeffb	-0.0014643663
167	0xbc95412f	-0.018219559
168	0x3d722a69	0.059122477
169	0x3d091d19	0.033475015
170	0x3d8a2211	0.06744779
171	0x3cb231bb	0.021752229
172	0x3c859b86	0.01630951
173	0x3c237b81	0.009978176
174	0x3c2ba5eb	0.01047657
175	0x3b4cccd7	0.0031250024
176	0x3d01f47e	0.031727307
177	0xbce62049	-0.028091567
178	0x3c6c1beb	0.014410953
179	0xbd9a05f6	-0.07520668
180	0xbc984f94	-0.018592633
181	0xbcfb43fa	-0.030672062
182	0x3c6721db	0.014107193
183	0xbd521417	-0.05128869
184	0xbd440ad8	-0.047861904
185	0xbcd1a686	-0.0255921
186	0x3d5d31df	0.05400264
187	0x3ceb1774	0.028697707
188	0x3d945517	0.07242792
189	0x3d1190fa	0.03553865
190	0x3c0e8b08	0.00870014
191	0xbc68aeca	-0.014201829
192	0xbc9fb2be	-0.01949441
193	0xbcfb4203	-0.030671125
194	0x3d1e18cd	0.03859787
195	0x3b2833a9	0.0025665557
196	0xbcde7ba1	-0.02715856
197	0xbb8a3030	-0.00421717
198	0x3cccf211	0.02501777
199	0x3cf5249a	0.02992468
200	0x3bfd9696	0.0077388985
201	0x3cbad485	0.022806415
202	0x3c52fbdc	0.012877431
203	0x3cd64e68	0.026160434
204	0xbd8bfd13	-0.068353795
205	0xbcbf6a56	-0.023366135
206	0xbd7b021a	-0.0612813
207	0x3ccb2536	0.024798017
208	0xbbbd234f	-0.0057720314
209	0x3d08c312	0.03338916
210	0xb8a8e48e	-8.053436e-05
211	0xbc0899c2	-0.00833744
212	0x3d27e1e9	0.04098693
213	0xbd3b841d	-0.04578029
214	0xbc90503f	-0.01761639
215	0xbc9c5a89	-0.01908614
216	0x3c9b28ca	0.018940348
217	0x3d26c617	0.040716257
218	0x3d242f22	0.04008401
219	0xbc273a66	-0.010206794
220	0xbd95fdec	-0.073238224
221	0xbcdaca05	-0.026707659
222	0x3c8780f7	0.016540987
223	0xbbfbc1b0	-0.0076830015
224	0x3c8402a4	0.01611454
225	0xbb361078	-0.0027780812
226	0x3cca37ed	0.02468487
227	0xbc918b08	-0.01776649
228	0x3cea023b	0.028565517
229	0xbd80ac16	-0.06282823
230	0x3ccf4bd8	0.02530472
231	0xbb125734	-0.002232981
232	0xbd27d2d7	-0.040972557
233	0x3d287596	0.041127764
234	0xbd37c4b9	-0.044865344
235	0xbde3f775	-0.11131183
236	0xbd7c69f4	-0.061624482
237	0x3c48a08a	0.012245307
238	0xbd1290b7	-0.035782542
239	0xba6eebc2	-0.000911411
240	0x3e183216	0.14862856
241	0x3cd4800c	0.025939964
242	0x3d2d343d	0.042286146
243	0x3c969431	0.01838121
244	0x3d554f68	0.05207768
245	0xb885eb0e	-6.3857166e-05
246	0x3c42886b	0.011873345
247	0xbc357097	-0.011074207
248	0xbc6b735b	-0.014370765
249	0xbc7ca051	-0.015419082
250	0xbc2a21a7	-0.010384
251	0xbd4046ae	-0.046942405
252	0x3ce42eb4	0.027854301
253	0x3db76fea	0.08956893
254	0x3cea3950	0.028591782
255	0x3bbecd08	0.0058227815
