TrainedModels/volcano/2020_08_15_22_15_28_video_train_depth_3_lr_scale_0.1_act_lrelu_0.05/2/netD_b.pth (torch_old, 454648 bytes, 9 tensors)

head.conv.weight f4 [64, 3, 3, 3]
0	0x3cc33c31	0.023832412
1	0xbce5ef95	-0.028068343
2	0xbbd61394	-0.0065330956
3	0x3a457827	0.00075328577
4	0xbcce7914	-0.025204219
5	0xbd786511	-0.06064326
6	0xbc737b39	-0.014860922
7	0xbac3a4bc	-0.0014926414
8	0xbd6c864d	-0.057745267
9	0x3c6ab81c	0.014326122
10	0x3c2a0e89	0.010379442
11	0x3ca61385	0.02027298
12	0xbc499f28	-0.012306012
13	0x3d110dc4	0.03541352
14	0x3ccfc4c0	0.025362372
15	0x3bc83c58	0.006110709
16	0x3b93dda0	0.0045125037
17	0x3d3ee762	0.046607383
18	0xb90008ac	-0.00012210262
19	0x3b284689	0.0025676808
20	0x3cdab415	0.026697198
21	0xbc9b1eb3	-0.018935537
22	0x3c150813	0.009096163
23	0x3c304298	0.010758065
24	0x3d1418c4	0.03615643
25	0xbcf78ee5	-0.030219505
26	0x3cbe42f9	0.023225294
27	0x3d09c894	0.03363855
28	0x3cb9b103	0.022667414
29	0xbc7e94dc	-0.0155384205
30	0x3b85f47d	0.004087983
31	0xbd31cc87	-0.043407943
32	0xbd1c387b	-0.0381398
33	0xbbc70d3f	-0.006074577
34	0xbcf7586f	-0.030193536
35	0xb9b5f4ce	-0.00034705404
36	0x3d1f0939	0.038827155
37	0x3b1af64b	0.0023645337
38	0x3d14ec10	0.03635794
39	0xbbd03117	-0.006353508
40	0xbd15bd9a	-0.03655777
41	0x3b767f72	0.0037612584
42	0x3a107a93	0.0005511429
43	0xbd53c8f9	-0.051705334
44	0x3cc7d3db	0.024393013
45	0x3d53e448	0.051731378
46	0x3cad3bee	0.02114674
47	0x3d14c592	0.03632123
48	0x3c34386f	0.010999783
49	0xbc640f24	-0.013919625
50	0x3c82adbf	0.01595199
51	0xbc40edc1	-0.011775435
52	0xbcb2ced7	-0.021827145
53	0x3c02b80a	0.007978449
54	0xbc21acbf	-0.009867846
55	0xbc0d2469	-0.008614638
56	0xbcca6517	-0.024706407
57	0xb9489e3c	-0.00019132433
58	0x3a8d2716	0.0010769095
59	0xbd929e49	-0.07159097
60	0x3b9b7fc1	0.004745454
61	0xbc7b0976	-0.01532208
62	0xbe16c192	-0.14722279
63	0x3beaf730	0.0071705803
64	0x39626e6b	0.00021594173
65	0x3c28fd72	0.010314332
66	0x3ce57c50	0.028013378
67	0x3a0ebb53	0.00054447836
68	0xbdb643be	-0.088996395
69	0x3c4ff914	0.012693662
70	0xbc49718e	-0.01229514
71	0xbe3a9f67	-0.1822487
72	0x3b1ffd71	0.0024412537
73	0x3bab77b3	0.005232775
74	0x3c0068e2	0.007837506
75	0xbcfc2f95	-0.030784408
76	0xbaa24ee5	-0.0012383132
77	0xbd84eb06	-0.0649014
78	0xbcb41232	-0.021981332
79	0xbc8c874b	-0.017154356
80	0xbe174d29	-0.14775528
81	0xbba06f8f	-0.0048961113
82	0x3ccf810a	0.025330085
83	0xbbfe4b8d	-0.007760471
84	0x3bdac4f6	0.0066763116
85	0x3c1eb8fd	0.009687659
86	0x3b5d6441	0.003378168
87	0x3ce4f855	0.027950445
88	0x3d27fd56	0.041013084
89	0xbd4718f8	-0.048607796
90	0xbd36036a	-0.04443685
91	0x3c387526	0.011258399
92	0x3c89a36c	0.016801558
93	0xbcc5fb2d	-0.024167622
94	0x3bf49e81	0.007465184
95	0x3b41180b	0.0029463794
96	0x3bd58f76	0.006517346
97	0xbbb5adde	-0.005544408
98	0xbd2dfc4d	-0.04247694
99	0xbda7c80f	-0.08192455
100	0xbc113737	-0.008863262
101	0x3ca08ca6	0.019598316
102	0xbcd77875	-0.026302556
103	0x3c225ea3	0.009910258
104	0x3d77ed2b	0.060528915
105	0xbc5be1bb	-0.013420518
106	0x3cc31f15	0.023818532
107	0xbacc000e	-0.0015563981
108	0xbd1a824d	-0.03772192
109	0x3c28f842	0.0103130955
110	0xbd6aa127	-0.057282593
111	0xbcba659f	-0.022753535
112	0x3ca7ada0	0.020468533
113	0x3c4ea37f	0.012612223
114	0x3caa67d4	0.020801462
115	0xbb87f969	-0.004149605
116	0x3c411021	0.011783631
117	0xbd6d633b	-0.05795596
118	0x3d1c549b	0.038166624
119	0xbca053ed	-0.019571269
120	0x3acd0e88	0.001564459
121	0x3cb8ce22	0.02255923
122	0x3b571598	0.0032819267
123	0x3d1390f3	0.036026906
124	0x38d449af	0.000101226724
125	0x3d2dfd95	0.042478163
126	0xbc8f0f61	-0.017463388
127	0xbcabb891	-0.020962032
128	0xbcd6f0f4	-0.026237942
129	0xbcbe08cf	-0.02319756
130	0xbc08c32d	-0.008347315
131	0xbce2aa51	-0.027669104
132	0x3c582e78	0.013194673
133	0x3c03b47e	0.008038638
134	0x3b55bd74	0.0032614144
135	0xbd94081d	-0.0722811
136	0x3a86b1e6	0.0010276407
137	0xbc209989	-0.009802231
138	0x38e16451	0.000107475214
139	0x3c4d4bc1	0.012530268
140	0x3cbaac23	0.02278716
141	0x39c156c6	0.0003687648
142	0x39a65820	0.00031727646
143	0x3dada2d4	0.084783226
144	0xbd761d77	-0.060086694
145	0x3b81bc6f	0.0039592306
146	0x3cc58974	0.024113394
147	0xbcc3627a	-0.023850668
148	0x3bffca91	0.00780613
149	0xbc71dbf8	-0.014761917
150	0x3c839a94	0.01606492
151	0xbc9e12a9	-0.019296007
152	0x3d8a3b48	0.06749588
153	0xbd99b463	-0.07505109
154	0x3b26ed84	0.002547116
155	0xbcbac97d	-0.022801155
156	0x3a919d13	0.0011109434
157	0xbcb5cede	-0.022193369
158	0xbbdd61e2	-0.0067560533
159	0xba8d71f5	-0.0010791408
160	0x3c144dae	0.009051723
161	0x3d933169	0.071871586
162	0x3d00bb1e	0.03142845
163	0x3c5f2a51	0.013620929
164	0x3c61ce26	0.01378206
165	0xbcb00d4a	-0.021490712
166	0xbcc79f6b	-0.024368009
167	0xbc8a890a	-0.016911048
168	0xbc513df5	-0.012771119
169	0xbc1c1675	-0.009526839
170	0xbcc2f40d	-0.023798013
171	0x3c867f6a	0.016418178
172	0x3d115081	0.035477165
173	0x3d47b774	0.04875894
174	0xbc13a585	-0.009011631
175	0x3ae64aa2	0.001756985
176	0xbcae2c01	-0.021261217
177	0xbcbae42d	-0.02281388
178	0xbabff216	-0.0014644291
179	0xbb47f570	-0.0030511282
180	0x3b239b01	0.0024964216
181	0x3ca69db5	0.020338872
182	0x3d065cb1	0.03280324
183	0xbd1b96df	-0.03798568
184	0xba8eb0f6	-0.0010886479
185	0x3c146af4	0.009058703
186	0xbd215bc7	-0.039394166
187	0x3c04f718	0.008115552
188	0x3d213fe4	0.03936757
189	0x3ca29c3f	0.019849895
190	0xbcc9e693	-0.02464608
191	0xbda5b0dd	-0.080903746
192	0x3d18eb9f	0.03733408
193	0x3c230bca	0.009951541
194	0xbd59afd1	-0.053146187
195	0x3d654b62	0.055980094
196	0x3ccbfbe1	0.024900379
197	0x3d32198f	0.043481406
198	0xbcfb160e	-0.030650165
199	0xbcf53246	-0.029931199
200	0xbd88eda6	-0.06685953
201	0xb96db69f	-0.00022670113
202	0x3c9ed82d	0.01939019
203	0xbcf04fb5	-0.029334882
204	0x3daf3455	0.085549034
205	0x3d9fef78	0.07809347
206	0xbcf404cc	-0.029787444
207	0xbc219fe6	-0.009864783
208	0xbc97ebd0	-0.018545061
209	0xbdc88c4f	-0.09792387
210	0x3d3cf4eb	0.04613201
211	0x3c15e984	0.009149913
212	0xbca9732e	-0.020684805
213	0x3d0991f7	0.03358647
214	0x3d3f7fd1	0.046752755
215	0x3c540ff2	0.012943255
216	0xbbe94c7b	-0.007119713
217	0x3bce42be	0.0062945774
218	0xbcaef357	-0.021356268
219	0x3ce347c1	0.027744176
220	0x3d8bdeb8	0.068295896
221	0xbc2b5e15	-0.010459443
222	0x3bfffe03	0.007812263
223	0x3d021552	0.031758614
224	0xbc488308	-0.012238272
225	0x3bf2a074	0.0074043814
226	0xbc6bb735	-0.014386942
227	0xbd21104f	-0.039322194
228	0xbcee756b	-0.029108724
229	0x3d57d926	0.052697323
230	0x39e8fa1f	0.00044436843
231	0xbc8974c4	-0.016779311
232	0x3c36db1e	0.01116064
233	0xbd8705c5	-0.06592897
234	0xbcd48837	-0.025943859
235	0x3ba134ef	0.0049196403
236	0xbcfdeb84	-0.030996092
237	0x3c673bdb	0.014113392
238	0x3d3bd64f	0.045858677
239	0xbc4c0b81	-0.012453915
240	0x3b888d64	0.0041672457
241	0xb97d5e91	-0.00024163189
242	0xbcc25c20	-0.02372557
243	0x3d0a8cf8	0.033825845
244	0x3d38e62d	0.045141388
245	0x3dccc0c5	0.09997705
246	0x3c994938	0.018711671
247	0x3d266693	0.040625166
248	0x3bc0f865	0.005888986
249	0xbc04e66a	-0.008111576
250	0x3d139eed	0.036040235
251	0x3c93bec3	0.018035298
252	0xbb31d0f3	-0.00271326
253	0x3bec1fb9	0.00720593
254	0x3d211679	0.039328072
255	0xbb7dbf22	-0.003871866

head.conv.bias f4 [64]
0	0xbd349a84	-0.04409267
1	0x3d9d6083	0.07684424
2	0xbb48bc24	-0.0030629719
3	0x3e064bd6	0.13114867
4	0x3db17730	0.08665311
5	0xbe6a2d0b	-0.22868745
6	0x3d9d739d	0.07688067
7	0x38faca00	0.000119585544
8	0x3dda30a3	0.10653808
9	0x3a41f541	0.00073989114
10	0x3dbae665	0.091259755
11	0xbaf6a543	-0.0018817562
12	0x3e0c60b7	0.13708769
13	0x392e023c	0.00016594765
14	0x3e00c581	0.12575342
15	0x3d924842	0.07142688
16	0x3dcec7c6	0.100966975
17	0xbe5f9910	-0.21835732
18	0x3ca86b13	0.02055887
19	0x3e0dbc0d	0.13841267
20	0xbe0d2a3f	-0.13785647
21	0x3e1011a3	0.14069228
22	0x37a4af06	1.9631825e-05
23	0x3e0fa783	0.14028744
24	0x3e0a9b59	0.13535823
25	0xbd643c38	-0.05572149
26	0x3dbf1237	0.09329646
27	0xbd29a66d	-0.04141848
28	0x390ac76f	0.00013235
29	0x3a6a5aab	0.0008939902
30	0xbe3a0d58	-0.18169153
31	0x38aef7cb	8.3431216e-05
32	0x3df6ff32	0.120603934
33	0x3d24a646	0.040197633
34	0x3a27faa4	0.0006407893
35	0x3daece73	0.08535471
36	0x3e11735c	0.14204162
37	0x3d0d9775	0.03456827
38	0x390a056c	0.00013162725
39	0x3d86a52d	0.065744735
40	0x3b2cc5f8	0.0026363116
41	0xbe6350bf	-0.22198771
42	0x3e030c13	0.12797575
43	0x3e286a9f	0.16446923
44	0x3c651b60	0.0139835775
45	0x3e1ae225	0.1512533
46	0x3cb3d0be	0.021950122
47	0x3e2830ef	0.16424917
48	0xbdc2b7ce	-0.09507714
49	0xbdfb3f87	-0.12267976
50	0x3ce7de55	0.028304258
51	0x392e6a55	0.00016633545
52	0xbd9de979	-0.07710547
53	0xbde16fa9	-0.110076256
54	0x3cfaa983	0.030598408
55	0x3dd9fb91	0.106436856
56	0xbc2ca08b	-0.010536323
57	0xbe8618fb	-0.26190934
58	0x3dcd57d8	0.100265205
59	0x3da3b50f	0.079935186
60	0xbb14795f	-0.002265535
61	0x3df839fd	0.121204354
62	0x3d49df39	0.049285147
63	0x3cb19e49	0.021681922

body.block0.conv.weight f4 [64, 64, 3, 3]
0	0x3c5702e2	0.013123246
1	0xbc5e5e26	-0.013572251
2	0xbc833525	-0.016016552
3	0xbbd86c2f	-0.0066046934
4	0xbc98e800	-0.018665314
5	0x3c8bc501	0.017061712
6	0x3c53a7c7	0.012918419
7	0x39bda0f4	0.0003616881
8	0x3d1055e4	0.03523816
9	0x3d212286	0.039339565
10	0xbc6fc3a8	-0.01463405
11	0x3d3f0577	0.04663607
12	0x3cf0b06f	0.029381005
13	0x3d20de78	0.039274663
14	0x3cad8a44	0.021184094
15	0xbcbb71cc	-0.022881411
16	0xbc843205	-0.016137132
17	0xbd47990b	-0.048729938
18	0xbcccf10e	-0.025017288
19	0x3a642c2f	0.00087040936
20	0xbd58b622	-0.05290807
21	0xbce87714	-0.028377093
22	0xbce2160f	-0.027598409
23	0xbd088a54	-0.033335045
24	0x3cfcf4b7	0.030878408
25	0x3d9ce54d	0.07660923
26	0x3d1bad0d	0.03800683
27	0xbcaa2cbf	-0.02077329
28	0x3af724c8	0.0018855566
29	0xbc365844	-0.011129443
30	0xbc5c789a	-0.013456488
31	0xbaf64ca4	-0.0018791151
32	0x3ba17046	0.004926714
33	0x3d3a1d05	0.04543783
34	0x3bee488b	0.0072718314
35	0xbcd5ae59	-0.026084112
36	0x3ca3c804	0.019992836
37	0x3d257458	0.040394157
38	0x3c2ce714	0.01055314
39	0x3c0504c8	0.008118816
40	0x3ccd2ae1	0.02504486
41	0x3ca46847	0.020069255
42	0xbd0a43df	-0.033756133
43	0x3d6cd366	0.057818793
44	0x3c8185ba	0.015810836
45	0xbdaf6483	-0.08564093
46	0xbc613fb5	-0.013748099
47	0xbbb9cc72	-0.0056701237
48	0xbdcd389c	-0.10020563
49	0xbd6a148a	-0.057148494
50	0x3b11c436	0.0022242195
51	0xbd99b585	-0.07505325
52	0x3d469d58	0.0484899
53	0x3deb8fec	0.1150206
54	0xbcf246bd	-0.029574746
55	0xbd030aed	-0.03199284
56	0xbc06bdb8	-0.008223943
57	0xbd2588f4	-0.04041381
58	0x3b3224a7	0.002718249
59	0x3bff9f29	0.007800956
60	0xbb967040	-0.004591018
61	0x3baaba8a	0.0052102255
62	0xbcc04a25	-0.023472855
63	0x3c59ab1a	0.013285423
64	0x3d2f036b	0.04272787
65	0x3d79aebe	0.060957663
66	0x3d418497	0.04724559
67	0xbd3eac0f	-0.046550807
68	0x3b26b0c8	0.002543496
69	0x3ce6fd24	0.028196879
70	0xbd47cfad	-0.04878204
71	0x3d5e4e8d	0.05427413
72	0x3b879665	0.0041378015
73	0xbd113e5c	-0.03545986
74	0xbaac54ed	-0.0013147868
75	0xbccf04de	-0.025270876
76	0x3c457123	0.0120509
77	0xbc7dd65d	-0.015493003
78	0xbc38a37e	-0.011269448
79	0x3cdade66	0.026717376
80	0xbccfd03d	-0.02536785
81	0xbb9dfe2d	-0.00482156
82	0x3c7f975a	0.01560005
83	0xbd4b89b5	-0.049691875
84	0x3c72bc73	0.014815438
85	0x3b389fca	0.0028171414
86	0x3c9ece56	0.019385498
87	0x3cd1f8d7	0.025631351
88	0xbc078b63	-0.0082729785
89	0x3d229ce7	0.039700415
90	0x3c56c473	0.013108361
91	0xbc2b5e2c	-0.010459464
92	0x3ce2f0d5	0.027702728
93	0x3cfaab11	0.030599149
94	0xbc448018	-0.011993431
95	0xbd412cb8	-0.047161788
96	0xbd44dfeb	-0.048065107
97	0xbc59fa46	-0.013304299
98	0x3d06c468	0.03290215
99	0xbbad9554	-0.0052973423
100	0x3cdf854a	0.027285237
101	0x3c64c525	0.013963019
102	0xbb4344dd	-0.0029795684
103	0xbabbd038	-0.0014329022
104	0xbc4bdbfe	-0.012442587
105	0x3c963e1f	0.018340169
106	0x3d80fcaa	0.06298192
107	0x3d131890	0.035912097
108	0x3b7f56a0	0.0038961545
109	0xbc106ccb	-0.008815001
110	0x3bd8fc92	0.0066219056
111	0x3c989235	0.018624404
112	0x3c42bdd5	0.01188608
113	0xbd189efe	-0.037261
114	0xbb175a4f	-0.00230946
115	0x3cb1f93e	0.021725293
116	0xbd5cfa27	-0.0539495
117	0xbaa7f699	-0.0012814581
118	0xbb1818a4	-0.0023208046
119	0xbd3cc04d	-0.04608183
120	0x3cb4da0f	0.022076635
121	0x3cecdb5d	0.028913194
122	0xbc35c257	-0.0110936975
123	0xbd4a39d9	-0.049371574
124	0x3cc8789c	0.024471574
125	0xbb5b3d8b	-0.003345343
126	0xbbbc374d	-0.005743897
127	0xbc995a00	-0.018719673
128	0xbb2bd814	-0.0026221322
129	0x3db26dc4	0.087123424
130	0x3b0e127e	0.0021678503
131	0x3cbd7aed	0.023129905
132	0x3da53b84	0.08067992
133	0xbd1016d5	-0.035178024
134	0xbd4d5921	-0.050133828
135	0xbcaaf41d	-0.020868355
136	0xbd357749	-0.044303212
137	0xbc5282bb	-0.012848551
138	0xbcaf63ec	-0.021409951
139	0xbd214568	-0.03937283
140	0xbb45decf	-0.0030192619
141	0xbcbe0ac5	-0.023198495
142	0xbcc710e2	-0.024300043
143	0x3d90a22b	0.07062181
144	0x3dcee82b	0.10102876
145	0x3b3bd99c	0.002866364
146	0xbdafb2c7	-0.08579021
147	0x3d5edf93	0.054412436
148	0x3c4f33a4	0.012646589
149	0xbd873462	-0.06601788
150	0x3d0d1fc5	0.034454126
151	0x3abe8b61	0.0014537388
152	0xbd88163e	-0.06644867
153	0xbd5c6884	-0.05381061
154	0xbd45428c	-0.048159167
155	0x3c3d757a	0.011563653
156	0xbd30aeeb	-0.043135565
157	0xbc0bb612	-0.008527296
158	0xbbd76a89	-0.0065739793
159	0xbd276b08	-0.040873557
160	0xbc8d8738	-0.017276391
161	0x3c613190	0.013744727
162	0xbd0d0f8a	-0.034438647
163	0xbb050f84	-0.0020303437
164	0x3c672d66	0.014109945
165	0xbd3261a2	-0.04355014
166	0x3bd634c1	0.0065370505
167	0xbcfb885a	-0.030704666
168	0x3ce598d2	0.028026972
169	0x3d2ffc4a	0.04296521
170	0xbc8b579b	-0.017009547
171	0xbcd607a0	-0.026126683
172	0xbba9eb7a	-0.0051855417
173	0xbd24a267	-0.04019394
174	0xbac38c84	-0.0014919196
175	0xbc3e377c	-0.011609908
176	0x3c493f85	0.012283211
177	0xbcad6721	-0.02116734
178	0xbc16cdc0	-0.009204328
179	0xbd0bfd60	-0.034177184
180	0xbd92e32c	-0.07172236
181	0xbd4d4fe8	-0.050125033
182	0x3c1d7bec	0.009612065
183	0xbbcd01bc	-0.0062563103
184	0xbd1892e4	-0.03724946
185	0x3cc8d359	0.02451484
186	0x3c534834	0.012895633
187	0xbc97bd75	-0.018522957
188	0x3d74567c	0.05965279
189	0xb8818d5a	-6.177528e-05
190	0x3cbf22e0	0.02333206
191	0xbb8ed466	-0.004358816
192	0x3d520b46	0.051280282
193	0xbc549cf5	-0.012976875
194	0xbc321dd6	-0.010871371
195	0x3c9686e3	0.018374866
196	0xbd0a88f2	-0.033822007
197	0xbd4fe377	-0.050754037
198	0x3da8e258	0.08246297
199	0xbd494c3a	-0.04914496
200	0xbd85a32e	-0.06525265
201	0x3e01a5aa	0.12660852
202	0x3c092162	0.0083697755
203	0xbbcc2a84	-0.006230654
204	0x3df7276f	0.12068068
205	0xbbabc25e	-0.0052416762
206	0xbe0d0275	-0.13770469
207	0x3d356147	0.044282224
208	0xbd022b5f	-0.031779643
209	0xbc1c51bc	-0.009540971
210	0x3d231c0d	0.039821673
211	0x3b8e8a7c	0.0043500047
212	0xbb1314ef	-0.0022442897
213	0xbc933fbb	-0.017974725
214	0x3d4f7402	0.050647743
215	0x3d242d13	0.04008205
216	0x3d822699	0.06355018
217	0x3d51b8d7	0.051201668
218	0x3b455c7f	0.0030114946
219	0x3d1f4d79	0.038892243
220	0x3bea5190	0.0071508363
221	0x3ba6af16	0.00508679
222	0xbcabfbc3	-0.020994073
223	0x3c8060f3	0.015671229
224	0x3cd4abcd	0.025960827
225	0xbcdb3246	-0.02675737
226	0xbc2ef54c	-0.0106786005
227	0x3bc5a42e	0.0060315346
228	0xbdc82775	-0.09773151
229	0xbca63a74	-0.020291544
230	0xbc86296e	-0.016377177
231	0xbd2798ff	-0.040917393
232	0x3a0d605d	0.00053930824
233	0x3cfe8093	0.031067168
234	0x3c7f9ad1	0.015600876
235	0xbd2ee054	-0.042694405
236	0xbd5afdd7	-0.053464737
237	0x3d755484	0.059895054
238	0x3c826afa	0.015920151
239	0xbd1aa0e4	-0.037751094
240	0x3d58da74	0.052942708
241	0x3c5553dd	0.013020483
242	0xbda111eb	-0.07864746
243	0xbd4a6d7e	-0.049420826
244	0x3c142d00	0.009043932
245	0x3b853366	0.004064965
246	0xbcd383e4	-0.025819726
247	0xbd620ca5	-0.05518784
248	0xbcff08c4	-0.03113211
249	0xba2f256d	-0.0006681297
250	0x3c4c997a	0.012487764
251	0xbbcd67b3	-0.0062684654
252	0xbd4c5946	-0.049889825
253	0x3d151ece	0.03640633
254	0x3d5c8a5d	0.05384289
255	0xbb5a81c1	-0.00333415

body.block0.conv.bias f4 [64]
0	0x3cf81e16	0.030287784
1	0x3a4b7bd3	0.00077622867
2	0x3d1b6d84	0.03794624
3	0xbc753bbf	-0.014967858
4	0x3ca5e4bd	0.020250672
5	0x3c61db73	0.013785231
6	0xbcd27370	-0.02568981
7	0x3c6fdeea	0.014640549
8	0x3bddbcba	0.0067668827
9	0x3ca634f5	0.020288924
10	0xbd3418eb	-0.043969076
11	0x3c9d4285	0.019196758
12	0x3d16f8ea	0.036858477
13	0x3ceead57	0.02913539
14	0xbcf5923a	-0.029976953
15	0xbc009549	-0.007848092
16	0x3d13d055	0.036087353
17	0x3c9c078e	0.019046571
18	0x3bbc927f	0.0057547684
19	0x3c94229a	0.018082906
20	0xbca71bdc	-0.020399027
21	0x3d723aaa	0.059137978
22	0xbd219b3a	-0.039454676
23	0xbc2f912e	-0.010715766
24	0x3c2bfd3a	0.010497386
25	0xbd031c2b	-0.032009285
26	0x3ca53e7f	0.020171402
27	0xbcdecbb5	-0.027196744
28	0x3d25c687	0.040472534
29	0xbc2b517d	-0.01045644
30	0x3c8ea3e7	0.01741214
31	0x3ccde37f	0.025132893
32	0x3d5fe846	0.054664873
33	0x3d8ec09c	0.06970331
34	0xbc4a7c6f	-0.012358769
35	0xbcb84185	-0.02249218
36	0xbb63d458	-0.0034764018
37	0x3c58d1cb	0.013233612
38	0xbd662523	-0.05618776
39	0xbbf5dbcc	-0.0075030085
40	0xbcc310ca	-0.023811717
41	0x3ca14087	0.01968409
42	0xbcedff07	-0.02905227
43	0xbcf285db	-0.029604843
44	0xbad8bd49	-0.0016535904
45	0xbbbb8a49	-0.005723272
46	0xbd18ccda	-0.037304737
47	0xbd049515	-0.03236874
48	0xbc46cb28	-0.012133397
49	0x3c1ff61a	0.009763265
50	0xbc3721d1	-0.011177496
51	0xbcea178a	-0.028575677
52	0x3ca79aca	0.020459551
53	0x3d378ed5	0.04481395
54	0xbd0d58a2	-0.034508355
55	0x3d2f08a4	0.04273285
56	0x3d03deff	0.032195088
57	0x3d0731d1	0.033006493
58	0x3be41362	0.0069603184
59	0x3da0faab	0.07860311
60	0x3c816d02	0.01579905
61	0x3cb3c8e7	0.021946384
62	0xbce56306	-0.02800132
63	0xbbf5b0ef	-0.007497899

body.block1.conv.weight f4 [64, 64, 3, 3]
0	0x3ca6f5c7	0.020380868
1	0x3bf498b7	0.007464494
2	0x3d605077	0.054764237
3	0xbb9912a0	-0.0046714097
4	0x3c6f608d	0.014610422
5	0x3c7ddd63	0.015494677
6	0xbc81d3be	-0.015848037
7	0xbca25ecd	-0.019820595
8	0x3ce876aa	0.028376896
9	0x3d8c276b	0.06843456
10	0x3cd9fe0a	0.026610393
11	0x3d219ae8	0.03945437
12	0x3c77f545	0.01513416
13	0x3d0f230d	0.034945536
14	0xbb999a8a	-0.004687612
15	0x3c98dc67	0.018659784
16	0xbc772d15	-0.015086432
17	0x3c48be6f	0.012252434
18	0x3c82715c	0.015923195
19	0xbc2ed22a	-0.010670224
20	0x3c9d3628	0.019190863
21	0x3cab2f6e	0.02089664
22	0xba3f3b37	-0.00072948955
23	0x3c6ea3c9	0.014565417
24	0xbc10a902	-0.008829357
25	0xbb198a17	-0.0023428255
26	0xbca593f0	-0.020212144
27	0x3d1780b7	0.036987986
28	0x3cc36447	0.023851527
29	0x3c5d33a9	0.013501086
30	0x3ce8448e	0.028353002
31	0x3c657c27	0.014006651
32	0x3cbbd6ad	0.022929514
33	0x3a6a3e09	0.00089356356
34	0x3d21422d	0.03936975
35	0x3d5bd8af	0.053673442
36	0xbb41770e	-0.0029520425
37	0x3c99d310	0.0187774
38	0xbcd383ee	-0.025819745
39	0xbc0d8d2c	-0.008639615
40	0x3c977db9	0.018492566
41	0xbc8f0a07	-0.017460836
42	0x3bb1572d	0.0054120035
43	0x3c075543	0.008260074
44	0xbc5dc191	-0.013534919
45	0xbac4d0ce	-0.0015015842
46	0x3d198c51	0.03748733
47	0xbcac7e1c	-0.021056227
48	0xbbd03327	-0.006353754
49	0xbd284872	-0.041084714
50	0x3c7bde6c	0.015372854
51	0xbc831944	-0.016003259
52	0x3aff326b	0.0019469982
53	0xbc89a9da	-0.016804624
54	0xbd519ae3	-0.051173102
55	0xbd005742	-0.031333216
56	0xbd60c21c	-0.054872617
57	0xbc98d166	-0.018654536
58	0x3c09bdad	0.008407039
59	0xba8f01c4	-0.001091056
60	0x3d37ef47	0.044905927
61	0x3ae20dfe	0.0017246602
62	0xba941e57	-0.0011300546
63	0xbc98af0b	-0.018638154
64	0xbc9e018d	-0.019287849
65	0xbc976625	-0.018481323
66	0x3b20457b	0.0024455476
67	0xbc802fec	-0.01564785
68	0xbd111b24	-0.035426274
69	0x3cb764f1	0.022387
70	0x3d46e6e0	0.048560023
71	0xbc6ddd9d	-0.014518169
72	0x3d109d34	0.03530617
73	0x3d1808d1	0.037117783
74	0xbbd7c2bd	-0.006584494
75	0xbca17f8e	-0.019714143
76	0xbab6b114	-0.0013938271
77	0x3cad826c	0.021180354
78	0xbcd0ffe8	-0.02551265
79	0xbbb62fb0	-0.005559884
80	0x3c90a595	0.01765708
81	0xbd19c13e	-0.037537806
82	0xbd0cacbc	-0.03434442
83	0xbc9051ff	-0.017617224
84	0xbd174e2c	-0.036939785
85	0xbcc8484e	-0.02444854
86	0x3c1d0e24	0.009585891
87	0xbcb54e65	-0.022132108
88	0xbd2be6aa	-0.041968025
89	0x3c7fcc17	0.015612624
90	0x3d29ba8e	0.041437678
91	0x3cd06541	0.025438907
92	0xbca3a2e5	-0.019975135
93	0x3bde20bd	0.006778805
94	0x3b9ca26c	0.0047801044
95	0xbb84c4fe	-0.0040518036
96	0xbc3c4e71	-0.011493311
97	0xbcab1caa	-0.020887692
98	0xbcfb8484	-0.030702837
99	0xbcc029df	-0.023457466
100	0xbbdbdae7	-0.006709445
101	0xbce38ab8	-0.027776107
102	0x3c67c206	0.01414538
103	0x3be6d91d	0.007044925
104	0x3b88d3fa	0.00417566
105	0x3d6297ae	0.055320434
106	0x3d24f5d3	0.0402735
107	0x3cc8791e	0.024471816
108	0xbc4cd848	-0.012502737
109	0xbc4f4aa5	-0.012652074
110	0x3a4049d0	0.00073352177
111	0x3c0a25d9	0.008431875
112	0x39cb17fe	0.00038737053
113	0xbc2ecd0f	-0.010669007
114	0xba20db7a	-0.000613622
115	0xbc37afac	-0.011211317
116	0xbc2d8ecb	-0.0105931265
117	0x3da85fa4	0.08221367
118	0x3c8bf33e	0.01708376
119	0x3cafd8b6	0.02146564
120	0x3d312092	0.043243952
121	0xbc833357	-0.016015692
122	0x3d35adbb	0.044355135
123	0xbd31e78e	-0.04343372
124	0xbd2b3159	-0.04179511
125	0x3d0610f8	0.032731026
126	0xbb5473a7	-0.0032417567
127	0xbbde3f15	-0.0067824223
128	0xbd0011ba	-0.031266905
129	0xbb3beac4	-0.0028673867
130	0xbccc641d	-0.024950081
131	0x3af82e0e	0.0018934624
132	0x3c1c70b7	0.009548358
133	0x3c9efc9c	0.019407563
134	0x3ca28ac8	0.019841567
135	0xbd2d6ea7	-0.042341854
136	0x3b9f3a4b	0.004859244
137	0x3cd7662a	0.026293833
138	0xbd6b7fda	-0.057494976
139	0x3cc83138	0.024437532
140	0x3d21aeca	0.039473332
141	0x3cb8dd0c	0.02256634
142	0x3d01320e	0.031541876
143	0x3d9497c8	0.072555125
144	0x3cf42356	0.029802006
145	0x3ceea9a8	0.029133633
146	0x3d910513	0.07081046
147	0x3ce6fe85	0.028197536
148	0x3b380f54	0.0028085308
149	0x3cbe21bd	0.023209447
150	0x3cdeca4a	0.027196068
151	0x3d3348e2	0.04377068
152	0x3cc70ea3	0.024298972
153	0x3d59c3bb	0.05316518
154	0x3cad19ac	0.021130405
155	0x3d0e24a7	0.034702923
156	0x3bcfda64	0.006343173
157	0x3c9b3abc	0.018948905
158	0x3c9670bd	0.018364305
159	0xbc59d5da	-0.013295615
160	0xbd51e75f	-0.051246043
161	0x3d10c7c6	0.03534677
162	0xbc31408e	-0.010818614
163	0xbbc47db0	-0.0059964284
164	0x3d3730ed	0.044724394
165	0xbbed609f	-0.007244184
166	0x3cab5f46	0.020919453
167	0x3a0ba64d	0.000532721
168	0xbd36cd2e	-0.04462927
169	0xbc20efd9	-0.009822809
170	0xbbdf2757	-0.0068101096
171	0xbd00b50b	-0.031422656
172	0x3be8cd09	0.00710452
173	0xbc94fa0d	-0.01818564
174	0x3c80573d	0.015666598
175	0x3bdcdfaf	0.0067405323
176	0x3c5d8af3	0.013521898
177	0xbd01c9bf	-0.03168654
178	0x3c6b981c	0.014379527
179	0x3d37dc4a	0.04488782
180	0x3b7bd464	0.0038426155
181	0x3b82c7a1	0.003991083
182	0x3c75c152	0.014999704
183	0xbbcdf02e	-0.006284735
184	0x3c3eb213	0.011639136
185	0x3ce82040	0.02833569
186	0x3d7a95b6	0.06117793
187	0x3ccccb61	0.024999322
188	0x3bd7c74f	0.0065850387
189	0xbc125301	-0.0089309225
190	0x3c0b457b	0.008500452
191	0x3d8f9102	0.0701008
192	0x3c390e6e	0.011294944
193	0xbc95632f	-0.018235771
194	0x3d77ee1c	0.060529813
195	0xbd5f757c	-0.0545554
196	0xbd42d4b4	-0.04756613
197	0x3d441593	0.047872137
198	0x3cdc2682	0.02687383
199	0x3d4cafff	0.04997253
200	0x3c601d70	0.013678893
201	0xbbe67612	-0.007033118
202	0x3cee19e3	0.029065078
203	0xbc8d0045	-0.017212043
204	0x3d9ff20a	0.07809837
205	0xbcd4f77a	-0.025996912
206	0xbc1858b6	-0.009298494
207	0xbcc6a916	-0.024250548
208	0x3cb4eee5	0.02208657
209	0xbcf9e1a9	-0.030503111
210	0xbca1d6b3	-0.019755697
211	0xbd1e1aca	-0.038599767
212	0xbd0424ed	-0.032261778
213	0xbcb1510c	-0.021645091
214	0xbd1c07b9	-0.038093302
215	0xbd14198f	-0.036157187
216	0x3be3df42	0.0069541046
217	0xbc285b61	-0.010275693
218	0xba6ce59d	-0.00090369006
219	0x3ca3589a	0.01993971
220	0x3a685967	0.00088634196
221	0xbd6e4268	-0.0581688
222	0x3d0762ee	0.03305333
223	0xbc7157a3	-0.014730367
224	0xbd3addc7	-0.04562166
225	0x3c1c6fee	0.0095481705
226	0xbc8c5576	-0.017130595
227	0x3d757062	0.05992163
228	0x3c2d3aab	0.01057307
229	0xbcb49751	-0.02204481
230	0x3cc1e68f	0.02366951
231	0xbd669ade	-0.056300037
232	0x3bacd816	0.005274783
233	0x3d802738	0.062574804
234	0x3d392ce4	0.045208827
235	0x3d153963	0.03643168
236	0xbbc0e530	-0.0058866963
237	0x3ce53dc4	0.027983554
238	0x3b7a9347	0.0038234757
239	0xbcaedc9d	-0.021345431
240	0xbc41d1fd	-0.01182985
241	0xbc8aad67	-0.016928388
242	0x3c015dcd	0.007895899
243	0x3d3c4aac	0.04596965
244	0x3c38d51e	0.01128128
245	0x3ccf6f1b	0.025321534
246	0x3a916b2c	0.0011094562
247	0x38a5ec78	7.911859e-05
248	0xbcbde542	-0.023180608
249	0x3d6a501d	0.05720531
250	0xbc73d3a7	-0.014882005
251	0x3bb9a3dd	0.005665286
252	0xbc127503	-0.008939031
253	0xbc85c869	-0.016330915
254	0xbcc6cdad	-0.024267996
255	0x3d466016	0.04843148

body.block1.conv.bias f4 [64]
0	0x3dc09a4f	0.09404432
1	0x3b9d836f	0.004806928
2	0xbdb4041c	-0.08789846
3	0x3ccfe2bb	0.025376668
4	0x3dd8be91	0.10583223
5	0x3de29284	0.11063102
6	0x3d7bb8dc	0.061455593
7	0x3db340c6	0.08752589
8	0x3deab1f4	0.11459723
9	0x3d86afc9	0.06576497
10	0x3d7bf651	0.061514203
11	0x3df123bf	0.11774396
12	0x3d48189a	0.048851587
13	0x3a859ff5	0.0010194766
14	0x3dc9eca1	0.098595865
15	0x3d5b8abc	0.053599104
16	0x3dba1658	0.09086293
17	0x3e1a1679	0.15047635
18	0x3e150ef7	0.1455649
19	0x3dddaf16	0.108244106
20	0x3e06c032	0.13159254
21	0xbd0c6d89	-0.03428415
22	0x3d17e218	0.037080854
23	0x3ce82292	0.028336797
24	0x3d577895	0.05260523
25	0xbbc7065e	-0.006073757
26	0x3d218c03	0.039440166
27	0x3e0e1d1e	0.13878295
28	0x3d92423d	0.0714154
29	0x3d86e7e8	0.06587201
30	0x3cdb1ac7	0.026746167
31	0x3db36599	0.087596126
32	0xbc782641	-0.015145839
33	0xbc84e054	-0.01622025
34	0x3d219d82	0.03945685
35	0x3d4779d9	0.048700187
36	0x3db5e260	0.08881068
37	0xbd1c6358	-0.03818068
38	0x3daaa6d6	0.08332603
39	0xbba6645f	-0.005077883
40	0xbc3c076a	-0.011476377
41	0x3d18edfd	0.03733634
42	0x3c8518e7	0.016247226
43	0x3dab0db4	0.08352223
44	0x3e0130d1	0.12616278
45	0x3ba4d82e	0.0050306534
46	0x3d6ff14e	0.058579735
47	0xbb870cba	-0.00412139
48	0x3ca448d8	0.020054266
49	0x3ce0bcbe	0.02743375
50	0xbccff11c	-0.025383525
51	0x3b0e7cfb	0.0021741975
52	0x3df660e7	0.120302014
53	0x3dc29b56	0.09502284
54	0x3dbe17ee	0.09281908
55	0x3d95c803	0.0731354
56	0x3dde02d8	0.10840386
57	0x3d039ed9	0.03213391
58	0x3d54e595	0.05197676
59	0x3da96b76	0.0827245
60	0x3da1977d	0.07890222
61	0x3d9b8e48	0.07595497
62	0x3db9b6bb	0.09068056
63	0x3c82c05e	0.015960868

body.block2.conv.weight f4 [64, 64, 3, 3]
0	0xbcb33275	-0.021874646
1	0x3d083777	0.03325602
2	0xbc78fc3e	-0.015196858
3	0x3c6fb991	0.014631645
4	0x3c93d86f	0.01804754
5	0xbc090bb4	-0.008364607
6	0x3c262750	0.010141209
7	0x3bfeb2fd	0.007772802
8	0xbc887cb2	-0.016661022
9	0x3c9fc8ef	0.019504992
10	0x3a26e541	0.0006366559
11	0xbbab0ebb	-0.005220262
12	0xbc0c5a2f	-0.008566423
13	0x3ce985c2	0.028506164
14	0xb8f30fa5	-0.00011590057
15	0xbba5598b	-0.0050460747
16	0x3b622883	0.003450901
17	0xbd39b206	-0.045335792
18	0x3c982080	0.018570185
19	0x3ca02483	0.01954866
20	0x3cc0fee4	0.023559041
21	0xbcbd2fc7	-0.023094071
22	0xbd8dbafa	-0.069204286
23	0xbc45eed0	-0.012080863
24	0xbd813aaa	-0.063100174
25	0xbd51646f	-0.05112117
26	0x3c9d32cc	0.01918926
27	0x3d6f9658	0.05849299
28	0x3ce478ab	0.02788957
29	0x3c059dbe	0.008155284
30	0x3dc591a2	0.09646918
31	0x3d4344a3	0.04767288
32	0x3c796d61	0.015223832
33	0x3d1e5a90	0.038660586
34	0x3c4657bc	0.012105878
35	0xbc992e67	-0.018698884
36	0xbd0ae48d	-0.03390937
37	0xbcd455a4	-0.025919743
38	0xbccd57ab	-0.025066217
39	0xbcc284a0	-0.023744881
40	0x3d110765	0.035407443
41	0x3cc499b6	0.023999076
42	0x3b883eed	0.004157892
43	0x3dcf2afa	0.10115619
44	0x3c7a2649	0.015267917
45	0x3c061978	0.008184783
46	0xbc637f8f	-0.013885393
47	0xbc23471b	-0.009965683
48	0x3acddad6	0.0015705477
49	0x3c9005ed	0.01758095
50	0xbce386f5	-0.027774313
51	0xbba1ae86	-0.004934135
52	0x3baac247	0.005211148
53	0xbcea6b6f	-0.028615681
54	0x3b9f0f71	0.0048541357
55	0x3d4073d8	0.046985477
56	0x3d997bba	0.07494302
57	0xbc9bfc84	-0.019041307
58	0x3cd72204	0.026261337
59	0x3d674847	0.056465413
60	0xbcb7af33	-0.022422409
61	0xbce59d31	-0.028029056
62	0x3d495e94	0.049162462
63	0x3c82444e	0.01590171
64	0x3a3ddefe	0.0007243006
65	0xbcac0245	-0.020997176
66	0x3cfbe289	0.030747669
67	0x3d032346	0.03201606
68	0x3b2a7ef8	0.002601562
69	0x3cb6e84e	0.022327568
70	0x3c4f0647	0.012635774
71	0xbd0b66b1	-0.03403348
72	0x3c8073e7	0.015680267
73	0x3c8bb181	0.017052414
74	0xbcbaaff8	-0.022788987
75	0xbbcb2ae9	-0.0062001836
76	0x3c9a216f	0.01881477
77	0xbbf7e597	-0.007565211
78	0x3cd8a8a5	0.026447603
79	0x3cbe434a	0.023225445
80	0xbbffab5b	-0.0078024096
81	0xbcbab9fb	-0.02279376
82	0x3cb85d27	0.022505356
83	0xbd69cf8e	-0.057082705
84	0x3c87b26c	0.01656457
85	0x3cf94376	0.030427676
86	0xbd013723	-0.031546723
87	0x3b8bb45d	0.0042634443
88	0x3cbe261a	0.023211528
89	0xbd6e8824	-0.058235303
90	0xbd1e3f53	-0.03863461
91	0x3d0639c0	0.03276992
92	0x3a88ecd0	0.0010446552
93	0x3c80d566	0.015726756
94	0x3d4e035b	0.05029617
95	0x3bb8322c	0.0056212153
96	0x3cbffe25	0.023436615
97	0x3d09a9f2	0.033609338
98	0xbd2db562	-0.04240931
99	0xbc5c1245	-0.01343209
100	0x3bb9b0b7	0.005666818
101	0xbcca188f	-0.024669914
102	0x3be76ddd	0.0070626573
103	0xbc211601	-0.009831906
104	0xbc8c2ed1	-0.017112168
105	0x3d47c558	0.048772186
106	0x3cf602b4	0.030030586
107	0x3ba4645a	0.0050168457
108	0x3cd19709	0.025584714
109	0xbc55edec	-0.013057213
110	0xbc87a33f	-0.016557334
111	0x3ca121fe	0.019669529
112	0x3aa3873b	0.0012476215
113	0xbb83a797	-0.004017781
114	0x3cb6057d	0.022219414
115	0x3c224d32	0.0099061
116	0x3d0bf99b	0.03417359
117	0x3d0dbe85	0.03460552
118	0x3d521c79	0.051296685
119	0x3d826d54	0.06368509
120	0x3d0f937f	0.035052773
121	0x3da028b0	0.078202605
122	0x3de4db99	0.111746974
123	0xbbaa5ff0	-0.005199425
124	0xbc5898fc	-0.013220068
125	0x3dc65e9c	0.09686014
126	0x3ceb0d7e	0.028692957
127	0xbc32da0a	-0.010916242
128	0xbb0f3ec1	-0.0021857473
129	0x3cbd4bd9	0.023107456
130	0xbb88203e	-0.004154234
131	0x3cff8264	0.031190105
132	0x3ce19c15	0.027540246
133	0x3ccd0c99	0.025030421
134	0x3d6fafb6	0.05851718
135	0x3d008b61	0.031382922
136	0x3c5484c9	0.012971112
137	0xbc7fdbb6	-0.015616348
138	0x3c98fa32	0.01867399
139	0x3cf55e06	0.02995206
140	0xbd51ae14	-0.051191404
141	0x3cb3cf08	0.021949306
142	0x3c0e665a	0.008691395
143	0xbd8fb43c	-0.07016799
144	0x3cbcfcf9	0.023069846
145	0x3d54807e	0.051880352
146	0x3bf826e6	0.0075729964
147	0x3d7cf3b2	0.061755843
148	0x3cdfec8b	0.027334472
149	0xbb3fb6d1	-0.0029253254
150	0x3d3cc964	0.0460905
151	0x3c85087e	0.016239401
152	0xbc990db4	-0.018683292
153	0x3ca3a8f3	0.019978022
154	0x3caccaea	0.02109285
155	0x3bd739bc	0.006568162
156	0x3c8dad08	0.017294422
157	0x3d3bd88a	0.045860805
158	0x3d17100f	0.03688055
159	0x3994e363	0.00028398176
160	0x3d0b5b83	0.03402282
161	0x3d3526d9	0.0442265
162	0xbd9128ff	-0.070878975
163	0xbcb71a01	-0.022351267
164	0x3cdf1fff	0.027236937
165	0xbc2bf58b	-0.010495554
166	0x3cc484bf	0.02398908
167	0x3d956c3a	0.07296033
168	0xbcfdb3df	-0.030969558
169	0x3d6bf2fb	0.05760477
170	0x3d60ff11	0.05493075
171	0x3b855539	0.004068997
172	0xbc3d630a	-0.011559257
173	0xbca306b3	-0.019900655
174	0x3cb11fc9	0.021621602
175	0x3d01ff5c	0.03173767
176	0x3d0d6c62	0.03452719
177	0x3d94333b	0.07236334
178	0xbc2b2cd4	-0.0104477
179	0xbc92892b	-0.017887672
180	0x3accafc6	0.0015616349
181	0x3b05719e	0.002036191
182	0xba8bd98d	-0.0010669694
183	0x3bfd00db	0.0077210492
184	0xbb956b4a	-0.004559909
185	0xbce48247	-0.027894152
186	0x3cd9e2fc	0.026597492
187	0x3d3001b2	0.042970367
188	0xbd558b7e	-0.052134983
189	0x3c110668	0.008851625
190	0x3c586561	0.013207764
191	0x3bd54dd1	0.0065095206
192	0xbc9028c6	-0.017597567
193	0x3d2abc5b	0.041683536
194	0x3d371e55	0.04470666
195	0x3c1e7392	0.009671109
196	0xbc654868	-0.013994314
197	0xbadc1e3f	-0.0016793682
198	0xbc8af810	-0.016963989
199	0x3bf92ac0	0.007603973
200	0xbd5c8244	-0.05383517
201	0x3cc1a2bd	0.02363717
202	0xbcad7a05	-0.021176348
203	0x3ca63e14	0.020293273
204	0x3c7d5b82	0.015463712
205	0x3ca2b475	0.01986144
206	0x3d905b95	0.07048718
207	0x3c5e6ac3	0.013575259
208	0x3bac6293	0.0052607744
209	0xbd5babba	-0.053630568
210	0x3cb1f543	0.021723395
211	0x3c15f55c	0.0091527365
212	0xbd3ff720	-0.046866536
213	0x3c6373a6	0.013882553
214	0x3bd84296	0.0065997345
215	0xbd4a9d0a	-0.04946617
216	0xbc0cc3a4	-0.008591566
217	0x3d42d271	0.047563974
218	0xbce32e08	-0.02773191
219	0xbb0caafd	-0.0021464222
220	0x3c307dd8	0.010772191
221	0x3b1e5c9b	0.0024164084
222	0x3d305894	0.043053225
223	0x3cf24202	0.02957249
224	0x3d3aa725	0.045569558
225	0xbd3a6a14	-0.04551132
226	0xbd3daae5	-0.046305556
227	0xbc577e05	-0.013152604
228	0xbd55b934	-0.052178577
229	0xbc981695	-0.018565455
230	0xba4ebe3b	-0.0007886623
231	0x3d7bb345	0.06145026
232	0x3d475fbc	0.048675284
233	0x3d23493e	0.03986477
234	0x3bcae518	0.006191861
235	0xbc611651	-0.013738231
236	0xbd4628d6	-0.048378788
237	0x3cf6b733	0.030116653
238	0xbc114174	-0.008865703
239	0xbac465d0	-0.0014983956
240	0x3c6a9719	0.014318251
241	0x3d0b9039	0.03407309
242	0x3ae81c48	0.0017708624
243	0xbb293380	-0.002581805
244	0x3b9e95e1	0.0048396443
245	0xbb554842	-0.003254429
246	0x3c34bd04	0.011031393
247	0x3ce7ba06	0.028286945
248	0x3c6cbdf1	0.014449582
249	0x3d711307	0.058856037
250	0x3c3ff63d	0.011716423
251	0xbc2c4379	-0.010514134
252	0xbbf2130c	-0.0073875245
253	0xbcfab0c6	-0.03060187
254	0xbd3037b1	-0.04302186
255	0x3c152fcb	0.009105633

body.block2.conv.bias f4 [64]
0	0xbd449ea5	-0.048002858
1	0x3df33e5c	0.118771285
2	0xbc9593f2	-0.018259022
3	0x3c9243bb	0.017854562
4	0x3e85fbde	0.26168722
5	0xbdc58299	-0.0964405
6	0x3e1b0c02	0.151413
7	0x3dc447cb	0.09584006
8	0x3db2558c	0.08707723
9	0x3d9d67b2	0.07685794
10	0x3e00f02f	0.12591623
11	0x3c1469fa	0.00905847
12	0x3d8b110e	0.06790362
13	0x3d9e6c45	0.077354945
14	0x3e24bb63	0.16087107
15	0x3def1343	0.11673596
16	0xbd9932e1	-0.074804075
17	0x3ded146b	0.1157616
18	0x3e1e3a21	0.15451862
19	0x3c538d1f	0.012912064
20	0xbdaf9406	-0.08573155
21	0xbcdbc106	-0.02682544
22	0xbcc0961f	-0.023509083
23	0x3d8e5966	0.06950645
24	0x3e10191f	0.14072083
25	0x3dc4ec1f	0.09615349
26	0x3cf19f10	0.029494792
27	0x3d3a2db9	0.04545376
28	0x3e38b787	0.1803876
29	0x3dbdb24b	0.09262522
30	0xbd7f4b38	-0.062327594
31	0xbddbe302	-0.10736658
32	0x3d347230	0.04405421
33	0x3d240e5b	0.040052753
34	0x3e121d72	0.14269045
35	0xbd3c9e19	-0.04604921
36	0x3e348a64	0.17630917
37	0x3dace114	0.08441368
38	0x3e7c08f2	0.24612787
39	0x3e0a8194	0.13525993
40	0x3d5e7903	0.054314625
41	0x3e14d590	0.14534593
42	0x3dfb8809	0.12281806
43	0x3dd0cb34	0.10195008
44	0x3dfbede8	0.123012364
45	0x3db988bd	0.09059284
46	0x3de60696	0.11231725
47	0x3e2b5b74	0.16734105
48	0x3dc5082e	0.09620701
49	0x3de79dad	0.11309371
50	0xbd846546	-0.06464629
51	0x3dc83f58	0.09777707
52	0x3e19772b	0.14986865
53	0x3ddf44ac	0.1090177
54	0x3e36341b	0.17793314
55	0xbe4df6b7	-0.20113645
56	0x3dae0678	0.084973276
57	0x3b1a7deb	0.0023573588
58	0x3e61c960	0.22049475
59	0x3dc205cb	0.09473761
60	0x3d5eab43	0.054362547
61	0x3d135b77	0.0359759
62	0x3dd8be52	0.10583176
63	0x3d223096	0.039597116

tail.weight f4 [1, 64, 3, 3]
0	0x3c4de4f6	0.012566796
1	0x3cd0b1cc	0.025475405
2	0xbd282c1b	-0.041057687
3	0x3d509d8b	0.050931495
4	0x3c186715	0.00930192
5	0x3c37e9ee	0.011225207
6	0xbd59ada6	-0.05314412
7	0xbcc402ac	-0.023927055
8	0xbd90347f	-0.07041263
9	0x3d320800	0.04346466
10	0xba38b338	-0.00070457486
11	0x3c336ebe	0.010951696
12	0x3d635ec0	0.055510283
13	0x3cb78afe	0.022405144
14	0xbcb43749	-0.021999018
15	0xbcf49f62	-0.029861156
16	0xbd150d1d	-0.03638946
17	0xbdc629de	-0.09675954
18	0x3cef2902	0.029194359
19	0x3d3de2d1	0.046358887
20	0x3da019ac	0.078173965
21	0xbd81c892	-0.06337084
22	0xbc2df8d8	-0.010618411
23	0xbaba4a7f	-0.0014212875
24	0xbd2ef117	-0.04271039
25	0xbbbf6e6e	-0.0058420217
26	0x3cb119c5	0.021618733
27	0x3d93943b	0.07206007
28	0x3d414507	0.04718497
29	0xbdc89937	-0.097948484
30	0x3d74dcb0	0.059780777
31	0xbb7d18f0	-0.00386196
32	0xbd61b995	-0.055108625
33	0xbc60c756	-0.0137194
34	0xbd5091b7	-0.050920215
35	0xbdaaa076	-0.08331387
36	0x3dbf2d77	0.093348436
37	0x3d1ec85c	0.038765296
38	0x3d1c8548	0.038213044
39	0xbc57d9fa	-0.013174528
40	0xbca23482	-0.019800428
41	0x3999cf72	0.00029336993
42	0xbdd23a93	-0.102650784
43	0xbd4b65c2	-0.04965759
44	0xbd3ec783	-0.046576988
45	0x3d579c33	0.052639198
46	0x3b93618e	0.0044977134
47	0x3d37e96a	0.044900335
48	0x3beb3ff5	0.007179255
49	0xbae03420	-0.0017105378
50	0xbc7dd998	-0.015493773
51	0xbd9b74c9	-0.075906344
52	0xbc818132	-0.015808675
53	0xbd2a93fa	-0.041645028
54	0x3ccd4a1c	0.025059752
55	0x3d2e5d99	0.04256973
56	0x3c966651	0.018359335
57	0xbbd6b310	-0.0065521076
58	0x3cdede87	0.027205719
59	0x3c8fb34d	0.017541552
60	0xbda8f5ef	-0.08250033
61	0xbd1ccd57	-0.038281765
62	0xbda28c00	-0.07936859
63	0x3d89f8ec	0.06736931
64	0x3cded896	0.027202886
65	0x3d47c062	0.048767455
66	0x3d391436	0.04518529
67	0xbd1c6a80	-0.038187504
68	0xbcb19eea	-0.021682221
69	0x3cc4d07c	0.024025194
70	0xbd06ce99	-0.03291187
71	0xbd23aa77	-0.03995749
72	0x3ce47d1b	0.027891686
73	0x3c1b6ff8	0.009487145
74	0x3c80203e	0.015640374
75	0x3bf9fb1e	0.0076288125
76	0x3c568153	0.013092357
77	0x3cc72efc	0.024314396
78	0xbd44c1d3	-0.048036408
79	0xbd5f0079	-0.05444381
80	0xbd0e70fe	-0.034775726
81	0x3d067a03	0.032831203
82	0x3d01405d	0.031555522
83	0x3d0c0e4b	0.03419332
84	0xbcc576bb	-0.024104467
85	0xbd479a3b	-0.04873107
86	0xbcb7422c	-0.02237042
87	0x3d0a5cb5	0.03377982
88	0x3c6007a1	0.013673694
89	0x3d0883d8	0.03332886
90	0x3d0eb399	0.034839246
91	0x3c395ce6	0.011313653
92	0x3d466164	0.048432723
93	0xbc9b8532	-0.01898441
94	0xbd23d136	-0.03999444
95	0xbbe2081b	-0.006897939
96	0x3d19e464	0.037571326
97	0x3be70977	0.007050689
98	0x3d35a1c0	0.04434371
99	0x3d126952	0.035744973
100	0x3a804460	0.0009786002
101	0x3c431d2d	0.0119088115
102	0xbd2d63bf	-0.042331453
103	0xbcbbe1cc	-0.022934817
104	0xbd31ebf1	-0.043437902
105	0x3d583462	0.05278433
106	0x3c33d783	0.010976675
107	0x3cb500f2	0.022095177
108	0x3d241392	0.040057726
109	0x3c7c05f2	0.015382277
110	0x3a922de6	0.0011152595
111	0xbcf5d2f7	-0.030007822
112	0xbcd021a1	-0.02540666
113	0x3c1bb6a3	0.009503993
114	0xbcb22b21	-0.021749081
115	0x3c9fb68f	0.01949623
116	0x3cedde62	0.029036704
117	0xbc9e6ba6	-0.01933844
118	0x3ce79307	0.02826835
119	0x3c997854	0.018734135
120	0xbcc65407	-0.02420999
121	0xbcd8de3a	-0.026473153
122	0xbd40bd01	-0.04705525
123	0x3d0bf2c3	0.034167062
124	0xbd8a229e	-0.06744884
125	0x3c722c49	0.014781066
126	0x3cea0d61	0.028570833
127	0xbcadd7e6	-0.021221112
128	0x3d63508f	0.05549675
129	0xbd112a6b	-0.035440844
130	0xbd5649e0	-0.052316546
131	0xbcc4efcc	-0.024040125
132	0x3d2f5d9c	0.042813882
133	0x3b0e6b48	0.0021731425
134	0x3cdeb8b3	0.02718768
135	0x3d13b49b	0.03606091
136	0x3cb0e51b	0.021593621
137	0x3cfe1835	0.031017402
138	0xbd21dd9a	-0.039517976
139	0xbd458441	-0.04822183
140	0xb9d7e38e	-0.00041177537
141	0x3c2949bb	0.01033252
142	0x3c75d047	0.0150032705
143	0x3d4f3a07	0.05059245
144	0x3d345d5e	0.044034354
145	0x3d2e00fb	0.042481404
146	0x3cb50723	0.02209813
147	0x3cafb635	0.021449188
148	0x3d1e20ab	0.038605373
149	0xbc99fd32	-0.01879749
150	0xbd66b4cd	-0.05632477
151	0xbd14c378	-0.036319226
152	0xbdd4f304	-0.10397914
153	0x3d9d6ec5	0.07687143
154	0x3d20e4a1	0.039280538
155	0x3c9874bb	0.018610349
156	0x3d13ba5a	0.03606639
157	0xbbe3c74e	-0.006951249
158	0xbd113fca	-0.035461225
159	0xbb5a5212	-0.0033313078
160	0xba8f97e9	-0.0010955307
161	0xbc3aa510	-0.011391893
162	0x3d9a97df	0.07548498
163	0xba761cac	-0.0009388428
164	0x3d791a82	0.060816295
165	0xbadf85b3	-0.0017053395
166	0xbbf47525	-0.007460254
167	0xbcc41ab1	-0.023938509
168	0x3d3edbdd	0.046596397
169	0xbd202985	-0.039102096
170	0x3c7123e9	0.014718034
171	0x3d34cb29	0.04413906
172	0xbca043c7	-0.019563569
173	0x3ca24431	0.019807907
174	0xbb6d850b	-0.003624263
175	0xbcba271f	-0.022723733
176	0xbd4dc8b2	-0.050240226
177	0x3debd57e	0.1151533
178	0x3db498a8	0.08818179
179	0x3d668648	0.056280404
180	0x3c8eed46	0.017447125
181	0x3cab297d	0.020893807
182	0xbb90a7bf	-0.004414528
183	0x3cb9e5fe	0.022692677
184	0x3caddceb	0.021223506
185	0xbc8e6848	-0.01738371
186	0xbd8472d4	-0.06467214
187	0xbcc5b4c0	-0.02413404
188	0xbdefc66f	-0.1170777
189	0x3d089eee	0.033354692
190	0x3d3c4837	0.045967307
191	0xbb969388	-0.004595224
192	0x3c32bcc6	0.010909265
193	0x3c11b172	0.008892404
194	0xbc529b32	-0.012854384
195	0xbcc2c3e2	-0.023775045
196	0xbcfc3939	-0.030789005
197	0xbd842c4c	-0.064537615
198	0x3d8d2ee1	0.06893707
199	0x3be3ee11	0.00695587
200	0x3c5df441	0.013547004
201	0xbba497f3	-0.0050229966
202	0xbd5036d8	-0.050833553
203	0xba066f24	-0.00051282556
204	0x3d950302	0.07275964
205	0x3d78dfa3	0.06076015
206	0x3d0bcfb0	0.034133613
207	0x3da28b1a	0.07936688
208	0x3d294db8	0.041333884
209	0x3d1ba484	0.03799869
210	0x3b9afbb1	0.004729711
211	0x3af862bf	0.0018950327
212	0xbc3a800c	-0.011383068
213	0x3c0ffb60	0.00878796
214	0xbd0756ec	-0.03304188
215	0xbcd7781e	-0.026302394
216	0x3d7eef1b	0.062239747
217	0x3b228b22	0.0024802168
218	0x3ce5088b	0.027958175
219	0x3b15f145	0.0022879404
220	0xbd57ab2c	-0.052653477
221	0xbd5d08e3	-0.053963553
222	0x3d23a38a	0.039950885
223	0x3c386f4e	0.011257006
224	0x3d2b17f2	0.041770883
225	0x3cae8c4e	0.021307137
226	0x3d321c43	0.043483984
227	0x3d849960	0.064745665
228	0x3b85d846	0.0040846197
229	0x3d1f7787	0.03893235
230	0xbb5de5a1	-0.0033858793
231	0xbde42aba	-0.11140962
232	0xbd3b8804	-0.04578401
233	0xbd60a8b7	-0.0548484
234	0x3d0d5721	0.03450692
235	0x3d4fc218	0.05072221
236	0x3bfe709c	0.007764889
237	0x3c7b4280	0.015335679
238	0xbb493094	-0.003069912
239	0xbb1954b4	-0.0023396434
240	0xbdccce31	-0.100002654
241	0xbd0bd899	-0.03414211
242	0xbd752e2c	-0.059858486
243	0x3d86f3af	0.06589448
244	0x3d93480c	0.07191476
245	0x3d74765b	0.059683185
246	0xbca52145	-0.020157466
247	0xbc89a3b1	-0.016801687
248	0xbcc79428	-0.024362639
249	0xbcea7bb9	-0.028623449
250	0xbcbafac6	-0.022824656
251	0x3c373d51	0.011184053
252	0xbd42ccc0	-0.047558546
253	0xbd11e2c1	-0.03561664
254	0x3d0fe787	0.03513291
255	0xbd1e8f22	-0.03871072
