TrainedModels/volcano/2020_08_16_16_50_40_video_train_depth_3_lr_scale_0.1_act_lrelu_0.05/0/netG_a.pth (torch_old, 460781 bytes, 12 tensors)

one_conv.conv.weight f4 [64, 3, 1, 1]
0	0x3c2151e3	0.0098461835
1	0x3b7c6e88	0.003851803
2	0xbcc9ab56	-0.024617832
3	0x3d0fc1d4	0.03509696
4	0x3bc7c0f6	0.006096001
5	0xbc2b601b	-0.010459925
6	0xbcba632e	-0.02275237
7	0xbb863d4b	-0.004096662
8	0x3c17a4c7	0.009255595
9	0x3c8aaed8	0.016929075
10	0xbb1e3203	-0.0024138696
11	0x3b85e967	0.0040866616
12	0x3ab6b1f4	0.0013938532
13	0xb7c901ad	-2.3961848e-05
14	0x3ca841c0	0.020539165
15	0xbd0eca1a	-0.034860708
16	0xbbcfae28	-0.0063378997
17	0x3a061834	0.0005115301
18	0x3cea2b2f	0.028585045
19	0xbc88472f	-0.016635505
20	0x3b95159e	0.004549696
21	0xbc21e790	-0.009881869
22	0xbc0528fb	-0.008127446
23	0xbb9db848	-0.004813228
24	0xbb4304fa	-0.0029757605
25	0x3d27ec25	0.04099669
26	0xbbbe3dca	-0.0058057057
27	0x3d1f6cc8	0.0389221
28	0xbce01dea	-0.027358014
29	0x3c114cd3	0.008868414
30	0xbb964f11	-0.004587062
31	0xbbf41d6a	-0.0074497955
32	0xbd405e83	-0.046965133
33	0x3a59b36f	0.0008304631
34	0x3cbe5777	0.023235066
35	0xbc5f492d	-0.013628286
36	0xbd055898	-0.032555193
37	0xbc8d54c2	-0.01725233
38	0xbcf7a5b3	-0.030230379
39	0x3cace47b	0.021105042
40	0xbd04e96f	-0.032449182
41	0xbca80bbc	-0.020513408
42	0xbc396917	-0.011316559
43	0x3c9cfd53	0.019163763
44	0xbb01b7f3	-0.001979348
45	0x3b768de8	0.0037621204
46	0x3cf096cf	0.029368786
47	0x3b831909	0.004000787
48	0xbc6dcb78	-0.014513843
49	0xbc87fded	-0.016600573
50	0xbd417e7d	-0.04723977
51	0x3c632b9b	0.013865377
52	0x3a9311cc	0.0011220514
53	0x3a4888ed	0.0007649798
54	0xbb457e24	-0.0030135
55	0x3bb89cfc	0.0056339484
56	0x3b9184e3	0.00444089
57	0xbb4e3dc0	-0.0031469911
58	0xbb9ee1e4	-0.0048487056
59	0x3c52a5c9	0.012856909
60	0x3b5bb69d	0.0033525594
61	0x3c84a43f	0.0161916
62	0xbc203f4a	-0.009780714
63	0x3d11a870	0.035561025
64	0x3ca27071	0.019829007
65	0xbc473faa	-0.012161175
66	0xbcd5166e	-0.026011672
67	0x3c97409e	0.018463429
68	0x3b841951	0.0040313383
69	0x3cb2ec9c	0.02184134
70	0xbce12b93	-0.027486598
71	0xbcb292c8	-0.021798506
72	0x3bc08626	0.0058753667
73	0xbcbf4add	-0.023351127
74	0xbb58d2a0	-0.0033084527
75	0xbc6fae04	-0.014628891
76	0x3b1579bf	0.0022808162
77	0x3c5a7225	0.013332878
78	0x3c89ced0	0.016822249
79	0x3cb43600	0.021998405
80	0x3c66d5cf	0.014089062
81	0xbc4f6334	-0.012657929
82	0xbb1ef894	-0.002425705
83	0xbc0e14bd	-0.008671937
84	0x3cb75b96	0.022382539
85	0xbcbd19cf	-0.023083596
86	0x3cc87311	0.02446893
87	0xbc875141	-0.016518237
88	0xbaae579b	-0.0013301255
89	0x3c79c592	0.015244858
90	0xbaf7ba41	-0.0018900112
91	0xbc0f8756	-0.008760294
92	0xbabaf5ff	-0.0014263986
93	0x3cccd084	0.025001772
94	0xbc87116c	-0.0164878
95	0x3b618aa0	0.0034414902
96	0x3c4bc378	0.01243674
97	0x3bd4e945	0.0064975345
98	0xbba1e78e	-0.0049409335
99	0x39bb9df6	0.0003578511
100	0x3b916e67	0.00443821
101	0x3c60d874	0.013723481
102	0x3d02a888	0.031899005
103	0xbb872331	-0.004124068
104	0x3c69bc63	0.014266106
105	0x3b182868	0.0023217443
106	0x3c18f3c1	0.009335459
107	0x3ae83798	0.0017716764
108	0x3c01d9dc	0.007925477
109	0xb99ac69c	-0.00029521144
110	0xbc34bbc1	-0.011031092
111	0x3bcf36a8	0.006323654
112	0xbd0035bb	-0.03130124
113	0x3cf4c405	0.029878626
114	0x3c65870a	0.014009247
115	0x3a2a44e5	0.00064952514
116	0x3cdf2501	0.027239325
117	0x3bae0831	0.005311035
118	0x3ca55a17	0.02018456
119	0x3cc37523	0.023859566
120	0x3bfb46b6	0.0076683415
121	0xbd03278c	-0.032020137
122	0x3b633834	0.003467095
123	0x3b89ce5d	0.0042055086
124	0x3c5582a3	0.0130316345
125	0xbc1e7e81	-0.009673716
126	0xbca11b14	-0.019666232
127	0xbc8b98ad	-0.017040575
128	0x38a9ee58	8.102943e-05
129	0xbbd5d64a	-0.0065257894
130	0xbc9f4c9e	-0.019445714
131	0x3cd3977c	0.02582907
132	0x3cd8f71f	0.026485024
133	0x3ce65009	0.028114336
134	0xbce8e093	-0.028427398
135	0xbc7ee068	-0.015556432
136	0x3b98da82	0.00466472
137	0xbce54356	-0.02798621
138	0xbbc62bfa	-0.006047723
139	0x3ca337cf	0.019924073
140	0xbc860f01	-0.016364576
141	0xbc0b5f86	-0.008506661
142	0x3afec716	0.0019437994
143	0x3cd9618f	0.026535777
144	0x3c479da0	0.012183577
145	0xbca25774	-0.019817092
146	0x3c570b0d	0.013125193
147	0xbcda53bf	-0.026651261
148	0xbb8bb4f2	-0.0042635137
149	0xbbbdb59b	-0.0057894713
150	0xbc76485a	-0.015031898
151	0xbb160853	-0.0022893145
152	0xbce0624a	-0.027390618
153	0xba0c2da8	-0.00053473795
154	0xbc7318f8	-0.014837496
155	0x3c728568	0.014802314
156	0xbd0e82a8	-0.034792572
157	0x3c1c4c72	0.00953971
158	0xbc8ceeab	-0.01720365
159	0x3a2fd6f2	0.00067077496
160	0xbd279f8d	-0.040923644
161	0x3b6703fd	0.003525018
162	0xbc8bfc5f	-0.017088113
163	0x3c94e101	0.018173696
164	0x3c975483	0.018472916
165	0xbad55586	-0.0016276098
166	0xbc85b1af	-0.016320078
167	0x3b05fdab	0.0020445387
168	0x3c884380	0.016633749
169	0xbca80688	-0.020510927
170	0x3cc898d3	0.024486935
171	0xbd6202d7	-0.05517849
172	0x3d35232a	0.04422299
173	0x3d24648d	0.040134955
174	0x3ca1025d	0.019654447
175	0xbd294c7f	-0.041332718
176	0xbbaabf77	-0.0052108127
177	0xbc180256	-0.009277901
178	0x3c043b98	0.008070849
179	0xbcc5aea1	-0.024131121
180	0x3b0c4cc3	0.0021408058
181	0xbb2e8cc9	-0.0026634207
182	0xba903fc5	-0.0011005333
183	0x3c355611	0.011067883
184	0xb9c2aed7	-0.0003713283
185	0xbc958a4a	-0.018254418
186	0x3cf9fd76	0.030516367
187	0xbcb341f2	-0.021882031
188	0x3bb0d606	0.0053966073
189	0xbcfc99ce	-0.030835059
190	0xbc29f6d8	-0.010373794
191	0x3bd8a04f	0.006610907

one_conv.conv.bias f4 [64]
0	0xbe53830c	-0.20655459
1	0x3d5632f0	0.05229467
2	0xbeb24c26	-0.34823722
3	0x3f0df442	0.5545083
4	0xbedc7d96	-0.43064564
5	0xbf134e8c	-0.5754173
6	0xbecfa439	-0.4055498
7	0x3d8845c8	0.06653935
8	0xbedcc406	-0.43118304
9	0xbe9190b6	-0.28430718
10	0x3efecf08	0.49767327
11	0xbeb7a2d4	-0.35866416
12	0xbedf1568	-0.4357102
13	0x3dac53e0	0.084144354
14	0x3f031f12	0.51219285
15	0xbec93a36	-0.39302224
16	0xbe76aaee	-0.24088642
17	0x3e64afac	0.22332639
18	0xbe2cc7ac	-0.16873044
19	0x3eb17268	0.34657598
20	0x3eea2dcc	0.45738065
21	0xbd9d8e90	-0.07693207
22	0x3f0a3e6c	0.540015
23	0x3ea295dc	0.3175496
24	0x3cae07c0	0.02124393
25	0xbe851290	-0.25990725
26	0xbd99b120	-0.07504487
27	0xbf0cac3f	-0.54950327
28	0xbee59917	-0.4484336
29	0x3e52e500	0.20595169
30	0xbef7da35	-0.48408666
31	0xbf0e8e4b	-0.5568587
32	0xbdf694f4	-0.12040129
33	0x3f01e166	0.50734556
34	0xbe1149dc	-0.14188331
35	0xbc899260	-0.01679343
36	0x3b354d00	0.0027664304
37	0xbe8d99ad	-0.27656308
38	0xbf07f078	-0.531013
39	0x3e2054e8	0.15657389
40	0xbeba1766	-0.36345977
41	0xbcf4f6c0	-0.029902816
42	0x3e596d5c	0.21233124
43	0x3b76c800	0.003765583
44	0xbd6d8710	-0.057990134
45	0xbf07032d	-0.5273922
46	0x3eefaf98	0.46813655
47	0xbe11f4ea	-0.14253584
48	0xbf0bc6a0	-0.5459995
49	0x3d189f50	0.037261307
50	0xbda4a2e4	-0.080388814
51	0x3eeef56c	0.46671617
52	0x3ef08314	0.46975005
53	0x3e12aca4	0.1432367
54	0xbe5eabde	-0.2174525
55	0xbc246140	-0.010032952
56	0xbeb3aaff	-0.35091397
57	0x3dd2a780	0.10285854
58	0xbf113cc3	-0.5673334
59	0x3e003100	0.12518692
60	0xbe940e9a	-0.2891739
61	0x3bba5a80	0.005687058
62	0x3d913950	0.070910096
63	0xbf046789	-0.5172048

head.conv.weight f4 [64, 3, 3, 3]
0	0x3c359807	0.011083609
1	0x3c82d61c	0.015971236
2	0xbd959525	-0.07303838
3	0x3d2e5af2	0.0425672
4	0xbd42c376	-0.047549687
5	0x3d02d4e2	0.031941302
6	0xbda018bc	-0.07817218
7	0xbd4945ee	-0.049138956
8	0xbdd2aa8c	-0.102864355
9	0x3c8f40f8	0.017487034
10	0xbd094474	-0.033512548
11	0x3dce111f	0.10061859
12	0x3cf7a377	0.030229313
13	0xbce13641	-0.02749169
14	0xbcdebb94	-0.027189054
15	0xbd809684	-0.062787086
16	0xbc817378	-0.01580213
17	0xbe3eda1d	-0.18637891
18	0xbc399437	-0.011326841
19	0xbbec2df4	-0.0072076265
20	0x3b408894	0.0029378282
21	0x3ce4a333	0.02790985
22	0xbcd77cb5	-0.026304582
23	0x3abd170a	0.0014426422
24	0xbbe48786	-0.0069741635
25	0x3d271188	0.040788203
26	0xbca28ac3	-0.019841557
27	0xbd6b968a	-0.057516612
28	0xbd61da1b	-0.055139642
29	0x3c2670f2	0.010158764
30	0xbc9fd69e	-0.019511517
31	0x3b96455a	0.004585904
32	0xbd712c4f	-0.058880147
33	0xbd10f78a	-0.03539232
34	0x3d828cb3	0.063744925
35	0x3e35497c	0.17703813
36	0x3cc079ec	0.023495637
37	0x3cb51fb8	0.022109851
38	0x3c9b132f	0.018930046
39	0xbc360322	-0.011109145
40	0xbc591b1e	-0.013251094
41	0xbba0dc65	-0.0049090856
42	0xbe05e22f	-0.13074563
43	0x3de75144	0.11294797
44	0x3e2cd017	0.16876255
45	0x3d55f60f	0.052236613
46	0x3d264e5b	0.04060207
47	0x3d3d3fbf	0.04620337
48	0x3be8e251	0.007107057
49	0xbc77252f	-0.015084549
50	0xbc5b654c	-0.01339085
51	0xbd9d2aab	-0.07674154
52	0x3da36c44	0.079796344
53	0xbe6fb73b	-0.2340974
54	0xbcaf6d44	-0.021414407
55	0xbdbe4cea	-0.09292014
56	0xbcb7233e	-0.022355672
57	0xbcafddd7	-0.021468086
58	0xbd3bda37	-0.045862403
59	0xbc351f9a	-0.011054898
60	0x3cf3b928	0.029751375
61	0x3bd299a1	0.0064270054
62	0x3c3fcb2b	0.011706154
63	0xbd807777	-0.06272786
64	0x3d8c68fb	0.06855961
65	0xbcc2827d	-0.023743862
66	0x3b624381	0.0034525099
67	0x3caf7efa	0.021422852
68	0xbbbe1220	-0.0058005005
69	0x3c7ecdfb	0.015552039
70	0x3d194627	0.037420418
71	0x3c618e2f	0.013766809
72	0x3e693661	0.2277465
73	0x3d76b9dd	0.060235847
74	0x3d1a169a	0.03761921
75	0x3c5135de	0.012769191
76	0xbbbfb7ba	-0.0058507593
77	0xbcfed774	-0.031108595
78	0x3d837983	0.06419661
79	0x3ca5d1fd	0.020241732
80	0x39d376d7	0.000403336
81	0x3c76d417	0.015065215
82	0x3dc01ada	0.093801215
83	0x3d0573bb	0.032581072
84	0x3b4416ce	0.002992082
85	0x3bf6235e	0.0075115403
86	0x3d94006d	0.07226644
87	0x3d72961c	0.059225187
88	0x3d9ef603	0.07761767
89	0x3d6f59ac	0.058435127
90	0x3bf8a27d	0.0075877295
91	0x3aa51ce9	0.0012597117
92	0x3cecc3e4	0.028902002
93	0xbbf6e72a	-0.007534881
94	0x3e0a7ae4	0.13523442
95	0x3ce1e71b	0.02757602
96	0x3e0ab32b	0.1354491
97	0x3d21a3be	0.039462797
98	0x3ddd5bbb	0.10808512
99	0x3db690c2	0.08914329
100	0x3ba1731b	0.0049270517
101	0x3d203009	0.03910831
102	0xbc0b7b0a	-0.0085132215
103	0xbce1e634	-0.02757559
104	0x3cc1fe38	0.023680791
105	0x3dfce30b	0.123479925
106	0x3d8c2f0c	0.06844911
107	0xbd3d977c	-0.046287045
108	0xbce674ca	-0.028131861
109	0xbe080e66	-0.13286743
110	0xbdcba30a	-0.099432066
111	0x3d9053ec	0.07047257
112	0x3c3b8c62	0.011447044
113	0xbd2eaf93	-0.04264791
114	0xbcf00fe5	-0.029304454
115	0xbd6928c8	-0.056923658
116	0xbd1fb1a4	-0.03898777
117	0xbd8feeaf	-0.07027947
118	0xbd55fee6	-0.052245043
119	0xbd88415e	-0.06653093
120	0xbd0f616f	-0.03500503
121	0xbd408dfa	-0.0470104
122	0xbd12e551	-0.035863224
123	0xbd89e680	-0.067334175
124	0xbbddb661	-0.006766126
125	0xba8e0723	-0.0010835867
126	0xbe037987	-0.12839328
127	0x3d5b9c30	0.05361575
128	0xbdbb853d	-0.091562726
129	0xbd0a1b1c	-0.03371726
130	0x3d2d5f6e	0.042327337
131	0xbcb3d13b	-0.021950355
132	0x3c987039	0.0186082
133	0xbcda540e	-0.026651409
134	0xbd2f22c4	-0.042757764
135	0x3d5f5455	0.054523785
136	0x3c9b89b4	0.01898656
137	0x3d796532	0.060887523
138	0x3d756e04	0.059919372
139	0x3d80f7d3	0.06297269
140	0x3d51e87b	0.0512471
141	0x3e0f46c3	0.13991837
142	0xbcf4ded9	-0.029891418
143	0xb9b0ee03	-0.00033746668
144	0x3d898311	0.06714452
145	0xbb5146ea	-0.0031933137
146	0xbd95c768	-0.07313424
147	0x3c0fc164	0.008774135
148	0x3cf53cb9	0.029936181
149	0xbccadacc	-0.024762534
150	0x3dfdfbd7	0.1240155
151	0x3da409a8	0.08009654
152	0x3db9aad5	0.09065787
153	0x3d76881c	0.060188398
154	0x3bea8c42	0.0071578333
155	0xbc099be2	-0.008398982
156	0x3d96bae0	0.07359862
157	0x3d0834c2	0.03325344
158	0xbab1b8b6	-0.0013559076
159	0x3dab0793	0.08351054
160	0xbc0825ee	-0.008309824
161	0xbccc633c	-0.024949662
162	0xbd771d25	-0.06033053
163	0x3d5e123d	0.054216612
164	0xbd20c55e	-0.039250724
165	0x3d7b67dd	0.06137835
166	0x3cf538ec	0.029934369
167	0xbd2b030d	-0.041750956
168	0xbdfcc7b0	-0.12342775
169	0x3c236f1f	0.009975224
170	0xbd91d0fe	-0.0711994
171	0x3dac1c1c	0.08403799
172	0xbd3ed9fc	-0.046594605
173	0x3d1d0f40	0.03834462
174	0xbcec11b5	-0.028817037
175	0x3c1f4b0d	0.009722483
176	0xbb4e392b	-0.003146718
177	0xbde43a67	-0.11143952
178	0xbdf6a676	-0.12043469
179	0x3d47d737	0.04878923
180	0xbcacb4be	-0.021082278
181	0xbd0dae88	-0.034590274
182	0x3ce84236	0.028351884
183	0xbccea24a	-0.02522387
184	0x3bc5967d	0.0060299025
185	0xbd28c12d	-0.04119985
186	0xbe03e8e8	-0.12881815
187	0xbc2312e0	-0.009953231
188	0xbcc8aa62	-0.024495307
189	0xbcad3e11	-0.02114776
190	0xbc1919ce	-0.009344531
191	0x3bb4aaa2	0.005513505
192	0x3cac2074	0.021011569
193	0xbca11f52	-0.019668255
194	0x3d2783e4	0.040897265
195	0x3db15fdb	0.08660861
196	0x3d93a1dc	0.072086066
197	0xbe04db12	-0.12974194
198	0x3cca19cc	0.024670504
199	0x3c2cbe2c	0.010543387
200	0x3d082b8f	0.033244666
201	0x3c9c0397	0.01904468
202	0x3d3e7c12	0.04650504
203	0x3da68ef0	0.08132732
204	0x3c0ab3f8	0.008465759
205	0xbc0c05e7	-0.008546329
206	0x3ddc992e	0.10771404
207	0x3c96cb52	0.018407498
208	0xbc693183	-0.014232996
209	0x3d2a3082	0.041550167
210	0xbb3c85b7	-0.0028766224
211	0x3c1294ea	0.008946637
212	0x3c8c000f	0.017089872
213	0x3e2b8967	0.16751634
214	0x3c7467f8	0.014917366
215	0x3e8a8228	0.27052426
216	0xbd264294	-0.040590838
217	0xbd1ab54d	-0.03777056
218	0xbd88389b	-0.06651422
219	0x3a1b5c59	0.00059265416
220	0xbcc946fd	-0.024569983
221	0xbcfe505e	-0.031044181
222	0x3d03bdc6	0.032163404
223	0xbcf1f5e6	-0.029536199
224	0xbcd7cd42	-0.026342992
225	0x3cddac68	0.027059749
226	0x3d870740	0.0659318
227	0xbdec53cc	-0.115394205
228	0x3c0fc60e	0.008775247
229	0xbc249b60	-0.01004681
230	0xbd0f8521	-0.03503907
231	0xbd87ef79	-0.06637473
232	0xbd0cf40c	-0.03441243
233	0x3cc802d0	0.024415404
234	0xbd426152	-0.047456093
235	0xbc873982	-0.016506914
236	0xbd3eefd3	-0.046615433
237	0xbd98c52d	-0.07459483
238	0xbd03b0ff	-0.03215122
239	0xbd4e4c53	-0.050365757
240	0xbdcbae3d	-0.09945343
241	0xbc38242f	-0.011239096
242	0xbcd44a4e	-0.025914337
243	0xbe29cfa3	-0.16583113
244	0x3dbe279c	0.09284899
245	0x3e530829	0.20608582
246	0xbc3a7529	-0.011380472
247	0xbcae6064	-0.021286197
248	0x3b57251e	0.003282852
249	0x3d1bcf43	0.038039457
250	0x3cb1a510	0.021685153
251	0x3bc10296	0.005890201
252	0xba02c367	-0.00049882237
253	0xbcfb2705	-0.030658254
254	0xbc5a7b3d	-0.013335046
255	0xbc4ed166	-0.012623167

head.conv.bias f4 [64]
0	0xbe58abe1	-0.21159317
1	0xbe0d4880	-0.13797188
2	0xbda8c7b9	-0.08241219
3	0xbdff0d45	-0.12453703
4	0x3e048107	0.12939845
5	0xbe35f9a7	-0.17771016
6	0xbe82b831	-0.25531152
7	0xbe073ba1	-0.1320634
8	0xbe63f945	-0.22263058
9	0xbdde3fc1	-0.10852004
10	0xbdeb4c7b	-0.11489197
11	0x3da28d4f	0.07937109
12	0xbe0606dd	-0.13088556
13	0x3c951ef4	0.018203236
14	0xbe51a84f	-0.20474361
15	0xbe81413b	-0.2524508
16	0xbe134737	-0.14382635
17	0xbc5c476e	-0.013444765
18	0x3d8640c5	0.065553226
19	0x3d6a23d1	0.057163063
20	0xbe714237	-0.23560415
21	0xbe3e1809	-0.18563856
22	0xbd089e85	-0.0333543
23	0xbdb04b2e	-0.086080894
24	0xbe76971a	-0.24081078
25	0xbe222f1b	-0.15838282
26	0xbde2b2a2	-0.11069228
27	0xbe29465c	-0.16530746
28	0xbdc1c3cf	-0.09461176
29	0xbe49fac5	-0.19724567
30	0xbd358a9a	-0.044321634
31	0x3bf2a7a4	0.007405238
32	0xbc42c0b4	-0.011886764
33	0xbe161e34	-0.14659959
34	0xbe5b09f8	-0.21390522
35	0xbda72c7c	-0.081627816
36	0xbd8644ea	-0.06556113
37	0xbda5c180	-0.08093548
38	0x3dcd3964	0.10020712
39	0xbba3abd7	-0.00499485
40	0xbe45cfdf	-0.19317578
41	0x3d5caa7a	0.053873517
42	0xbd580820	-0.052742124
43	0xbe7fa384	-0.2496472
44	0xbdce6239	-0.10077328
45	0xbe4e3e13	-0.20140867
46	0xbdb378ba	-0.08763261
47	0xbdefe79f	-0.117141
48	0xbc8d89ae	-0.017277565
49	0xbe23f63c	-0.160119
50	0xbe5b0b5a	-0.21391049
51	0xbe268429	-0.16261353
52	0xbd8772c6	-0.06613688
53	0xbe1046ad	-0.1408946
54	0xbe6cfc38	-0.23143089
55	0xbe1e155b	-0.15437834
56	0x3c9a454f	0.018831877
57	0xbe6444df	-0.22291897
58	0xbe81d8be	-0.25360674
59	0xbe537ad0	-0.20652318
60	0xbe5e5dd0	-0.21715474
61	0xbe7364f1	-0.23768975
62	0xbd247bea	-0.040157236
63	0xbc93a9da	-0.018025327

body.0.block0.conv.weight f4 [64, 64, 3, 3]
0	0x3dc3b663	0.09556272
1	0x3ccaf548	0.024775162
2	0xbcdaa9f0	-0.02669236
3	0x3dbdf604	0.092754394
4	0x3d28357e	0.04106664
5	0xbd858d68	-0.06521112
6	0x3e03be73	0.1286562
7	0x3d97a598	0.074046314
8	0x3e557f38	0.20849311
9	0x3da0a319	0.078436084
10	0x3d86dddb	0.06585284
11	0x3da3acf0	0.079919696
12	0xbd65b966	-0.056085013
13	0x3c7a0745	0.015260522
14	0x3ceb6fd9	0.028739857
15	0x3afccc20	0.0019286908
16	0x3c9d2cb7	0.01918636
17	0x3c875c99	0.016523646
18	0xbcdf312f	-0.027245132
19	0xbc78bb51	-0.015181378
20	0xbd391210	-0.04518324
21	0xbe13cd31	-0.14433743
22	0x3c775547	0.015096015
23	0xbd77d21d	-0.060503114
24	0xbd09caea	-0.03364078
25	0x3d418f54	0.04725583
26	0xbc16450a	-0.009171734
27	0x3b84901c	0.0040454995
28	0x3d5d2c89	0.05399755
29	0x3da024b0	0.078194976
30	0xbdb29de4	-0.087215215
31	0xbc761ca7	-0.01502148
32	0xbdb6d471	-0.08927239
33	0xbe015858	-0.12631357
34	0xbc27f346	-0.010250872
35	0xbe61f49b	-0.22065966
36	0x3d080f5d	0.033217777
37	0xbde031dd	-0.10947011
38	0xbe0a2fc3	-0.13494782
39	0xbc0c6cb8	-0.008570842
40	0xbc732419	-0.014840149
41	0xbd930a56	-0.07179706
42	0x3d23a9b7	0.039956775
43	0x3c3ac96c	0.011400562
44	0xbcae8b6a	-0.021306712
45	0x3d8ffa8a	0.070302084
46	0x3e2fa70a	0.17153564
47	0xbd1ed8b2	-0.038780876
48	0xbdc84019	-0.09777851
49	0x3ba628d6	0.005070786
50	0xbcfb7e47	-0.030699862
51	0xbdfc02a4	-0.12305191
52	0xbe08d51c	-0.13362545
53	0xbd5013fd	-0.050800312
54	0xbd022c7f	-0.031780716
55	0xbcde1af8	-0.02711247
56	0x3dd4ab07	0.103841834
57	0x3ce2acf4	0.027670361
58	0xbd16abc8	-0.036784917
59	0x3d0449c8	0.032296926
60	0x3ce54993	0.027989184
61	0x3d482a9e	0.048868768
62	0x3e097e94	0.13427192
63	0x3cbcc918	0.023045108
64	0x3d1b0d9f	0.037854787
65	0xbd175787	-0.036948707
66	0xbe04d1be	-0.12970635
67	0xbd6f5d28	-0.05843845
68	0xbdbd77ce	-0.092513666
69	0xbe667f93	-0.22509603
70	0xbd89327f	-0.066990845
71	0xbe028332	-0.1274536
72	0xbcce896f	-0.025212018
73	0xbd3439f7	-0.044000592
74	0xbd50e015	-0.05099495
75	0xbd48cb1d	-0.04902183
76	0xbd27dfa6	-0.040984772
77	0x3a8c50d9	0.0010705247
78	0x3e164dd3	0.14678125
79	0x3da5c903	0.080949806
80	0x3e09d170	0.134588
81	0xbd4ec037	-0.05047628
82	0x3c2d4220	0.010574847
83	0x3db6a85e	0.08918832
84	0x3b8e2807	0.0043382677
85	0xbd34d3c9	-0.044147287
86	0x3bb65fe1	0.005565629
87	0xbda4ab6f	-0.08040511
88	0xbd96bd9a	-0.073603824
89	0x3d534e6f	0.051588472
90	0xbe02d130	-0.12775111
91	0xbda9f8ef	-0.082994334
92	0x3dcc321a	0.099704936
93	0x3dad4bee	0.08461748
94	0x3cf01a56	0.029309433
95	0x3e231790	0.15926957
96	0xbae04b57	-0.0017112297
97	0x3df816c5	0.12113718
98	0x3dbba592	0.091624394
99	0x3dc2e997	0.0951721
100	0x3d4657eb	0.04842369
101	0x3c7d0471	0.015442953
102	0x3d7dd319	0.061968897
103	0x3de1d11b	0.11026212
104	0x3d718c84	0.058971897
105	0xbcd2a6fc	-0.02571439
106	0x3d0e4b8f	0.034740027
107	0x3b610efe	0.0034341211
108	0x3d31258c	0.043248698
109	0x3d76ce89	0.06025556
110	0x3cc093b4	0.02350793
111	0x3ca42f1a	0.020041991
112	0xba78c3fe	-0.00094896543
113	0xbd92b214	-0.07162872
114	0xbd8e0ab6	-0.06935637
115	0xbc8cf9a2	-0.017208878
116	0xbdd0a7bc	-0.10188243
117	0x3cb48c8d	0.022039676
118	0x3d629f4f	0.05532771
119	0xbb8b6444	-0.004253896
120	0x3d6a5a17	0.057214823
121	0x3ce0e4c7	0.02745284
122	0xbd1722c6	-0.036898397
123	0xbd9f26b6	-0.077710554
124	0xbd5d04e4	-0.053959742
125	0xbce0fd94	-0.027464665
126	0xbcbeb5fd	-0.023280138
127	0xbe3361dc	-0.17517799
128	0xbebecf1d	-0.3726739
129	0x3ad2a8eb	0.001607207
130	0x3d2c0499	0.041996572
131	0xb9f66d60	-0.00047002267
132	0x3d324e69	0.04353181
133	0x3c510b0b	0.0127589805
134	0xbda0dd6f	-0.07854735
135	0x3e213ca4	0.15745789
136	0xbad23c11	-0.001603963
137	0xbd807b40	-0.06273508
138	0x3da2cb61	0.07948948
139	0x3d7ca5d3	0.06168158
140	0xbca08c07	-0.01959802
141	0x3c8b1bd9	0.016981052
142	0x3cddd65a	0.02707975
143	0x3d3f2be3	0.046672713
144	0xbc7146bd	-0.014726338
145	0x3dab05c1	0.08350707
146	0xbe355580	-0.17708397
147	0xbdb4b2c5	-0.0882316
148	0x3de6cbe7	0.1126936
149	0xbd130bc2	-0.035899885
150	0xbddda0ea	-0.108217075
151	0x3d0d3a46	0.034479402
152	0xbc06e308	-0.008232839
153	0x3ce6f301	0.028192045
154	0xbe037459	-0.12837352
155	0xbe83c4b8	-0.25736022
156	0xbd384940	-0.04499173
157	0x3cd4ab11	0.025960477
158	0xbdf3d069	-0.119049855
159	0x3cafc755	0.021457354
160	0x3cbfe2dd	0.023423607
161	0xbb82a952	-0.0039874697
162	0x3dc6e61d	0.097118594
163	0x3d7fa310	0.062411368
164	0x3b497eb1	0.003074568
165	0x3dc215dd	0.09476826
166	0x3e1affc0	0.15136623
167	0x3da183f7	0.078864984
168	0xbca04879	-0.019565808
169	0xbbb8d3e1	-0.0056404923
170	0xbd878d8a	-0.06618793
171	0xbc9eb1be	-0.019371863
172	0xbde193ee	-0.110145435
173	0xbe972470	-0.29519987
174	0x3c0a5993	0.008444208
175	0xbd54aaad	-0.05192058
176	0xbdc2894f	-0.09498846
177	0x3d810a9a	0.0630085
178	0x3ca05b0c	0.019574665
179	0xbbfad866	-0.0076551912
180	0x3c8ec3d7	0.017427368
181	0xbd840510	-0.06446278
182	0xbec1742e	-0.3778395
183	0x3dd98587	0.106211714
184	0x3dcd2562	0.10016896
185	0xbdd6b00c	-0.10482797
186	0x3dd955ad	0.106120445
187	0x3d2217e5	0.03957357
188	0xbd49e09f	-0.04928648
189	0xbd864d23	-0.065576814
190	0x3a78db1c	0.0009493099
191	0xbe34024b	-0.17579
192	0xbe2e8d37	-0.17046057
193	0xbc769257	-0.015049539
194	0xbd369892	-0.044579096
195	0x3e0b93fa	0.13630667
196	0xbdd54dc5	-0.10415224
197	0xbd0da782	-0.034583576
198	0x3c5c21c7	0.0134357875
199	0x3d27c957	0.040963497
200	0xbd9a5fce	-0.075378045
201	0xbd58468d	-0.052801657
202	0xbcd98603	-0.02655316
203	0xbba743b6	-0.0051045073
204	0xbc8d29d8	-0.017231867
205	0xbc13cd30	-0.0090210885
206	0xbcc388e7	-0.023868991
207	0xbcb4a568	-0.022051528
208	0xbd3847b2	-0.04499025
209	0x3d20f1a2	0.03929294
210	0xbd771604	-0.06032373
211	0xbd88c83f	-0.06678819
212	0xbd01b78f	-0.031669196
213	0xbdc6a76c	-0.09699902
214	0xbde9da77	-0.11418622
215	0xbe86c234	-0.2632004
216	0x3a74a328	0.00093321735
217	0xbcbc415e	-0.022980388
218	0x3d207e74	0.039183095
219	0xbba17b57	-0.0049280333
220	0xbd9af730	-0.075666785
221	0xbc72f47b	-0.0148287965
222	0x3d2d729f	0.04234564
223	0x3e2ebcc5	0.17064197
224	0x3d8acaa5	0.067769326
225	0x3dd4dc33	0.10393562
226	0x3bb48aa9	0.0055096936
227	0x3d8c4e35	0.06850854
228	0x3d387011	0.04502875
229	0x3dc4636e	0.09589277
230	0x3c71a25a	0.01474818
231	0x3c625eac	0.013816517
232	0x3daeaf70	0.08529556
233	0x3bbf1a58	0.005831998
234	0xbda510f9	-0.08059878
235	0xbc1c3ae5	-0.009535526
236	0x3ccb2db6	0.02480207
237	0xbb6b557a	-0.0035909102
238	0xbda77163	-0.08175924
239	0x3d471420	0.048603177
240	0xbc34fe75	-0.011046995
241	0x3d9bf1c1	0.0761447
242	0x3da93fa1	0.082640894
243	0xbd9ab65c	-0.075543135
244	0xbe7b0795	-0.24514611
245	0xbed2619a	-0.4109009
246	0x3c84606b	0.016159257
247	0xbd131b06	-0.035914443
248	0xbe2c9844	-0.1685496
249	0x3de47cd1	0.11156619
250	0x3d42e13e	0.04757809
251	0xbd0e2717	-0.034705248
252	0x3ce6e694	0.02818612
253	0xbb64d473	-0.0034916669
254	0x3d7e9478	0.06215331
255	0xbb2c3684	-0.002627761

body.0.block0.conv.bias f4 [64]
0	0xbd82ac2d	-0.06380496
1	0x3dcd9e2b	0.10039934
2	0xbcbad7aa	-0.022807915
3	0xbe12ec12	-0.14347866
4	0xbde74663	-0.11292722
5	0xbcc62bd3	-0.024190819
6	0x3d7513fc	0.05983351
7	0xbced952c	-0.029001795
8	0x3d169505	0.03676321
9	0x3d7a9c4a	0.061184205
10	0x3d282f8d	0.041060973
11	0x3bc323d1	0.0059551974
12	0xbe2e633e	-0.17030045
13	0x3e4adc81	0.19810678
14	0xbd9171b7	-0.071017675
15	0xbdae142e	-0.08499943
16	0xbd48e941	-0.049050573
17	0x3e20ce4a	0.15703693
18	0x3cadfe02	0.021239284
19	0xbcda3541	-0.026636722
20	0x3e3c41c0	0.18384457
21	0x3d30686c	0.043068334
22	0x3deae20d	0.11468897
23	0xbca4cf8f	-0.020118503
24	0xbcdc8cfb	-0.026922693
25	0x3cb24987	0.021763576
26	0xbc691bd8	-0.01422783
27	0x3df4842d	0.11939273
28	0x3dc4dd67	0.09612542
29	0x3e21bb63	0.15794139
30	0xbd6bd0f0	-0.057572305
31	0x3d087fae	0.03332489
32	0xbd8e5a02	-0.069507614
33	0xbc8d00a5	-0.017212221
34	0x3da1cfe1	0.07900978
35	0xbd28f6d0	-0.041251004
36	0x3d811842	0.06303455
37	0xbdb031c8	-0.08603245
38	0xbd568f72	-0.052382894
39	0xbbf6c5bd	-0.0075308965
40	0x3dcb722f	0.09933888
41	0xbcb45185	-0.022011528
42	0xbd4acf0b	-0.049513858
43	0x3ccf169c	0.025279336
44	0xba4b914a	-0.0007765485
45	0xbd8ed871	-0.06974877
46	0x3e117f03	0.14208607
47	0xbc11d4f3	-0.008900869
48	0xbe1157b8	-0.14193618
49	0x3d55813e	0.052125208
50	0x3c57ac2b	0.013163607
51	0x3bc9dc95	0.0061603286
52	0xbdbe41ab	-0.09289869
53	0xbd4da6df	-0.05020797
54	0xbe0add50	-0.13560987
55	0xbd99808f	-0.07495224
56	0xbe0a9924	-0.13534981
57	0xbd4ce9d3	-0.05002768
58	0xb9051621	-0.00012692112
59	0x3db88ed2	0.09011616
60	0xbd05605a	-0.03256259
61	0x3b5466ca	0.00324099
62	0x3e0d978c	0.13827342
63	0xbe3b8325	-0.18311746

body.0.block1.conv.weight f4 [64, 64, 3, 3]
0	0x3e2120ae	0.15735123
1	0x3cc58399	0.024110602
2	0x3d02580b	0.031822246
3	0x3d695fea	0.056976236
4	0x3d585f48	0.052825242
5	0x3db864ee	0.09003626
6	0x3d1b1dfd	0.037870396
7	0x3d10e060	0.03537023
8	0x3ccc8412	0.02496532
9	0x3d23d57c	0.039998516
10	0xbbd80c2c	-0.006593248
11	0xbc9fb8e6	-0.019497346
12	0xbbd9ffff	-0.0066528316
13	0xbd35fb9c	-0.044429407
14	0xbcab73bb	-0.020929208
15	0x3b5476bc	0.0032419404
16	0xbcc39c13	-0.023878133
17	0xbd97b426	-0.074074075
18	0x3c8f6278	0.017503008
19	0x3cfa7f0f	0.030578164
20	0xbc88e9cb	-0.016713044
21	0xbd12d34d	-0.035846043
22	0x3c7b32a3	0.015331897
23	0x3b3d4c05	0.0028884422
24	0xbba82411	-0.0051312526
25	0x3d1b42f2	0.03790564
26	0x3c82ee6b	0.015982827
27	0xbdee13f0	-0.116248965
28	0xbd8260da	-0.06366129
29	0x3da92186	0.08258347
30	0xbe367b5f	-0.178205
31	0xbde1182a	-0.10990937
32	0x3d39c7a1	0.045356397
33	0xbdb64ab7	-0.089009695
34	0xbd4268af	-0.047463115
35	0x3cd6f02a	0.026237566
36	0x3cd83617	0.02639298
37	0xbd18a450	-0.037266076
38	0x3da176e7	0.07884007
39	0xbbc8ce6b	-0.0061281226
40	0x3d54a003	0.05191041
41	0x3e1bd399	0.15217437
42	0xbdd459da	-0.103687
43	0xbd70f6c1	-0.058829073
44	0x3dac80a5	0.084229745
45	0xbd7aae3d	-0.061201323
46	0xbd6b1b00	-0.057398796
47	0xbdcf7601	-0.10129929
48	0x3c6b12af	0.014347716
49	0xbc280dce	-0.010257198
50	0xbd445f5b	-0.0479425
51	0x3e352699	0.17690505
52	0x3dd3e3f5	0.10346214
53	0xbd66cf38	-0.056349963
54	0xbbb0efbc	-0.0053996723
55	0xbcd086df	-0.025454937
56	0xbcf398b9	-0.02973591
57	0xbd8698b7	-0.06572097
58	0xbcf9e055	-0.030502478
59	0xbd5b7c95	-0.053585608
60	0xbe10e540	-0.14149952
61	0xbd1ca7ce	-0.03824597
62	0xbcda625a	-0.026658226
63	0x3c198ff3	0.009372699
64	0xbd294284	-0.0413232
65	0xbd880d89	-0.066432066
66	0xbc738ee2	-0.014865609
67	0xba56f35a	-0.00081997144
68	0xbd8c1a7d	-0.0684099
69	0x3ce76584	0.028246649
70	0x3d3eca5c	0.046579704
71	0x3b1d2ce4	0.0023983056
72	0x3d36c365	0.044619936
73	0x3b81b918	0.0039588325
74	0xba3aa890	-0.00071204547
75	0x3b81a9c8	0.003957007
76	0xbd021136	-0.031754695
77	0xbd2979e4	-0.04137601
78	0x3cdbf3ec	0.02684971
79	0x3ccdc147	0.025116576
80	0xbd0b0677	-0.033941712
81	0x3cdacf62	0.026710216
82	0x3d012105	0.03152563
83	0x3d01d081	0.031692985
84	0x3d07a355	0.03311475
85	0xbcf7c185	-0.030243644
86	0xbc78db17	-0.015188954
87	0x3d5c9d0c	0.05386071
88	0xbd1b77cc	-0.037956044
89	0xbdb1fce8	-0.08690816
90	0xbc63d574	-0.013905872
91	0xbcacc9f1	-0.021092387
92	0xbd8d1c40	-0.06890154
93	0xbdb5ee50	-0.08883345
94	0xbd3b6663	-0.04575194
95	0xbd4e2e6b	-0.050337236
96	0xbe80c64c	-0.25151289
97	0xbe53ee76	-0.20696434
98	0xbe138ca1	-0.14409114
99	0xbd356c5d	-0.044292796
100	0xbd24337c	-0.04008816
101	0xbd295298	-0.041338533
102	0xbd4343af	-0.04767197
103	0xbda6bb0a	-0.081411436
104	0xbd772479	-0.060337517
105	0xbdbdccb8	-0.09267563
106	0xbd09084b	-0.033455174
107	0xbd5d3b0d	-0.054011393
108	0xbe03eaf3	-0.12882595
109	0xbcc18b8a	-0.023626108
110	0x3def89c2	0.11696197
111	0xbe2d5d3c	-0.16930097
112	0xbd2c4e28	-0.042066723
113	0x3d9f0152	0.07763924
114	0xbe6763a5	-0.22596605
115	0xbdd57080	-0.10421848
116	0x3b721fdf	0.0036945266
117	0x3df441ba	0.11926599
118	0x3e07fdbe	0.13280389
119	0x3d5f8b26	0.05457606
120	0x3e1f6254	0.15564853
121	0x3e228620	0.15871477
122	0x3dcde0ec	0.10052666
123	0x3df92804	0.121658355
124	0x3e6ea5f5	0.23305495
125	0x3deedad4	0.11662832
126	0x3d4003f2	0.046878763
127	0x3b9d77df	0.0048055495
128	0xbcec8dd5	-0.028876225
129	0x39d15706	0.00039928424
130	0x3b9f0091	0.0048523624
131	0xbd56483e	-0.05231499
132	0xbc573050	-0.013134077
133	0x3cf6c162	0.030121509
134	0x3c009b12	0.007849472
135	0xbe3e5f2c	-0.18590993
136	0xbe033c74	-0.1281603
137	0x3d08544c	0.033283517
138	0xbe8efed1	-0.27928784
139	0xbda370c5	-0.079804935
140	0x3c2c0abb	0.010500605
141	0xbddd9cfe	-0.108209595
142	0xbba662c4	-0.0050776917
143	0x3d8d3e06	0.06896596
144	0x3c3ddec4	0.011588756
145	0x3d2dc88c	0.042427585
146	0x3d43c745	0.04779746
147	0x3d51747c	0.05113648
148	0x3d3c85be	0.046025984
149	0x3d5f14a0	0.05446303
150	0xbcd8b70e	-0.026454475
151	0x3ce0bea8	0.027434662
152	0xbd194768	-0.037421614
153	0x3d88432a	0.066534355
154	0x3d80f91d	0.062975146
155	0x3e3dfc78	0.1855334
156	0x3d1db7db	0.038505416
157	0x3de43dd9	0.11144609
158	0x3de55195	0.11197201
159	0x3dee129d	0.11624644
160	0x3dcf7587	0.101298384
161	0x3df3cdfb	0.11904522
162	0x3c10faad	0.008848828
163	0xbce4e40c	-0.027940772
164	0xbd9dadd8	-0.07699174
165	0xbc7c4f81	-0.015399815
166	0xbdb24e38	-0.08706325
167	0xbd992f60	-0.07479739
168	0xbe116ffd	-0.14202876
169	0xbe3e7fb6	-0.18603405
170	0xbe3b0eee	-0.18267414
171	0xbdf1bc23	-0.11803462
172	0xbb96af46	-0.004598531
173	0x3e03e105	0.12878807
174	0xbe09c0eb	-0.13452499
175	0xbd42ae0b	-0.04752926
176	0xbc10d025	-0.008838688
177	0xbe4b00a0	-0.19824457
178	0xbdc32689	-0.095288344
179	0x3d82dc45	0.06389669
180	0x3debf386	0.11521058
181	0x3c11000c	0.008850109
182	0xbdddef19	-0.1083662
183	0x3d54616c	0.05185072
184	0xbcb21494	-0.021738328
185	0xbd9e1426	-0.07718687
186	0x3cf9cf2b	0.030494293
187	0xbc11ece8	-0.0089065805
188	0x3bf98fc3	0.0076160147
189	0x3cd24b6a	0.025670726
190	0x3b063186	0.0020476296
191	0xbe389c6d	-0.18028422
192	0x3d88238e	0.066474065
193	0x3cbfb227	0.02340038
194	0xbdc5d39d	-0.09659503
195	0x3e1787c3	0.14797883
196	0x3d9bd0ff	0.07608222
197	0xbd53a591	-0.05167157
198	0xbdd0eaa5	-0.10201005
199	0xbe405c72	-0.18785265
200	0xbe24ae9f	-0.16082238
201	0xbd19129e	-0.03737127
202	0xbd94ebd2	-0.07271542
203	0xbd6ee118	-0.058320135
204	0xbd1e49bb	-0.038644534
205	0xbcd5b125	-0.026085446
206	0xbcffe8f8	-0.031239018
207	0xbdbf46a6	-0.09339647
208	0xbb4fa391	-0.0031683187
209	0x3d9f4fd7	0.077789
210	0xbe06c756	-0.13161978
211	0xbcfed550	-0.031107575
212	0x3d2cf8f3	0.042229604
213	0xbcb1da73	-0.02171061
214	0x3d7d305d	0.0618137
215	0x3db66cb8	0.08907455
216	0x3d93e084	0.07220557
217	0x3ca303e6	0.01989932
218	0xbcc0a39c	-0.023515515
219	0x3d104c36	0.03522893
220	0x3c20d457	0.009816251
221	0xbd65b530	-0.056080997
222	0x3ced011d	0.028931195
223	0x3c52ceb3	0.012866664
224	0xbcfc459d	-0.030794913
225	0xbc858f4c	-0.01630368
226	0x3aacc65c	0.0013181674
227	0x3bc08385	0.0058750533
228	0x3c244d81	0.010028244
229	0xbcfdb858	-0.030971691
230	0xbd1bf518	-0.038075536
231	0x3df38c36	0.118919775
232	0x3dd1a08c	0.102357
233	0xbc5fa734	-0.013650704
234	0x3d87e6d6	0.06635825
235	0x3c4397b2	0.011938022
236	0xbd3e74e3	-0.04649819
237	0x3de4313d	0.11142204
238	0x3d042230	0.032259166
239	0xbd7e5737	-0.062094893
240	0x3dc9633b	0.0983338
241	0x3c4180c5	0.011810486
242	0xbdd3c52c	-0.10340342
243	0x3aa95507	0.0012919017
244	0x3dede8ee	0.116166934
245	0x3e4559f9	0.19272603
246	0xbda78fe7	-0.08181744
247	0x3c9d4e20	0.019202292
248	0x3d1dd2be	0.038531058
249	0xbed0bac9	-0.40767506
250	0xbebc3295	-0.3675734
251	0xbea5ef18	-0.32408977
252	0x3d5c99f2	0.05385775
253	0x3d05fbcd	0.03271084
254	0x3c620de4	0.013797257
255	0xbc001ca4	-0.007819328

body.0.block1.conv.bias f4 [64]
0	0xbc4052e9	-0.011738517
1	0xbdd448d9	-0.10365457
2	0xbcba8122	-0.022766653
3	0xbbdc236b	-0.0067180893
4	0xbe321013	-0.17388944
5	0x3dd6b519	0.104837604
6	0xbbd342b0	-0.0064471588
7	0xbca0f545	-0.019648204
8	0xbe061d97	-0.13097225
9	0xbc2e6720	-0.010644704
10	0xbd8d5703	-0.06901362
11	0x3d842f66	0.06454353
12	0xbdc94f5b	-0.09829589
13	0x3bed53bf	0.0072426493
14	0xbdc78e7e	-0.09743975
15	0xbd9cafa1	-0.07650686
16	0xbd87f893	-0.06639209
17	0x3cba7c0c	0.022764228
18	0xbdcde7c6	-0.10053973
19	0xbdcd1d69	-0.10015375
20	0x3cf2d0e0	0.029640615
21	0xbdb4c88d	-0.088273145
22	0xbc8cba4c	-0.017178677
23	0x3c8c0964	0.017094322
24	0x3ae37212	0.0017352721
25	0xbda1bd49	-0.078974314
26	0x3d96e48b	0.0736781
27	0xbd8bfb5b	-0.068350516
28	0xbe0984dc	-0.13429588
29	0xbe1a31af	-0.15058015
30	0xbdffe5c0	-0.12494993
31	0x3c067a2a	0.008207837
32	0xbc28e045	-0.010307376
33	0x3d86fe4f	0.06591474
34	0xbc6ecee7	-0.014575697
35	0xbd87ebde	-0.06636785
36	0xbe0050a8	-0.12530768
37	0xbc5da6ec	-0.013528567
38	0xbd803b84	-0.06261352
39	0x3d2d1e4f	0.042265233
40	0xbdacfb9a	-0.08446427
41	0xbd20909e	-0.039200418
42	0xbd349c12	-0.044094153
43	0xbdebae18	-0.11507815
44	0xbd8a213a	-0.06744619
45	0xbcd10254	-0.025513805
46	0xbd1e1b9f	-0.03860056
47	0xbd360c9a	-0.04444561
48	0xbd546f64	-0.051864043
49	0x3d4e4640	0.050359964
50	0x3d765992	0.060144015
51	0xbc4c1387	-0.012455828
52	0x3df89cd1	0.12139285
53	0x3d237e18	0.039915174
54	0xbc01b2ac	-0.007916134
55	0x3d19d1f7	0.037553754
56	0xbe154d4b	-0.14580266
57	0xbddc2e17	-0.107509784
58	0xbdeb4f45	-0.11489729
59	0xbe6465a8	-0.22304404
60	0x3d89ae66	0.06722717
61	0xbe1813b7	-0.1485127
62	0xbd936af1	-0.07198132
63	0xbe0b63ca	-0.13612285

body.0.block2.conv.weight f4 [64, 64, 3, 3]
0	0xbbae8274	-0.00532561
1	0x3bc6a168	0.0060617216
2	0xbcb724a7	-0.022356344
3	0xbbb58995	-0.0055400827
4	0x3d228b45	0.0396836
5	0xbd63743d	-0.055530775
6	0xbdc15955	-0.09440867
7	0xbd9bccba	-0.07607408
8	0xbd2e400a	-0.04254154
9	0x3da679c5	0.081286944
10	0x3df5cd9e	0.12002109
11	0x3df07356	0.117407486
12	0x3de22291	0.11041749
13	0x3d08d692	0.033407755
14	0xbd97b95d	-0.07408402
15	0x3e55e876	0.20889458
16	0x3dd50d20	0.10402894
17	0x3cbd176c	0.023082457
18	0xbd8952fa	-0.0670528
19	0x3da71862	0.081589475
20	0x3dbc40c8	0.091920435
21	0x3bab28f8	0.0052233897
22	0x3dc0e367	0.094183736
23	0x3d94940d	0.07254801
24	0x3d909359	0.07059354
25	0x3ce64152	0.028107319
26	0x3cc31df8	0.023818001
27	0xbd53042a	-0.051517643
28	0xbd431808	-0.04763034
29	0xbd12f7a4	-0.0358807
30	0x3c88334e	0.016626026
31	0x3d9c8d99	0.07644195
32	0x3d5e5500	0.05428028
33	0xbcc8ede2	-0.024527494
34	0xbda1037b	-0.07861992
35	0x3d186de7	0.037214186
36	0x3d032d77	0.03202578
37	0x3cedc9af	0.029026834
38	0x3bb1dba2	0.0054277936
39	0x3d63e3fe	0.055637352
40	0xbd2d67bf	-0.042335268
41	0xbd6edbdb	-0.05831514
42	0x3cd3f9ff	0.025876043
43	0xbd4126f4	-0.04715629
44	0xbcfcab9b	-0.030843547
45	0x3cfb9910	0.030712634
46	0xbba1ee44	-0.0049417336
47	0x3d7f0a6d	0.062265802
48	0x3cc34ec7	0.023841275
49	0xbd8d72be	-0.06906651
50	0xbc9805f1	-0.01855752
51	0xbd79aa66	-0.06095352
52	0xbd62b195	-0.055345137
53	0xbd1bafb3	-0.038009357
54	0xbe1a3365	-0.15058668
55	0xbd9f622b	-0.07782396
56	0x3cbb63d0	0.022874743
57	0xbd69710e	-0.056992583
58	0xbaf43261	-0.0018630737
59	0xbd4e46c4	-0.050360456
60	0xbbd93ab5	-0.006629313
61	0xbd18fb44	-0.037349
62	0xbd6ef984	-0.058343425
63	0xbd1b10c9	-0.037857804
64	0xbd3c28c4	-0.045937315
65	0xbca9e8c5	-0.020740876
66	0xbc450b8a	-0.012026677
67	0xbce5096f	-0.0279586
68	0x3e1bea3f	0.15226077
69	0xbc041a74	-0.008062948
70	0xbd3b95f7	-0.045797314
71	0x3e104599	0.1408905
72	0x3d850d95	0.06496731
73	0xbcfe10c3	-0.031013852
74	0x3ba9a225	0.0051768
75	0x3c3b830b	0.011444817
76	0xbd70d61f	-0.05879795
77	0x3cb15f34	0.021651842
78	0xbb167d17	-0.0022962743
79	0x3a2366b6	0.00062332617
80	0xbbdf40e1	-0.006813154
81	0xbd0e52bf	-0.03474688
82	0x3cb814c0	0.022470832
83	0x3cbfdf79	0.02342199
84	0xbd66d0af	-0.05635136
85	0xbc8b5943	-0.017010337
86	0x3cc79008	0.024360672
87	0xbdf5a9b9	-0.11995263
88	0xbd681dbc	-0.056668982
89	0x3b56cdbc	0.0032776436
90	0x3e1d9695	0.15389474
91	0x3e77572c	0.24154347
92	0x3dcbcf79	0.09951682
93	0x3d8dc815	0.06922928
94	0x3d14c237	0.03631803
95	0xbd14e0cd	-0.0363472
96	0xbdc5db1d	-0.09660933
97	0xbd520fbb	-0.051284533
98	0xbc95624e	-0.018235352
99	0x3d7b92e2	0.061419375
100	0xba7f62d6	-0.0009742206
101	0xbdef0e2f	-0.11672627
102	0x3d765cac	0.060146973
103	0xb9eb02ed	-0.00044824873
104	0x3d076b3f	0.033061262
105	0xbd5f5a31	-0.054529373
106	0xbdbfa30c	-0.093572706
107	0x3dc03703	0.09385493
108	0x3d529df0	0.051420152
109	0x3d261a98	0.040552706
110	0x3d4c7dd2	0.04992468
111	0x3c86d6b5	0.016459802
112	0x3d739351	0.059466664
113	0x3d7d4049	0.061828885
114	0x3cd1df78	0.025619254
115	0xbcf5e77a	-0.030017603
116	0xbdca6086	-0.09881692
117	0xbc6b5ccd	-0.014365387
118	0xbceef7fb	-0.02917098
119	0xbdab4428	-0.08362609
120	0x3d1f6979	0.038918946
121	0x3d95cb39	0.07314152
122	0x3d0cc10f	0.034363803
123	0xbd6af44a	-0.05736188
124	0x3c07457a	0.008256311
125	0x3d144a4b	0.036203664
126	0xbeb916a8	-0.36150098
127	0xbe01215b	-0.1261038
128	0x3d2ff7ad	0.04296081
129	0xbdcd2cd6	-0.100183174
130	0x3d4f77ab	0.050651234
131	0x3e01c86e	0.12674114
132	0x3dc015da	0.09379168
133	0x3d468fa3	0.048476826
134	0x3debaff9	0.115081735
135	0x3e523527	0.20528089
136	0x3e5c4228	0.21509612
137	0x3d3d70f8	0.046250314
138	0x3e15e3fd	0.14637752
139	0x3d11ecc0	0.035626173
140	0xbde4e6f6	-0.11176865
141	0x3e1ecf9f	0.15508889
142	0x3de7bada	0.11314936
143	0x3d5a1f4e	0.05325251
144	0x3d633216	0.055467688
145	0x3d41341d	0.04716884
146	0xbd852214	-0.065006405
147	0xbc8f58d7	-0.017498417
148	0xbcd85932	-0.02640972
149	0x3cd2d80c	0.025737785
150	0xbcd6e9e8	-0.026234582
151	0xbde84ab1	-0.11342371
152	0xbc90baec	-0.017667256
153	0xbdbd0aec	-0.09230599
154	0xbd86c8ca	-0.06581266
155	0xbd8bbabb	-0.068227254
156	0xbdc726d4	-0.09724203
157	0xbd161f09	-0.03665069
158	0x3c217804	0.009855274
159	0xbd66c3bb	-0.056339007
160	0xbc9b82b4	-0.018983223
161	0x3c36764f	0.011136605
162	0x3dfd1aa0	0.12358594
163	0x3d1c8e99	0.03822193
164	0xbe0de59e	-0.13857123
165	0x3d0eb0d6	0.034836613
166	0x3c196991	0.009363548
167	0xbdde53c3	-0.1085582
168	0x3cb4b610	0.02205947
169	0x3d6c1197	0.057633962
170	0xbc98b0d6	-0.01863901
171	0xbd57366f	-0.052542146
172	0x3c339fdd	0.010963407
173	0x3caa8c51	0.020818861
174	0x3d3fb45f	0.046802875
175	0x3d625d0b	0.055264514
176	0x3dc902de	0.09815
177	0x3cc274cd	0.023737336
178	0xb9e3d648	-0.00043456466
179	0xbcee274b	-0.02907147
180	0xbd1d47f8	-0.038398713
181	0xbaa005a3	-0.0012208711
182	0xbdedda09	-0.116138525
183	0xbcbd0356	-0.02307288
184	0xbd293f81	-0.041320328
185	0xbda127e4	-0.07868937
186	0x3d1e8e23	0.03870977
187	0xbd0477c1	-0.03234077
188	0xbc4a9a03	-0.012365821
189	0x3d1802a2	0.037111886
190	0xbcaf8d84	-0.021429785
191	0xbd8d1d59	-0.06890363
192	0x3c2cc8c0	0.010545909
193	0x3c3e22ab	0.011604945
194	0x3c91312e	0.017723646
195	0x3d986bc2	0.07442428
196	0xbca942b9	-0.020661699
197	0xbdbfad7c	-0.093592614
198	0x3dc0cefe	0.094144806
199	0x3d9ac7d4	0.075576454
200	0x3d0a1e82	0.0337205
201	0x3db5d22a	0.08877976
202	0x3deb3af9	0.114858575
203	0x3e1d0c38	0.15336692
204	0x3e0abf54	0.13549548
205	0x3de5fd9e	0.11230014
206	0x3e19f217	0.15033756
207	0x3d8479fa	0.06468578
208	0x3d2a64ce	0.04160004
209	0x3d1c6762	0.03818453
210	0x3d1f9d6f	0.0389685
211	0xbbd9954e	-0.006640113
212	0xbcbd03fd	-0.02307319
213	0x3b5fa5d5	0.0034125943
214	0xbd1f854f	-0.038945492
215	0xbdb5fb1f	-0.08885788
216	0x3d0b9314	0.03407581
217	0xbd20e141	-0.03927732
218	0x3d1a85c9	0.037725244
219	0x3dc724b9	0.09723801
220	0x3c2416b0	0.010015175
221	0x3c56f756	0.013120493
222	0x3d79b050	0.06095916
223	0x3d2ce577	0.042211022
224	0x3d034a92	0.032053538
225	0x3cae46c6	0.021273982
226	0x3db18a69	0.08668978
227	0x3df67014	0.12033096
228	0xbd74571a	-0.05965338
229	0xbd3bfcfa	-0.045895554
230	0x3cfdcb4f	0.030980734
231	0x3c7b63ab	0.015343587
232	0x3aebd963	0.0017993863
233	0x3d18fe1e	0.03735172
234	0x3dd1b6a3	0.10239913
235	0xbad41d65	-0.0016183077
236	0xbe2fa09f	-0.17151116
237	0x3d057a1e	0.032587163
238	0xbb0cbac0	-0.0021473616
239	0xbd48e7b6	-0.0490491
240	0x3bb42e0a	0.0054986523
241	0xbd68e348	-0.056857377
242	0x3cd189af	0.025578348
243	0xbd0e8122	-0.03479112
244	0x3c81902d	0.015815819
245	0xbc147d1e	-0.009063033
246	0x3ae50569	0.0017472926
247	0xbc3d0665	-0.011537169
248	0x3cd9325a	0.026513267
249	0x3ce116b7	0.027476652
250	0xbb2144de	-0.0024607698
251	0xbcebb2e4	-0.028771825
252	0x3db46f97	0.088103466
253	0x3d12e766	0.03586521
254	0xbd157c12	-0.036495276
255	0x3dcd514c	0.10025272

body.0.block2.conv.bias f4 [64]
0	0xbe78c1a7	-0.24292623
1	0xbd4826f1	-0.048865262
2	0xbdc8fd40	-0.098139286
3	0xbdc73fed	-0.0972899
4	0xbc1f6cd4	-0.0097305365
5	0xbd60707c	-0.054794773
6	0xbdae2a83	-0.08504202
7	0x3d3663c0	0.044528723
8	0xbd153eb8	-0.036436766
9	0x3cc70ddc	0.0242986
10	0x3ba72a75	0.005101497
11	0x3be0bd4e	0.0068585044
12	0x3c762f1f	0.015025883
13	0xbd84540c	-0.06461343
14	0xbd7e32f5	-0.062060315
15	0xbc8e7ebf	-0.017394422
16	0xbe69d5b1	-0.22835423
17	0xbd943662	-0.07236935
18	0xbbc9a6e1	-0.0061539267
19	0xbd21bb40	-0.039485216
20	0x3ca20848	0.01977934
21	0x3dba32e0	0.09091735
22	0xbcd16fe3	-0.025566047
23	0xbe84b65f	-0.25920388
24	0xbd28a7bd	-0.041175593
25	0x3d789069	0.060684595
26	0x3c2c721c	0.010525253
27	0xbdd3c6a5	-0.10340623
28	0xbda0c2a7	-0.07849627
29	0xbde7adf7	-0.11312478
30	0xbd5e6bb8	-0.054301947
31	0x3cd688dd	0.026188308
32	0xbde7e3a1	-0.11322714
33	0xbe051465	-0.12996061
34	0xbca1f4e7	-0.019770099
35	0x3d3bb6d8	0.04582867
36	0x3c933a96	0.017972272
37	0xbe23367c	-0.15938753
38	0x3d4b39d1	0.049615685
39	0x3b7f948d	0.0038998455
40	0xbd942bfa	-0.0723495
41	0x3dbb77f9	0.09153742
42	0xbcff7225	-0.031182358
43	0xbd6d5184	-0.057939067
44	0xbda83f2e	-0.082151756
45	0xbcccabbb	-0.024984231
46	0xbd68051b	-0.056645494
47	0xbdca1c60	-0.09868693
48	0x3ce62315	0.0280929
49	0xbe0b7414	-0.13618499
50	0x3c9624b7	0.018328054
51	0xbd82f7f6	-0.06394951
52	0xbdc92c14	-0.0982286
53	0x3c48360a	0.012219915
54	0xbe7a3655	-0.24434789
55	0xbdf0582c	-0.117355675
56	0x3dcdd839	0.10051007
57	0xbe05a0b2	-0.13049582
58	0xbd5cdc37	-0.05392095
59	0xbdf4452f	-0.11927258
60	0xbd41ff33	-0.047362518
61	0xbd31b7d2	-0.043388195
62	0xbd0f1f6a	-0.03494207
63	0xbcf7ff90	-0.030273229

tail.0.weight f4 [3, 64, 3, 3]
0	0xbcf69648	-0.030100957
1	0x3d13efc0	0.036117315
2	0x3b389e9d	0.0028170713
3	0xbd83b928	-0.064318
4	0x3c88deac	0.01670774
5	0x3ca8570d	0.020549322
6	0xbbc3592c	-0.005961558
7	0x3dc74ece	0.09731828
8	0xbaa3d844	-0.0012500365
9	0xbd06c2c6	-0.032900594
10	0xbcaed98b	-0.021343967
11	0x3d369ea4	0.044584885
12	0x3c8b88a4	0.017032929
13	0xbc2182e4	-0.009857867
14	0x3be165f8	0.0068786107
15	0x3d2d09d1	0.04224569
16	0x39880f53	0.0002595136
17	0x3d899174	0.06717196
18	0xbd8c13b3	-0.06839695
19	0xbd285340	-0.04109502
20	0x3e378066	0.17920074
21	0xbce0ec80	-0.027456522
22	0xbc3d63eb	-0.011559467
23	0x3c0d54ca	0.008626172
24	0x3d1ac148	0.037781984
25	0xbcaa0a8e	-0.020756986
26	0xbd077324	-0.03306879
27	0xbd96bec7	-0.07360607
28	0x3d3c3646	0.045950197
29	0x3d2a5f13	0.041594576
30	0xbd21f691	-0.039541785
31	0x3d76a5c6	0.060216688
32	0x3c18ba47	0.009321756
33	0xbd36ff36	-0.044676982
34	0x3d1646fc	0.03668879
35	0x3c3da820	0.011575729
36	0x3d29e055	0.041473705
37	0x3d73c0aa	0.05950991
38	0x3d3e3864	0.046440497
39	0xbad7ca04	-0.0016463404
40	0xbd266aa5	-0.040629048
41	0x3be855df	0.0070903148
42	0x3ca0e68e	0.019641187
43	0x3d146c86	0.03623631
44	0x3c238526	0.0099804755
45	0x3c2bda32	0.010489034
46	0xbd5cf238	-0.053941935
47	0x3a4c858a	0.00078018813
48	0x3cc83eb6	0.024443965
49	0xbcf71c2f	-0.030164806
50	0xbc6031ef	-0.01368378
51	0x3d66017f	0.05615377
52	0x3ad32219	0.0016108184
53	0xbb210f7f	-0.0024575887
54	0x3caa3031	0.020774933
55	0x3d13fc84	0.03612949
56	0x3cd6e378	0.026231512
57	0x3d4e0381	0.05029631
58	0xbc5c6c57	-0.013453565
59	0xbc3227e2	-0.010873767
60	0xbdfa642c	-0.122261375
61	0xbd91b6f8	-0.07114977
62	0x3d9c649b	0.076363765
63	0x3bb9ed01	0.005674005
64	0x3ba4930f	0.0050224136
65	0x3cef5e85	0.029219875
66	0x3ccac4ba	0.02475201
67	0x3cb4dc79	0.022077786
68	0x3d13b702	0.0360632
69	0xbdba6920	-0.09102082
70	0xbcf13627	-0.029444767
71	0x3d81b7ae	0.06333862
72	0x3bc24d86	0.0059296517
73	0x3cc9d1d9	0.024636196
74	0xbd709972	-0.058740087
75	0xbc7b2c91	-0.01533045
76	0x3c875db9	0.016524183
77	0xbd262251	-0.04056007
78	0x3d835ac9	0.064138
79	0x3cc4d41e	0.024026927
80	0x3d4e2c53	0.05033524
81	0x3db785ad	0.089610435
82	0x3c525bb0	0.012839243
83	0xbd9adb5d	-0.075613715
84	0x3c846e31	0.016165825
85	0xbc590297	-0.013245246
86	0xbd88a5ad	-0.06672225
87	0x3d3c75c6	0.046010755
88	0x3c254fa3	0.010089788
89	0xbd86a3e6	-0.0657423
90	0x3d21fa5e	0.03954541
91	0x3d6e6739	0.05820391
92	0xbd7aaf17	-0.061202135
93	0xbbc44b3a	-0.005990413
94	0x3d9e5291	0.07730592
95	0xbd98f29f	-0.07468151
96	0xbcb5e21b	-0.022202542
97	0x3cc86c60	0.02446574
98	0x3cebb7b0	0.028774112
99	0x3c726d66	0.01479659
100	0xbd3bef58	-0.045882553
101	0x3d8f3b70	0.06993759
102	0xbc364ff7	-0.011127464
103	0x3d397f45	0.04528739
104	0x3d91df22	0.07122637
105	0x3c5c92e2	0.013462754
106	0x3d468e13	0.048475336
107	0x3c48316c	0.012218814
108	0xbdb3e465	-0.08783797
109	0x3d1984f2	0.037480302
110	0x3e428601	0.18996431
111	0xbc588591	-0.013215438
112	0x3d446586	0.047948383
113	0x3d02a606	0.031896614
114	0x3c6975e1	0.014249296
115	0x3ca10d92	0.019659791
116	0xbd5d2b38	-0.053996295
117	0x3dd53fa8	0.10412532
118	0x3d0862b3	0.033297252
119	0xbcffd4f5	-0.031229476
120	0xbc4746d3	-0.012162882
121	0x3bb750ca	0.0055943476
122	0xbcd39f14	-0.02583269
123	0xbd17c990	-0.03705746
124	0xbb9dd94b	-0.004817163
125	0xbd034337	-0.032046523
126	0xbbbb8ca9	-0.005723555
127	0xb9a37258	-0.00031174975
128	0x3d68366a	0.05669252
129	0xbbec3e8c	-0.0072096046
130	0xbd2699e2	-0.040674098
131	0xbc832111	-0.016006978
132	0x3e124c36	0.14286885
133	0xbd32b8ea	-0.04363338
134	0xbc848829	-0.016178207
135	0xbc85b83f	-0.016323207
136	0xbce6ffe2	-0.028198186
137	0xbd48ce1f	-0.049024697
138	0x3d1613c7	0.036639955
139	0x3b6744f8	0.0035288911
140	0xbd7fd5a9	-0.06245962
141	0x3db096c4	0.08622506
142	0x3dc716be	0.097211346
143	0x3daee0ec	0.08538994
144	0x3ca7e411	0.020494493
145	0x3d37bf0e	0.04485994
146	0xbd8f6dc8	-0.07003361
147	0x3d0c1c59	0.034206722
148	0x3bfbc228	0.0076830573
149	0xbdd01c00	-0.101615906
150	0x3d260a5b	0.04053722
151	0x3d07c635	0.03314801
152	0xbdddbeb7	-0.108273916
153	0xbda14957	-0.078753166
154	0x3cb0ddc5	0.021590123
155	0x3d91a168	0.07110864
156	0xbaa6005b	-0.0012664901
157	0xbab3273c	-0.0013668309
158	0x3c0d66c8	0.008630462
159	0xbd80ad11	-0.0628301
160	0xbdffbfca	-0.12487753
161	0xbc8637fa	-0.016384114
162	0x3c70c7dc	0.014696088
163	0x3cfc575f	0.03080338
164	0xbd7191e9	-0.05897704
165	0x3cc492c5	0.023995766
166	0x3c18ef3e	0.0093343835
167	0x3bbd7bf6	0.0057825996
168	0x3aaf4a24	0.0013373536
169	0xbd652703	-0.055945408
170	0xbdad89df	-0.084735624
171	0x3d4ccfc0	0.050002813
172	0xbd51b593	-0.051198553
173	0xbb7926d4	-0.0038017528
174	0xbc814336	-0.015779119
175	0x3cd33551	0.02578226
176	0x3c26046a	0.010132888
177	0x3dc5be04	0.09655383
178	0x3a67bb0a	0.00088398217
179	0xbb199e40	-0.0023440272
180	0x3d71a15c	0.058991775
181	0x3d2b6d78	0.041852444
182	0x3dadfe6d	0.084957935
183	0x3d67ffb7	0.056640353
184	0xbbfeb2e8	-0.007772792
185	0xbd037834	-0.032097057
186	0xbc754df4	-0.014972199
187	0x38e72532	0.000110218665
188	0xbbaa0e9d	-0.0051897303
189	0x3cfa9b16	0.030591529
190	0x3d349670	0.04408878
191	0xbc2dca86	-0.010607367
192	0xbc093ceb	-0.00837634
193	0x3c764d3c	0.015033063
194	0x3d08bd80	0.033383846
195	0xbc943936	-0.018093687
196	0x3da3584c	0.07975826
197	0x3e4aad90	0.19792771
198	0xbc17850a	-0.009248028
199	0x3ccfc1dd	0.025360996
200	0x3dc78379	0.09741873
201	0x3c9ab3a2	0.018884484
202	0xbad4766a	-0.0016209607
203	0x3d1e5561	0.038655642
204	0x3c4c4e41	0.012469829
205	0xbcddb87b	-0.027065506
206	0xbccbcfb0	-0.024879307
207	0xbe495f58	-0.19665277
208	0x3c40262a	0.011727849
209	0x3ddad87b	0.106858216
210	0xbe26dfbf	-0.1629629
211	0x3cdd2c86	0.02699877
212	0x3d2cbb04	0.04217054
213	0xbddadb7c	-0.106863946
214	0x3d976ca5	0.07393769
215	0x3d88c286	0.066777274
216	0xbc769f3c	-0.015052613
217	0xbc8e1233	-0.017342662
218	0xba2f66d3	-0.0006691042
219	0xbd21a40a	-0.03946308
220	0x3c69c79c	0.014268782
221	0xbce14311	-0.0274978
222	0xbd5e9f02	-0.05435086
223	0xbc923881	-0.017849209
224	0x3d58fbc0	0.052974463
225	0xbd73f824	-0.059562817
226	0xbb79277f	-0.0038017926
227	0x3d2fd79d	0.042930234
228	0x3cc8c12d	0.024506176
229	0xbb9ebeb2	-0.00484451
230	0x3d01c9b8	0.031686515
231	0x3ccbe75e	0.024890598
232	0x3d7e23ec	0.062045977
233	0x3d9e7b8e	0.0773841
234	0x3a94a389	0.0011340241
235	0x3cfb29a2	0.0306595
236	0x3b339500	0.0027402043
237	0x3c362edc	0.011119571
238	0x3c8b107d	0.016975636
239	0xbc9e4a48	-0.01932253
240	0x3d742cd4	0.059613064
241	0xbcea467d	-0.028598065
242	0xbd860e7c	-0.065457314
243	0xbdc78068	-0.097412884
244	0xbbad5511	-0.0052896817
245	0x3dbfb070	0.09359825
246	0xbd4ad0d6	-0.049515568
247	0x3d12f0c5	0.035874147
248	0xbcb7c608	-0.022433296
249	0x3d56991c	0.05239211
250	0x3d4224c4	0.047398344
251	0xbdfd205b	-0.12359687
252	0x3c4caf30	0.01249294
253	0xbcb111ab	-0.02161487
254	0xbd98d9c8	-0.074634135
255	0xbc1f1908	-0.009710558

tail.0.bias f4 [3]
0	0x3d874552	0.06605019
1	0x3d6d53f0	0.057941377
2	0x3d6f111e	0.058365934
