TrainedModels/volcano/2020_08_09_15_21_11_video_train_depth_3_lr_scale_0.1_act_lrelu_0.05/2/netD_b.pth (torch_old, 454648 bytes, 9 tensors)

head.conv.weight f4 [64, 3, 3, 3]
-0.06059811 -0.0203578 -0.043874543 -0.039277613 -0.019712357 -0.006151259 0.01454258 -0.0030536111
0.029952236 -0.0227496 -0.026406076 0.0014978503 0.0042463993 -0.019493973 0.010082609 0.0111718895
0.0336676 0.003241801 -0.0062731807 0.018803911 -0.029107833 -0.0011242544 0.03032775 -0.009694367
0.018986415 0.015595313 0.07685754 0.037566878 0.016003836 0.02422452 0.010847958 0.005325742
0.025503311 -0.017336294 -0.014429402 -0.030512452 0.028083192 0.014006015 0.04106532 0.014292241
0.008001517 0.02304594 -0.05616504 -0.010504866 -0.008651763 0.023954459 -0.0013263955 0.039973635
0.009381695 0.020339753 0.03486669 -0.012257183 -0.03927151 -0.0162607 0.004588993 -0.007244303
0.009899694 0.04261038 -0.014487028 0.012157308 0.04887637 0.0009798389 0.032410737 0.028991356
0.032125406 -0.015624064 0.0042593423 -0.009727809 0.056593563 0.079013035 0.05580185 0.045683444
0.02036837 0.0030209483 0.005765151 0.02765257 0.023784121 0.035541702 0.04649443 0.02469143
0.048151482 -0.00837103 -0.0029804308 -0.011212282 0.038365338 -0.022121254 0.013376306 0.037814133
0.027372003 0.027790038 0.025046181 0.026541742 0.021170491 -0.07609786 0.0114365565 0.010045766
0.040027738 0.062103126 0.001437923 -0.008641386 -0.008570913 -0.022197708 -0.0047138687 -0.03383811
0.0019110189 -0.0545509 -0.036725778 -0.039734464 -0.0037344422 -0.016022624 0.01999253 0.014464781
0.012800822 -0.015199874 -0.01284828 -0.01564119 -0.01893701 -0.01724563 0.004295234 -0.007665926
-0.030227235 -0.008179687 0.0063053467 -0.0023876445 -0.0073013483 0.026551051 -0.010015611 -0.030735752
-0.031069197 0.004280133 0.022006623 -0.011597453 0.00043542296 -0.008883472 -0.0024627394 0.06718496
0.024854656 -0.023367284 0.0388807 -0.0060476284 -0.035335906 0.043939132 0.0237101 -0.069873266
0.04528121 0.029110126 -0.019260623 0.051533967 -0.00079805125 -0.019208482 0.0035189176 -0.008180244
-0.05552638 0.08426845 0.0014273868 -0.008411301 0.04600348 0.009458701 -0.06015661 0.04276944
-0.021717893 -0.0467523 0.0073528187 0.03911783 -0.042328686 0.017611666 0.025590105 -0.09506349
0.017565798 0.020414602 -0.022698041 0.022461459 0.04342873 -0.02434534 0.021342978 0.018255314
-0.11677953 0.012707679 0.03802258 -0.0022513976 0.020878535 0.014805186 -0.053299125 0.016127117
0.019549627 -0.14523713 0.01895039 0.013991007 -0.03874925 0.032633703 0.023219755 0.03884603
-0.017523183 0.018112158 0.035820436 -0.00945371 0.022488365 -0.014268664 -0.0074257357 -0.046239924
-0.013346958 -0.014832384 -0.08180595 -0.035252955 0.035059165 -0.023106853 -0.026219815 -0.014706868
0.04899104 -0.027708042 0.045824245 0.028031971 0.007958454 -0.055667803 0.03172385 0.017674573
0.01167728 -0.0021935268 -0.030034063 0.004478609 -0.002094328 0.0020894443 -0.012504845 0.008215384
-0.008752419 -0.009851632 0.02351899 0.015928501 -0.0006876535 0.0044931374 -0.005523263 -0.020420738
0.028689137 -0.05925249 -0.034181736 0.009407902 -0.0016015279 -0.010118382 -0.0035181572 0.011322935
-0.01182586 -0.013863738 -0.04570839 -0.020265777 0.0031325645 -0.0027918885 -0.0014362299 -0.028142279
-0.03740737 -0.0053765858 -0.037133187 0.06073436 0.014890508 -0.015181418 -0.010596437 -0.021845372
00000000: b935 78bd 67c5 a6bc cbb5 33bd 90e1 20bd
00000010: cf7b a1bc 8090 c9bb 0044 6e3c 181f 48bb
00000020: 645e f53c 5e5d babc 8e51 d8bc 8453 c43a
00000030: 6125 8b3b d3b1 9fbc 8731 253c 4d0a 373c
00000040: 0ae7 093d 6574 543b 418f cdbb a90a 9a3c
00000050: 8d73 eebc b85b 93ba e771 f83c 1fd5 1ebc
00000060: 6689 9b3c 7c83 7f3c 7c67 9d3d badf 193d
00000070: 7a1a 833c 8072 c63c a2bb 313c 9083 ae3b
00000080: 52ec d03c d804 8ebc 4c69 6cbc 40f5 f9bc
00000090: b90e e63c 7c79 653c 1c34 283d 012a 6a3c
000000a0: cb18 033c d7ca bc3c 500d 66bd 9a1c 2cbc
000000b0: 20c0 0dbc 243c c43c 73da adba 65bb 233d
000000c0: aeb5 193c 8e9f a63c 60d0 0e3d 5ad2 48bc
000000d0: 2adb 20bd 2935 85bc 435f 963b 9e61 edbb
000000e0: 5332 223c 3988 2e3d 005b 6dbc 722f 473c
000000f0: 9732 483d f06d 803a 1fc1 043d 487f ed3c
00000100: ee95 033d 13fc 7fbc f491 8b3b 6361 1fbc
00000110: a7ce 673d 96d1 a13d 7b90 643d 901e 3b3d
00000120: 91db a63c 1afb 453b 98e9 bc3b a487 e23c
00000130: ebd6 c23c 2d94 113d f270 3e3d af45 ca3c
00000140: 7d3a 453d a526 09bc 5553 43bb b8b3 37bc
00000150: f924 1d3d a237 b5bc 4b28 5b3c fee2 1a3d
00000160: 403b e03c efa7 e33c a62d cd3c 116e d93c
00000170: bd6d ad3c 32d9 9bbd 6560 3b3c ff96 243c
00000180: 20f4 233d d95f 7e3d b178 bc3a 9a94 0dbc
00000190: 046d 0cbc f8d7 b5bc cc76 9abb d499 0abd
000001a0: 277b fa3a c470 5fbd c56d 16bd 9bc0 22bd
000001b0: 8bbd 74bb e141 83bc 60c7 a33c b0fd 6c3c
000001c0: 8aba 513c e408 79bc 9881 52bc f421 80bc
000001d0: ca21 9bbc b546 8dbc 09bf 8c3b 7332 fbbb
000001e0: 1b9f f7bc 1804 06bc 159d ce3b 077a 1cbb
000001f0: 2640 efbb 9781 d93c 8418 24bc 8bc9 fbbc
00000200: d484 febc 5c40 8c3b 3c47 b43c 3e03 3ebc
00000210: 7b49 e439 fb8b 11bc e965 21bb 4598 893d
00000220: fe9b cb3c bf6c bfbc 5e41 1f3d 2f2b c6bb
00000230: 62bc 10bd 85f9 333d af3b c23c b719 8fbd
00000240: ca78 393d 5c78 ee3c 74c8 9dbc 4815 533d
00000250: 5034 51ba 1b5b 9dbc a49d 663b 6e06 06bc
00000260: a16f 63bd f094 ac3d 2717 bb3a 8ecf 09bc
00000270: 256e 3c3d abf8 1a3c c766 76bd 022f 2f3d
00000280: b9e9 b1bc 577f 3fbd eaef f03b 053a 203d
00000290: d860 2dbd 5746 903c 57a2 d13c a6b0 c2bd
000002a0: 26e6 8f3c 863c a73c 3ef1 b9bc 1801 b83c
000002b0: 53e2 313d e16f c7bc 78d7 ae3c 2b8c 953c
000002c0: 1b2a efbd de33 503c 91bd 1b3d 2f8c 13bb
000002d0: 7609 ab3c 7391 723c 2f50 5abd 041d 843c
000002e0: 8a26 a03c 0bb9 14be d93d 9b3c 893a 653c
000002f0: 89b7 1ebd ebaa 053d 5b37 be3c 041d 1f3d
00000300: c78c 8fbc f35f 943c 73b8 123d bce3 1abc
00000310: 8539 b83c 1dc7 69bc 9653 f3bb 1366 3dbd
00000320: 33ad 5abc 8703 73bc e189 a7bd 6765 10bd
00000330: 339a 0f3d 954a bdbc f0ca d6bc 13f5 70bc
00000340: d4aa 483d fafb e2bc 34b2 3b3d 4ea3 e53c
00000350: 2d64 023c ec03 64bd def0 013d 44ca 903c
00000360: 1052 3f3c 46c1 0fbb ff09 f6bc 4cc1 923b
00000370: fe40 09bb 0fef 083b 1fe1 4cbc d199 063c
00000380: 4e66 0fbc bd68 21bc e6aa c03c 7d7c 823c
00000390: a543 34ba 2b3b 933b 7dfc b4bb 6449 a7bc
000003a0: 7b05 eb3c bdb2 72bd 2602 0cbd 9a23 1a3c
000003b0: 5cea d1ba 92c7 25bc e290 66bb d583 393c
000003c0: 40c1 41bc bb24 63bc b938 3bbd 6a04 a6bc
000003d0: b64b 4d3b 1ef8 36bb e13f bcba a38a e6bc
000003e0: 7838 19bd 122e b0bb f818 18bd 98c4 783d
000003f0: 51f7 733c 7bbb 78bc ae9c 2dbc 11f5 b2bc

head.conv.bias f4 [64]
0.038894873 -0.16966404 -0.006088115 0.02299672 0.15827826 0.04631797 0.15246244 -0.011545741
0.17984265 0.0027334455 0.19858465 0.10405044 -0.0033633756 -0.010612249 0.009439342 -0.16579202
-0.014198767 -0.021597845 -0.016809931 0.019901838 0.20813355 0.11310988 0.15496407 0.16473027
-0.08114357 0.0074665076 0.18310264 0.172075 -0.0851329 0.022031102 0.007527518 -0.14458965
0.20237629 0.095035255 0.012891979 0.006680838 0.2045295 0.018830305 -0.16636905 -0.013960398
0.12364805 -0.015624362 0.112334535 -0.0050922874 -0.025848703 0.009258913 0.040580485 0.047310326
-0.00022892146 0.14150502 0.0009744176 -0.007291534 -0.0028811283 0.00831542 -0.18895733 -0.010402
3.078397e-05 0.014871398 -0.06404457 0.059983402 0.112462945 0.020405792 0.054518603 0.23353575
00000000: 3b50 1f3d 69bc 2dbe cf7e c7bb 9e63 bc3c
00000010: b213 223e e9b7 3d3d 1d1f 1c3e 592a 3dbc
00000020: ac28 383e 9b23 333b c659 4b3e 6618 d53d
00000030: 146c 5cbb 00df 2dbc 78a7 1a3c 62c5 29be
00000040: f2a1 68bc f7ed b0bc fbb4 89bc 2e09 a33c
00000050: f620 553e 27a6 e73d e7ae 1e3e 0daf 283e
00000060: 9a2e a6bd 9ba9 f43b 427f 3b3e 6e34 303e
00000070: 285a aebd 927a b43c 66a9 f63b 4f0f 14be
00000080: bb3b 4f3e d8a1 c23d e138 533c eeea da3b
00000090: 2e70 513e 0342 9a3c a65c 2abe 27ba 64bc
000000a0: 303b fd3d 53fd 7fbc a60f e63d 34dd a6bb
000000b0: a9c0 d3bc b2b2 173c b937 263d 79c8 413d
000000c0: a30a 70b9 b1e6 103e 0f70 7f3a d2ed eebb
000000d0: 50d1 3cbb 663d 083c 087e 41be 266d 2abc
000000e0: 091e 0138 2aa7 733c cd29 83bd 28b1 753d
000000f0: f952 e63d 0c2a a73c e64e 5f3d ff23 6f3e

body.block0.conv.weight f4 [64, 64, 3, 3]
-0.027581552 0.025674684 -0.006382249 0.007500891 -0.0121940635 -0.028341908 0.06335334 0.018387215
-0.00297323 0.07514952 0.06932909 0.09412871 0.032292612 0.010713439 0.02201031 0.03872237
0.011367195 0.033622388 0.034127623 0.032421954 0.055553827 0.10256575 0.030506298 -0.013390343
0.05473179 0.016254097 0.0033242414 0.02096593 0.023523603 0.009487563 0.04958253 0.005567177
-0.01652718 0.0016767145 -0.0621805 -0.07668958 0.00867535 0.037348133 0.018202446 -0.01828012
0.030710377 0.0308845 0.011098533 0.051786188 0.04429775 -0.0014390756 -0.0064822305 -0.05754562
0.015226451 -0.028728064 -0.035097305 0.018653149 0.0062688086 -0.047046013 0.007595923 0.03489428
0.08880107 -0.01959264 -0.023185087 0.001181292 0.007182287 -0.007040753 0.041781362 0.032452375
-0.006447989 -0.0021360682 -0.006785505 0.011159434 0.04575467 -0.01887551 -0.015147543 -0.03180548
0.0022041586 0.07379845 0.025800616 -0.0014872537 0.031830695 -0.0024659631 -0.0091158105 -0.0011895614
-0.004902026 0.01550926 -0.03051295 -0.0052072587 -0.0037969993 -0.014900966 0.016918758 0.013198743
0.023209035 0.034972675 0.04962121 0.056452166 0.049317267 0.018585034 -0.0048874416 -0.014778722
0.010585312 -0.009379721 -0.012325672 0.02015926 0.048566326 0.050024804 0.036011495 0.026140712
0.019533493 -0.01860336 -0.0022884286 0.0476133 0.014415786 -0.009497738 -0.044915423 0.0095307855
0.018966686 0.024482952 0.0045596925 0.0017186997 -0.030017925 -0.026232397 0.017614322 0.042995755
-0.008277881 0.003446417 0.021986187 -0.028911747 0.03479701 0.060912073 -0.01625032 0.031227931
0.025381532 -0.037481837 0.036310058 -0.046598412 -0.11304509 -0.026764981 0.034475364 -0.058489367
-0.024255054 0.020669583 -0.049264744 0.037025645 0.097801805 -0.12828952 -0.022528531 0.08873119
-0.0054824576 -0.054635674 -0.0041409987 -0.012564548 -0.061722968 -0.0604128 -0.05224613 -0.07115961
-0.05616117 -0.0018997468 -0.04206976 -0.021674523 -0.019615976 -0.006908397 -0.03505332 0.0052189184
-0.017849024 -0.06917108 0.0005351327 0.0009406959 -0.025855362 0.017711459 -0.032378547 -0.0387084
0.049265876 -0.018081762 -0.018993758 0.016248155 0.028501455 0.047565617 0.012476022 0.036694016
-0.011043346 0.011620509 0.024774382 0.02748218 -0.027322976 0.047399964 -0.026385104 -0.003637346
0.025466371 -0.013618295 -0.039016597 0.03171419 0.00026678172 0.068606675 0.007937629 0.023119329
0.025665527 0.030873822 0.009549346 0.015654376 0.037873268 0.011657574 0.03383632 0.0017225469
-0.014282349 0.06272363 0.031024719 0.017338054 0.055427372 0.0023459017 0.011061016 0.012422923
0.0124977585 0.0028548634 -0.0039685788 -0.012140955 0.02473143 0.026376985 -0.0075968937 0.024291942
-0.008237603 -0.0037478192 -0.011616939 -0.041810475 0.015262346 0.0030985666 -0.014753431 -0.019713614
-0.029342724 0.0022250097 0.052195497 0.02206103 -0.018985728 0.015154553 -0.01271552 -0.0023370269
-0.0037495543 -0.030212527 -0.027154302 0.044874426 0.067420006 -0.031917546 0.03190115 0.03556451
-0.008873115 -0.0064222086 0.021755619 -0.0032368135 -0.0051956717 0.039510205 -0.011086167 0.017192481
0.01945236 -0.028168203 0.051331755 0.013623312 -0.013745988 0.021223253 -0.020975573 0.038897127
00000000: b5f2 e1bc b753 d23c 2f22 d1bb 09ca f53b
00000010: 9cc9 47bc 4a2d e8bc 65bf 813d c9a0 963c
00000020: 86da 42bb fee7 993d 69fc 8d3d 8ec6 c03d
00000030: 4245 043d 6c87 2f3c f74e b43c 599b 1e3d
00000040: 793d 3a3c a1b7 093d 68c9 0b3d e2cc 043d
00000050: 698c 633d fe0d d23d 58e8 f93c 2b63 5bbc
00000060: 712e 603d 5027 853c 84db 593b bec0 ab3c
00000070: 92b4 c03c b971 1b3c 0d17 4b3d de6c b63b
00000080: 0264 87bc 34c5 db3a fbb0 7ebd 6d0f 9dbd
00000090: 0e23 0e3c 5bfa 183d 4c1d 953c 31c0 95bc
000000a0: 5494 fb3c 7e01 fd3c 9fd6 353c c11d 543d
000000b0: 8f71 353d 5d9f bcba e468 d4bb f5b4 6bbd
000000c0: 5d78 793c 1e57 ebbc 31c2 0fbd 7dce 983c
000000d0: 946a cd3b 52b3 40bd 38e7 f83b 4eed 0e3d
000000e0: 56dd b53d bf80 a0bc a7ee bdbc 95d5 9a3a
000000f0: 6459 eb3b 1eb6 e6bb ef22 2b3d c8ec 043d
00000100: a749 d3bb 47fd 0bbb f158 debb 0fd6 363c
00000110: 4069 3b3d d0a0 9abc 662d 78bc 7746 02bd
00000120: a573 103b a423 973d d05b d33c f4ef c2ba
00000130: e760 023d ff9b 21bb 7b5a 15bc 0feb 9bba
00000140: 2da1 a0bb 8d1a 7e3c 4bf6 f9bc a7a1 aabb
00000150: 14d7 78bb 2e23 74bc 3599 8a3c 8a3f 583c
00000160: e020 be3c 823f 0f3d 9c3f 4b3d 633a 673d
00000170: e700 4a3d a43f 983c d526 a0bb 7422 72bc
00000180: 046e 2d3c 67ad 19bc 9ef1 49bc 0825 a53c
00000190: 7ced 463d cfe6 4c3d ca80 133d 0c25 d63c
000001a0: b404 a03c 1366 98bc 76f9 15bb 2a06 433d
000001b0: 3030 6c3c 679c 1bbc 3cf9 37bd 0327 1c3c
000001c0: 0660 9b3c 7990 c83c 7969 953b fe45 e13a
000001d0: 27e8 f5bc 53e5 d6bc e94b 903c 511c 303d
000001e0: f39f 07bc 48dd 613b 601c b43c 54d8 ecbc
000001f0: 4f87 0e3d f07e 793d 641f 85bc b8d1 ff3c
00000200: eeec cf3c 8e86 19bd dbb9 143d fadd 3ebd
00000210: 2f84 e7bd 3c42 dbbc 0a36 0d3d 8c92 6fbd
00000220: 89b2 c6bc 4253 a93c d4c9 49bd 34a8 173d
00000230: 504c c83d 545e 03be c18d b8bc b3b8 b53d
00000240: 30a6 b3bb a8c9 5fbd 37b1 87bb 89db 4dbc
00000250: 39d1 7cbd 6a73 77bd 0a00 56bd 21bc 91bd
00000260: 4109 66bd ed00 f9ba 5751 2cbd c58e b1bc
00000270: afb1 a0bc d65f e2bb 1294 0fbd 7603 ab3b
00000280: 1e38 92bc 91a9 8dbd 2648 0c3a 0999 763a
00000290: a0ce d3bc 9f17 913c 5e9f 04bd b38c 1ebd
000002a0: 04cb 493d 3420 94bc cc98 9bbc da1a 853c
000002b0: e27b e93c 2ad4 423d 3b68 4c3c 774c 163d
000002c0: 26ef 34bc f363 3e3c a5f3 ca3c 4f22 e13c
000002d0: 6fd4 dfbc 7726 423d 9325 d8bc 8a60 6ebb
000002e0: da9e d03c 451f 5fbc decf 1fbd bde6 013d
000002f0: d6de 8b39 a881 8c3d d40c 023c bf64 bd3c
00000300: 8340 d23c 19eb fc3c dc74 1c3c 9b3d 803c
00000310: 0021 1b3d 69ff 3e3c f497 0a3d 15c7 e13a
00000320: 8300 6abc 3f75 803d 8d27 fe3c 8908 8e3c
00000330: d007 633d b3bd 193b 4339 353c 8489 4b3c
00000340: 66c3 4c3c a918 3b3b da0a 82bb dbea 46bc
00000350: 9199 ca3c 8c14 d83c 5def f8bb e5ff c63c
00000360: 03f7 06bc f99d 75bb f954 3ebc 7641 2bbd
00000370: eb0e 7a3c 5211 4b3b 60b8 71bc 727e a1bc
00000380: 2760 f0bc 78d1 113b f2ca 553d 55b9 b43c
00000390: f587 9bbc cd4a 783c c254 50bc ce28 19bb
000003a0: 15bb 75bb 4380 f7bc b372 debc 3fce 373d
000003b0: 8013 8a3d f9bb 02bd c8aa 023d 17ac 113d
000003c0: 8b60 11bc 6471 d2bb d738 b23c b820 54bb
000003d0: 7440 aabb 74d5 213d c1a2 35bc 3fd7 8c3c
000003e0: 8e5a 9f3c 01c1 e6bc 3f41 523d 5034 5f3c
000003f0: da36 61bc 63dc ad3c f7d4 abbc 9852 1f3d

body.block0.conv.bias f4 [64]
0.028603317 -0.026907904 0.05960886 0.036959045 -0.032965876 0.06022047 -0.04778999 -0.015138053
-0.0064849206 0.066617005 0.03869859 0.08212377 -0.0021072922 -0.029165294 0.07659002 0.04011807
0.08143604 0.06798663 -0.00761997 0.11127547 0.0014746072 -0.01673679 -0.017270887 0.037296113
0.12214972 -0.001406886 0.0072892862 -0.015725942 -0.003923924 0.08643699 0.07473712 0.11991123
0.025580004 -0.0009156662 0.0025712384 0.014928831 -0.0039708973 0.08747412 0.011838423 0.05915127
0.018583339 -0.04786723 -0.011628455 0.029805763 0.090728916 0.017297555 0.037575264 0.020942945
0.033111963 0.013527018 0.09702806 0.040589735 0.024476353 0.02071814 -0.003841242 0.048761845
0.053120147 0.16455002 -0.060615264 -0.005947661 0.020771733 0.03424199 0.07609965 -0.011448163
00000000: 8151 ea3c f76d dcbc 6c28 743d 5e62 173d
00000010: 3a07 07bd bda9 763d 70bf 43bd 9905 78bc
00000020: 757f d4bb 7f6e 883d 6a82 1e3d 8230 a83d
00000030: 7f1a 0abb 0eec eebc 3adb 9c3d d852 243d
00000040: f0c7 a63d 933c 8b3d f1b0 f9bb 65e4 e33d
00000050: 9b47 c13a 981b 89bc ad7b 8dbc cfc3 183d
00000060: a229 fa3d 4367 b8ba f7da ee3b b1d3 80bc
00000070: 4394 80bb e005 b13d c60f 993d 0594 f53d
00000080: 288d d13c 5209 70ba 3982 283b 0e98 743c
00000090: 4d1e 82bb a225 b33d f2f5 413c 9a48 723d
000000a0: 163c 983c 6e10 44bd 4685 3ebc 372b f43c
000000b0: 15d0 b93d 9ab3 8d3c 85e8 193d 8a90 ab3c
000000c0: 69a0 073d 6da0 5d3c a6b6 c63d 6c41 263d
000000d0: a282 c83c 17b9 a93c 59bd 7bbb 80ba 473d
000000e0: 8394 593d cd7f 283e b647 78bd 99e4 c2bb
000000f0: 7b29 aa3c 5441 0c3d 22da 9b3d 1391 3bbc

body.block1.conv.weight f4 [64, 64, 3, 3]
0.015388528 -0.008988897 -0.049011976 -0.038761813 -0.04689867 -0.07956981 -0.028797133 -0.034496926
-0.048081513 0.050426226 -0.0035738582 0.05404166 0.007649325 0.008735342 0.030921694 0.016671315
0.009030791 0.023651117 0.0020853952 0.019836063 -0.010606312 0.020051127 0.044635184 -0.02763063
0.025712078 0.005718126 -0.036675114 -0.043447394 -0.005408048 0.07340031 -0.015884258 0.011712443
0.078755565 0.019299261 0.031037318 0.09964568 -0.06330609 -0.09932845 -0.1322372 -0.13059713
-0.076187715 -0.13512826 -0.03721574 -0.07518871 -0.1300422 0.006034509 -0.027249489 -0.031870164
-0.01029705 -0.018797237 -0.013802727 -0.039940156 -0.038496796 -0.009290635 0.043117665 0.028600369
-0.010703647 0.009806117 -0.0064793634 -0.036237374 -0.08008785 -0.035112668 -0.092443466 -0.08018951
-0.06792785 0.028585933 -0.01660475 -0.000864279 0.06308472 -0.058124293 0.0072159288 0.11949054
-0.09222711 -0.04497836 -0.01853067 -0.06678089 -0.046631187 0.007129041 -0.05755899 -0.027707173
0.0032626714 0.031186458 -0.023802498 -0.0051413067 0.0010366254 0.048184063 -0.024351966 0.08817285
0.06544977 -0.001411036 0.020982249 -0.023502493 -0.025962638 -0.062399887 -0.03978839 -0.083757415
-0.06936867 -0.053810816 -0.082671724 0.02857388 0.0062831235 -0.013675191 0.02859947 0.024469413
-0.040970773 0.03591934 0.031639304 -0.039574925 0.03343291 0.031748306 -0.061920624 0.017719904
0.05614338 -0.037964076 0.019147493 -0.0013343515 -0.016493248 -0.058787216 -0.027226765 0.0343025
-0.061850253 -0.02651281 0.0692248 -0.061488315 -0.03581252 0.06575027 -0.045777094 -0.01645146
-0.0070335115 0.008932685 -0.03828139 -0.020914687 0.015130916 0.052840553 0.042064328 0.0774614
0.020167362 -0.03818001 0.10217935 0.03335277 -0.08613315 0.1286494 0.0044632796 -0.06301011
-0.00681432 -0.026313392 0.0018607384 0.015532642 -0.0023317304 -0.03339918 0.06748184 0.027834088
0.0093632145 0.035854917 0.0116011305 -0.055930533 0.01322091 0.008472895 -0.039124746 0.031791132
0.0017035571 -0.04672288 -0.060839497 -0.027648203 0.019809838 -0.061130363 -0.012676286 -0.03620193
-0.009106369 -0.046115544 0.0023138802 -0.031028517 0.050430056 0.0009937867 0.010091986 -0.031766858
0.0024064812 0.020809267 0.05341585 0.02977359 0.03755049 -0.014854387 -0.09253127 0.00927471
0.027630944 -0.06326411 0.062381428 -0.023636429 -0.11993954 -0.034993015 -0.0715979 -0.09981562
-0.036821716 -0.06352227 -0.05729947 -0.024789188 -0.04681782 -0.010603325 0.02624844 -0.044946093
-0.071421586 0.040490646 -0.037340853 -0.059334964 0.01585057 -0.06409483 -0.083854035 -0.024569534
0.021894796 0.02381434 -0.019609883 0.015263816 -0.050066028 -0.019045701 -0.00013551846 -0.014572191
0.0034462153 0.011189152 -0.03575484 0.011214698 0.03963254 0.02148178 0.043064725 0.024858892
0.016754413 -0.026017398 -0.068169884 -0.043843996 -0.07143952 -0.09339338 -0.09540148 -0.07619831
-0.048618846 -0.04078117 0.010113028 -0.0023389163 0.015178396 0.016110398 0.010794054 -0.028635567
0.0712615 0.054938156 0.019370776 -0.001061647 -0.023376795 0.021590846 -0.0044737863 -0.032182124
-0.013727969 -0.016597245 -0.081016324 -0.049506113 -0.012899483 -0.03337185 -0.038705397 0.025485352
00000000: 2a20 7c3c 2b46 13bc c8c0 48bd b5c4 1ebd
00000010: d218 40bd 7ff5 a2bd f7e7 ebbc a64c 0dbd
00000020: 1ff1 44bd bb8b 4e3d 6437 6abb ca5a 5d3d
00000030: 30a7 fa3b ae1e 0f3c 7e4f fd3c 4892 883c
00000040: e2f5 133c fdbf c13c 20ab 083b 3d7f a23c
00000050: 19c6 2dbc 4342 a43c 62d3 363d a259 e2bc
00000060: 23a2 d23c 1e5f bb3b a538 16bd e5f5 31bd
00000070: ff35 b1bb e752 963d b41f 82bc 8ce5 3f3c
00000080: 994a a13d 7c19 9e3c f941 fe3c 0913 cc3d
00000090: a0a6 81bd b76c cbbd 3069 07be 41bb 05be
000000a0: 4e08 9cbd 105f 0abe 886f 18bd 8afc 99bd
000000b0: c829 05be 21bd c53b 523a dfbc 4a8a 02bd
000000c0: f5b4 28bc aafc 99bc d524 62bc 4a98 23bd
000000d0: d1ae 1dbd bf37 18bc 269c 303d 524b ea3c
000000e0: 595e 2fbc d6a9 203c d750 d4bb a46d 14bd
000000f0: 1905 a4bd 4dd2 0fbd 0053 bdbd 663a a4bd
00000100: c21d 8bbd 0c2d ea3c af06 88bc c890 62ba
00000110: 9032 813d bd13 6ebd 9973 ec3b 75b7 f43d
00000120: 91e1 bcbd 3b3b 38bd a2cd 97bc 6bc4 88bd
00000130: 5800 3fbd bb9a e93b fac2 6bbd 27fa e2bc
00000140: 8bd2 553b be7a ff3c 75fd c2bc 6878 a8bb
00000150: 60df 873a a75c 453d c67d c7bc f893 b43d
00000160: 870a 863d 83f2 b8ba f7e2 ab3c 4d88 c0bc
00000170: 99af d4bc 0697 7fbd 27f9 22bd 0289 abbd
00000180: 2911 8ebd bb68 5cbd cb4f a9bd c513 ea3c
00000190: a9e2 cd3b e90d 60bc 7049 ea3c 1474 c83c
000001a0: f8d0 27bd 2820 133d 3798 013d 5119 22bd
000001b0: f2f0 083d 830a 023d 7ba0 7dbd 5529 913c
000001c0: 9af6 653d 3880 1bbd 34db 9c3c 68e5 aeba
000001d0: d91c 87bc ddca 70bd aa0a dfbc c780 0c3d
000001e0: b156 7dbd 6431 d9bc bbc5 8d3d 2cdb 7bbd
000001f0: 26b0 12bd 14a8 863d c380 3bbd 36c5 86bc
00000200: 5f79 e6bb 655a 123c f2cc 1cbd 4755 abbc
00000210: a9e7 773c 566f 583d a54b 2c3d 15a4 9e3d
00000220: 0636 a53c a462 1cbd 6843 d13d ea9c 083d
00000230: 9466 b0bd abbc 033e b440 923b 720b 81bd
00000240: a94a dfbb 2f8f d7bc 05e4 f33a 9f7c 7e3c
00000250: f2cf 18bb 94cd 08bd eb33 8a3d 5004 e43c
00000260: 2b68 193c 9bdc 123d ab12 3e3c 6a17 65bd
00000270: 849c 583c e6d1 0a3c 4541 20bd 6b37 023d
00000280: e449 df3a 7e60 3fbd d632 79bd 7c7e e2bc
00000290: 3e48 a23c d563 7abd 32b0 4fbc 7a48 14bd
000002a0: e132 15bc a7e3 3cbd 78a4 173b 842f febc
000002b0: bf8f 4e3d f341 823a db58 253c f71d 02bd
000002c0: 0eb6 1d3b 3278 aa3c 94ca 5a3d bee7 f33c
000002d0: 8bce 193d d15f 73bc 0981 bdbd f4f4 173c
000002e0: 4a5a e23c 9d90 81bd ab83 7f3d 2fa1 c1bc
000002f0: dda2 f5bd d654 0fbd eba1 92bd 226c ccbd
00000300: 5ed2 16bd f717 82bd d9b2 6abd b212 cbbc
00000310: 0bc4 3fbd 92b9 2dbc f806 d73c 6519 38bd
00000320: 7b45 92bd 85d9 253d b9f2 18bd 3809 73bd
00000330: 0ed9 813c 2644 83bd aabb abbd 0c46 c9bc
00000340: b75c b33c 4a16 c33c e8a4 a0bc 1615 7a3c
00000350: 0912 4dbd bb05 9cbc f619 0eb9 33c0 6ebc
00000360: e6d9 613b b452 373c ab73 12bd dabd 373c
00000370: bb55 223d 8ffa af3c a364 303d e0a4 cb3c
00000380: 8d40 893c 7022 d5bc a79c 8bbd c395 33bd
00000390: e24e 92bd 0745 bfbd da61 c3bd dc0d 9cbd
000003a0: 8e24 47bd 280a 27bd 1db1 253c 8148 19bb
000003b0: cfae 783c f4f9 833c 8bd9 303c 2395 eabc
000003c0: 8df1 913d d506 613d 76af 9e3c f626 8bba
000003d0: b180 bfbc 49df b03c d798 92bb 67d1 03bd
000003e0: 46eb 60bc f2f6 87bc e3eb a5bd ecc6 4abd
000003f0: 5a58 53bc ecb0 08bd 8d89 1ebd a8c6 d03c

body.block1.conv.bias f4 [64]
-0.029287953 0.13769665 0.15934537 -0.056738522 0.08881738 0.05505628 -0.0010245655 0.08709018
0.23461989 0.07443307 0.07557258 -0.030668143 0.007099082 0.07288614 0.13299233 0.09205717
0.11036918 0.036287613 -0.09442476 -0.08951164 0.047128115 0.12402077 0.17709757 0.05673629
0.050022714 0.08128741 0.094887346 0.067325264 0.09885308 0.087077744 -0.08784248 0.07254334
0.15209937 0.10495927 0.045554083 0.19978775 0.08159264 0.16257516 0.11951838 0.07619137
0.047470916 -0.010401847 0.11883033 0.06784502 0.11706266 0.16505802 0.031306654 0.101885594
0.06800838 0.2510222 0.052280918 0.1922214 0.0655478 0.17909609 0.108744375 0.10802452
0.077740744 0.19460209 0.09418275 0.15786739 0.08854653 0.13727285 0.001428873 0.0927625
00000000: 4aed efbc 5a00 0d3e 6f2b 233e a766 68bd
00000010: e3e5 b53d b282 613d b74a 86ba 565c b23d
00000020: 3240 703e 5e70 983d ccc5 9a3d c23b fbbc
00000030: 6b9f e83b 5445 953d 242f 083e 7888 bc3d
00000040: 3d09 e23d 52a2 143d c561 c1bd e151 b7bd
00000050: 6909 413d 9afe fd3d 1159 353e 5064 683d
00000060: 9ee4 4c3d 037a a63d 4c54 c23d d4e1 893d
00000070: 7c73 ca3d d155 b23d c2e6 b3bd 9a91 943d
00000080: f0bf 1b3e e3f4 d63d eb96 3a3d 2995 4c3e
00000090: 0b1a a73d 1a7a 263e 0dc6 f43d 390a 9c3d
000000a0: dd70 423d 826c 2abc 515d f33d 54f2 8a3d
000000b0: 8cbe ef3d f804 293e 683b 003d 65a9 d03d
000000c0: fa47 8b3d fb85 803e 8424 563d b0d5 443e
000000d0: ed3d 863d f764 373e 5fb5 de3d f63b dd3d
000000e0: 8a36 9f3d c545 473e e3e2 c03d fda7 213e
000000f0: e257 b53d 4191 0c3e 0649 bb3a 44fa bd3d

body.block2.conv.weight f4 [64, 64, 3, 3]
-0.024755826 -0.08793015 -0.028297734 -0.023859918 -0.022118304 -0.01292699 0.02627466 0.029736636
0.050724544 0.022173598 0.024244463 0.01274556 -0.064942844 0.022483408 0.030272836 -0.08290066
-0.05074635 -0.037870552 0.01969552 0.00068203115 -0.059615284 0.04336986 0.02268151 -0.030202687
0.022608 0.022985583 -0.026495595 0.04156223 0.070746206 0.05679601 -0.016748505 0.043791525
0.05338956 -0.055883747 -0.02661803 -0.052925196 0.0091202045 0.04972576 0.009824985 -0.0014990222
0.032534756 0.00067338 -0.12191229 -0.12936595 -0.10898489 0.05096338 0.03128044 0.021745343
0.048636053 0.013959353 -0.011903864 0.051679853 0.024739755 -0.007164576 0.0051293373 0.015574167
0.009729815 -0.030510435 0.029817604 0.013753848 -0.10443259 -0.047432862 -0.0693278 0.02317716
0.010406551 0.04187062 0.030280938 0.0072155157 0.0075391447 -0.009469528 -0.03553813 -0.08785878
0.037716124 0.043390553 0.009778117 0.025934268 0.030918723 -0.00070180773 0.028392432 0.0017391826
-0.042300876 0.012836969 0.05647806 0.06566168 0.005997156 0.016914412 0.0686315 -0.11439498
-0.06914724 -0.102823436 0.019598713 -0.009049807 -0.03851257 -0.0011575298 0.017490674 0.017995426
0.07975024 0.030819962 0.03383124 0.067063816 0.028840696 0.030770598 0.03105804 0.020135164
0.06837803 0.084284656 0.067736916 0.08707125 0.035115607 0.030028718 0.043209303 0.04123412
0.037339304 -0.0098845055 0.0155630475 0.0068842247 -0.053722028 0.035140973 0.07171164 0.039640136
0.006293053 -0.007322985 0.011250071 -0.06363555 -0.029588405 -0.019783458 0.010537645 -0.04072644
-0.021916775 -0.0036296977 0.014052753 0.010993964 0.07285309 0.079285674 0.07016417 0.0038172607
-0.044650864 -0.013035382 0.028729293 0.021558316 -0.00068724167 0.069902875 0.07378818 0.054802917
-0.0011223999 -0.0066250893 -0.038911317 0.017533794 0.022638474 -0.012977524 0.09539982 0.08284299
0.05199439 0.0013873223 0.058373213 -0.0061071496 0.015379618 0.014793544 -0.0015326595 0.0044634016
0.015462037 -0.004246606 -0.010675033 0.06493163 0.035808146 0.0003353517 0.022828568 0.04195789
-0.01163891 -0.018004168 -0.009035158 -0.025038285 -0.018703679 -0.031796105 -0.025204813 -0.038876873
-0.014699568 -0.09342455 -0.048986986 -0.037924394 -0.004138501 0.01158612 0.011571466 0.038168315
0.029313076 -0.007153871 -0.024711266 -0.057260238 -0.048728403 0.011195783 0.036479976 0.044098187
0.04363303 0.050149016 0.029729253 -0.023789538 -0.0338253 -0.07081389 0.0006945535 0.0024297498
-0.018142812 -0.008957825 0.045138154 0.038696576 0.056521434 0.10812584 0.08559731 -0.0008833022
0.03807178 0.04032173 -0.0049211048 0.030022701 0.012122186 -0.06081928 -0.023358526 -0.038937338
0.029921789 0.030536452 0.032392174 -0.0056062 0.068758786 0.008876825 0.021137442 0.023057941
-0.010498295 0.008791367 0.037876382 0.018169953 0.019031039 0.006276727 0.013459526 -0.093211845
-0.043922964 -0.034881137 0.0016815773 -0.008055804 -0.04121264 -0.012535649 -0.020990677 0.007411693
0.07306373 0.06235613 0.011047387 0.044776574 -0.01194511 0.021665735 -0.028463708 0.054251824
-0.014627551 -0.033245776 -0.020146256 -0.05158262 -0.010497739 0.009056208 0.0391251 0.0515618
00000000: bbcc cabc b914 b4bd a6d0 e7bc e075 c3bc
00000010: 7231 b5bc bacb 53bc f53d d73c 3f9a f33c
00000020: 8ac4 4f3d 68a5 b53c 539c c63c c1d2 503c
00000030: c100 85bd 202f b83c bdfe f73c d2c7 a9bd
00000040: 68db 4fbd 271e 1bbd 8058 a13c 56ca 323a
00000050: 282f 74bd 98a4 313d 93ce b93c a06b f7bc
00000060: 6a34 b93c 434c bc3c 4a0d d9bc 283d 2a3d
00000070: 63e3 903d efa2 683d 2934 89bc be5e 333d
00000080: 03af 5a3d 5be6 64bd 0e0e dabc 17c8 58bd
00000090: e96c 153c 3dad 4b3d f9f8 203c d77a c4ba
000000a0: 2a43 053d c485 303a 27ad f9bd 8278 04be
000000b0: 7833 dfbd fabe 503d eb1f 003d 4a23 b23c
000000c0: 9936 473d c5b5 643c 6d08 43bc 41ae 533d
000000d0: 07ab ca3c d2c4 eabb 0014 a83b ca2a 7f3c
000000e0: cd69 1f3c 05f1 f9bc 0c44 f43c d257 613c
000000f0: c1e0 d5bd f648 42bd bcfb 8dbd 07de bd3c
00000100: 3d80 2a3c 8780 2b3d bb0f f83c 2270 ec3b
00000110: ee0a f73b 1426 1bbc 6e90 11bd 4eef b3bd
00000120: 397c 1a3d 4bba 313d 6534 203c 1a74 d43c
00000130: 4349 fd3c 85f9 37ba 3f97 e83c 49f5 e33a
00000140: af43 2dbd 2752 523c 8a55 673d a279 863d
00000150: ca83 c43b 1890 8a3c ac8e 8c3d ea47 eabd
00000160: 119d 8dbd 1895 d2bd 7b8d a03c a445 14bc
00000170: 5bbf 1dbd 41b8 97ba 9a48 8f3c 256b 933c
00000180: 1854 a33d 257a fc3c a092 0a3d c158 893d
00000190: 5343 ec3c 9f12 fc3c 6e6d fe3c 80f2 a43c
000001a0: c809 8c3d 6f9d ac3d a7b9 8a3d 6952 b23d
000001b0: 62d5 0f3d c9fe f53c 3dfc 303d 1ce5 283d
000001c0: 19f1 183d 9ff2 21bc 27fc 7e3c 1095 e13b
000001d0: a10b 5cbd fbef 0f3d 8ddd 923d b25d 223d
000001e0: f435 ce3b a7f5 efbb 3852 383c 5b53 82bd
000001f0: 6263 f2bc eb10 a2bc 16a6 2c3c c4d0 26bd
00000200: cf8a b3bc 39e0 6dbb 853d 663c 0720 343c
00000210: 0034 953d 8760 a23d 3bb2 8f3d 022b 7a3b
00000220: d3e3 36bd 5b92 55bc b259 eb3c 119b b03c
00000230: 0228 34ba 3d29 8f3d 421e 973d 0679 603d
00000240: 7e1d 93ba 4717 d9bb 7961 1fbd 08a3 8f3c
00000250: 5274 b93c ae9f 54bc fb60 c33d 96a9 a93d
00000260: 12f8 543d d0d6 b53a c018 6f3d 7c1e c8bb
00000270: cbfa 7b3c 9f60 723c 85e3 c8ba ba41 923b
00000280: 7c54 7d3c 1d27 8bbb 55e6 2ebc e0fa 843d
00000290: 90ab 123d 25d2 af39 fa02 bb3c 09dc 2b3d
000002a0: 20b1 3ebc 7a7d 93bc 3308 14bc 171d cdbc
000002b0: 7538 99bc a23c 02bd 537a cebc 5b3d 1fbd
000002c0: 75d6 70bc 5f55 bfbd 94a6 48bd 9c56 1bbd
000002d0: 439c 87bb b6d3 3d3c 3f96 3d3c 6156 1c3d
000002e0: fa21 f03c 056b eabb 486f cabc b689 6abd
000002f0: 6f97 47bd 846e 373c 076c 153d 4da0 343d
00000300: 8cb8 323d 0e69 4d3d c38a f33c 47e2 c2bc
00000310: 668c 0abd df06 91bd b212 363a 703c 1f3b
00000320: 3ca0 94bc d7c3 12bc c9e2 383d 4d80 1e3d
00000330: 0583 673d 1571 dd3d a44d af3d 688d 67ba
00000340: 28f1 1b3d 6628 253d 3841 a1bb 2bf2 f53c
00000350: 229c 463c a31d 79bd 615a bfbc c27c 1fbd
00000360: 8a1e f53c 9527 fa3c a8ad 043d 37b4 b7bb
00000370: 68d1 8c3d 1a70 113c 6e28 ad3c 02e4 bc3c
00000380: 0a01 2cbc aa09 103c 4424 1b3d 27d9 943c
00000390: fbe6 9b3c 01ad cd3b 5885 5c3c dae5 bebd
000003a0: 91e8 33bd 86df 0ebd 5f68 dc3a 7efc 03bc
000003b0: 96ce 28bd 5362 4dbc a4f4 abbc cadd f23b
000003c0: 70a2 953d 2469 7f3d 1900 353c a467 373d
000003d0: 6cb5 43bc 577c b13c b92c e9bc 2937 5e3d
000003e0: 65a8 6fbc b92c 08bd c309 a5bc 4c48 53bd
000003f0: b5fe 2bbc 7d60 143c a441 203d 7732 533d

body.block2.conv.bias f4 [64]
0.28359833 0.17677502 -0.02114016 0.16559447 -0.16246323 0.28782567 -0.042312857 0.27770725
0.15826744 0.10916032 -0.17961656 0.24883567 -0.05100335 -0.021326715 -0.15418744 0.31794542
0.3310187 0.30875322 0.4211623 -0.031565472 -0.022814332 -0.15629257 0.27646598 0.41075924
-0.039581947 -0.006695908 0.16967183 0.20073195 0.13430856 -0.12182052 0.0072683385 -0.12036638
-0.043708786 -0.02999284 0.27086127 0.2898492 -0.0654084 0.3964541 0.20201544 0.026938273
-0.058539443 0.11664677 0.3848786 -0.04432448 -0.19145253 -0.1662167 0.19642285 -0.041839924
0.23015264 0.28689188 0.24934678 0.33358216 -0.1615088 0.2936049 -0.008921294 0.2609158
0.031339478 0.11680351 0.30638537 0.13366482 0.12609604 -0.069484204 0.24321601 0.21937971
00000000: cd33 913e 8304 353e 212e adbc 9991 293e
00000010: c35c 26be e35d 933e 3f50 2dbd a52f 8e3e
00000020: dc10 223e 728f df3d 67ed 37be c7ce 7e3e
00000030: e4e8 50bd 5db5 aebc 50e3 1dbe bec9 a23e
00000040: 487b a93e e714 9e3e 96a2 d73e cc4a 01bd
00000050: 1fe5 babc 290b 20be f38c 8d3e 094f d23e
00000060: ae20 22bd 5969 dbbb 74be 2d3e ad8c 4d3e
00000070: 2f88 093e 097d f9bd 3e2b ee3b a682 f6bd
00000080: fc07 33bd 8bb3 f5bc 54ae 8a3e 1d67 943e
00000090: d7f4 85bd 08fc ca3e 23dd 4e3e a7ad dc3c
000000a0: 0ec7 6fbd 80e4 ee3d cf0e c53e 968d 35bd
000000b0: 220c 44be b634 2abe 1223 493e 5760 2bbd
000000c0: 22ad 6b3e 7ee3 923e c354 7f3e 48cb aa3e
000000d0: 9062 25be 6253 963e 9e2a 12bc c196 853e
000000e0: d35d 003d ae36 ef3d 8bde 9c3e 6edf 083e
000000f0: 521f 013e bc4d 8ebd 9e0d 793e 13a5 603e

tail.weight f4 [1, 64, 3, 3]
-0.006817701 0.0028386426 0.04477381 -0.008507116 -0.037077636 0.010759493 -0.10039466 -0.08188283
-0.07531054 0.060145654 0.0057458817 0.019189123 -0.0065970207 -0.024221737 -0.006238315 0.10988687
0.10809475 0.10122308 0.03855577 0.077848606 0.06072244 0.020566754 -0.013701876 0.030693853
-0.023932002 -0.02473643 0.03791804 0.08778054 0.055880513 0.0097992085 -0.010061197 -0.03738917
-0.02386069 0.09798196 0.07778392 0.06348301 0.03190961 0.03860576 0.020270724 0.0054633613
-0.024549445 0.020064887 0.025356306 0.03990499 0.11253561 -0.0033815585 0.002058385 -0.008118429
-0.03938547 0.06359351 -0.008567092 -0.08165977 -0.07842472 -0.0676332 0.061594166 0.004950151
0.029575609 0.041859113 -0.036291048 0.007754231 0.09063336 0.078089 0.11327271 -0.010098067
-0.020054862 0.01647484 -0.046891827 -0.0055981698 -0.006851244 -0.106061615 -0.06001726 -0.05213447
0.013383513 0.018498598 0.03193259 -0.015862687 -0.02513034 -0.008552564 0.08533721 0.075168446
0.12494144 0.0380532 -0.05813016 -0.09906933 0.049052067 -0.022975262 -0.083373204 -0.036426637
-0.054306615 -0.10862584 0.078294076 0.04173166 0.11698766 -0.017941233 0.024978999 0.02249548
0.01771691 0.037197236 0.056313053 -0.023163823 -0.012879475 0.0041853054 -0.021674287 -0.0071805753
0.02929332 -0.09455805 -0.06845068 -0.044460207 0.048818298 0.04357728 0.09562389 -0.0065765465
-0.03212669 -0.011528769 0.06467966 0.01194632 0.019028248 0.10263468 0.09778861 0.031400334
0.015881792 -0.020454824 -0.0317019 -0.02454485 -0.027170062 -0.0716289 0.05978865 0.03956539
0.06583737 0.028886123 0.024081597 0.0141242 0.009734498 0.04008068 0.033403277 -0.05182055
0.0076344507 0.003772061 -0.00061577436 -0.017398402 -0.010920478 -0.10140162 -0.10210262 -0.07686243
-0.013237419 -0.0132129155 -0.030395381 0.02757679 -0.0072385063 0.0035809553 -0.12519424 -0.067695625
-0.057305414 -0.03511297 -0.0090879155 -0.01987219 -0.038934898 0.003206528 -0.0012367908 -0.08929629
-0.059059408 -0.05064088 0.011431433 -0.014987934 -0.009105824 -0.0108912885 -0.016932638 0.009344135
-0.07930374 -0.08195073 -0.037724227 0.041626792 0.03932534 0.034188464 -0.03438558 -0.010150609
0.023483504 0.017818473 0.048340876 0.12111191 0.04740218 0.07717413 0.08548883 -0.016932722
-0.024693094 0.04324359 -0.038817964 -0.035103876 -0.02140085 0.038536265 0.042553395 0.062039018
-0.01172054 0.0024216198 0.036782134 0.048538793 0.01557532 0.058896687 -0.047699917 5.980019e-05
-0.020579921 -0.04582306 0.0018563941 -0.0034047994 -0.09343703 -0.085186735 -0.065967835 -0.007363242
-0.013979001 -0.020575253 -0.024412645 -0.025792815 -0.0009238607 -0.060033757 -0.10372165 -0.07870266
0.074462205 0.020749498 0.05276055 -0.022124961 0.006590655 0.0066833757 0.02213244 0.04511272
0.060696997 0.0480472 -0.0027639344 0.045893695 -0.0036751942 -0.03392726 0.060377944 0.049295645
0.019982882 0.0784629 -0.024110025 -0.012097953 -0.0062813433 -0.029251602 -0.019407513 -0.015705252
-0.06525757 -0.06951014 -0.04754677 -0.07707297 0.02108539 -0.022792581 -0.021807248 0.009162503
-0.011190068 -0.07946038 -0.1034677 -0.07441036 -0.06864436 -0.05723355 -0.03267662 -0.040331982
00000000: 0567 dfbb 8508 3a3b be64 373d 6e61 0bbc
00000010: b8de 17bd 9648 303c b79b cdbd 2fb2 a7bd
00000020: 6a3c 9abd 4a5b 763d f347 bc3b 8232 9d3c
00000030: d22b d8bb aa6c c6bc c76a ccbb 5e0c e13d
00000040: c860 dd3d 0c4e cf3d a8ec 1d3d 176f 9f3d
00000050: 18b8 783d 9c7b a83c d57d 60bc ad71 fb3c
00000060: 0c0d c4bc 0ea4 cabc f24f 1b3d 49c6 b33d
00000070: f7e2 643d dc8c 203c b8d7 24bc 6325 19bd
00000080: 7e77 c3bc c4aa c83d 2d4d 9f3d 6103 823d
00000090: a7b3 023d 1321 1e3d ca0e a63c ff05 b33b
000000a0: eb1b c9bc 1e5f a43c 07b8 cf3c 6a73 233d
000000b0: 1279 e63d 239d 5dbb f8e5 063b 2903 05bc
000000c0: a952 21bd 503d 823d fd5c 0cbc 3d3d a7bd
000000d0: 249d a0bd 4683 8abd 2a4a 7c3d e034 a23b
000000e0: 8c48 f23c 7674 2b3d eca5 14bd 3417 fe3b
000000f0: fc9d b93d 20ed 9f3d 86fb e73d 5d72 25bc
00000100: 184a a4bc 3ef6 863c a511 40bd da70 b7bb
00000110: 6680 e0bb d536 d9bd a9d4 75bd f48a 55bd
00000120: 8646 5b3c 5f8a 973c bfcb 023d 77f2 81bc
00000130: 25de cdbc 0e20 0cbc 46c5 ae3d eaf1 993d
00000140: 4ce1 ff3d acdd 1b3d e419 6ebd dce4 cabd
00000150: d2ea 483d 9e36 bcbc 92bf aabd 1934 15bd
00000160: 9d70 5ebd 3977 debd a558 a03d d1ee 2a3d
00000170: 3a97 ef3d 7ef9 92bc c2a0 cc3c 7148 b83c
00000180: 0e23 913c 215c 183d 84a8 663d 0fc2 bdbc
00000190: 6f04 53bc e324 893b 468e b1bc 084b ebbb
000001a0: 8bf8 ef3c a7a7 c1bd df2f 8cbd e81b 36bd
000001b0: b2f5 473d 177e 323d 75d6 c33d 1280 d7bb
000001c0: 4797 03bd 29e3 3cbc c576 843d 7fba 433c
000001d0: 21e1 9b3c 2232 d23d 6545 c83d a39d 003d
000001e0: 881a 823c e090 a7bc dad9 01bd 4812 c9bc
000001f0: c093 debc 2cb2 92bd f2e4 743d 520f 223d
00000200: bed5 863d 97a2 ec3c c546 c53c 3069 673c
00000210: 727d 1f3c a42b 243d e0d1 083d c941 54bd
00000220: 6a2a fa3b af34 773b eb6b 21ba 1887 8ebc
00000230: ceeb 32bc a7ab cfbd 2e1b d1bd 0d6a 9dbd
00000240: c2e1 58bc fc7a 58bc bcff f8bc b8e8 e13c
00000250: fe30 edbb 76ae 6a3b eb32 00be 01a4 8abd
00000260: 15b9 6abd 9ed2 0fbd 7be5 14bc 01cb a2bc
00000270: 337a 1fbd 9d24 523b d01b a2ba f9e0 b6bd
00000280: 47e8 71bd d06c 4fbd e84a 3b3c f48f 75bc
00000290: 9830 15bc 6071 32bc 51b6 8abc 2518 193c
000002a0: 006a a2bd c9d5 a7bd b884 1abd db80 2a3d
000002b0: 9c13 213d 3409 0c3d e5d7 0cbd bd4e 26bc
000002c0: 7a60 c03c 0cf8 913c 1501 463d 8509 f83d
000002d0: ca28 423d 780d 9e3d c514 af3d 7eb6 8abc
000002e0: 2c49 cabc 3120 313d 96ff 1ebd 15c9 0fbd
000002f0: d650 afbc 34d8 1d3d 784c 2e3d a01c 7e3d
00000300: 8207 40bc 0ab4 1e3b dda8 163d 9dd0 463d
00000310: a12f 7f3c a73d 713d fd60 43bd f7d1 7a38
00000320: 3997 a8bc f6b0 3bbd 4052 f33a 0e23 5fbb
00000330: ea5b bfbd 6276 aebd 251a 87bd 5a47 f1bb
00000340: 2e08 65bc 6f8d a8bc 07fd c7bc 744b d3bc
00000350: 3e2f 72ba f5e5 75bd 046c d4bd dc2e a1bd
00000360: a47f 983d dafa a93c 721b 583d 683f b5bc
00000370: 6cf6 d73b 3800 db3b 174f b53c 1ec8 383d
00000380: 6a9d 783d 24cd 443d 2023 35bb 07fb 3b3d
00000390: 87db 70bb 50f7 0abd dd4e 773d 3bea 493d
000003a0: 24b3 a33c 28b1 a03d 6382 c5bc 7e36 46bc
000003b0: bad3 cdbb 0ea1 efbc 81fc 9ebc 4da8 80bc
000003c0: c3a5 85bd 555b 8ebd 67c0 42bd 6fd8 9dbd
000003d0: 45bb ac3c 82b7 babc 1da5 b2bc 531e 163c
000003e0: 8c56 37bc 20bc a2bd e0e6 d3bd 7564 98bd
000003f0: 6a95 8cbd ba6d 6abd ebd7 05bd 2633 25bd
