TrainedModels/volcano/2020_08_15_15_35_16_video_train_depth_3_lr_scale_0.1_act_lrelu_0.05/0/netD_b.pth (torch_old, 454648 bytes, 9 tensors)

head.conv.weight f4 [64, 3, 3, 3]
000000 83 bb 3c 3c 6b 8e 0d bc 53 db 0e 3d fd b9 fd 3c
       0.011519316 -0.008639912 0.034877133 0.030972475
000010 c8 e4 3f bd 7f 29 b6 bc 47 93 2c 3d ec 7a e6 3b
       -0.046849042 -0.022236584 0.042132642 0.0070336964
000020 a0 01 c1 bc 9f b9 83 3d 32 2b 1a bd ab ff 93 3b
       -0.023560345 0.06431889 -0.03763885 0.004516562
000030 1d 2c c0 3c f4 63 68 bc d4 8c 42 3c aa 00 95 3b
       0.023458535 -0.014183987 0.011874396 0.0045471983
000040 ab e5 05 bd 81 03 f8 bb 79 b5 8c 3c ea 3d ae 3c
       -0.03268973 -0.007568777 0.017176377 0.021269757
000050 34 93 89 3c de de ae 3c 52 01 61 3c af 62 9b bb
       0.016793825 0.021346506 0.013733225 -0.0047419886
000060 59 72 a9 bc 8a f6 bf 3c 24 ed 71 3a fa b6 21 3d
       -0.020684408 0.023432989 0.0009228757 0.03948114
000070 8e cc a0 3c c4 22 ff 3b 2f 25 0b bd 54 ff 05 bc
       0.01962879 0.007786127 -0.033971008 -0.008178551
000080 30 ce cf bb 6e a4 0a bd e5 de bc bb 4f 48 e4 bc
       -0.006341718 -0.03384822 -0.005763876 -0.02786651
000090 a7 7f 5d bb d3 0f 1a 3b 02 de 11 3d 81 7d 3e 3c
       -0.003379801 0.0023507967 0.035612114 0.011626602
0000a0 1e 5b 96 bc c0 50 79 bc 3e 6d 01 bd 34 99 8e bc
       -0.018353995 -0.015217006 -0.031598322 -0.017407037
0000b0 06 c3 a4 bc f0 ba 6b 3c b9 f9 c7 3c ab 08 23 3d
       -0.020112526 0.014387831 0.02441107 0.03980319
0000c0 98 1c 99 bc de b3 2d 3c 2c 03 ba bc 76 75 36 bd
       -0.018690392 0.010601966 -0.02270659 -0.044545613
0000d0 a0 a9 70 bc 06 00 1d bd 3a f4 9c 3b aa e0 81 bc
       -0.014688879 -0.0383301 0.0047898563 -0.015854198
0000e0 12 e1 85 bb 99 73 d4 3c 07 42 97 3c 10 9f db ba
       -0.0040856684 0.025934028 0.018464101 -0.0016755778
0000f0 55 92 81 bb df c2 52 3d b5 cf 62 3c 34 62 a7 bb
       -0.0039542117 0.051455375 0.0138434665 -0.0051081423
000100 7c f0 00 bb 54 b7 84 3c 7b 70 fd 3b 24 c4 e7 3c
       -0.001967459 0.016200699 0.007734356 0.02829177
000110 7e 4e 05 3c 43 36 c6 3c 78 53 27 3c 36 9f 00 3c
       0.00813639 0.024195796 0.010212772 0.007850459
000120 3e dd a8 3a a7 41 3c 3c d1 4b 10 bc 64 cf f4 bc
       0.0012883318 0.011490262 -0.008807139 -0.029884048
000130 09 ad 0a 3d 0e 51 79 3a 0c c4 fa 3c 07 88 50 3d
       0.033856425 0.0009510674 0.03061106 0.050910976
000140 58 8b 85 bc 5b 60 24 bd 41 9c cf bc d5 d0 f9 bc
       -0.016301796 -0.040130954 -0.025343062 -0.030495087
000150 10 eb 07 bd e0 8c be 3b b6 17 bd bc fd 35 f9 bb
       -0.033183157 0.0058151335 -0.023082595 -0.007605313
000160 e4 1d 95 3c 6b 19 8d bd 7f 14 89 bb c8 7e cc ba
       0.01820273 -0.06889614 -0.0041833515 -0.0015601749
000170 b3 e8 4c bd 81 2a 11 bd 22 06 d1 bb c8 78 89 bc
       -0.050026607 -0.035440926 -0.006378905 -0.016781226
000180 38 c8 ce ba bf b4 a4 3b ca 89 83 bd 5e 70 10 bd
       -0.0015776223 0.0050264294 -0.064227656 -0.03526341
000190 ca 4d a0 3c 05 71 f0 bc f7 d2 1c bd 47 e3 d1 3c
       0.019568343 -0.029350767 -0.03828713 0.02562107
0001a0 f3 36 f0 bc 08 7c 4d bb 80 07 07 bd 4f ac 35 bd
       -0.029323077 -0.0031354446 -0.032966137 -0.04435378
0001b0 4e c0 4f 3b e4 27 b4 3a 80 ee 86 3b 13 81 25 3b
       0.0031700316 0.0013744798 0.004117787 0.0025253936
0001c0 4d 7e ad bc 06 fb 14 bc e7 cd bd bc de 7f 2e bd
       -0.021178389 -0.009093052 -0.023169471 -0.042602412
0001d0 06 8d 8c 3c d7 51 72 3a 71 c7 c1 ba 3a c1 71 bb
       0.017157089 0.00092437625 -0.001478417 -0.0036888854
0001e0 e5 9c 08 bd 3e 4a 0f bd 36 e0 89 bb 84 cc 05 3d
       -0.03335275 -0.034982912 -0.004207636 0.032665744
0001f0 c4 29 e8 bc 69 91 95 3c 31 1b c6 bc 92 36 dd 3b
       -0.028340228 0.018257814 -0.024182888 0.00675089
000200 5a 79 9c bc 13 c0 fd 3b b5 96 53 bc b0 52 1e 3d
       -0.019100834 0.0077438443 -0.012914349 0.038653076
000210 32 2f df bc e5 21 05 bd 48 0f 8c bc 33 a1 72 bc
       -0.027244184 -0.032503027 -0.01709713 -0.014808941
000220 f9 45 1f bd bb 46 09 3d ef 84 86 3b d0 eb 77 bc
       -0.03888509 0.03351472 0.0041052024 -0.015131906
000230 26 33 ae 3c ff f1 a6 3b 0f 3b 2c bd 2b 34 16 3c
       0.021264624 0.005094766 -0.04204851 0.009167711
000240 7e 9e f3 3b 98 39 03 3d 7e 42 e5 bc 76 a7 45 3d
       0.007434665 0.032037348 -0.027985808 0.048255406
000250 58 92 72 3d 9b 5c 3d 3b 49 81 b6 3c c5 ff e5 3c
       0.059221596 0.0028894308 0.022278445 0.028076062
000260 2e d3 b2 bb ea bd b0 bb de b8 06 bd 9a 25 27 bd
       -0.0054573035 -0.0053937333 -0.032891147 -0.040807344
000270 0f 1a 4d bc d6 7a 18 bc 0f 17 24 3d b1 1f 1c bd
       -0.01251842 -0.00930663 0.040061053 -0.03811616
000280 60 51 5c bc 0d 16 60 bc 03 fd f9 bb 5f 9c 71 3c
       -0.013447136 -0.013677132 -0.0076290383 0.014746754
000290 2f 69 4b bc 72 43 3c 3d f1 28 10 3d 71 39 cc 3c
       -0.012415214 0.04596276 0.035195295 0.024929734
0002a0 de 52 80 bc bf 30 b3 ba 07 8c 1f bd ec 93 09 bd
       -0.015664514 -0.0013671144 -0.0389519 -0.033588335
0002b0 ee e3 85 3a d2 89 27 3c 1e af b9 bc 12 d4 5c 3d
       0.0010215023 0.01022573 -0.02266651 0.053913184
0002c0 db 0a ea 3c 42 cd 05 bd 7a 1b d4 3b 61 fe ca bc
       0.02856963 -0.032666452 0.006473002 -0.0247795
0002d0 e1 54 26 bd de e1 5f bc ad fc 49 bc c7 d8 f5 3c
       -0.04060829 -0.013664691 -0.012328309 0.030010594
0002e0 cc 79 22 3d 6a 80 8d bc 56 49 fc bb d4 b8 a9 3c
       0.039666936 -0.017273147 -0.007699172 0.020718016
0002f0 bd 4b e9 bc 61 8d 9a 3c 13 89 a3 bc 20 35 2b 3c
       -0.028478498 0.018866243 -0.019962823 0.010449678
000300 2a 58 98 37 c1 18 cf bc b8 12 2f bc 3b cf 15 b9
       1.8160867e-05 -0.025280358 -0.010685615 -0.00014286947
000310 91 53 1d bb 98 ea af bc 7f 71 d5 3b c9 bf f7 bb
       -0.0024006108 -0.021474168 0.006513774 -0.0075607044
000320 d4 3e a1 bb f4 9a da 3b 97 5c 33 bc 13 f7 57 3c
       -0.00492082 0.006671304 -0.010947368 0.013181466
000330 51 8e 89 bc d0 0b ac 3c bd cd 16 bd e0 53 b9 3c
       -0.016791495 0.021001726 -0.0368173 0.022623003
000340 fc d9 ee bb 33 93 21 3d 36 b1 13 3c 8a a0 03 3d
       -0.0072891694 0.03944702 0.009014418 0.032135524
000350 26 c3 9f bb 23 3d bc bc 87 52 87 bc 53 43 f2 bb
       -0.0048755584 -0.022978371 -0.016518844 -0.0073932796
000360 14 fb b2 bc b5 ae 23 bd f1 07 6a 3c 35 1d 01 bc
       -0.021848239 -0.039961535 0.01428412 -0.007880499
000370 6e d0 15 3c d1 5d 93 bc 3f 15 ce bc 7f 72 1a 3c
       0.009143932 -0.017989071 -0.025156615 0.009426712
000380 5d 9c 46 bc ff 58 82 3c a7 cd 99 bc ac bb 00 bd
       -0.012122241 0.015911577 -0.01877482 -0.031428978
000390 62 66 e3 bc 81 24 a2 bc 97 12 83 bc 00 c1 d9 bc
       -0.02775878 -0.019792797 -0.016000075 -0.026581287
0003a0 97 70 1b bc 87 6e 6c bd e1 bd c3 bc 6c 3f 28 bd
       -0.009487293 -0.057722595 -0.023894252 -0.04107611
0003b0 26 da 46 bd 49 b4 87 bc 21 f5 d5 bc 4d db 1d 3c
       -0.048547886 -0.016565459 -0.026117863 0.009634805
0003c0 31 c2 ee bb fc 3f 8c bc 19 2c 81 bc 9c 2f ae 3c
       -0.007286333 -0.017120354 -0.015768098 0.021262936
0003d0 ac f9 bd bb aa 79 70 bc 67 3d 27 3b 25 fd 92 bc
       -0.0057975855 -0.0146774445 0.0025518776 -0.017942974
0003e0 83 bc 27 bd 31 37 1e 3c 34 1e f9 bc 08 32 3f bc
       -0.040951263 0.009656713 -0.03040991 -0.011669643
0003f0 bd c4 a4 3c f6 96 df 3c 71 58 a3 bc 28 5e 8a bc
       0.020113343 0.027293663 -0.019939633 -0.0168906

head.conv.bias f4 [64]
000000 6b 0d 7d 3d a5 ba 94 3d dc d0 b9 3a 10 d6 9d 3a
       0.061780374 0.07262162 0.0014176625 0.0012041945
000010 35 d0 7c bd 5e 05 a8 39 e4 8b ce 37 56 3c 14 3e
       -0.061722 0.00032047456 2.4622255e-05 0.14476141
000020 ac 75 1c be af 24 28 bd a9 6d 3b 3e f6 6b de 3d
       -0.15279263 -0.04105061 0.18303551 0.10860436
000030 83 1b 97 bd b2 fc 2c be a7 2b 46 3e bd 55 e3 3a
       -0.07378294 -0.1689327 0.1935259 0.0017344278
000040 87 00 e8 3d 89 72 9a 3d ca 29 50 bc 5c 12 f8 39
       0.113282256 0.07541377 -0.012705276 0.00047315925
000050 5b d7 4d 3e 6d b1 ef 3d f5 cd ec 3d 21 7a 41 be
       0.20101683 0.11703763 0.11562721 -0.18894245
000060 ed 03 f3 3d 23 b8 59 3d e0 0b d8 3d af ae 85 3d
       0.11865983 0.053154122 0.1054914 0.06527459
000070 25 fb 13 be e9 0b b6 bd 90 1b 33 be ab 4d 88 38
       -0.14451273 -0.088889904 -0.17490983 6.499452e-05
000080 06 09 b8 b5 ac c9 04 3e 46 5f 18 be fd 3f 14 3e
       -1.3711694e-06 0.12967557 -0.14880094 0.14477535
000090 06 99 8a 3d 83 63 20 be 21 55 45 3a 4f 83 3d 3e
       0.06767468 -0.1566296 0.0007527639 0.18507122
0000a0 69 a4 f6 3d bb 31 08 3e fb 1f 18 be dc af 00 3e
       0.120430775 0.1330022 -0.1485595 0.12567085
0000b0 e7 2f 25 3b f2 ce b9 3d 9c e7 ca 3d 14 4b 24 3e
       0.0025205554 0.09072675 0.09907457 0.16044265
0000c0 fa b8 82 bd c3 c0 17 3e eb 7a a7 3a d8 3e 36 be
       -0.06382938 0.14819627 0.0012777721 -0.1779741
0000d0 f1 27 39 3e 26 da 34 3e a6 36 f1 bd c6 6b 9b bd
       0.18081643 0.17661342 -0.117780015 -0.075889155
0000e0 0b 77 86 38 e8 5a b1 3a d0 a7 74 3b 7f 4f 38 bb
       6.4117914e-05 0.001353112 0.003733147 -0.0028123555
0000f0 6d e3 ce bc a3 8f ee bd 18 3f 95 3d 87 fd 72 3d
       -0.02525493 -0.1164849 0.07287425 0.059323814

body.block0.conv.weight f4 [64, 64, 3, 3]
000000 e7 06 d8 bc b4 b3 2a bd 17 f0 13 bc 6b f7 78 bc
       -0.026370479 -0.041675285 -0.00902941 -0.015195708
000010 24 36 1b 3d 88 c0 9c 3b 73 16 45 bc d6 ee d5 3c
       0.03789343 0.0047836937 -0.012029278 0.026114862
000020 b7 7e 86 bb c2 f5 12 bd f3 be c3 bc a3 6b e6 bc
       -0.004104461 -0.035878904 -0.023894763 -0.028127497
000030 e2 72 09 bd 65 5a 7b bc 45 66 52 bd 05 0e 87 bd
       -0.033556826 -0.015341376 -0.051367063 -0.06594471
000040 9e fc 3e bd 42 4c ca bd 3e e2 0f bc f7 7f ad bc
       -0.046627633 -0.09877826 -0.008781968 -0.021179182
000050 e9 d7 66 bb 08 1a 92 bc f2 de 1b 3a d8 d3 9b 3a
       -0.0035223907 -0.017834678 0.0005946002 0.0011888696
000060 8c 34 00 3d cf 12 90 bc e8 ca 1b 3d a8 64 24 3d
       0.031300113 -0.017587094 0.038035303 0.040135056
000070 16 b2 58 3d c5 82 d5 bb 31 0e 63 3b 0e d2 62 bc
       0.05290421 -0.006515833 0.003464591 -0.013844026
000080 bf a0 bf 3b ba 01 2a bc 6c 01 32 bb 6d e1 11 bd
       0.00584802 -0.010376388 -0.0027161492 -0.035615373
000090 51 3b ac 3c 7c a4 ae bb 13 c6 b8 3a 54 31 65 3b
       0.021024378 -0.0053296667 0.0014097117 0.0034972029
0000a0 f8 8d 71 3d 28 4b 21 bc f4 47 09 bd 6a a5 ed 3c
       0.058973283 -0.009844579 -0.033515885 0.02900954
0000b0 ea 95 02 3c e4 d8 04 3d 7c 38 34 3c 12 39 25 3d
       0.007970313 0.032433406 0.010999795 0.04033763
0000c0 0d 87 1c bd a3 4a 8b bd 78 4e 13 bd e2 ae 1b bd
       -0.038214732 -0.06801345 -0.035963506 -0.038008578
0000d0 5b d5 ab bc cc 98 b5 bc 8c 8d bc 3c 98 14 60 39
       -0.02097576 -0.022167586 0.023016714 0.00021369976
0000e0 3a 85 5b 3d 27 8d 41 bb 55 60 1a bc 4c e1 c4 bc
       0.05359385 -0.0029533596 -0.009422381 -0.024033211
0000f0 21 4d 04 3c 6d c5 87 ba a8 28 22 bd 34 3f 99 bc
       0.00807503 -0.001035852 -0.039589554 -0.018706895
000100 0c 0b 32 bd 26 65 ac bc 64 63 3d bc 8e 79 41 3d
       -0.043467566 -0.021044325 -0.011559341 0.047235064
000110 6b c3 3b bb 67 78 cc 3c f1 fc 4d 3b cc 04 36 bd
       -0.0028650414 0.024959756 0.0031431282 -0.04443817
000120 bc 32 db bb ec c2 03 bc 7b 2a d3 3c 38 f8 f9 bb
       -0.0066893976 -0.008042078 0.025777092 -0.007628467
000130 70 b2 d1 bb 2d 18 49 3d d2 84 17 bb 44 e6 87 3c
       -0.0063994452 0.04909532 -0.0023119939 0.016589291
000140 31 48 0e bd 97 bb 00 3d 9c 34 e9 3c b8 46 27 3d
       -0.034736816 0.0314289 0.028467469 0.040838927
000150 58 86 82 bc db 65 51 3d 76 aa 83 3c 7b 98 60 3c
       -0.0159332 0.051122528 0.016072493 0.013708229
000160 5b 62 2b 3c 2e 77 b2 ba 14 bb e5 ba fe d5 c0 bb
       0.0104604615 -0.001361584 -0.0017527067 -0.005884885
000170 36 87 6a 3c 10 4c ba bc ee 99 fa 3b 09 ed cf b9
       0.014314463 -0.022741348 0.0076477444 -0.00039658722
000180 0a cc 9e 3b ce cb e1 3b d1 3c af bc a3 fe ea 3c
       0.0048461007 0.0068907505 -0.021391304 0.028685873
000190 5e ae 55 bb db 81 da 3b 10 cb 40 3c 61 73 0a bd
       -0.0032605152 0.006668312 0.011767164 -0.03380144
0001a0 2b b7 1f bd 84 62 d5 bc b9 2c d1 bc d3 52 e7 3b
       -0.038993042 -0.026047952 -0.02553402 0.007059434
0001b0 1d 3b 65 ba 97 2e 0b bc c0 d0 24 bd 37 2d 07 bd
       -0.00087444653 -0.008494995 -0.040238142 -0.033002105
0001c0 41 53 3d bd de de de bc f6 3b c4 bc f3 b0 6a bd
       -0.046221975 -0.02720588 -0.023954373 -0.05729766
0001d0 bf bf 92 3c d9 db 0f bd c9 4d ad bc a1 ab 8b bc
       0.017913697 -0.035121772 -0.021155255 -0.017049612
0001e0 ba 0f 60 3c 94 d4 d3 3a c8 b7 a7 bc 28 eb b9 bb
       0.0136756245 0.0016161376 -0.020473376 -0.0056737848
0001f0 21 30 96 bc bf 54 bd 3b ae 19 e9 3c e6 68 d8 3b
       -0.018333497 0.005777925 0.028454628 0.0066043017
000200 d6 1c 7f 3b ae 56 9b bc a0 4e 87 bc f9 63 cc bc
       0.00389271 -0.01896223 -0.016516984 -0.024950014
000210 ed 49 d5 bb f2 bc a5 3b aa 85 af bc 77 1c 27 bc
       -0.006509057 0.0050579244 -0.02142604 -0.010199658
000220 97 68 43 bd 0b c2 44 bd e0 f2 06 3d 73 18 70 bc
       -0.047707167 -0.048036616 0.032946467 -0.014654267
000230 eb 3c 8f bc 55 83 40 3d 36 6b 4b 3c a7 a8 6c 3c
       -0.017485103 0.047000248 0.012415698 0.014444507
000240 83 f0 9e 3c bb e8 af bc de e2 c4 bb 20 e9 00 3d
       0.019401794 -0.02147328 -0.00600849 0.031472325
000250 d9 58 59 3c 0d 02 05 bc b0 72 30 3d 70 36 8c 3c
       0.013265812 -0.008118165 0.043078125 0.017115802
000260 1f af e2 3c b9 4d b0 bc 61 7d c3 bc f2 9f d6 3c
       0.027671395 -0.021521436 -0.023863496 0.026199315
000270 41 1d bd bb 3a 48 89 3d 57 bd 1f 3c 34 3f eb 3c
       -0.0057713096 0.06703229 0.009749732 0.028716661
000280 f8 e5 9a 3c ac 52 46 3d 9a 1a 54 bd f1 b0 2c 3d
       0.018908486 0.048418686 -0.05178318 0.042160932
000290 86 85 24 3d 10 4d cb bc a8 8c ac 3c a8 c9 d5 3c
       0.0401664 -0.02481702 0.021063164 0.026097134
0002a0 bb 7e 97 bc c8 50 d1 3b fe 04 89 bc 09 b6 87 bd
       -0.018493047 0.0063878037 -0.016726013 -0.06626517
0002b0 61 09 57 bc f5 ce 99 bc a1 56 81 3b 36 1e c5 bc
       -0.013124795 -0.018775443 0.0039470945 -0.024062257
0002c0 ae c7 ad b9 a6 a6 03 3d f6 d7 5c bc 8c 60 5b bc
       -0.00033145904 0.03214135 -0.0134792235 -0.013389718
0002d0 2b 04 4f bc e3 da 29 bc 9b 23 4a 3b 92 c2 69 3c
       -0.012635271 -0.010367128 0.0030843976 0.014267581
0002e0 f3 e9 99 3a 38 08 11 3c 6c bd aa 3b d2 b9 bb 3c
       0.0011742696 0.008852057 0.005210569 0.022915754
0002f0 74 19 53 3c 9c 7b 8b 3c 32 40 d7 bb b1 bb 32 3b
       0.0128844865 0.017026715 -0.006568932 0.0027272517
000300 33 53 f1 3b 9f f3 3b 3c 13 bb d5 bc 3c da e6 bb
       0.0073646544 0.011471658 -0.02609018 -0.0070450585
000310 0f 12 14 3d 9a a1 89 3c a1 22 c9 3c 1f ac f4 bc
       0.036150035 0.01680069 0.024552645 -0.02986723
000320 4d 31 b3 bc fd 7f ba 3b ed 08 07 3d f8 cb 90 3c
       -0.021874094 0.005691527 0.032967497 0.017675385
000330 4d 52 a5 3c 0d 44 07 bc a3 40 3b 3a db 6d 82 bb
       0.020180846 -0.008255971 0.00071431155 -0.003980381
000340 b2 e1 be 3c 23 01 57 bc 92 82 57 bc c6 1c 95 bb
       0.02330098 -0.01312283 -0.013153689 -0.004550549
000350 b5 cc 79 3c f0 a8 f0 3c 73 19 7b 3c 1d 36 03 ba
       0.01524656 0.02937743 0.015325892 -0.0005005317
000360 14 9d 01 3d 64 0a 0b bb c7 7f c3 3b 7d 8e 0d 3c
       0.031643942 -0.002121591 0.00596616 0.008639929
000370 d0 0d bf 3a 90 43 46 3d bd 38 20 bd b5 f8 ad bb
       0.001457626 0.048404276 -0.03911661 -0.005309189
000380 5d 94 28 bb 67 14 43 3d 13 15 35 3d e1 1f 9d bc
       -0.0025723197 0.04762688 0.04420955 -0.01918024
000390 a1 22 a4 3d c4 a0 08 3c fa bc 3d 3c 33 ac 69 bb
       0.080144174 0.008339111 0.0115807 -0.0035655617
0003a0 eb b6 d2 bc 30 72 07 3d 26 45 98 3d ff 15 27 3c
       -0.025721988 0.033067882 0.07435064 0.010198115
0003b0 97 74 66 bb 97 1f a6 3b 48 82 55 b9 37 f1 0d 3c
       -0.0035164708 0.005069684 -0.00020361796 0.008663467
0003c0 de da 2c 3d 6c 10 83 3b cc 62 db bc 8b 98 d1 bc
       0.042200916 0.0039997604 -0.026780508 -0.025585433
0003d0 99 dd af bb c1 77 93 bc 32 ad e2 ba f5 d5 ba bb
       -0.0053669927 -0.018001439 -0.0017294048 -0.005701775
0003e0 df 90 c9 bc ef 60 43 ba 3c 02 2f 3d df 29 88 bd
       -0.024605213 -0.0007453104 0.04272674 -0.06648611
0003f0 5a f2 b7 bc 57 88 33 bc 25 41 ed bc 0b b0 35 bc
       -0.02245443 -0.010957799 -0.028961727 -0.011089335

body.block0.conv.bias f4 [64]
000000 33 5d a2 bc d8 9e ec 3c f5 e9 96 3c d9 32 a2 bc
       -0.019819831 0.028884336 0.018422106 -0.019799637
000010 9e 76 f5 bc 09 e7 60 3d c1 7f 3e bc 72 a3 ec bc
       -0.029963788 0.054907832 -0.011627139 -0.02888653
000020 5b c5 bf 3c ae 8c 58 3d 20 81 31 bc de 74 c4 3c
       0.023409536 0.052868538 -0.010834008 0.023981508
000030 53 36 ff 3a 20 bd 89 bc 24 cd ec 3c 54 41 22 bc
       0.0019471146 -0.016813815 0.028906412 -0.009903271
000040 47 9e df bc d7 ff 22 3d 77 c6 62 3c 52 80 13 3c
       -0.027297152 0.03979477 0.013841263 0.009002762
000050 69 15 d8 3c 9a 5a 46 3d 35 51 39 3c 3b 72 88 3c
       0.026377397 0.048426248 0.011310865 0.016656032
000060 64 27 da bc 30 0e 26 3d bd de 45 3d 4d b4 10 3d
       -0.026630111 0.040540874 0.048308123 0.0353282
000070 be a8 23 bc b9 58 fb 3c 02 61 13 3b a6 fa 09 3b
       -0.009988962 0.030681955 0.002248824 0.002105394
000080 79 53 c2 bc 82 26 18 3d 95 61 1a 3d 3e 10 8c bb
       -0.023721443 0.0371461 0.037690718 -0.004274397
000090 6a 71 40 3c b5 67 5a 3c 30 0e 54 3d 10 a2 37 bc
       0.01174579 0.01333039 0.051771343 -0.011208072
0000a0 9c aa 47 bc 63 9c eb 3c 97 0f 96 3c 8b 49 a2 3a
       -0.012186673 0.028761094 0.01831798 0.0012381537
0000b0 67 f2 24 bc 92 96 5c bc ae 18 96 3c 83 06 22 3d
       -0.010067559 -0.013463633 0.018322315 0.03955699
0000c0 aa f7 28 3c ea 67 de 3c d4 6f d9 3c 23 e1 8e bc
       0.010312954 0.02714916 0.026542582 -0.017441338
0000d0 d8 0c 0b 3d da b3 37 3d 9a 3e 5e bc e7 b3 8a 3d
       0.033947796 0.044849254 -0.01356473 0.06772595
0000e0 30 d8 73 3c cc f3 73 bc 1b d9 17 3c c9 2b 41 3a
       0.014883086 -0.014889669 0.009268071 0.000736889
0000f0 97 e9 ac 3c 8a 9b 51 3d 78 32 1e 3c fb 9f 29 3d
       0.021107478 0.051173724 0.009655587 0.041412335

body.block1.conv.weight f4 [64, 64, 3, 3]
000000 88 5e 09 3c 4d 7e e9 3a ff d6 36 bc 81 b5 7e bc
       0.008384354 0.001781413 -0.0111596575 -0.015546204
000010 9b 46 10 3c 2f 6a 6e bc 5e 5d ea bc f9 94 20 3b
       0.008805896 -0.014551683 -0.028608974 0.0024502857
000020 b9 bb 8c bc ab 3e 01 3d 96 bb 05 3d 64 6f a0 3c
       -0.017179357 0.031553905 0.0326496 0.019584365
000030 fa 2e 01 3b cf f9 c5 bc 67 6c 94 bc df dc 05 3d
       0.0019711838 -0.02416697 -0.018118097 0.032681342
000040 d6 7b c7 bb 4e 99 80 bb 91 92 2d 3d c6 24 7a 3d
       -0.0060877604 -0.0039245253 0.042376105 0.061070226
000050 30 84 88 3c b0 57 4c 3d 2b 79 41 3d f9 27 c4 3b
       0.016664594 0.049888313 0.047234695 0.0059862104
000060 17 8d 09 3d cc 9a 2b 3d 62 fd b9 3c 6c 10 3f bc
       0.03358182 0.041895673 0.02270383 -0.01166163
000070 74 44 05 3c c6 d2 49 3c 14 ef 54 3c cd 1a b9 b8
       0.008133996 0.012318319 0.012996454 -8.8264795e-05
000080 83 4e 38 bd 95 e5 83 bb 63 e4 72 3c 17 db 58 bb
       -0.04499675 -0.004025171 0.014824959 -0.0033089572
000090 92 c8 15 3d a2 23 57 3b bb a1 3f 3c 08 f9 50 3c
       0.036568232 0.0032827635 0.011696274 0.012754686
0000a0 4c 3b 98 bc bc d5 5c bc 47 d3 21 3d 58 b3 1b bd
       -0.018582962 -0.013478693 0.03950813 -0.038012832
0000b0 a5 6c f2 3b 01 15 79 3b 91 7f e8 3c 94 4a 5c 3d
       0.0073982053 0.0038006904 0.02838114 0.05378206
0000c0 9f 82 dc 3c 42 21 0a 3c 71 46 94 3b 7e 3d bd 3c
       0.026917754 0.008430781 0.004524999 0.02310061
0000d0 cc dc 2b b9 68 65 fc 3c bb 31 bd 3b 30 ac 3e bc
       -0.00016390084 0.030810073 0.0057737506 -0.011637732
0000e0 60 cf c9 3a cb 45 c8 bc b0 2a 49 bc af db fd 3b
       0.0015396886 -0.024447342 -0.012278244 0.0077471356
0000f0 e2 35 a9 bc 44 93 67 bc 9d 17 ab 3a ec 59 05 bb
       -0.020655576 -0.014134232 0.0013053302 -0.0020347787
000100 cf 59 c0 3c f8 0d 46 3c 70 6f ec bb 2b c0 92 bc
       0.023480324 0.012088291 -0.007215433 -0.017913898
000110 19 9b 8a bc 76 0e 0e bd f9 aa ce bc ed 4f ca bb
       -0.01691966 -0.03468176 -0.02522801 -0.0061740787
000120 91 54 ae 3d 13 59 b8 3c cd a4 a6 3c 91 f5 51 3d
       0.085122235 0.022503411 0.020342255 0.05125958
000130 56 20 c1 3c c3 9c d6 3c a4 30 c5 3c 52 24 41 3c
       0.02357499 0.026197797 0.024071045 0.011788445
000140 19 0e c1 3c ef 46 d1 3c c0 93 1a 3d 2e 88 00 3d
       0.023566293 0.02554652 0.03773856 0.03137987
000150 4f 42 23 3d 14 3a c1 3c 0e 4d 69 3d 24 a0 4d 3c
       0.03985816 0.023587264 0.05695825 0.0125503875
000160 24 b1 6c 3c 5f d8 b5 bc c0 3e 1e bd 3d 36 9d bc
       0.0144465305 -0.0221979 -0.03863406 -0.019190902
000170 dd 6f 11 bd 43 e8 ae bc 53 04 2b ba fd 0e ad bc
       -0.03550707 -0.021350985 -0.00065237767 -0.021125311
000180 62 44 c2 bb 6c 6f 52 bd 75 1d 04 bd 4d 9a c1 3b
       -0.005928562 -0.05137579 -0.032254655 0.0059082867
000190 eb a6 55 3d 43 89 2e 3d ec 2d fe 3c b6 d2 16 3d
       0.05216114 0.04261137 0.031027757 0.036822043
0001a0 41 c4 31 3d f3 5f 1a bd ed a2 7b 3b b0 c9 4a bc
       0.043400053 -0.03768916 0.0038396672 -0.012377188
0001b0 4e bd 22 3c bf fd dc 3c 6f cf 1b 3d a0 72 7f bc
       0.009932829 0.026976464 0.03803962 -0.015591294
0001c0 cb 59 5c 3d 0d 89 d1 3c 7a ae 40 3c f7 e7 45 3c
       0.05379657 0.025578046 0.011760348 0.0120792305
0001d0 48 e7 c5 3c 87 36 4d 3c f7 95 2c 3d 75 88 d6 3b
       0.024158135 0.012525207 0.042135205 0.0065470287
0001e0 6c 92 8f ba 2a 3a 0f 3c 5d 96 d8 3c 3d f0 c8 3c
       -0.0010953671 0.008741895 0.026438886 0.024528617
0001f0 2b e5 c0 bb 2d 7a 9d bc a1 40 14 3d eb 4f 20 3d
       -0.005886694 -0.019223297 0.036194447 0.039138716
000200 84 ca a2 bc 09 52 83 3d be 9e 58 3c 79 8a c6 b9
       -0.019871958 0.06412131 0.013221441 -0.00037868673
000210 e0 b8 9f 3c 92 1f 73 bc aa 87 83 3b 8d ff f7 3c
       0.019497335 -0.01483907 0.004013975 0.030273223
000220 cb ea 16 3d cf 81 09 3d 75 d1 93 3b 15 77 17 3d
       0.03684501 0.03357106 0.004511053 0.0369788
000230 6f 4e 01 3d bf 63 14 3c 43 2a 63 bc 65 31 4d 3d
       0.03156894 0.009056984 -0.013865056 0.050095934
000240 37 5c af 3b 5f a7 04 3c d9 90 ee bc 29 65 c4 bb
       0.005351569 0.008096545 -0.029121803 -0.0059935045
000250 de 2e bd bb 05 a1 e2 bb 07 9f 10 3c ae 03 6e bc
       -0.0057734093 -0.0069161677 0.008826978 -0.0145272445
000260 25 2f 35 bd 49 89 20 bd 49 6d 15 3d 26 3f 25 bc
       -0.044234414 -0.039193425 0.036481176 -0.010085857
000270 30 a0 cb 3b 6d 48 b0 bb d3 cf 84 bb 93 5f 82 bb
       0.006214164 -0.0053797276 -0.004053095 -0.0039786785
000280 02 50 ec 3b ee 66 d2 bc eb 04 df 3c 3a 45 42 3d
       0.007211686 -0.025683846 0.027224025 0.0474293
000290 16 78 1d 3d e8 4e 4a 3b 66 32 ca 3c 99 61 55 3c
       0.0384446 0.0030869786 0.024682235 0.013023757
0002a0 3d 14 c0 bc 60 61 80 bc 2d 61 48 3c 5d 39 77 bc
       -0.02344715 -0.015671432 0.0122302 -0.01508936
0002b0 0a d8 79 3c 5f 06 82 3c f2 b3 b9 3a a6 38 df bc
       0.015249262 0.015872179 0.0014168008 -0.027248692
0002c0 89 e5 f4 3b 3d 26 f1 bc 74 cc df bc fb b7 50 3c
       0.007473652 -0.029437179 -0.02731917 0.012739177
0002d0 85 f4 dc bc 08 01 16 3a cf 69 1b bb a4 20 15 bb
       -0.026972065 0.00057221996 -0.002371419 -0.002275505
0002e0 9e cc 07 bc f2 62 57 3b cb 5f 36 3d f5 9c b4 3c
       -0.008288531 0.0032865372 0.04452495 0.0220475
0002f0 b6 a4 c4 3a 9e 96 70 3d e5 f7 ad 3c bc 96 97 3c
       0.0015002701 0.05873739 0.02123637 0.018504493
000300 cd 59 21 bc f9 21 e2 bb be 5b 6a bc a6 2d 10 bd
       -0.00984807 -0.0069010225 -0.0143041 -0.035199784
000310 a9 bd 69 bc 12 44 1b 3c 45 89 95 bc a4 23 c5 bb
       -0.01426641 0.009476678 -0.018253932 -0.0060162116
000320 84 1f b2 bb 32 aa 89 3c 4c 16 05 bd 56 23 c5 bc
       -0.005435886 0.016804788 -0.032491967 -0.024064701
000330 6b 2f 2f 3d af b8 a6 bc 7f 49 96 3c c4 22 a6 bc
       0.04276983 -0.020351736 0.018345593 -0.02028025
000340 32 5a 80 bc 8f 48 6b bb dd e1 88 3c 08 53 45 3c
       -0.015668008 -0.0035901403 0.016709263 0.012043722
000350 8e 17 45 bc a9 db c9 bb 47 76 4a bc d8 ab 5f 3a
       -0.012029542 -0.0061602187 -0.012357301 0.00085323816
000360 33 37 f8 bc b8 e9 10 bd 45 52 08 3d 25 0b e0 3a
       -0.030299759 -0.03537914 0.033281583 0.0017093165
000370 fe 59 a2 3b e1 2f 2b 3c 57 ac fb bc 01 91 38 3c
       0.0049545756 0.010448427 -0.030721826 0.01126504
000380 3d 85 94 3c 65 0b 1c 3c 31 3a f5 3c ca c9 5a 3c
       0.01812994 0.009524201 0.029934974 0.013353774
000390 06 a0 0e 3d f3 c0 74 bb ae 92 aa 3c 32 52 1c 3d
       0.03482058 -0.0037346452 0.020821895 0.038164325
0003a0 83 2e 65 3c d6 20 42 3c 8e b2 d5 bb a0 a4 40 bc
       0.01398814 0.011848649 -0.0065215295 -0.011758
0003b0 8b 92 08 3c 14 18 89 3c c6 63 3d 3d 07 41 4b 3d
       0.00833572 0.016735114 0.04623773 0.04962256
0003c0 88 a1 33 3c 53 b2 db bb b2 ec 9e 3c b3 59 1a bc
       0.010963805 -0.0067046075 0.019399974 -0.0094208
0003d0 72 72 a2 bc 1c ab 43 bc 10 86 97 b9 3a fb c2 3b
       -0.019829962 -0.011942651 -0.0002890085 0.0059503587
0003e0 c2 c1 58 bb b6 b9 51 bc d0 47 ab b7 8f e4 ac 3c
       -0.0033074473 -0.012800625 -2.0418229e-05 0.021105079
0003f0 a7 38 84 ba ba 41 23 bb 70 64 58 3d 02 dd 54 3c
       -0.0010087684 -0.0024911002 0.05283016 0.0129921455

body.block1.conv.bias f4 [64]
000000 1b 27 49 3d 93 99 77 bc 4d 5d 95 3c 45 1b aa bc
       0.04910956 -0.015112299 0.018232966 -0.020764956
000010 d1 f0 20 3c c0 3a d2 3c 8a aa 9f bb fe bd b4 bc
       0.00982304 0.02566278 -0.0048726248 -0.022063252
000020 c8 3c 25 3d 84 26 0c 3c 3b 24 47 bc 2f a6 01 bd
       0.04034117 0.008554105 -0.012154634 -0.031652626
000030 0b a5 b7 3c 5e 0a 2b 3d 6e 13 c8 3b 4c 98 48 bc
       0.022417566 0.041757934 0.006105832 -0.012243342
000040 b4 13 5e 3d b9 ca 1d bd ab 53 11 3d fc ea 42 bc
       0.05421801 -0.03852341 0.035480183 -0.011896845
000050 50 88 dd bb 75 35 25 3c 82 a3 2c 3d f1 4b 9f 3c
       -0.0067606345 0.010083546 0.04214812 0.019445391
000060 71 24 51 3d f0 e9 46 3d e9 01 8b bb 78 4e bb bc
       0.051060144 0.048562944 -0.004242171 -0.022864565
000070 30 29 3a 3c 97 93 92 3c 5e 25 fb 3c ed 7b b6 3b
       0.011362359 0.017892642 0.030657467 0.0055689723
000080 cc 4c f6 3c 2e 07 02 bc c4 dc 00 3d 97 3b 1c bc
       0.030065916 -0.007936282 0.03146054 -0.009535692
000090 a0 bb cd 3c 80 12 8c bc 15 00 39 3c 68 12 5d 3c
       0.02511388 -0.017098665 0.011291523 0.013493158
0000a0 b0 95 5b bc 3a af 15 3c 4c 3d 9a ba 06 b3 03 bd
       -0.0134023875 0.009136016 -0.0011767535 -0.032153152
0000b0 03 f5 9d bc 4a 2b a5 3c 41 18 0b bd 0c 29 54 3d
       -0.01928187 0.020162243 -0.033958677 0.051796958
0000c0 ef e5 47 bb 43 ad 1f 3d 8c aa 0c 3d 2c 5a 1e bc
       -0.0030502041 0.038983595 0.034342334 -0.009665053
0000d0 a4 db 09 bc 62 50 be 3c d4 74 07 3d 06 d7 58 3d
       -0.008414183 0.023231689 0.0330704 0.052939437
0000e0 14 6a 34 bc 92 30 e7 3c c5 df 80 bc 4b bc f0 bc
       -0.011011619 0.028221402 -0.015731702 -0.02938666
0000f0 58 c7 c9 3c c0 dd 40 3d 9f f0 ac 3b 35 8f 12 3d
       0.024631187 0.047086477 0.0052777077 0.035781104

body.block2.conv.weight f4 [64, 64, 3, 3]
000000 eb f2 c2 3a bc e9 d1 3a 35 6e a7 3c c9 4e 87 3c
       0.0014873421 0.0016015093 0.020438293 0.01651706
000010 91 c3 27 3d aa 65 a8 3c d7 fe c4 bb 30 f8 9b 3c
       0.04095799 0.02055629 -0.0060118246 0.019039243
000020 42 d0 56 bc 33 79 22 ba 2d 16 75 3c 27 18 6a bc
       -0.013111176 -0.00061978697 0.0149589 -0.014287985
000030 68 ef 54 bd ee d6 82 3c 0c 7e 93 bc 6a 07 0a 3b
       -0.051986128 0.015971627 -0.01800444 0.0021061548
000040 01 80 db bb 62 85 99 3c 6a bd f6 3c bc e0 ad 3c
       -0.006698609 0.01874036 0.030119617 0.021225326
000050 8b ed 94 3c c9 e1 a9 3b be b2 d6 3c 75 1a 0b 3d
       0.018179676 0.0051843864 0.026208278 0.03396078
000060 b6 2e f3 3c 5c 95 1e 3d 75 a5 5e 3d 7f b3 f9 bc
       0.02968536 0.03871666 0.05435701 -0.030481098
000070 59 d2 a8 3c 1a 72 5f 3c 69 a5 b5 3b 45 04 1e 3d
       0.020608114 0.013638044 0.0055434 0.03857829
000080 f3 16 11 3d a3 09 16 3d f1 9d f8 3c c5 f5 78 3d
       0.035422277 0.036630284 0.03034875 0.06078126
000090 01 e5 35 3c b7 74 03 3c 97 bc 1b bd c3 13 1d 3b
       0.011101962 0.008023432 -0.03802165 0.0023968078
0000a0 1a 7a 35 bd 39 9a d7 3b be 60 d1 3b 3a 9b a0 3b
       -0.0443059 0.006579664 0.0063897064 0.004901317
0000b0 18 f3 6e 3c 83 15 1d 3d 39 2d c5 3c b6 ac d2 3c
       0.014584325 0.038350593 0.024069415 0.02571712
0000c0 83 be 56 3d fe a8 f0 bb 97 e7 eb bb 80 6e 44 bb
       0.05242778 -0.007344364 -0.0071992385 -0.002997309
0000d0 57 6f 3f 3c 3e c9 07 bc e3 28 bd 3c 83 ee 7d 3a
       0.01168426 -0.008287726 0.023090785 0.0009686725
0000e0 12 d7 88 3c 38 c2 85 bc 41 1f cd 3c e5 a3 2c 3d
       0.016704116 -0.016327962 0.025039317 0.04214849
0000f0 f6 59 72 bc ab 38 28 3d 7f a1 4e bc 2b e3 4a 3c
       -0.014791956 0.041069668 -0.012611746 0.012383263
000100 a7 e2 8e ba 22 9f 03 bd 66 cb ad 3b 74 b9 52 3c
       -0.0010901288 -0.032134183 0.005303788 0.012861598
000110 75 1a af bc 1b e2 f4 3c 8a 38 90 3d d9 1d c1 3c
       -0.02137492 0.029892972 0.07042034 0.023573803
000120 5c 08 d1 bc 39 39 09 bd 08 c2 76 bc 76 d2 a9 3c
       -0.025516681 -0.033501837 -0.015060909 0.020730238
000130 b3 0c 09 3d 31 80 96 3c 5e 0a bf 3b ae d8 60 3d
       0.033459377 0.018371673 0.0058300933 0.05489414
000140 58 78 0f 3c f7 cf 8e bc 08 b6 53 bc 7d 81 be bc
       0.0087567195 -0.01743315 -0.012921818 -0.023255104
000150 d0 70 3e 3d c4 ac 05 3d 39 9e 99 3c 46 bf 7c 3d
       0.046494305 0.032635465 0.018752204 0.06170585
000160 ce 92 22 3d 34 19 60 3d 49 35 fc bb 90 5f 07 3d
       0.039690785 0.054711536 -0.007696782 0.03305012
000170 ef ae d4 bc 25 57 18 3c 6b b3 2b bb 44 68 8f bb
       -0.025962321 0.009298121 -0.002619947 -0.004376443
000180 48 17 2a 3d 2f fc 89 3d 16 e6 18 3d 7e 81 aa 3c
       0.04152611 0.06737553 0.037328802 0.0208137
000190 d5 b9 af bc 57 f3 12 3d b9 fb dc bc c7 8b 8c 3c
       -0.021450916 0.0358766 -0.0269755 0.017156495
0001a0 3c 78 e9 3c 07 97 28 bd fe 25 81 bc b7 67 3f 3d
       0.028499715 -0.041159656 -0.015765186 0.04672977
0001b0 9d 29 d0 bc 5e ec 7e bc 5e 2a 26 bc 54 3c 6b bc
       -0.025410468 -0.015559284 -0.010141937 -0.014357645
0001c0 02 13 f7 3c 14 4c 46 3d 90 92 0a 3d ff 93 a3 3d
       0.03016043 0.048412398 0.03383118 0.079872124
0001d0 e7 34 68 3d aa 7f 5b 3a 29 b2 0b 3d 5e 29 92 3c
       0.056691077 0.00083732104 0.034105454 0.017841991
0001e0 48 76 78 ba 96 24 29 3b b0 67 c8 3c cb e5 31 3d
       -0.00094780745 0.002580916 0.024463505 0.04343204
0001f0 e9 af 61 3d 31 c0 7d 3c 4f 67 e1 bc 9a 2d ed 3b
       0.0550994 0.0154877165 -0.027515082 0.007238102
000200 f3 27 45 bb 84 6e 0a bc f9 d2 d8 3b 0d 79 89 3d
       -0.0030083626 -0.008449201 0.006616947 0.06712542
000210 98 09 eb 3c aa 08 ba 3c bd 45 2c 3c 0a 01 7b bc
       0.028691098 0.02270921 0.010514674 -0.015320072
000220 e2 69 38 bc 10 c1 37 3c 3c 4e a5 bc ca 07 bb 3c
       -0.011255713 0.011215463 -0.020178907 0.022830863
000230 2a a9 4f 3c da 18 f6 bc 0f 6a a2 bc 5d 2a a3 bc
       0.012674609 -0.030041147 -0.019825963 -0.019917661
000240 e2 54 05 bd a9 bc 13 3d dc 77 b7 bc 62 be 4b 3d
       -0.032551654 0.036068592 -0.02239602 0.04974211
000250 cd c4 5e 3b e5 56 8e 3b 80 a2 d2 bc 45 2d 2e 3c
       0.0033991814 0.0043438547 -0.025712252 0.01063091
000260 4f 12 83 3c 2f 50 58 3c 40 2f c7 3c 10 d0 60 bb
       0.015999941 0.013202711 0.024314523 -0.0034303702
000270 6d f0 40 bd 67 96 da bc 3b 97 ec 3c 3e 60 03 bc
       -0.047104288 -0.026683046 0.028880706 -0.008018551
000280 5f 42 86 bd 00 59 57 bc b3 fc d8 3c f5 d2 03 3c
       -0.06555628 -0.013143778 0.026487684 0.008045902
000290 84 43 b3 3c fa 18 2b 3d 2d c6 93 3c 9a 80 a1 bc
       0.02188278 0.041771866 0.018038834 -0.019714642
0002a0 fa b6 28 3d 04 41 a0 3d 34 12 3b 3d 75 13 48 3c
       0.041190125 0.07824901 0.045671657 0.01221167
0002b0 4d b9 66 3b 0f 19 45 bc 14 94 aa 3a 5f c7 9c 3b
       0.0035205663 -0.0120299 0.0013014101 0.004784509
0002c0 cc 28 46 bb 0d 46 01 bc 70 30 9e 3b 47 d3 1a 3b
       -0.003023672 -0.007890237 0.0048275515 0.0023624466
0002d0 75 4a 10 3c 17 13 b1 3c f9 ba 9a bb 4c 37 1b 3c
       0.008806814 0.021615548 -0.004721996 0.009473633
0002e0 1e fc ec 3c 14 6b 29 3c ca da 41 3d 0e 4d 91 3d
       0.028928813 0.010340471 0.047327794 0.07094775
0002f0 fd 15 9b 3d 02 42 66 bc 37 28 fd bc 8d 8b 1d bc
       0.07572553 -0.014053823 -0.030902965 -0.009615791
000300 11 3a 84 3d 9f df 8a 3c 4c 24 99 3c 32 7c 8a 3d
       0.06456388 0.016952334 0.018694066 0.067619696
000310 0d 63 97 3d 44 06 12 3d 87 e7 f0 3c 0e 2b 94 b9
       0.07391939 0.035650507 0.029407276 -0.00028260838
000320 9a e6 0d 3d 09 28 29 bd 96 58 db 3b 99 2e 1d 3d
       0.034643747 -0.041297946 0.00669391 0.038374517
000330 b1 a5 f9 bb 5d 6b a5 bc 26 1c 09 bd 75 5b f1 3c
       -0.007618629 -0.020192796 -0.03347411 0.029462555
000340 b8 20 7c bc 5d da f1 3c 2d 42 4a 3d d3 2e 95 3c
       -0.01538866 0.029523069 0.049379516 0.018210804
000350 4a b4 42 3c 79 0e 41 3d 63 4e 99 3d 6a 1d 58 3d
       0.011883805 0.047132943 0.07485654 0.052762426
000360 0b bd 14 3c c1 99 26 bc 99 ad 33 bc 7a 41 b7 3b
       0.0090782745 -0.010168494 -0.010966682 0.005592522
000370 f2 0d aa 3c 38 1e 0a 3d f2 ed 85 3c 44 cb 09 bc
       0.020758603 0.033720225 0.016348813 -0.008410279
000380 ba b4 8f 3c a9 bf 93 3c f5 d4 3e bc b3 ff 79 3c
       0.017542232 0.018035727 -0.011647453 0.015258717
000390 b8 eb 8c 3c f6 e4 6e 3c 79 8e aa bc 47 78 2f 3c
       0.017202243 0.014580956 -0.02081989 0.010709829
0003a0 63 af 99 3b 20 2b f4 3c ee e2 d2 bc 4c 67 36 3a
       0.004690097 0.02980572 -0.025742974 0.00069581415
0003b0 81 f8 63 bc 33 95 68 bb de 63 af bc 81 a5 65 bc
       -0.013914228 -0.003548932 -0.021409925 -0.01401651
0003c0 00 0a a2 bc 89 b6 85 bc 04 bf 8d bb 5c 5b 26 bc
       -0.019780159 -0.016322391 -0.0043257494 -0.010153618
0003d0 81 2e 52 bc dc 3d 5f bb db 68 54 bc 9d 08 c4 3c
       -0.01282847 -0.003406397 -0.012964453 0.023929888
0003e0 ad 91 ff bc fb 6f 19 bd 3e c3 78 bd e0 5b 20 bd
       -0.031197393 -0.03746031 -0.060733072 -0.03915012
0003f0 75 2e 59 bc 24 f5 ba 3c 7d 6a 2f 3d b1 46 19 bd
       -0.013255705 0.02282197 0.042826165 -0.037420932

body.block2.conv.bias f4 [64]
000000 4f ca fa 3b e5 66 9d bc 90 04 35 3d 55 68 11 3d
       0.0076535116 -0.019214103 0.044193804 0.03549989
000010 c0 31 46 3d 71 48 9b 3d c8 16 fa 3b 9a 1e 1e 3d
       0.04838729 0.075821765 0.0076321103 0.038603403
000020 32 a6 ca bc 45 06 8e 3c 42 67 03 3d 9a 9a 5e bc
       -0.024737451 0.017336974 0.032080896 -0.013586665
000030 f4 a7 b3 3c 01 9a ec bb a7 4e 90 3c df f7 9d bc
       0.021930672 -0.007220507 0.01761563 -0.019283233
000040 35 5a eb bb 89 48 9e 3d 01 52 7e 3b c8 6b f0 3c
       -0.0071823844 0.07728679 0.0038806202 0.02934827
000050 25 56 c5 3b c3 aa 94 3c fa 12 71 3d 4f 6d 85 3c
       0.006022232 0.018147832 0.058855988 0.016287474
000060 96 9a 0b 3c a8 07 0e 3d 91 09 7f 3d 87 21 0b 3d
       0.008520743 0.03467527 0.062264983 0.03396752
000070 e3 e7 3f 3d 57 2c a6 3c 4e b5 ed 3c d1 8f e4 ba
       0.046852004 0.020284815 0.029017117 -0.001743788
000080 f3 6d 80 3b 69 68 03 3d d1 08 48 bc 91 29 df 3b
       0.003919357 0.032081995 -0.012209133 0.006810375
000090 a9 c1 b0 bb ae fb 4c 3b 94 b4 cb 3b 6f 03 ed 3c
       -0.00539418 0.0031277942 0.006216595 0.028932301
0000a0 7c 07 c4 bc 97 91 a9 bb 4b 5e cc 3b f1 4a 05 3d
       -0.02392935 -0.0051748264 0.0062368265 0.032542173
0000b0 ef 16 54 3d bb 05 a7 3d c0 4f 26 3d cc c3 2b 3d
       0.051779684 0.0815539 0.0406034 0.041934773
0000c0 53 ca 58 bb 8c 93 2d bc 5c 74 aa bc 1e 11 8f 3c
       -0.003307958 -0.01059426 -0.020807438 0.017464217
0000d0 88 29 b6 3a b7 ca 0e 3d 50 79 73 bc 07 7c 12 3d
       0.0013897875 0.034861293 -0.014860466 0.035762813
0000e0 a9 39 19 3d be 78 1f 3d 7e 93 9d 3c 3e ca 0d 3d
       0.037408505 0.038933508 0.019235369 0.0346167
0000f0 84 02 a3 bc 1e 47 03 3d fb ff a6 3c db 3d 99 bc
       -0.01989866 0.032050245 0.020385733 -0.018706253

tail.weight f4 [1, 64, 3, 3]
000000 00 c6 a1 3c 05 c7 18 3d 56 77 02 bc 69 30 12 bd
       0.019747734 0.037299175 -0.007963022 -0.0356907
000010 b2 41 d4 bc 83 ea 50 bc 28 b1 a0 bd 6a fa 8a bd
       -0.025910232 -0.012751224 -0.0784629 -0.06786044
000020 eb d8 5c bd a3 2a 83 3d e5 01 5e 3d 02 7e 73 3d
       -0.053917807 0.06404617 0.054201026 0.059446342
000030 ed e2 18 3d 3c fd 3f 3d 81 2f 98 3c 96 b5 f6 bb
       0.03732579 0.046872362 0.01857734 -0.007528971
000040 29 14 99 3c 3f dc 6e 3c 5d c4 80 b9 e9 9c 3e 3c
       0.01868637 0.014578878 -0.00024560365 0.01163409
000050 ec fe cd bc fd 7c 03 3d 83 be 48 bd a7 a9 00 bd
       -0.02514597 0.03210162 -0.04900981 -0.031411793
000060 6a b2 3a bd c5 29 51 bd 67 2e 7b bd fd 0a 4f 3d
       -0.045580305 -0.051065225 -0.06132355 0.05054759
000070 51 e8 85 3d 44 ba 1a 3d 1d 22 83 3d 0d 04 3d 3c
       0.065384515 0.037775293 0.06402991 0.01153661
000080 1a 03 45 3d 8a 75 15 3d 1f 0d f7 3b d7 9e fc 3c
       0.04809866 0.036489047 0.007539406 0.03083746
000090 44 d1 b4 3c e4 c4 21 3d b8 77 71 bc 63 05 17 bd
       0.022072442 0.03949441 -0.014738016 -0.03687037
0000a0 a5 66 18 3b 15 81 e0 bc 5d f1 59 bc 7a b8 11 bd
       0.002325454 -0.027405301 -0.013302174 -0.03557632
0000b0 95 f1 8a bd a8 dc b6 bb b1 df 31 3c 8a f7 3c 3d
       -0.06784359 -0.0055805035 0.010856555 0.04613451
0000c0 da 75 08 3d 47 d2 c4 3c 37 d0 4b 3c 9c af d2 3c
       0.033315517 0.02402605 0.012439779 0.025718503
0000d0 d4 30 78 3d 51 33 b5 3d 03 b7 dd 3c 12 41 5a 3d
       0.06059344 0.088476785 0.027064806 0.053284712
0000e0 a8 ad 06 3b 06 b4 67 3c ee 98 23 3d d4 34 16 3d
       0.0020550285 0.014142042 0.039940767 0.036671475
0000f0 83 fc ad 3d fe 5d 30 bb 69 9e 61 3d d4 96 82 3d
       0.084954284 -0.0026911492 0.055082712 0.063764244
000100 a8 18 80 3c c2 01 7d 3d 0a 78 4a 3c 30 b5 86 3c
       0.015636757 0.061769255 0.012357721 0.016443819
000110 13 7f d4 3c 1d 56 61 3c e1 75 ec 3c 5a e4 2c 3c
       0.0259395 0.013753441 0.028864803 0.01055249
000120 0c 8e 25 3d e9 c5 1c 3b 07 ae 76 3d d5 f2 ca 3c
       0.04041867 0.0023921675 0.06022456 0.024773994
000130 8c 8d ce 3c 02 66 0a 3c 04 66 14 3d 50 44 29 3d
       0.02521398 0.008447172 0.036230102 0.041324914
000140 f6 1e 8d 3c f8 56 2c 3d ed 84 4b 3d 73 a4 1c 3d
       0.017226677 0.042075127 0.049687315 0.03824277
000150 f8 57 1a 3d 92 f4 80 3d f5 5c 85 3c 2d db 16 3d
       0.03768155 0.06296648 0.016279677 0.036830116
000160 41 8f 39 3d f8 fa 26 bc 25 c7 80 3d de a8 17 3d
       0.045302633 -0.010191672 0.06287984 0.03702628
000170 67 cd 09 3d a2 83 33 3c cf 95 0d 3c 63 07 eb 3c
       0.033643153 0.010956677 0.008641674 0.028690046
000180 5c 7c 99 3c b1 85 be 3c 8d 75 54 3c 5a 03 78 3d
       0.018736057 0.023257108 0.012967479 0.06055007
000190 db 08 37 3d dc f5 69 3d 7f 9e a3 3b 32 fc 38 3d
       0.04468618 0.057119235 0.0049932594 0.045162387
0001a0 16 92 e3 3c 65 c3 02 bd ee b3 2e 3c ac 6b 21 bc
       0.02777962 -0.031924624 0.010663016 -0.009852331
0001b0 d2 c1 83 3b 14 5b 34 3d fe b5 5f 3c 1f 77 5a bc
       0.004020908 0.04403217 0.01365423 -0.013334065
0001c0 dc b4 31 ba fb c7 03 bd 16 af 80 bd b7 2f 46 bd
       -0.00067789643 -0.032173138 -0.06283395 -0.04838535
0001d0 38 08 bb bc d1 71 62 3d f1 60 4c 3d 25 98 9c 3b
       -0.022831067 0.055284325 0.049897138 0.004778879
0001e0 24 3e 24 bb 3f ca 42 3c ff a9 1a 3d 8d 30 30 3d
       -0.0025061453 0.01188904 0.037759777 0.04301505
0001f0 84 51 1b 3d 7c ed 0f 3d b7 27 62 3c dd a7 8a 3c
       0.037919536 0.035138592 0.013803414 0.016925747
000200 27 32 8e 3d 60 0e 94 3c 24 6a 23 3d 45 4a f0 3c
       0.069431596 0.01807326 0.039896145 0.02933229
000210 e2 22 0c 3d 06 4a bb 3c 51 9a 9a 3d 09 9e 47 3c
       0.034212954 0.022862446 0.07548965 0.012183675
000220 c5 6b 3b bc 60 89 e5 bc 51 76 5e bd 93 b8 99 3c
       -0.0114392685 -0.028019607 -0.054312054 0.01876477
000230 e3 af a5 bc 5e a0 6d bd 6c 4a 84 bd 6a e1 45 bd
       -0.02022547 -0.058014266 -0.06459507 -0.048310675
000240 9c 18 dc 3c a2 ea 8b bc ad 37 9d 3a 35 43 bd bc
       0.026867203 -0.017079655 0.0011994742 -0.023103336
000250 01 af 38 bd 34 5c 1b 3c ff 99 c1 bc f3 4e 34 bd
       -0.04508877 0.009482432 -0.023633001 -0.044020604
000260 b6 f4 51 bd 47 27 ca bb d4 21 e4 3c a7 3d ca 3b
       -0.051258765 -0.006169233 0.027848162 0.0061719003
000270 29 46 fb 3c 8d 4f 10 3d c4 80 d2 3b e8 94 0f 3d
       0.030673103 0.035232116 0.0064240415 0.035054117
000280 fa 40 61 3d fb d3 6c 3d ab 70 d1 bc 12 7e 13 bd
       0.054993607 0.057819348 -0.02556642 -0.036008902
000290 0b 02 20 bd 26 19 20 bd 60 2a 8f 3c c7 8d 03 3c
       -0.03906445 -0.039086483 0.01747626 0.008029408
0002a0 af c2 88 bd db 90 22 bd 80 94 3e bc 0c c7 db 3c
       -0.06677758 -0.039688926 -0.011632085 0.026828311
0002b0 0b f7 71 3d f9 46 08 3d 19 34 bc ba af 6f 4c 3d
       0.05907349 0.03327081 -0.0014358788 0.049911197
0002c0 ef 26 38 3d c1 8d 37 3d a0 3b f2 3c a9 bd 7f 3c
       0.044959005 0.04481292 0.029569447 0.015609183
0002d0 61 aa a3 3a 90 36 01 bc f3 79 e6 3c da 42 f5 bc
       0.001248669 -0.007886544 0.028134322 -0.029939104
0002e0 14 04 49 bb 6e e9 e4 bc d4 c6 0e bd b8 ea d8 bc
       -0.0030672597 -0.02794334 -0.034857586 -0.02647911
0002f0 39 91 62 bd 09 9f 98 3d 4f 6e 3b 3d 2e f8 a2 3d
       -0.055314276 0.074522085 0.045759495 0.07957493
000300 4e db bb 3c 38 6d c4 3c 2b 49 1b 3d 63 ce 2c 3d
       0.022931721 0.02397786 0.037911575 0.042189013
000310 86 47 08 3b 8c a5 65 3d 32 67 0a be 12 c7 2a be
       0.0020794584 0.05606608 -0.13515928 -0.16677502
000320 40 79 34 be 57 c7 aa bd cf 0c 16 be 85 90 fa bd
       -0.17624378 -0.08338802 -0.14653324 -0.12234596
000330 87 a3 82 bd 24 bc 9f bd 25 c6 04 be e2 38 e2 3c
       -0.063788466 -0.07799557 -0.12966211 0.027615014
000340 1f ba 75 3d 33 58 3e 3d a0 1b 12 3d e8 80 ce 3b
       0.059991952 0.046470832 0.035670877 0.006301988
000350 07 f7 66 3d 35 72 fe 3c 4c 29 4a 3d ee af f1 bb
       0.056387927 0.031060318 0.04935579 -0.007375709
000360 32 ac d5 3c 8b e4 89 bc 18 e1 04 3c c2 f6 f5 bc
       0.026083086 -0.01683261 0.008110307 -0.03002489
000370 6b c4 2d bd f4 26 9f bb e4 13 42 bd b2 cd 0b bd
       -0.042423647 -0.0048569385 -0.04738225 -0.034131713
000380 65 a7 b3 bd 92 d8 c3 3d 5f ef 65 3b 5e 78 a2 3d
       -0.08772162 0.09562792 0.0035085303 0.079331145
000390 0b d5 db 3b 4f 12 40 3d 96 8a ef 3c 11 59 42 bc
       0.0067087463 0.04689246 0.029240888 -0.011862055
0003a0 5b a6 ca bc 36 bd cd 3c 38 3c 4a bd b9 4b 24 bd
       -0.024737528 0.025114637 -0.049373835 -0.040111277
0003b0 33 a4 6e bd 1c 16 34 bd e9 61 48 bd 42 1f 5b bc
       -0.05826206 -0.043966398 -0.0489215 -0.013374152
0003c0 8d 9f 86 bd de 04 7c bd af c4 86 bd 6c 58 18 3d
       -0.06573401 -0.06152808 -0.06580483 0.0371937
0003d0 ab 97 8f 3c 27 eb c7 3b 34 18 be bc ca 66 ae bc
       0.017528376 0.0061010304 -0.0232049 -0.021289248
0003e0 3c 84 ab bc 56 12 bb bc b3 24 83 bd 1e 57 68 bd
       -0.020937078 -0.022835892 -0.06403484 -0.056723706
0003f0 b1 b6 b6 bd 90 db a5 bc 46 2f 10 ba 1b aa cf bc
       -0.08921564 -0.020246297 -0.00055002084 -0.025349667
