TrainedModels/volcano/2020_08_17_13_44_33_video_train_depth_3_lr_scale_0.01_act_lrelu_0.05/1/netD_a.pth (torch_old, 454648 bytes, 9 tensors)

head.conv.weight f4 [64, 3, 3, 3]
0	0x3d4ac5de	0.049505107
1	0xbc9b49cf	-0.018956093
2	0x3d18f40e	0.037342124
3	0x3c90be9c	0.017669015
4	0xbc1d1631	-0.00958781
5	0x3bc2aa66	0.0059407232
6	0xbcfd5811	-0.030925782
7	0x3b0306aa	0.0019992986
8	0x3c5558d6	0.013021668
9	0x3d84fce6	0.06493549
10	0xbc1fd1b5	-0.009754588
11	0x3be8e8fa	0.007107851
12	0xbbf8415e	-0.0075761518
13	0xbd3bb888	-0.04583028
14	0xbcb57212	-0.02214912
15	0xbd13476a	-0.035956778
16	0xbcbc29b6	-0.022969108
17	0x3d174676	0.03693243
18	0x3d844c06	0.06459813
19	0xbc4d2c57	-0.0125227785
20	0xbc05655a	-0.00814184
21	0x3c34fc64	0.011046503
22	0xbd01dc24	-0.031704083
23	0xbccfc51b	-0.025362542
24	0xbc4da469	-0.0125514055
25	0x3927d1fe	0.00016004589
26	0x3d2e9790	0.04262501
27	0x3cc477fb	0.023982992
28	0x3d1d35cb	0.03838138
29	0xbc9a7e09	-0.018858926
30	0x3cdf1a8b	0.027234336
31	0xbc1d97fe	-0.009618757
32	0xbbb98ca6	-0.0056625186
33	0xbda79580	-0.08182812
34	0xbc064ae2	-0.008196564
35	0x3d026008	0.031829864
36	0x3d000d39	0.03126261
37	0x3d859ac4	0.0652366
38	0x3bb1928b	0.0054190806
39	0xbc1d0c94	-0.009585518
40	0xbbe864f7	-0.007092114
41	0x3c457d51	0.012053804
42	0xbda230f0	-0.0791949
43	0xbc8a12a0	-0.016854584
44	0x3d1a30c2	0.037644155
45	0x3c4c061d	0.012452629
46	0x3d291629	0.0412809
47	0x3a5dfd10	0.000846819
48	0x3cf250bd	0.029579515
49	0xbc192b0d	-0.009348643
50	0xbb66245d	-0.003511689
51	0xbd4c4f6a	-0.049880423
52	0xbc90b635	-0.017665008
53	0x3c998178	0.018738493
54	0x3d4d474c	0.050116822
55	0x3b44dff1	0.0030040706
56	0xbc2f74d9	-0.010709011
57	0x3a50794e	0.0007952646
58	0x3c7aa74e	0.015298678
59	0x3c328133	0.010895061
60	0x3c8c0ab1	0.017094942
61	0xbc358e54	-0.011081297
62	0x3ce86530	0.028368562
63	0xbc7b57ff	-0.015340804
64	0xbc143d77	-0.0090478575
65	0xbd1eb7d8	-0.038749546
66	0xbca9fe0d	-0.020751024
67	0xbc005134	-0.00783186
68	0x3c59981b	0.013280894
69	0x3c407738	0.011747174
70	0xbc770e27	-0.015079058
71	0x3c439ee3	0.011939737
72	0x3d3f4bf4	0.046703294
73	0x3c40f13b	0.011776264
74	0xbd1ec6bd	-0.03876375
75	0x3c353499	0.011059904
76	0xbcd1b9ee	-0.025601353
77	0x3bf02b41	0.007329375
78	0x3d50b9b6	0.050958358
79	0xbc9c1bec	-0.019056283
80	0xbb80819d	-0.003921701
81	0x3c84456a	0.01614638
82	0x3db742d2	0.08948292
83	0x3e03c554	0.12868243
84	0xbcc8f33a	-0.024530042
85	0xbb5e5263	-0.0033923618
86	0x3d06fd64	0.032956496
87	0xbdf2eda7	-0.11861735
88	0xbdb67e47	-0.08910804
89	0x3b57c55f	0.0032924039
90	0x3cf8513f	0.030312179
91	0x3d9f2c66	0.0777214
92	0x3e0a593a	0.135106
93	0xbd15d449	-0.036579404
94	0x3b617cd6	0.0034406683
95	0x3c932523	0.017962044
96	0xbe0f4d6e	-0.13994381
97	0xbd9056e5	-0.07047824
98	0xbc4bf461	-0.012448401
99	0x3bea1244	0.0071432907
100	0x3da70243	0.08154728
101	0x3e0d0e5f	0.13775013
102	0xbbf1ae77	-0.007375534
103	0xba8e7f9f	-0.0010871774
104	0x3c6026e1	0.013681144
105	0xbe115aaa	-0.14194742
106	0xbd89dea6	-0.0673192
107	0xbb187157	-0.0023260915
108	0xbd188697	-0.03723773
109	0xbbb0dd35	-0.0053974637
110	0xbd87b553	-0.06626382
111	0xb98e59a2	-0.00027151132
112	0x3c97757f	0.018488644
113	0xbb155784	-0.002278776
114	0x3c9dd3b6	0.01926599
115	0xbce2494f	-0.027622847
116	0x3d1bdb57	0.038050976
117	0xbcb3aa03	-0.021931654
118	0x3b9fefa0	0.0048808604
119	0xbd932b4a	-0.07185991
120	0xbc289f30	-0.0102918595
121	0xbc4e454f	-0.012589767
122	0xbbf70039	-0.0075378683
123	0x3d486da7	0.048932698
124	0xbd017d68	-0.031613737
125	0x3d692573	0.05692048
126	0xbc87cc59	-0.016576933
127	0x3bc8c632	0.0061271423
128	0xbcf21f4f	-0.029555945
129	0x3d01c20a	0.03167919
130	0xbc57b58e	-0.013165845
131	0x3c828e8e	0.015937116
132	0x3d8272be	0.063695416
133	0xbc2a1112	-0.010380046
134	0x3be5a0e9	0.0070077074
135	0x3bf3e638	0.0074432157
136	0x3b7ba03f	0.0038395075
137	0xbd935435	-0.071937956
138	0x3d3d6c34	0.04624577
139	0x3cf08fff	0.029365538
140	0x3aa87b54	0.0012854137
141	0x3d3772a7	0.044787075
142	0x3cfcb19e	0.030846413
143	0x3c96125f	0.018319307
144	0x3bbac610	0.0056998804
145	0x3bc40d1f	0.0059830095
146	0xbd5c6823	-0.05381025
147	0xbc0f052a	-0.008729259
148	0x3bf5203e	0.00748065
149	0x3c7c6f53	0.015407401
150	0x3b3c1a13	0.0028702065
151	0xbd8b8b2b	-0.068136536
152	0xbac4a478	-0.0015002629
153	0xbd035a81	-0.032068733
154	0xbceb2b6f	-0.028707234
155	0xbc940b38	-0.018071756
156	0xbcc32d10	-0.023825198
157	0xbca1d962	-0.019756977
158	0x3cdd255d	0.026995355
159	0x3d0a6e7d	0.033796776
160	0xbc579460	-0.013157934
161	0x3bec67b6	0.0072145117
162	0xbce1ab2f	-0.027547447
163	0xbd3023f7	-0.04300305
164	0xbd014719	-0.031561945
165	0xbc694e15	-0.014239808
166	0x3ca820c0	0.020523429
167	0xbca44d39	-0.020056354
168	0x3d5a0222	0.05322469
169	0x3d04bc5a	0.03240619
170	0x3cd4709a	0.025932599
171	0xbd821d99	-0.063533016
172	0xbc59e342	-0.013298811
173	0xbd42c6a2	-0.047552712
174	0x3c426fad	0.011867446
175	0x3b0fdfb6	0.002195341
176	0xbb4a866e	-0.003090288
177	0x3d90773b	0.070539914
178	0x3a20d034	0.00061345403
179	0x3c17d0f2	0.009266125
180	0xbd4bf34f	-0.049792584
181	0x3a18d01d	0.0005829351
182	0xbd81390a	-0.063097075
183	0xbc09cfa9	-0.008411326
184	0xbd00f57f	-0.031484123
185	0xba54eb5a	-0.00081222283
186	0x3da2d313	0.079504155
187	0xbcb0f1c2	-0.021599654
188	0x3cb7939d	0.022409255
189	0x3bc39e0b	0.005969768
190	0xbce93e50	-0.028472096
191	0xbdaac01d	-0.08337424
192	0xbc2c8fd5	-0.010532339
193	0xbcb674fc	-0.02227258
194	0x3bf30988	0.0074169077
195	0xbcd125b3	-0.025530672
196	0x3cbb48bf	0.022861836
197	0x3e1495a3	0.14510207
198	0x3c1e9739	0.009679609
199	0xbd6f2816	-0.05838784
200	0xbd94f633	-0.07273521
201	0xbcdf00ed	-0.027222121
202	0xbd0fad57	-0.03507742
203	0xbc45ba09	-0.01206828
204	0xbbd088e7	-0.0063639763
205	0x3d500c12	0.05079276
206	0x3e09449c	0.13405079
207	0xbc348c55	-0.011019786
208	0xbdb26d53	-0.08712258
209	0xbd2f0e2b	-0.04273812
210	0x3ba93b75	0.0051645585
211	0xbcad77a6	-0.021175217
212	0x3cbd9031	0.023140045
213	0xbd0a76c6	-0.033804677
214	0x3d187f06	0.037230514
215	0x3e209e1f	0.15685318
216	0x3d69ec83	0.05711032
217	0xbc513535	-0.012769033
218	0xbbb67702	-0.005568386
219	0x3d227a51	0.03966743
220	0xbb587ff9	-0.0033035262
221	0x3cc9fcfb	0.024656763
222	0x3bf78d5d	0.0075546936
223	0xbd089e90	-0.033354342
224	0xbbdda1bb	-0.0067636645
225	0x3d864282	0.06555654
226	0x3bafe693	0.0053680628
227	0x3cbd9b0d	0.023145223
228	0xbc6469aa	-0.013941208
229	0xbc944bd6	-0.018102568
230	0x3be234f9	0.0069032875
231	0x3ca507a6	0.020145249
232	0xbd70d75f	-0.058799144
233	0xbd1af834	-0.03783436
234	0x3d562b7c	0.052287564
235	0xbceeab58	-0.029134437
236	0x3d0ea928	0.03482929
237	0x39acef7d	0.0003298483
238	0xbd36a427	-0.04459014
239	0x3bc88dd1	0.0061204215
240	0x3d2f5812	0.0428086
241	0xbcb9f912	-0.022701774
242	0xbd82d18e	-0.06387626
243	0xbdc9760b	-0.09836968
244	0xbce11df3	-0.027480101
245	0xbd6bc8d6	-0.05756458
246	0x3d2348b0	0.039864242
247	0x3d351bac	0.044215843
248	0xba8fde31	-0.0010976252
249	0x3c74208d	0.014900339
250	0x3c77343c	0.015088137
251	0xbc576e00	-0.013148785
252	0xbda1cd24	-0.079004556
253	0xbd029b4b	-0.03188638
254	0xbd91460c	-0.070934385
255	0x3d1e3de8	0.038633257

head.conv.bias f4 [64]
0	0x3d803b54	0.06261316
1	0x3d9c0a8c	0.07619199
2	0x3dd2c829	0.10292084
3	0x397d3ce6	0.00024150647
4	0x3e6c6bb5	0.23087962
5	0x3e231ce4	0.1592899
6	0x3e054e6e	0.130182
7	0xbb015c37	-0.0019738802
8	0x3e47247e	0.19447514
9	0x3dfd6b8d	0.12374029
10	0x3d946f23	0.0724776
11	0x3e46fda3	0.19432692
12	0x3d927ca7	0.07152682
13	0x3e004eca	0.12530056
14	0x3db855fc	0.09000775
15	0x3a3aee2d	0.0007130828
16	0x3dbddea7	0.09270983
17	0x3d678c8b	0.056530517
18	0x3d19ee89	0.037581
19	0xbb79d4d9	-0.0038121252
20	0x3d7d2e19	0.06181154
21	0x3e5a2e56	0.21306738
22	0x3d02e814	0.03195961
23	0x399722e6	0.00028826966
24	0xbb08f077	-0.0020895281
25	0x3a477631	0.00076088595
26	0x3cd43951	0.025906237
27	0x3c9b0b60	0.018926322
28	0x3e9cd55a	0.30631524
29	0xb8692698	-5.5587472e-05
30	0x3e8f8292	0.28029305
31	0x3dadd163	0.08487203
32	0x3b346faa	0.0027532377
33	0xbb13f84e	-0.002257842
34	0x3cc15c65	0.023603627
35	0x3d82ce2e	0.06386982
36	0x3da7f4cb	0.082009874
37	0x3da2a199	0.079409786
38	0xbeadd6eb	-0.33953032
39	0x3da49a84	0.08037284
40	0xbace15af	-0.0015723015
41	0x37bdad17	2.2611157e-05
42	0x3e9529bb	0.291334
43	0x3e8eae7c	0.27867496
44	0x3ea2c58a	0.31791335
45	0xbeb62468	-0.3557465
46	0xbe5bb1ee	-0.21454594
47	0x3e676b3e	0.22599503
48	0x3e69237d	0.22767444
49	0x3d975c77	0.07390683
50	0xb9d65a73	-0.0004088465
51	0xbb2ad23a	-0.0026065246
52	0x3eb136ca	0.34612113
53	0x39bbdcee	0.00035832025
54	0x3e4cd4d4	0.20003062
55	0x3cef6765	0.029224107
56	0x39c9f5e7	0.0003852092
57	0x3eae0a03	0.33992013
58	0x3c8170c9	0.01580085
59	0x3dbc91ff	0.09207534
60	0x3e36a476	0.17836174
61	0x3d965fa0	0.07342458
62	0x3d76cdfc	0.060255036
63	0x3e9c2bdf	0.3050222

body.block0.conv.weight f4 [64, 64, 3, 3]
0	0x3c58d056	0.013233265
1	0xbd5ffd3b	-0.05468486
2	0x3ce0603b	0.027389636
3	0xbd11e7fe	-0.035621636
4	0xbc98b40c	-0.01864054
5	0xbca773a8	-0.020440891
6	0x3d26433b	0.04059146
7	0x3ce4f1ee	0.027947392
8	0x3c9b83a9	0.018983679
9	0xbc4d13c3	-0.012516919
10	0xbc4065c5	-0.011743014
11	0xbbe8a189	-0.0070993346
12	0xbc39e8f9	-0.011347049
13	0xbd4193b8	-0.047260016
14	0xbd25d14e	-0.04048281
15	0x3b9b07aa	0.0047311382
16	0xbd366a7a	-0.044535138
17	0xbdf1a1dc	-0.1179845
18	0x3d851e12	0.06499876
19	0xbbe7d752	-0.0070752287
20	0xbc08260c	-0.008309852
21	0x3c9d76d0	0.019221693
22	0xbbb41715	-0.0054959157
23	0xbd2e826b	-0.042604845
24	0x3d3cb1df	0.04606807
25	0x3c49aff6	0.012310019
26	0xbd4a7f49	-0.049437795
27	0xbd836f59	-0.06417722
28	0x3cd196e1	0.02558464
29	0xbda7a70f	-0.08186161
30	0xbd7ee768	-0.062232405
31	0xbb958a14	-0.0045635793
32	0xbc69dffb	-0.0142745925
33	0xbdb77f3b	-0.08959814
34	0xbd83d709	-0.06437499
35	0xbcf0e1e6	-0.029404592
36	0xbb85fdfe	-0.004089116
37	0xbccee6d3	-0.02525655
38	0x3ce10586	0.027468454
39	0x3d51400f	0.05108648
40	0xbc7e7752	-0.015531378
41	0x3c2c9cc0	0.010535419
42	0x3d5aa84e	0.053383164
43	0x3c842ada	0.016133714
44	0x3cd8186f	0.026378838
45	0xbbcee7d0	-0.0063142553
46	0x3d2a1577	0.041524377
47	0x3d022c77	0.031780686
48	0x3c0ac80b	0.0084705455
49	0xbcb923e1	-0.022600116
50	0x3cc11989	0.023571746
51	0xbc3ce201	-0.011528493
52	0xbc761f1e	-0.015022067
53	0xbd3aefa0	-0.04563868
54	0x3dd16593	0.10224452
55	0x3e030953	0.12796526
56	0x3d453439	0.048145507
57	0x3cdd0676	0.02698062
58	0x3d72765d	0.05919491
59	0x3d4b1b18	0.049586385
60	0xbc211a4e	-0.009832932
61	0xbbfdecb8	-0.0077491663
62	0x3dc9b20f	0.09848415
63	0x3caec984	0.021336325
64	0xbcf7da4a	-0.030255456
65	0x3ce609a2	0.028080765
66	0xbc4764af	-0.012170001
67	0xbcf014f6	-0.02930687
68	0xbd8c6ca3	-0.06856658
69	0x3d55a58e	0.05215984
70	0x3c203f30	0.00978069
71	0xbdc47672	-0.09592904
72	0x3d829411	0.06375898
73	0x3bd84eb0	0.006601177
74	0xbcadb322	-0.021203581
75	0x3cc3144b	0.023813387
76	0x3c037309	0.008023032
77	0xbc08a35d	-0.00833973
78	0x3d5fabe1	0.054607276
79	0xbc02328d	-0.007946623
80	0x3cc80855	0.024418036
81	0x3b76ddb9	0.0037668778
82	0x3daf9b6e	0.08574568
83	0x3d8f0793	0.069838665
84	0x3c75af7a	0.01499545
85	0x3cb95d90	0.022627622
86	0x3b4ce705	0.0031265628
87	0xbcffb38a	-0.03121354
88	0x3cb4d140	0.022072434
89	0x3dbfccd1	0.093652375
90	0x3d06539a	0.032794572
91	0xbb96211a	-0.0045815827
92	0xbc1205f4	-0.008912552
93	0xbc4a60fd	-0.012352225
94	0x3ce4c9f6	0.027928334
95	0x3d04f1ff	0.032457348
96	0xbbbebd10	-0.005820878
97	0x3ce10441	0.027467849
98	0xbcdc56b2	-0.026896808
99	0xbd0534cb	-0.03252105
100	0xbb3325fc	-0.0027335873
101	0x3dc02702	0.0938244
102	0xbcaf07e7	-0.021366073
103	0xbcaced8a	-0.021109361
104	0x3c4bed11	0.012446658
105	0x3a40f032	0.00073600106
106	0xbb4510c0	-0.0030069798
107	0x3be61717	0.0070217955
108	0x3bbe9687	0.005816284
109	0xbc7a6c0d	-0.01528455
110	0xbca4e3a7	-0.020128084
111	0x3c96ddea	0.018416364
112	0xbce07961	-0.027401628
113	0x3c4f5e09	0.012656697
114	0x3d25d9da	0.040490963
115	0xbda40cc1	-0.08010245
116	0xbcfaee01	-0.030631067
117	0xbd38b1da	-0.045091487
118	0xbcecb206	-0.028893482
119	0x3cbd846a	0.023134429
120	0x3d0bac6e	0.03409999
121	0xbbc9483f	-0.0061426456
122	0x3d6ee774	0.0583262
123	0x3d51dc6e	0.05123561
124	0x3c9c9732	0.019115064
125	0x3cec80f2	0.02887008
126	0xbd5a10ff	-0.053238865
127	0xbcda7255	-0.026665846
128	0xbb2d7114	-0.0026465105
129	0xbb151b54	-0.0022751885
130	0x3aea7941	0.001788892
131	0x3ad5572e	0.0016276592
132	0x3cbe8fbf	0.023261903
133	0x3bf57b4d	0.0074915052
134	0x3c6503b9	0.013977938
135	0xbd1e4069	-0.038635645
136	0xbc9ffe1a	-0.019530345
137	0xbdd64d46	-0.104639575
138	0xbceeaa24	-0.029133864
139	0x3d333290	0.043749392
140	0xbd3e90be	-0.046524756
141	0x3c6e0687	0.014527923
142	0xbd2dde27	-0.04244819
143	0xbd59ed82	-0.05320502
144	0xbbf87c94	-0.0075832102
145	0x3c9825eb	0.018572768
146	0xbc8fa9c4	-0.017537005
147	0xbc0a7dbe	-0.008452831
148	0x3cb75aab	0.022382101
149	0xbc33e70d	-0.01098038
150	0x3d0f4db6	0.03498622
151	0xb92d4018	-0.00016522442
152	0x3ce56b79	0.028005349
153	0xbc8d60df	-0.017258106
154	0x3c1efdae	0.009704037
155	0xbd5b1cee	-0.053494386
156	0xbcec61e5	-0.028855274
157	0x3d113418	0.03545007
158	0xbc3b5313	-0.011433381
159	0xbd028fb3	-0.031875324
160	0xbd81c1b4	-0.06335774
161	0xbbc829e4	-0.0061085094
162	0x3d3f610a	0.046723403
163	0xbd0a2a6a	-0.033731855
164	0xbd97e3fc	-0.074165314
165	0xb9bf777d	-0.00036519385
166	0xbcfb4178	-0.030670866
167	0xbcdf9c4b	-0.027296206
168	0xba763e4c	-0.0009393438
169	0xbcde11c9	-0.02710809
170	0xbccc239a	-0.02491932
171	0xbc6917f3	-0.014226901
172	0xbc293cf2	-0.010329472
173	0x3da7086c	0.08155903
174	0xbce16abf	-0.02751672
175	0x3b1d9b3e	0.002404883
176	0x3cb7bb28	0.02242811
177	0xbc9339f6	-0.017971974
178	0x3c98e35e	0.018663105
179	0x3d8661f5	0.065616526
180	0x3e0beda5	0.13664873
181	0x3d80d275	0.062901415
182	0x3dbabf91	0.0911857
183	0x3db54bd0	0.08852351
184	0x3cb6447f	0.022249458
185	0x3d4c6e87	0.049910095
186	0x3e3f568f	0.18685363
187	0x3a6f286d	0.00091231504
188	0xbc477767	-0.012174464
189	0x3d229df8	0.039701432
190	0xbd320eaf	-0.043471035
191	0x3c85283d	0.016254539
192	0x3d03e18a	0.032197513
193	0xbd86cb0f	-0.06581699
194	0x3c418d9d	0.011813548
195	0xbc5c913b	-0.01346236
196	0xbcbfdcf2	-0.023420785
197	0xbce504a3	-0.027956313
198	0x3de544f2	0.11194791
199	0x3d1e81b5	0.038697917
200	0xbd92b0ad	-0.071626045
201	0x3dea5e36	0.114437506
202	0xbd2018b1	-0.039086048
203	0xbdda67da	-0.10664339
204	0xbcf98b59	-0.030461954
205	0xbde4938e	-0.11160956
206	0x3b23e6df	0.0025009436
207	0x3dbcfd6b	0.09228023
208	0xbd491c3b	-0.04909919
209	0xbd935fdc	-0.07196018
210	0xbbcdf99c	-0.0062858593
211	0xbcc1d6ac	-0.023661934
212	0xbd47379a	-0.04863701
213	0xbd856afb	-0.065145455
214	0xbdaf0391	-0.08545602
215	0x3a954c26	0.0011390492
216	0xbd311ad4	-0.043238476
217	0x3c88e2a1	0.016709628
218	0x3d516bcc	0.051128194
219	0x3bdc0c6c	0.006715348
220	0x3cd8f384	0.026483305
221	0x3dc25ae7	0.094899945
222	0xbc484bbe	-0.01222509
223	0x3dd7d8b9	0.105393834
224	0xbbe51e2a	-0.006992121
225	0x3d962905	0.073320426
226	0xbd94cabf	-0.07265233
227	0x3c4273e8	0.0118684545
228	0x3bf9b8cd	0.007620907
229	0xbda615bb	-0.081096135
230	0x3d8f6a40	0.070026875
231	0x3da0d70d	0.07853518
232	0xbcbf1579	-0.023325669
233	0xbceb7019	-0.028739976
234	0xbe05e6bb	-0.13076298
235	0xbcb0f97a	-0.021603335
236	0xbd7b0a1f	-0.06128895
237	0xbdd9f361	-0.10642124
238	0x3a400d07	0.000732616
239	0xbd87f9c8	-0.06639439
240	0xbd8326b1	-0.06403864
241	0xbd7677b9	-0.06017277
242	0xbd4d09c5	-0.050058145
243	0x3c7b3647	0.015332765
244	0xbc3134e5	-0.010815834
245	0xbdcc98ca	-0.0999008
246	0x3c97f6a4	0.018550225
247	0xbd3a652a	-0.045506634
248	0xbd9c3eef	-0.07629191
249	0x3c5d903c	0.013523158
250	0xbd83dd28	-0.064386666
251	0xbd35073f	-0.044196364
252	0xbe3eca3a	-0.18631831
253	0xbdc9cece	-0.09853898
254	0xbd801fc5	-0.062560596
255	0xbe362060	-0.17785788

body.block0.conv.bias f4 [64]
0	0x3e039d86	0.12853059
1	0xbd590610	-0.052984297
2	0x3d12563b	0.035726767
3	0xbc6a64db	-0.014306272
4	0x3d4ab025	0.04948439
5	0x3dc6e038	0.09710735
6	0x3bc19a40	0.0059082806
7	0x3db09464	0.08622053
8	0x3d18db25	0.037318368
9	0x3d4f207b	0.050568085
10	0x3e454a73	0.19266681
11	0x3e19f245	0.15033825
12	0x3e5651a0	0.20929575
13	0x3d301b80	0.042994976
14	0x3d2468cc	0.040139005
15	0xbb836869	-0.0040102494
16	0x3ddc631b	0.1076109
17	0x3cf4a62c	0.029864393
18	0x3e39f995	0.18161614
19	0x3d01705b	0.03160129
20	0x3e221616	0.15828738
21	0x3c953c16	0.018217128
22	0x3e092fd3	0.1339715
23	0x3d83f740	0.064436436
24	0x3d3d3a68	0.04619828
25	0x3d67c2e6	0.056582354
26	0x3e026c2c	0.12736577
27	0xbd0c855f	-0.03430688
28	0xbcced54c	-0.025248192
29	0xbc2d953f	-0.010594665
30	0x3e121bba	0.1426839
31	0x3ca8a672	0.02058718
32	0xbb8a2e0b	-0.0042169145
33	0x3dbfe282	0.09369375
34	0x3cfcf0e3	0.030876582
35	0xb9b6fe3f	-0.00034903173
36	0x3c990f3e	0.018684026
37	0x3d9a29b6	0.07527487
38	0x3d4473f6	0.04796215
39	0x3d2b7102	0.04185582
40	0x3db6f691	0.089337476
41	0x3de62466	0.11237411
42	0x3dda06d8	0.106458366
43	0x3e4f6b5c	0.20255798
44	0x3cb92473	0.022600388
45	0x3dbc8c2a	0.09206422
46	0x3dd40f9d	0.103545405
47	0x3e00a932	0.12564543
48	0x3e077ae9	0.1323048
49	0x3e14715b	0.14496367
50	0x3cfb9f28	0.03071554
51	0x3af859d7	0.0018947673
52	0x3d268e3d	0.040662993
53	0x3dc606e3	0.09669282
54	0x3d462613	0.048376154
55	0x3e14ffc8	0.14550698
56	0x3d3006ab	0.04297511
57	0x3df3a757	0.11897152
58	0x3e3d288c	0.18472499
59	0x3e0ee55c	0.13954681
60	0x3d6d9971	0.05800766
61	0x3e19a354	0.15003711
62	0x3d978469	0.07398302
63	0x3e079690	0.13241029

body.block1.conv.weight f4 [64, 64, 3, 3]
0	0xbd1e6470	-0.038670003
1	0xbc23bff9	-0.0099945
2	0x3bc77309	0.0060867113
3	0x3c0b5463	0.008504006
4	0x3d8cae72	0.0686921
5	0x3b335229	0.0027362204
6	0xbd5b7beb	-0.053584974
7	0x3cdc8dab	0.026923021
8	0x3dd5e4d6	0.104440376
9	0x3db26d8f	0.08712303
10	0x3c0251e3	0.007954094
11	0xbca20baf	-0.019780962
12	0x3d998945	0.07496885
13	0xbcac44c0	-0.021028876
14	0xbd47a007	-0.0487366
15	0x3d53bf08	0.051695853
16	0xbd6e1774	-0.058127835
17	0xbd4249aa	-0.047433533
18	0x3b0708c3	0.0020604588
19	0xbcc7f056	-0.024406593
20	0x3d1720da	0.036896564
21	0x3c23a555	0.009988149
22	0xbc81c632	-0.015841577
23	0x3d82aa6e	0.06380163
24	0x3cf669e8	0.030079797
25	0x3cdc2531	0.026873203
26	0x3d2167ce	0.039405636
27	0xbda4d14b	-0.08047732
28	0x3c4603cd	0.012085867
29	0x3c91fde1	0.017821254
30	0x3d33f17a	0.043931462
31	0xbd18d69a	-0.037314035
32	0xbd86185e	-0.065476164
33	0x3e1b1241	0.15143682
34	0xbdb0d265	-0.086338796
35	0xbe5d9fb2	-0.2164295
36	0xbd389da8	-0.045072228
37	0xbcb8e72c	-0.022571169
38	0x3deb4516	0.114877865
39	0xbd1410e5	-0.036148924
40	0xbd1c811a	-0.03820906
41	0x3ded83e2	0.1159742
42	0xbd1f8d77	-0.03895327
43	0xbd3f1cbc	-0.046658263
44	0x3e351603	0.17684178
45	0xbdb1f972	-0.08690156
46	0xbd54c84e	-0.051948838
47	0x3d531874	0.051536992
48	0xbc867b8f	-0.01641634
49	0x3cb82c14	0.022481956
50	0x3d993a72	0.07481851
51	0x3c4480dd	0.011993614
52	0x3caee504	0.021349438
53	0x3d09964e	0.033590607
54	0x3d9c3827	0.07627898
55	0x3d9583d3	0.07300534
56	0x3cb643e7	0.022249175
57	0xbc205b62	-0.009787412
58	0x3c2f47f8	0.010698311
59	0xbd48747e	-0.04893922
60	0xbc937e68	-0.018004611
61	0x3cd029b5	0.025410512
62	0xbd47b89e	-0.04876005
63	0x3cf55f5f	0.029952703
64	0x3c7fb9be	0.015608249
65	0xbd3ec9c6	-0.046579145
66	0xbd4054f2	-0.04695601
67	0x3d701ff2	0.058624215
68	0xbd1bdccd	-0.03805237
69	0xbd91e982	-0.07124616
70	0x3d05a54d	0.032628346
71	0x3afdaf64	0.0019354639
72	0x3d2cf0c0	0.042221785
73	0xbd8fb166	-0.07016258
74	0x3c282fbf	0.01026529
75	0x3cba61cf	0.022751717
76	0xbd2a134a	-0.0415223
77	0x3b126ac9	0.002234148
78	0xbb49909f	-0.0030756367
79	0x3d4682ea	0.048464693
80	0x3cedb56a	0.029017169
81	0xbcb79f31	-0.022414776
82	0x3c5983b7	0.013276032
83	0x3cddcb84	0.027074583
84	0xbc4a0f52	-0.012332754
85	0x3cac69da	0.021046568
86	0x3db66376	0.089056894
87	0x3b1af2d5	0.0023643274
88	0x3d143ca3	0.03619064
89	0x3dd30a09	0.103046484
90	0xbd09394b	-0.033501904
91	0xbd22d3b9	-0.039752696
92	0x3cf278e1	0.029598655
93	0xbda882b9	-0.08228058
94	0x3cfd6944	0.030933984
95	0x3e0a2959	0.13492335
96	0xbdcb883d	-0.09938095
97	0x3cf768b6	0.030201297
98	0x3e525aa6	0.20542392
99	0xbd2e4937	-0.042550292
100	0xbce09941	-0.027416827
101	0xbd8efe4d	-0.06982098
102	0xbbae5c6c	-0.005321076
103	0x3d163924	0.036675587
104	0xbd338e1c	-0.043836698
105	0xbd5b2bef	-0.053508695
106	0x3ce9c10d	0.028534437
107	0x3e019d01	0.12657548
108	0x3cf54478	0.029939875
109	0x3b965ccd	0.0045886994
110	0x3be5cee0	0.007013187
111	0xbda61a79	-0.08110518
112	0xbc4be566	-0.01244483
113	0xbd477fef	-0.04870599
114	0xbd2472a3	-0.04014839
115	0x3d1364ab	0.035984676
116	0x3d3cbaa2	0.046076424
117	0xbc2536d8	-0.010083877
118	0xbd29e3a8	-0.041476876
119	0xbcdc8ed5	-0.026923576
120	0xbc562d4c	-0.013072323
121	0x3c52d260	0.01286754
122	0x3d28820a	0.04113964
123	0xbcbe9bc2	-0.02326763
124	0xbc9a5866	-0.01884098
125	0x3d2ab66f	0.04167789
126	0x3dbe4fc5	0.092925586
127	0x3ceeebc5	0.029165158
128	0xbd0c1a13	-0.034204554
129	0x3cd8cead	0.026465738
130	0xbd6ea4e6	-0.05826273
131	0xbcf7f739	-0.030269252
132	0xbdb133c7	-0.08652454
133	0x3c9b71f5	0.018975237
134	0x3d71544c	0.058918282
135	0xbd229899	-0.03969631
136	0x399a6e36	0.00029455282
137	0x3dbea21a	0.09308262
138	0xbdbfc147	-0.093630366
139	0xbc3ff413	-0.011715907
140	0x3cf656b5	0.030070642
141	0xbdaee047	-0.08538871
142	0x3cd41126	0.025887083
143	0x3d60abaa	0.05485121
144	0x3ca9a333	0.020707702
145	0x3dab869b	0.08375283
146	0xbda76a1c	-0.08174536
147	0xbd9466c4	-0.072461635
148	0x3c137e55	0.009002288
149	0xbd329eaf	-0.043608364
150	0xbd732d4c	-0.05936937
151	0xbd658930	-0.056039035
152	0xbc9c9df9	-0.019118296
153	0x3d3d7852	0.046257325
154	0x3d814545	0.0631204
155	0xbd54be12	-0.051939078
156	0xbc20b95c	-0.009809818
157	0x3d335794	0.043784693
158	0xbd8b4e5c	-0.06802055
159	0xbd0bb6c9	-0.034109864
160	0x3d37662f	0.044775184
161	0x3cb8c520	0.022554934
162	0x3d615e68	0.055021673
163	0xbc55bb6c	-0.013045173
164	0x3ceaa811	0.028644593
165	0xbcd676f3	-0.026179766
166	0xbd46007c	-0.048340306
167	0x3cb201c1	0.021729352
168	0xbd5840ac	-0.05279605
169	0xbd49b60a	-0.04924587
170	0x3d1d75bd	0.038442362
171	0xbd863c44	-0.065544635
172	0xbd81538c	-0.063147634
173	0x3cd8be50	0.026457936
174	0xbbee6440	-0.0072751343
175	0xbcdb2ce2	-0.0267548
176	0x3d166391	0.036716048
177	0x3d6599d1	0.056054894
178	0x3daf46e7	0.085584454
179	0x3deda74b	0.11604174
180	0x3d499a64	0.049219504
181	0x3dab822b	0.08374437
182	0x3d5d33f1	0.054004613
183	0x3ccd5c51	0.025068434
184	0x3d971a7a	0.07378097
185	0x3d70e909	0.05881599
186	0x3bcabca5	0.006187039
187	0x3d2b04dc	0.04175268
188	0x3de657dc	0.112472266
189	0xbc5f4024	-0.013626132
190	0xbd44a005	-0.04800417
191	0xbd8f518d	-0.069979765
192	0x3b06be6a	0.0020560273
193	0xbcafec8a	-0.021475095
194	0xbdbdfa1d	-0.09276221
195	0xbd159ccb	-0.036526483
196	0xbd647868	-0.05577889
197	0xbd8aee72	-0.06783761
198	0x3cee4f74	0.02909062
199	0xbb0892e8	-0.0020839516
200	0xbd394cee	-0.04523938
201	0xbda1cddb	-0.07900592
202	0x3cf3b27d	0.029748196
203	0x3c3be940	0.011469185
204	0xbdc54df5	-0.0963401
205	0x3d1d5994	0.038415506
206	0x3e23a6cd	0.15981598
207	0xbcf2f389	-0.029657142
208	0xbd0ad704	-0.03389646
209	0xbca4f395	-0.02013568
210	0x3c11e97a	0.008905763
211	0xbd04a072	-0.032379575
212	0x3c3bed29	0.011470118
213	0x3d192edd	0.037398208
214	0x3d97b094	0.074067265
215	0x3daa8d5f	0.08327746
216	0x3df85f3f	0.12127542
217	0xbd470201	-0.048585895
218	0xbcc51f0d	-0.024062658
219	0x3c47dc13	0.012198466
220	0xbddeb06e	-0.10873495
221	0x3a16c3e6	0.0005751237
222	0x3b4a5951	0.003087599
223	0xbdbc9851	-0.092087395
224	0xbce59e23	-0.028029507
225	0x3da750b2	0.08169688
226	0x3dcc4dbe	0.09975766
227	0x3d2aa41a	0.041660406
228	0x3c8f7e17	0.017516179
229	0x3cfa95da	0.030589033
230	0x3c91494d	0.017735148
231	0xbcb06df3	-0.021536803
232	0xbd19f8fd	-0.03759097
233	0xbd16e2e7	-0.036837485
234	0xbd13524b	-0.035967153
235	0x3d281a71	0.04104084
236	0x3be0a1ea	0.006855239
237	0xbd5fa08c	-0.05459647
238	0xbc1dfba7	-0.009642518
239	0x3e04bd2b	0.12962787
240	0x3bbfe6e1	0.0058563803
241	0xbce87cd4	-0.028379835
242	0x3e0c903d	0.13726898
243	0xbd8b8c06	-0.06813817
244	0xbdb5ad2b	-0.0887092
245	0xbe09e2be	-0.13465402
246	0xbda4c74a	-0.08045824
247	0xbd56b423	-0.052417886
248	0xbcbaa7af	-0.022785036
249	0x3a6faa05	0.00091424613
250	0x3d0d4bc0	0.03449607
251	0x3e1f28d2	0.15542915
252	0xbd8d948a	-0.06913097
253	0x3d44ce25	0.048048157
254	0x3d7c56be	0.06160616
255	0xbb1b37d9	-0.002368441

body.block1.conv.bias f4 [64]
0	0x3ddf3bf3	0.10900106
1	0x3d40f7f2	0.04711146
2	0x3e34bd30	0.17650294
3	0x3d8a9023	0.06765773
4	0xbdd80fcb	-0.10549887
5	0x3c9db506	0.019251358
6	0x3d8af240	0.06784487
7	0x3e26ce30	0.16289592
8	0x3c846d9b	0.016165545
9	0x3e04420f	0.12915824
10	0x3dfbecb2	0.123010054
11	0x3e245e8e	0.16051695
12	0x3d843008	0.06454474
13	0x3e1c3344	0.15253931
14	0x3f1f2da3	0.6217901
15	0x3cfe8fe8	0.03107448
16	0x3f074cf6	0.5285181
17	0x3ec3ff6c	0.3828081
18	0x3e4c4d8f	0.19951461
19	0x3e4ce06e	0.20007488
20	0x3e542605	0.20717628
21	0x3e3630ad	0.17792006
22	0x3dc904e6	0.098153874
23	0x3dfbc857	0.12294071
24	0x3efa31f5	0.4886624
25	0xbd4a6969	-0.049416933
26	0x3dde20c6	0.10846095
27	0xbd3e02b0	-0.04638928
28	0x3e15f1fa	0.14643088
29	0x3d89a67a	0.06721206
30	0x3e1e3038	0.15448081
31	0x3d912883	0.07087805
32	0x3e3d5085	0.18487747
33	0x3dc04e66	0.09389953
34	0x3e0cb104	0.13739401
35	0x3ec4ec4e	0.38461536
36	0x3e1ae527	0.15126477
37	0x3e08a497	0.13344036
38	0x3f38d843	0.7220499
39	0x3e600483	0.21876721
40	0x3d8ab272	0.06772317
41	0x3e2db7ce	0.16964647
42	0x3e836600	0.25663757
43	0x3df4abc0	0.11946821
44	0x3e8f3603	0.27970895
45	0x3ec4a996	0.38410634
46	0x3d928e97	0.07156103
47	0x3f0f290f	0.55922025
48	0x3dd9622d	0.10614429
49	0x3ea211c8	0.3165419
50	0x3e30b5c5	0.1725684
51	0x3eb9d17a	0.3629263
52	0x3e99bf3d	0.30028716
53	0x3d6be4ed	0.057591368
54	0x3e5a1107	0.21295558
55	0x3d7d722d	0.061876465
56	0x3edd1e04	0.43186963
57	0x3ca4fc89	0.02013995
58	0x3d882cec	0.06649193
59	0x3d65e449	0.056125913
60	0x3dc10a68	0.09425813
61	0x3e84509a	0.25842744
62	0x3e733e2e	0.23754188
63	0x3ed2317a	0.41053373

body.block2.conv.weight f4 [64, 64, 3, 3]
0	0x3ca4f2a8	0.020135239
1	0x3d4386e5	0.047736067
2	0xbcb39552	-0.021921787
3	0x3dca8f18	0.09890574
4	0x3db770cb	0.089570604
5	0xbe3c7205	-0.1840287
6	0x3dbb888b	0.09156903
7	0x3d93beff	0.07214164
8	0xbe80bc59	-0.25143698
9	0xbe018e41	-0.12651922
10	0xbc8b3355	-0.01699225
11	0x3b41e620	0.0029586628
12	0xbce8ff94	-0.028442182
13	0xbd94e034	-0.07269326
14	0x3d25c869	0.04047433
15	0xbd8e3837	-0.06944316
16	0xbd5cdf29	-0.05392376
17	0xbdd3955e	-0.10331224
18	0x3d78873a	0.060675837
19	0x3cba18bd	0.022716874
20	0xbd92138c	-0.071326345
21	0xbbb6ca21	-0.005578295
22	0xbdc90567	-0.098154835
23	0xbdfba041	-0.122864254
24	0xbcf775ca	-0.030207533
25	0xbd8474f0	-0.064676166
26	0xbe2cf577	-0.16890512
27	0x3d324dd4	0.043531254
28	0x3de7da50	0.11320937
29	0x3da8a63c	0.08234832
30	0x3d71feec	0.059081003
31	0x3dfc2b6a	0.12312968
32	0x3d6eb289	0.058275733
33	0x3db2691d	0.08711455
34	0x3dbc16c1	0.091840275
35	0x3d741950	0.059594452
36	0x3bcabf93	0.006187388
37	0xbc811f83	-0.015762096
38	0xbc8c0f36	-0.017097097
39	0x3d56418c	0.052308604
40	0x3c59db04	0.013296846
41	0xbda4e66f	-0.08051764
42	0xbd812f59	-0.06307859
43	0xbdfcfb97	-0.123526745
44	0xbe3e4d8e	-0.18584272
45	0x3d95705c	0.072968215
46	0xbd9b637d	-0.07587335
47	0x3d468b46	0.048472665
48	0xbd7cb016	-0.061691366
49	0xbde87676	-0.1135072
50	0x3bdbf7aa	0.0067128735
51	0x3cbc69d6	0.022999685
52	0xbd81fb46	-0.06346755
53	0x3d15fa3e	0.036615603
54	0x3b85dccc	0.004085159
55	0x3c374ec3	0.011188212
56	0xbd81103b	-0.06301924
57	0xbc5abd89	-0.013350853
58	0xbccb8006	-0.02484132
59	0xbdbdf38c	-0.092749685
60	0x3ca76887	0.020435585
61	0xbccf3d84	-0.025297888
62	0xbdc1a99b	-0.09456178
63	0x3da9c25b	0.082890235
64	0x3ca03dd2	0.019560728
65	0xbccf68a3	-0.02531845
66	0x3cd1666a	0.02556153
67	0xbcb0021d	-0.021485383
68	0xbdd7aa5d	-0.10530541
69	0x3dce294b	0.1006647
70	0x3da177ad	0.078841545
71	0xbda12451	-0.07868255
72	0x3d0a9f6a	0.033843435
73	0x3da0775f	0.07835268
74	0x3db24a2c	0.087055534
75	0x3d5635b2	0.0522973
76	0x3d4911f5	0.04908939
77	0x3d7c0648	0.061529428
78	0x3d38df30	0.045134723
79	0x3dc186c4	0.09449533
80	0x3d5e7641	0.054311994
81	0x3daaae42	0.08334018
82	0x3c33dde1	0.010978193
83	0xbd03ab93	-0.032146048
84	0x3b58eeec	0.0033101393
85	0xbd9e9d89	-0.07744891
86	0xbd86412e	-0.06555401
87	0xbdc3729f	-0.095433466
88	0xbe221f57	-0.15832268
89	0xbe7aad4c	-0.2448017
90	0xbdc81291	-0.09769166
91	0xbc9350fc	-0.017982952
92	0x3dcd4ad1	0.10024036
93	0xbc89279c	-0.01674252
94	0x3d2a7e7e	0.04162454
95	0x3dc23010	0.094818234
96	0xbdc1a5ce	-0.09455453
97	0xbb7ce804	-0.003859044
98	0x3db688e9	0.08912832
99	0xbcdc9fa3	-0.02693159
100	0x3c57485d	0.013139811
101	0x3d06bdbb	0.032895785
102	0xbd1f122d	-0.038835693
103	0x3bc4577d	0.0059918747
104	0xba2c0d43	-0.00065632554
105	0xbcb4dd67	-0.02207823
106	0xbbeba468	-0.0071912296
107	0xbc3dbde9	-0.011580923
108	0x3d036758	0.03208098
109	0xbd3cca68	-0.046091467
110	0xbddc98da	-0.107713416
111	0x3ddc8d1f	0.10769104
112	0x3b2324c4	0.002489374
113	0xbde8ce63	-0.1136749
114	0x3e774487	0.24147235
115	0x3e299fbd	0.16564842
116	0xbca16004	-0.019699104
117	0x3e1c5ddc	0.1527018
118	0xbd17bc9e	-0.037045114
119	0x3d5ef166	0.054429434
120	0x3ca672f4	0.020318486
121	0xbc9ed191	-0.019387038
122	0x3d940fca	0.07229574
123	0xbc643022	-0.013927491
124	0x3bcb1202	0.006197215
125	0x3dc04b4a	0.0938936
126	0x3d0b18f6	0.03395935
127	0x3d1e92e0	0.03871429
128	0xbd455e3e	-0.04818558
129	0x3d7521ed	0.059846807
130	0x3c32b5b8	0.010907583
131	0xbd6d3eee	-0.057921343
132	0x3dae1c1a	0.08501454
133	0x3d378278	0.04480216
134	0xbc59267b	-0.013253803
135	0xbd404b62	-0.04694689
136	0xbd210b47	-0.039317396
137	0x3dab3e0e	0.08361445
138	0xbd3f5755	-0.046714146
139	0xbd82e4fc	-0.063913316
140	0x3da6b798	0.081404865
141	0xbe283c02	-0.16429141
142	0xbe0d9bb6	-0.1382893
143	0xbdd405da	-0.103526786
144	0x3d90592a	0.07048257
145	0x3d23acb7	0.039959636
146	0x3ce6d00f	0.028175382
147	0x3d4769cd	0.048684884
148	0x3c163eaa	0.009170214
149	0x3c90e679	0.017688023
150	0x3db7a2bf	0.08966588
151	0x3de29ddb	0.11065265
152	0x3dc10f7e	0.09426783
153	0x3d11bea8	0.035582215
154	0x3cc3c39a	0.023896981
155	0xbdc684f7	-0.0969333
156	0x3c53375f	0.0128916195
157	0xbd01bb2f	-0.031672653
158	0xbd6a9690	-0.057272494
159	0x3d55f702	0.052237518
160	0x3ad519e5	0.0016258328
161	0xbdceea15	-0.10103241
162	0xbe201600	-0.15633392
163	0xbd635c0c	-0.055507705
164	0xbc9415df	-0.018076835
165	0xbde2af3d	-0.1106858
166	0xbc23d18a	-0.0099986885
167	0xbd8a9e20	-0.06768441
168	0x3d03832e	0.032107525
169	0x3dc01cb4	0.09380475
170	0xbdb71c96	-0.08940999
171	0x3dc34b57	0.09535854
172	0xbd32aeba	-0.043623663
173	0xbc2440f4	-0.010025252
174	0x3c73a1a5	0.014870082
175	0xbd239b0d	-0.03994279
176	0xbc39b7aa	-0.011335293
177	0x3c1ec267	0.009689904
178	0xbc1a78b5	-0.009428193
179	0xbe06add8	-0.13152254
180	0xbdc1fa0a	-0.09471519
181	0xbda90661	-0.0825317
182	0x3e1cb149	0.15302004
183	0xbdcb0059	-0.09912176
184	0xbcf0cc3f	-0.029394267
185	0x3da76e74	0.08175364
186	0x3c6b6ba4	0.014368925
187	0x3cc09d7c	0.023512594
188	0x3db376c7	0.08762889
189	0xbdeef74b	-0.11668261
190	0xbe031d8f	-0.12804244
191	0x3b01d111	0.0019808451
192	0xbdaf02e7	-0.085454755
193	0xbbe2bbee	-0.0069193756
194	0x3d35703b	0.044296484
195	0xbc8d1d3d	-0.017225856
196	0x3df9542c	0.12174258
197	0x3e244938	0.16043556
198	0xbd6452a9	-0.055742893
199	0x3d1c188e	0.038109355
200	0xbb38de3f	-0.002820864
201	0xbc1eed39	-0.009700113
202	0x3c144169	0.009048798
203	0xbd691d5a	-0.056912757
204	0x3dc8dd3b	0.09807821
205	0x3d92a116	0.07159631
206	0xbd9165ac	-0.070994705
207	0x3c2641e5	0.010147546
208	0x3c83f5ea	0.016108472
209	0x3d1cdf17	0.038298693
210	0x3d36af86	0.044600986
211	0x3d3bf30b	0.04588608
212	0x3ca821e6	0.020523977
213	0x3c15f3e5	0.009152387
214	0x3cc0cdab	0.02353557
215	0x3d389b8f	0.045070227
216	0x3d999de6	0.0750082
217	0x3d8b9c95	0.06816975
218	0x3c867b0b	0.016416093
219	0x3ce9321e	0.02846628
220	0x3d95543d	0.07291458
221	0xbd00caf6	-0.03144356
222	0x3dbdbee6	0.092649266
223	0x3dd10645	0.10206274
224	0x3c11bccf	0.008895113
225	0x3aec9fa8	0.0018052952
226	0x3aebe057	0.0017995936
227	0x3d6784dd	0.056523193
228	0x3d639338	0.05556032
229	0x3d0bd319	0.034136865
230	0x3d9bbfff	0.0760498
231	0xbc9d4f5b	-0.019202879
232	0xbae3da90	-0.0017383862
233	0x3ca39094	0.019966401
234	0x3c2e852e	0.01065187
235	0x3d091908	0.033471137
236	0x3d226beb	0.0396537
237	0x3d745406	0.059650443
238	0x3d0f2372	0.034945913
239	0x3cae34aa	0.021265347
240	0x3d891a68	0.0669449
241	0x3d91f48b	0.07126721
242	0x3c4516ec	0.012029391
243	0x3c644060	0.013931364
244	0x3d4ac2ce	0.049502186
245	0x3d90e7d1	0.070754655
246	0x3d798290	0.06091553
247	0x3d60f058	0.05491671
248	0x3d821f01	0.0635357
249	0x3d09f4d3	0.03368075
250	0xbcff1b08	-0.03114082
251	0x3dc5f358	0.09665555
252	0x3d6ec594	0.058293894
253	0x3d84622f	0.064640395
254	0x3d993ce1	0.07482315
255	0x3d40a016	0.04702767

body.block2.conv.bias f4 [64]
0	0x3efd847d	0.49515143
1	0x3e95b1e8	0.29237294
2	0x3eafa696	0.34306782
3	0x3e61b90d	0.22043248
4	0x3ef16b68	0.47152257
5	0x3d6254a2	0.055256493
6	0x3dcf7a5e	0.101307616
7	0x3e990618	0.29887462
8	0x3d3622ce	0.044466786
9	0x3f1a7e11	0.6034861
10	0x3e86aaa0	0.26302052
11	0x3da86d66	0.08223991
12	0x3e505c9f	0.20347832
13	0x3e9367f2	0.2879024
14	0x3e05f311	0.13081004
15	0x3f2d346e	0.67658126
16	0x3e80f72c	0.25188577
17	0x3f20d032	0.6281768
18	0x3e8d5fa4	0.2761203
19	0x3d5d805a	0.054077484
20	0x3dbe7a0a	0.09300621
21	0x3ec1fe7f	0.37889478
22	0x3e6f8c0b	0.23393266
23	0x3e815f1c	0.25267875
24	0x3bf3df4f	0.007442392
25	0x3e58ac51	0.21159483
26	0x3eb62fbc	0.35583293
27	0xbd19875a	-0.037482597
28	0x3e0e0b35	0.13871463
29	0x3e4a5dac	0.19762295
30	0x3d503332	0.050830074
31	0x3e01fc9c	0.12694019
32	0xbd1302b4	-0.03589125
33	0xbd2edf1f	-0.042693254
34	0x3ea4ffc9	0.322264
35	0x3ec08f4b	0.37609324
36	0x3df4cd44	0.11953214
37	0x3f00171a	0.5003525
38	0x3e00d547	0.12581359
39	0x3ef8b665	0.48576656
40	0x3f05013d	0.51955014
41	0x3f02a417	0.5103163
42	0x3e9c9ec2	0.30589873
43	0x3d9ba9f5	0.07600776
44	0x3ec1771c	0.37786186
45	0x3e8dd3df	0.27700707
46	0x3e822a02	0.25422674
47	0x3e889137	0.2667329
48	0x3e4ae5b6	0.1981419
49	0x3eda4791	0.42632726
50	0x3ab16635	0.0013534488
51	0x3e5b6343	0.21424584
52	0x3e43be4d	0.19115563
53	0x3f1a2a76	0.6022104
54	0x3e6771d9	0.22602023
55	0x3ea810dc	0.32825363
56	0x3efe7015	0.49694887
57	0x3f1db38d	0.616021
58	0x3e19b7a7	0.15011464
59	0x3e7643ee	0.2404935
60	0x3e1c5e9e	0.15270469
61	0x3cba2f69	0.022727685
62	0x3f364f6c	0.7121494
63	0x3f0e9677	0.5569834

tail.weight f4 [1, 64, 3, 3]
0	0x3d6043d1	0.054752175
1	0x3db907c6	0.09034686
2	0xba22a235	-0.00062039803
3	0x3d2cdb74	0.042201474
4	0x3d82a72d	0.063795425
5	0xbd098474	-0.033573583
6	0xbd186e95	-0.037214834
7	0xbd4a6e60	-0.049421668
8	0xbe361b95	-0.17783959
9	0x3cee7f07	0.029113306
10	0x3cb81b94	0.022474088
11	0xbba63853	-0.0050726323
12	0x3d56c41e	0.052433126
13	0x3d274d43	0.040845167
14	0x3d242347	0.040072706
15	0xbdd84363	-0.10559728
16	0xbc90db97	-0.017682834
17	0xbd8a3276	-0.06747906
18	0x3d4e2e53	0.050337147
19	0x3d46e13e	0.04855465
20	0xbcb40e07	-0.021979345
21	0xbc25d1f4	-0.0101208575
22	0x3d07e11b	0.03317366
23	0x3c10ce6f	0.00883828
24	0xbd9bba66	-0.07603912
25	0xbcebe635	-0.028796295
26	0xbbd7edf7	-0.006589647
27	0x3d8bbfaf	0.0682367
28	0x3c5b7e70	0.013396844
29	0xba9c38d6	-0.0011918794
30	0x3c6ecc24	0.014575038
31	0x3d13aa14	0.03605087
32	0x3cfe2923	0.031025475
33	0xbdbf53b6	-0.093421385
34	0xbd3d9620	-0.04628575
35	0xbd276e74	-0.04087682
36	0x3cf8fa69	0.030392842
37	0x3d9e9ebc	0.0774512
38	0x3d0b5694	0.034018114
39	0x3c5d8cf4	0.013522375
40	0x3c69eaf4	0.014277209
41	0xbcf96ffb	-0.030448904
42	0xbcab63a7	-0.020921541
43	0xbceac230	-0.028657049
44	0xbde1527f	-0.11002063
45	0x3d64c419	0.055851076
46	0x3d228249	0.03967503
47	0x3d02290e	0.031777434
48	0x3c6426d2	0.013925271
49	0xbc9afa4b	-0.018918177
50	0xbcdb952f	-0.026804535
51	0x3c223e44	0.009902541
52	0xbc9e2b38	-0.019307718
53	0xbd80f6b1	-0.06297053
54	0xbca4c8e5	-0.020115325
55	0x3c3f25d9	0.011666738
56	0x3cccd239	0.025002586
57	0xbce23cde	-0.027616914
58	0xbd46b80e	-0.048515372
59	0xbba3f165	-0.0050031417
60	0x3cf842b9	0.030305253
61	0x3c10386a	0.008802513
62	0x3cef1c00	0.029188156
63	0xbb4c6b52	-0.0031191898
64	0x3c8d5e87	0.017256988
65	0xbd07d39a	-0.033160783
66	0x3cfda4e0	0.030962408
67	0xbc03b862	-0.008039566
68	0xbd44f1c8	-0.048082143
69	0x3ddf998c	0.109179586
70	0xbc9a64fd	-0.018846983
71	0xbdb477d8	-0.08811921
72	0x3c3f1b34	0.011664201
73	0x3d85b00b	0.06527718
74	0x3d764a4b	0.060129445
75	0xbcaf6c29	-0.02141388
76	0xbcc03455	-0.023462454
77	0xbd39e905	-0.04538824
78	0xbc0d0cea	-0.008609036
79	0xbca46a33	-0.020070171
80	0xbd6a42d7	-0.05719265
81	0x3d094eca	0.033522405
82	0x3d918ca4	0.07106903
83	0x3da21cbe	0.079156384
84	0x3aeb80aa	0.0017967422
85	0x3d1b9bc9	0.037990365
86	0x3cb5b547	0.022181166
87	0xbdd62547	-0.10456329
88	0xbd9240ac	-0.071412414
89	0xbd3e27e6	-0.04642477
90	0x3ca6799b	0.020321658
91	0x3ceaffd9	0.02868645
92	0xbc54d5d9	-0.012990438
93	0xbc7a22bb	-0.015267069
94	0x3ca0fe20	0.019652426
95	0xbce63d7f	-0.028105495
96	0xbd8428c6	-0.064530894
97	0x3cfd7145	0.0309378
98	0x3c0c2700	0.00855422
99	0xbb87fcc2	-0.004150004
100	0xbd0f3277	-0.034960236
101	0x3bc9d7ec	0.006159773
102	0x3c5b4b95	0.013384719
103	0xbcc0e703	-0.023547655
104	0xbd0f007f	-0.034912582
105	0x3d45d019	0.04829416
106	0xbb84143c	-0.0040307324
107	0x3cccbaad	0.024991358
108	0x3d8b9797	0.06816023
109	0x3d8d1e83	0.06890585
110	0x3d4a4bb1	0.04938859
111	0x3c4ddf76	0.012565484
112	0xbd0ae57f	-0.03391027
113	0xbaf6c6a3	-0.0018827509
114	0xbc6f1f6c	-0.014594894
115	0xbd898872	-0.06715478
116	0xbd08c4ab	-0.033390682
117	0xbb37895c	-0.0028005457
118	0xbce6216f	-0.028092114
119	0xbd684352	-0.056704827
120	0x3c235829	0.0099697495
121	0x3d2b1ba0	0.041774392
122	0x3c82d449	0.015970366
123	0xbcb74047	-0.022369517
124	0x3c7da3d4	0.015480954
125	0x3ccb902b	0.024849018
126	0x3d2713f8	0.040790528
127	0xbcf626fb	-0.030047884
128	0xbcdd2066	-0.026992988
129	0xbc5b9c03	-0.013403895
130	0xbc93455b	-0.017977407
131	0x3ab1cfb5	0.001356593
132	0x3d21361b	0.03935824
133	0x3d170f6f	0.036879953
134	0x3d5e555b	0.05428062
135	0x3d32f40c	0.043689772
136	0x3d6439d4	0.05571921
137	0x3dd7faca	0.10545881
138	0xbbdbe38c	-0.0067104753
139	0x3cbef1fb	0.023308745
140	0x3c621605	0.013799195
141	0xbdee7fe4	-0.11645487
142	0xbd32b445	-0.04362895
143	0xbd578023	-0.052612435
144	0xbc849d5a	-0.016188312
145	0xbcd922fb	-0.026505938
146	0xbd783219	-0.06059465
147	0x3d34ce5e	0.04414212
148	0xbb84f67e	-0.0040577045
149	0xbc0cedf9	-0.008601659
150	0x3ca7e0db	0.020492962
151	0x3c1f37e3	0.009717914
152	0x3d8c69ca	0.06856115
153	0x3d88e165	0.066836156
154	0x3d945fbd	0.07244823
155	0x3d879313	0.06619849
156	0xbbb3e9e5	-0.005490529
157	0x3cb07262	0.021538917
158	0x3d2de396	0.04245337
159	0xbe0bf69f	-0.13668297
160	0xbd8a7494	-0.06760517
161	0xbd8361cd	-0.064151384
162	0xbd812254	-0.06305376
163	0xbd9adb6d	-0.075613834
164	0xbd63a24e	-0.055574708
165	0x3caf6a0f	0.021412877
166	0x3d3453e3	0.044025313
167	0x3d09c757	0.03363737
168	0xbd144631	-0.036199752
169	0x3cbbb819	0.022914933
170	0x3e10c18b	0.14136331
171	0xbbda86cc	-0.006668901
172	0xbbd4920e	-0.0064871376
173	0xbcf3503c	-0.029701345
174	0x3c65f64a	0.014035771
175	0x3d0db190	0.034593165
176	0x3d478348	0.048709184
177	0x3cbcb8a6	0.023037266
178	0x3d6e1e19	0.058134172
179	0x3da03e17	0.07824343
180	0x3d0e60fc	0.03476046
181	0x3d5c13ef	0.053729948
182	0x3be934a9	0.0071168733
183	0x3c8b8376	0.017030459
184	0x3afd8f3f	0.0019345059
185	0x3d04bd12	0.032406874
186	0xbd42453c	-0.04742931
187	0xbd1ea666	-0.03873291
188	0x3d006142	0.031342752
189	0x3d825707	0.063642554
190	0x3b880be9	0.0041518104
191	0x3c2444d7	0.010026178
192	0x3c5d98ea	0.013525227
193	0xbd0afd61	-0.033933047
194	0x3ccb9f4b	0.02485623
195	0xbd914fc5	-0.07095293
196	0xbcb0c102	-0.021576408
197	0xbc828a02	-0.015934948
198	0xbd807c17	-0.06273668
199	0xbd7eb8e7	-0.062188055
200	0xbd6b4f7e	-0.057448857
201	0x3a95e6f6	0.001143663
202	0x3ce44c7e	0.027868506
203	0x3ced40a3	0.028961485
204	0x3c915923	0.017742699
205	0x3cd4da4f	0.025983004
206	0x3dbc5df6	0.09197609
207	0x3d14f159	0.03636298
208	0xbc1ef549	-0.009702035
209	0x3d7a9a19	0.061182115
210	0x3c09593e	0.008383093
211	0xbc8abb16	-0.016934913
212	0x3d5fc349	0.054629598
213	0xbd83a8e1	-0.064286955
214	0xbd146ce3	-0.036236655
215	0x3ccaf998	0.024777219
216	0x3cfe2cdb	0.031027248
217	0xbc1796c9	-0.009252259
218	0xbac76ca9	-0.0015214878
219	0x3d171ce8	0.0368928
220	0xbd07d75c	-0.033164367
221	0xbc10a472	-0.008828269
222	0x3d7675cb	0.06017093
223	0xbcb6ebf0	-0.0223293
224	0xbd0f798a	-0.035028018
225	0x3b62aeb0	0.0034588985
226	0x3d46fec5	0.04858281
227	0x3d93c1fc	0.07214734
228	0x3b7d9eba	0.0038699345
229	0xbd03209d	-0.032013524
230	0x3c85d586	0.016337167
231	0xbbf9a26f	-0.0076182405
232	0xbd8dc7d2	-0.06922878
233	0xbd1066b5	-0.0352542
234	0x3d21fc2e	0.039547138
235	0x3c088785	0.008333092
236	0x3d89d7e8	0.06730634
237	0xbb847730	-0.0040425286
238	0x3d40af47	0.047042158
239	0x3d0d3088	0.03447011
240	0xbde3c893	-0.11122241
241	0xbdd713fe	-0.1050186
242	0x3c4af49d	0.012387422
243	0x3a7711f4	0.00094249775
244	0xbd1481c0	-0.03625655
245	0xbc1445ce	-0.009049846
246	0xbc1c1fa5	-0.009529029
247	0xbd60d847	-0.05489376
248	0xbc7f78ae	-0.015592737
249	0x3c9c33fc	0.019067757
250	0x3c30e86e	0.010797603
251	0x3d8cd12d	0.068758346
252	0x3dc2ac60	0.09505534
253	0x3d807b23	0.062734865
254	0x3d7bc65a	0.06146846
255	0x3d2f54d4	0.042805508
