TrainedModels/volcano/2020_08_19_12_26_33_video_train_depth_3_lr_scale_0.1_act_lrelu_0.05/2/netD_b.pth (torch_old, 454648 bytes, 9 tensors)

head.conv.weight f4 [64, 3, 3, 3]
00000000: ff81 093d d3b2 1f3d f684 d83c 6b1a 87bc
00000010: 9d5c 243d 6d7b 343c 75e1 93bd 8a4f 83bd
00000020: c599 41bd 9d72 333d c9fd 373d 3aeb 4b3d
00000030: bfcb c93c 9e70 1d3d 22c2 123d 74f6 80bd
00000040: a4ed 6fbd 0e81 e6bc 7d4f 4b3d 5e34 653d
00000050: 0a16 6c3d 992e 7a3d 8422 cbbc 5a9d 953b
00000060: a3b6 79bd 361c 05bd c1d1 5cbd ab6e a9bd
00000070: ee0c b6bd 2994 c1bc 4158 c0bd 65d0 bbbd
00000080: 3f74 fabc 39ab 79bc d340 ccbc 3d6b fcbb
00000090: 77c0 fcbb a56f 003d 9d85 123c e7a8 9b3c
000000a0: 5ae2 9c3c 973f 003d 9947 c7bb cd37 173c
000000b0: d15b 2b3c 270a b93d b456 6b3d 3300 753c
000000c0: ad0b 993d a1dd 943d 5a39 75ba fbd4 ac3c
000000d0: aea6 7d3c 97c9 3ebb d60f 93bc 22ee 683c
000000e0: 31b8 f9bc af16 9abc f466 de3a ae0e 99bc
000000f0: 6850 fe3c 413b 603c 3937 d23c 3d2e 013c
00000100: d923 0e3d 7ce1 07bd 3916 e23b 0a88 47bc
00000110: 330c 1abc 8c93 833d 1aa7 bebc 5047 ce3c
00000120: 6475 833b ea30 9fbc 66cf afbc 4207 493c
00000130: 6c78 f3bb 81e6 033c 623d 743d 50b4 d1bc
00000140: d24e f73c dae3 653c e747 d33c 0a8b 133e
00000150: 7b32 58bc 8df5 83bc 8cad 583c 8f46 123c
00000160: 78d7 adbc 7b79 80bc 7810 8c3c faee 9f3b
00000170: e706 cd3d e7fd 3a3b 31e8 5abc 8d9a 16bc
00000180: e448 673c 3cae 43bb 2c08 68bd 0dd0 ecbc
00000190: 0783 f83a 5958 f93d 0e29 613c 0193 dfbc
000001a0: 1e69 42bb e8b7 e6bc 18a4 fcbb 13e1 0bb9
000001b0: 682d f8bc fb8f 9e3b 847d 20bc d0c1 8fbc
000001c0: 6edc b83b 949a c73b 844b b8bc 5be7 3d3d
000001d0: 90e8 473d 80c6 36bd 5529 f9bc 500c 073c
000001e0: 0c52 4abc a273 66bc fb17 f33c aeab 3dbd
000001f0: 5d53 74b9 8ee9 843d 2817 98bc d4f7 46bc
00000200: e771 a13c 2750 bebc 1b1a 67bd f7c6 243b
00000210: ee59 193c a236 27bc e034 573d 9d6a 043d
00000220: 4d44 8a3c 3ac5 113d b26f 483d d6f6 693d
00000230: 401d 3dbc 13b8 5cbd ed39 673d 6b91 99bd
00000240: 4ee5 15bd e5d4 42bb fb2d 2c3d 4aeb 2abd
00000250: b816 dd3c 8bd2 ebbb 83aa 83bd fc62 8d3c
00000260: 1891 5abd c940 c5bc d0ec 083d bb47 87bb
00000270: 51e8 27bd 0844 b93c 14f6 e5bb d6fb 84bd
00000280: f2ee 9d3d 47ef 24bd c6c7 0ebc ea45 e3ba
00000290: 9b05 163c 9b83 5eba d6ad f63c f3a7 bf3b
000002a0: 0a47 393d a3a0 baba ed2d 9ebd 91e3 c33b
000002b0: 822b 813b 0f63 d53c 5c67 88bc df84 ccbb
000002c0: aa9f efb8 848f 74bc 5bc7 3d3d ec12 a1bd
000002d0: 6c20 33bc 2051 90bc 3f7c 813c 0709 153d
000002e0: eefb 44bc 2b75 f83b 4a92 5dbc d90e 40bb
000002f0: 9673 26bd eebb e13c c0cc 3d3c d360 b8ba
00000300: 4155 b43a e8f0 933c cccb 2cbc 6e85 0d3d
00000310: 07b6 6abc d361 31bd 5b9b 6f3d f0b4 63bc
00000320: 65a0 fcba 09bb 9d3c 25f9 5dbc c89c 9e3c
00000330: ab1b 87bc f579 32bc 9d6e f9bc d9cc a33d
00000340: 2ffa 17bd 2ee1 c23a 5a73 383b 5fa7 c3bc
00000350: 4405 bb3b e0a3 1d3d 0e77 bcbc 0201 16bd
00000360: a474 b33c f8ee 363c 8f0e f53c 6022 0fbd
00000370: 46e9 223c 5c3b 1f3c 0cf6 9fbe 8872 67bc
00000380: c75d e73b 1982 cfbc 9ecd 26bc 45cf 51bc
00000390: 421d 13bd 4bcb 49bc 3e7a 67bc e26a 95be
000003a0: 7d6c bdbc 7552 5cbc f268 cbba 4836 b9bb
000003b0: c62d 84bc 3934 b4bc d369 603c cf2d 583b
000003c0: 0d2b 95be 09f2 f5bc 0b15 56bb f742 853d
000003d0: e594 9dbb 1a9d 163d 26af 06bc 61ea 5fbd
000003e0: 583a bb3c 1a8b f4b9 508a 85bc ccf3 7c3c
000003f0: 96ed 3e3c 000a 7e3c cd74 b43c 5ffa 913c
0.03357124 0.0389889 0.026430588 -0.01649209 0.040127385 0.011015755 -0.07220737 -0.06411655
-0.047265787 0.043810476 0.044919763 0.049784876 0.024633287 0.03843748 0.03582967 -0.06297007
-0.05857624 -0.02813771 0.049636353 0.055958144 0.057638206 0.061079595 -0.024796732 0.004565877
-0.06096519 -0.032497607 -0.053910974 -0.08273061 -0.08889185 -0.023630219 -0.09391833 -0.091706075
-0.030573009 -0.015238577 -0.024933254 -0.0077032135 -0.0077133733 0.031356473 0.008942989 0.019001437
0.019150902 0.031310644 -0.006081533 0.009229613 0.010458902 0.090351395 0.057455733 0.014953661
0.0747293 0.07268835 -0.00093545543 0.02109765 0.015481634 -0.0029111856 -0.017951887 0.014216932
-0.030483337 -0.018809645 0.0016967938 -0.018683758 0.0310442 0.013686002 0.025661098 0.007884559
0.034702156 -0.033174023 0.006899622 -0.01217843 -0.009402323 0.06424627 -0.02327304 0.025180489
0.004011797 -0.019432504 -0.0214612 0.012269797 -0.007430127 0.008050562 0.05962885 -0.025598675
0.030188952 0.014031375 0.025791122 0.14408508 -0.013195629 -0.016108299 0.013224971 0.008927955
-0.021220908 -0.015682926 0.017097697 0.004880783 0.10011082 0.0028532685 -0.013361023 -0.009192121
0.0141165 -0.002985849 -0.05664842 -0.0289078 0.0018959948 0.12175054 0.013742698 -0.027291777
-0.0029664706 -0.028163865 -0.007709991 -0.0001333992 -0.030295089 0.004838941 -0.00979555 -0.017548472
0.0056415116 0.006091425 -0.022496946 0.046363216 0.048805773 -0.044622898 -0.030415216 0.008242682
-0.012348663 -0.014065655 0.02967452 -0.046306305 -0.00023300709 0.064898595 -0.01856573 -0.012144048
0.019707633 -0.023231579 -0.05642138 0.0025143006 0.00935982 -0.010205897 0.05254066 0.032328237
0.016878271 0.03558848 0.048934646 0.057120167 -0.011542618 -0.053886484 0.056451727 -0.074984394
-0.036595635 -0.0029728946 0.042036038 -0.041728295 0.026988372 -0.0071967295 -0.06429007 0.017259113
-0.05336103 -0.024078744 0.033428967 -0.004128424 -0.04099304 0.022615448 -0.00701786 -0.064933464
0.07711591 -0.040267255 -0.008714622 -0.0017339562 0.00915661 -0.00084882387 0.030112188 0.0058488785
0.045233764 -0.0014238547 -0.077236034 0.0059780558 0.003941954 0.026048211 -0.016650848 -0.0062414254
-0.00011426148 -0.014926795 0.0463327 -0.07864937 -0.010933023 -0.017616808 0.015806315 0.036385562
-0.012022955 0.007582327 -0.013523648 -0.0029305725 -0.040637575 0.027555432 0.011584461 -0.0014066942
0.0013758318 0.018059209 -0.010546636 0.034551077 -0.014325625 -0.043306183 0.058497768 -0.013898119
-0.0019273876 0.019254224 -0.01354817 0.019361869 -0.016492685 -0.010893335 -0.030448252 0.07998056
-0.037103828 0.0014868134 0.0028144927 -0.02388352 0.005707415 0.03848636 -0.023005988 -0.036622055
0.021906205 0.011165373 0.029914169 -0.034944892 0.009943312 0.009718742 -0.31242406 -0.0141264275
0.0070607397 -0.02533059 -0.010180859 -0.012805765 -0.035916574 -0.012316535 -0.014128266 -0.29183108
-0.02312302 -0.013447394 -0.0015518947 -0.005652223 -0.016135108 -0.021997558 0.013697105 0.0032986288
-0.29134408 -0.030022638 -0.0032666351 0.06506913 -0.0048090094 0.036770917 -0.00822047 -0.05466688
0.022854969 -0.00046642945 -0.016301304 0.015438985 0.011653325 0.015505314 0.022028351 0.017819582

head.conv.bias f4 [64]
00000000: 8cc2 c0bc 42c1 88b8 2b2f 473d de7e 8b3a
00000010: 25ec 563c 4a20 013e 5717 963d 4fce 1e3e
00000020: 0d2b 8cbb 29f5 f23d 2ffd f537 2188 283a
00000030: e5ee f33c 6145 ad3e a9a9 3a3e 27e4 8c3c
00000040: c67c 9b3d d7a7 ef3d 3381 933b d4a7 933d
00000050: 4a91 633e 59a0 7d39 5b92 85bb f648 b7b9
00000060: ab43 50bc d4bf a0bc d760 4ebc 4ee8 aebb
00000070: f023 02bc 64b5 90bc 1100 3cbe 9ac5 553d
00000080: 329f 733d d436 183e 4bbc a03d 3193 023d
00000090: 810e a9bc 573d cbbc b0cf 203e 5eb9 593e
000000a0: f399 f03c f4e7 0cb8 cc60 b03d 9358 82bc
000000b0: 4967 7b39 cc24 df3d 2921 88bc c208 bc3d
000000c0: 28ad c43c 6a0b 303e 2f50 603d 1bf5 df3d
000000d0: 83fb 413e d2ea 753e 07c7 0a39 bdea 2d3d
000000e0: 7747 d53c 76c1 88be bb17 8f3d cfb2 4fbc
000000f0: 3a6e 233a 1557 8e39 68d6 5e3d 7fac f33e
-0.023530267 -6.5209824e-05 0.048628967 0.0010642668 0.013117825 0.12609974 0.073286705 0.15508388
-0.004277593 0.11863167 2.9324174e-05 0.0006428976 0.029777 0.33841994 0.18228783 0.017198635
0.07592158 0.11701935 0.0045014857 0.07209745 0.22223392 0.00024187694 -0.004076285 -0.0003495884
-0.012711446 -0.01962272 -0.012596331 -0.0053377515 -0.0079431385 -0.017664619 -0.183594 0.0521904
0.059477992 0.14864665 0.07848414 0.031878654 -0.020636799 -0.024809523 0.15704226 0.21262118
0.029370284 -3.3594624e-05 0.086122125 -0.015911376 0.00023975702 0.1089569 -0.016617374 0.09181358
0.024008349 0.17191854 0.05476397 0.10935422 0.189436 0.24015358 0.00013234849 0.042460192
0.026035054 -0.267101 0.06986948 -0.012676909 0.00062343816 0.00027149232 0.054403692 0.47592542

body.block0.conv.weight f4 [64, 64, 3, 3]
00000000: d48e b0bc fd43 993c d2c7 6d3d c0d4 5abb
00000010: fb33 673d cc1e 203d 3c89 f4bd 64ae 91bd
00000020: 8ad1 923b 3312 82bd 4c72 b2bc df68 4b3d
00000030: 0212 8ebc 5607 113c adb0 223c b367 7cbc
00000040: eeb9 dc3c bfa6 423d 7c9b 433c c48d 06b9
00000050: 05fb 113d c2b5 dbba befb 84bc 7299 1ebc
00000060: b6de 8a3c fbf4 f53c 402e 333c 7562 a8bd
00000070: 1503 68bd 25a5 47bd 4fe5 c33c 3672 02bd
00000080: 0f24 173d 5008 dd3b dcff 1b3d fa33 273d
00000090: 5df7 193d 935a dcbc e53e 293c 50b4 0abd
000000a0: 1a0e 3f3c fbc4 cb3b c8c7 153d 7311 f63c
000000b0: cfb3 813d 3cc3 fb3a dcce 17bd 6e61 bcba
000000c0: 56d4 a0bd 534b b1bb 5e22 653b 849f cfbd
000000d0: fb1f 05bd f05e 36bc 8975 603d 5c89 0bba
000000e0: e61d 0f3d 5c08 cdbc 4cb4 86bc 86b9 8e3d
000000f0: b4f9 a8bd c4eb 5f3c 0e75 6b3d 836c c7bd
00000100: 148f 27bd a6d2 4b3c 064c 14bd 97d7 4cbc
00000110: 9ee9 823d 5df1 30bd fbe8 1fbd 6f67 42bd
00000120: 2ab5 8e3c 9b1c 023e d28b 773d 2661 5dbb
00000130: b59a 603d 316f 933c 5ba2 8dbd a8d8 f53b
00000140: acee a0bd 8ff2 5abd fd37 ab3c f2e4 97bc
00000150: 4a4e 8bbc 6b46 b7bc 2940 d7bb 0fbb 85bd
00000160: 52c1 543d bcf0 01bd 412b f3bb 4080 ecba
00000170: 06e1 d63b 3ecb 63bd 37a6 03bd 91c8 5a3d
00000180: c56d 4ebd 7d65 53bb 93fc f1bb ab03 bf3c
00000190: c3ea da3d fdc1 223e c488 0abe fffb f5bc
000001a0: deef 783d 247e 0fbe 09ea eabc d7fd 4abd
000001b0: 62b1 03bc bcaf a2b9 662a b13b ced7 06bd
000001c0: 8f51 d6ba cae0 263b 07fe 553c e268 b33d
000001d0: 5779 283d cc14 233e a7bb ee3d f88f 883d
000001e0: 643a be3d 9b1f a33c 3d5d 843c 133d 253c
000001f0: e43c ae3c 6e6f 7abc 9f6f f73c 73f5 0ebd
00000200: bd21 40bd c2a9 67bd 1476 21bd 5796 32bd
00000210: 24d6 6cbd c819 8e3c 367e a0bd 46f2 9b3c
00000220: 5002 5fbc 0f87 6b3d 5748 31bd b16b 0bbc
00000230: 3454 113d feb0 28bd 14d0 893d c761 ad3d
00000240: 1933 d63b 075e 023d 6045 1f3d eb54 d7bc
00000250: 9332 743c bd94 343d 68f2 0dbe e737 2ebb
00000260: 8c01 813d 1037 323d 923a 9fbc eec1 22bb
00000270: 7bd0 fa3b 3b9b 84bd 3cf6 45bd 2454 863d
00000280: b120 e7ba 24bc e1bb d218 cbbd af95 12be
00000290: b705 4a3d db5a a0bd 426f 97bd 21e7 b93d
000002a0: 1621 5d3c 2169 ecba 4bdb 3f3e c701 4f3c
000002b0: 82e0 823c 86c6 33bd 35a0 83bd 5c79 2cbd
000002c0: ee90 0abd 3f93 8bbd 10a5 113a 0ddc a13c
000002d0: 1b78 d0bd c1da 8fbc 478b ecbc 13ab cbbd
000002e0: 6204 10bd 5d53 d9ba 367f 94bd 66b0 16bd
000002f0: 238d f73c fa4e b5bd df12 d9bc bca1 c73b
00000300: 4343 0b3c 2c24 863d 3246 123d 0555 17bc
00000310: ef4f 0a3d b61b 4b3d 966e 52bd 6dde 373d
00000320: 32cb 543d 1509 0bbd 804e b63d 73aa 283d
00000330: 8289 02bd d078 8b3d a8bc 7ebc 9233 70bd
00000340: 225b 83bd 7939 95bd 9ca2 42bd 8445 913c
00000350: 72a9 7aba 8ae3 4cbd 2615 e7bc f916 06bd
00000360: f8e7 57bd 8af0 903c 24bc 9b3d c54b e1bc
00000370: 8b8a 5d3c 2ade 673d fec0 00bd 2d0a 54bc
00000380: b12e 8b3d 304f 7abd a8c3 11bd 2962 413d
00000390: 69fa 17bc 4bb4 21bd bc0c a73c 4807 963c
000003a0: 66b9 73bc 8281 5e3d d0f2 16bd f690 27bd
000003b0: c618 23bd 2b6a 443c 5f52 b2bc 65ee 98bc
000003c0: de79 2a3d a7bc 723c c7e2 1b3d 0502 08bd
000003d0: 95a2 1ebd 337a a33d 9ba2 5a3b 0a96 5dbc
000003e0: 8f1c 423d 5d4d bd3d 856e 123d e4aa 973d
000003f0: 0128 b9bd d39c bf3c b564 a53d 0a70 a8bd
-0.02155248 0.018709177 0.05805189 -0.003339097 0.056446057 0.03909187 -0.11940238 -0.071133405
0.0044805454 -0.063511275 -0.021783017 0.04966056 -0.017342571 0.008851847 0.009929818 -0.015405583
0.026944127 0.047522303 0.011938926 -0.00012832048 0.03563978 -0.0016762542 -0.016233321 -0.009680139
0.0169519 0.030024042 0.01093632 -0.08221904 -0.056643564 -0.04874148 0.023913054 -0.0318472
0.036899623 0.0067453757 0.038085803 0.040821053 0.03758942 -0.026898658 0.010329937 -0.033863366
0.011661077 0.0062185503 0.03656748 0.030037617 0.06333124 0.0019207965 -0.03706251 -0.0014372298
-0.07853 -0.0054105907 0.0034963111 -0.10137847 -0.032501202 -0.011131033 0.05479959 -0.00053228973
0.034940623 -0.0250284 -0.016443394 0.069689795 -0.08250752 0.013667051 0.05748468 -0.09737494
-0.040907934 0.012440359 -0.036205314 -0.0125025725 0.06392215 -0.043198932 -0.039040547 -0.047461923
0.01742037 0.12706225 0.060436077 -0.0033779829 0.05483504 0.017997356 -0.069157325 0.007502634
-0.07858023 -0.05345398 0.02090072 -0.018541787 -0.017005105 -0.022372445 -0.006568928 -0.06529819
0.051942177 -0.031723723 -0.0074209278 -0.0018043593 0.0065575866 -0.05561375 -0.032140937 0.05341393
-0.050397653 -0.0032256537 -0.0073848455 0.023317179 0.106893085 0.15894313 -0.13528734 -0.030027388
0.06077563 -0.14012963 -0.02867605 -0.049558487 -0.008037897 -0.0003102998 0.0054066656 -0.03292065
-0.0016351211 0.0025463575 0.013061053 0.08760239 0.041131344 0.15925902 0.116568856 0.06668085
0.09288481 0.019912532 0.01615774 0.010085362 0.02126927 -0.015285356 0.030204592 -0.034902047
-0.046907175 -0.056558378 -0.03941925 -0.043600406 -0.057821408 0.017346278 -0.07836573 0.019036423
-0.013611391 0.05750185 -0.04328188 -0.008509562 0.035480693 -0.041184418 0.06729141 0.08465915
0.006536853 0.031827953 0.03888452 -0.02628561 0.014904636 0.04408716 -0.13862002 -0.0026583613
0.06299123 0.043509543 -0.019437108 -0.002483483 0.0076542473 -0.0647492 -0.04833053 0.06559017
-0.0017633644 -0.006888883 -0.099168435 -0.14314912 0.049321856 -0.07829829 -0.073942676 0.090772875
0.013496658 -0.0018036702 0.18735997 0.012634701 0.015976194 -0.0438905 -0.064270414 -0.042107925
-0.033829622 -0.06815194 0.0005555907 0.019758249 -0.10179158 -0.017560365 -0.028875006 -0.09944739
-0.03516043 -0.001658063 -0.07250826 -0.03678932 0.030218666 -0.08852954 -0.026498256 0.0060922783
0.008499923 0.06549868 0.035711475 -0.009236579 0.033767637 0.049586974 -0.051374994 0.044889856
0.051951595 -0.03394421 0.089016914 0.041178178 -0.03186942 0.068101525 -0.015547909 -0.05864293
-0.064138666 -0.07286353 -0.047518358 0.017733343 -0.00095619925 -0.050021686 -0.028208327 -0.032736752
-0.052711457 0.017692823 0.07604244 -0.02750195 0.013521801 0.056608357 -0.03143405 -0.012941879
0.06796015 -0.061110675 -0.035586983 0.047212753 -0.009276011 -0.03947858 0.020391814 0.018314019
-0.014875745 0.054322727 -0.036852658 -0.04090973 -0.039818548 0.011988203 -0.021767793 -0.018668363
0.041620128 0.014815486 0.03805807 -0.03320505 -0.03872927 0.07982292 0.003336108 -0.013524542
0.047390517 0.092432715 0.03574993 0.07405642 -0.09040833 0.02339021 0.08075849 -0.08224495

body.block0.conv.bias f4 [64]
00000000: 8d46 053e 23cf 84bc 5d96 f53d 2ec3 cc3d
00000010: 8f84 313d 365a b43e 6c15 513e 9f4a 683c
00000020: 3bcc fe3d 4ef7 a33d 0946 873e 8c10 183e
00000030: f8a9 103d c11a 723e e327 773d f3dd 75bd
00000040: 5625 3e3e 2564 b7bd b7bb af3d 88a8 213e
00000050: 4fc2 473e 0368 213e d587 c63d 1523 9c3d
00000060: a81f 8b3b cca2 0e3e 2f47 3d3e 72c1 68bb
00000070: cfce b33d 7788 9fbd 8fb0 773d c823 413d
00000080: 05a2 603e 02e1 803c 1b80 7b3e d8ba 223e
00000090: 6f05 3e3e fda4 103d 9f36 183e 4182 a43d
000000a0: 7e79 07bd 3b6a 783e c1d4 8c3c 35a3 c43d
000000b0: 6cbc 0f3d 72ea ef3c 337e 7fbd c647 9c3e
000000c0: edc3 133e 3f46 2e3e 2362 143e 386d 043e
000000d0: c020 7c3e 6a30 ed3c 1e9f 183d a0d0 0b3e
000000e0: 2c79 5a39 bc68 dd3c bad4 aabd 21be ae3e
000000f0: 89ae 0c3d ed89 0c3e 94b6 8f3a 7a73 0d3e
0.13015194 -0.016212052 0.1199157 0.09998165 0.04333931 0.35225075 0.20418328 0.014177947
0.124412976 0.08006154 0.2642062 0.14850062 0.035318345 0.23643018 0.060340773 -0.06002612
0.1856893 -0.08954648 0.08580726 0.15786946 0.19507717 0.15762334 0.09693877 0.07623879
0.004245717 0.1392929 0.18484186 -0.0035515693 0.0877968 -0.077897005 0.060471114 0.047153264
0.21936806 0.015732292 0.24560587 0.15891588 0.1855676 0.035313595 0.14864586 0.080326565
-0.03307485 0.24259274 0.017191293 0.09601442 0.035091802 0.029286597 -0.062376212 0.3052351
0.14430209 0.17018984 0.14490561 0.12932289 0.24621868 0.02895375 0.03726112 0.13653803
0.0002083524 0.02702748 -0.083413556 0.34129432 0.034346137 0.1372449 0.0010964447 0.13813582

body.block1.conv.weight f4 [64, 64, 3, 3]
00000000: c931 133d 185c 71bd 9e15 b0bc 45d4 c73b
00000010: c199 efbc 89bb 323c a46a 43bd cc93 d2ba
00000020: d4a9 dc3d fd7b 91bd 6804 21bd 0ac3 303d
00000030: 32f6 87bd a5d8 48bd 276c 8f3d 71cd 0abe
00000040: 6841 cfbd f9eb 1d3d 042b 003e ba7a 3bbc
00000050: 0968 3bbd eb64 413d 6176 d3bb 689d 6bbd
00000060: 2f2b ae3c 5a4b c7bc d6be c2bd 9e6f c03d
00000070: b3dc 553d 90f7 bf3d fb09 ed3d 6429 bd3c
00000080: a954 01bd a2a4 6f3d a66c a23c fbc9 71bb
00000090: 09e7 40be 2c01 fdbc 9d24 dd3c 117b efbd
000000a0: 70ce 83bd 7668 b83c e4e7 97bd 4e5f 1e3c
000000b0: e638 453d 8bc0 c338 ec02 60bc c0a0 913d
000000c0: 81ea c7bd 7f74 35bd 2c62 283d b986 e8bd
000000d0: 30cc 69bd 3672 6c3d 363a 2cbd 9083 30bd
000000e0: 746d fe3b d09b 92bd 34ad 17bd c3cb 593b
000000f0: 6d46 1ebe ad9e babd 1e37 89bd cb70 fe3c
00000100: 76de 1a3d df34 9e3d 2ffe ed3b 5cce 4bbc
00000110: 0443 ac3d 9f27 bebc 58d4 733c fd8a 253e
00000120: 3da1 343d b732 513d 8721 0d3e ec2a 3e3d
00000130: c719 2d3d bf3d 233e 5f05 063d c8dd 003e
00000140: eb8b 1e3e 23d8 1b3d 7f7b 1e3d ce3c 923d
00000150: 3d17 97bd 6e7a ea3b ed24 303d 1a1f 54bd
00000160: 9e9c 943c 42e2 c43d cb9b e7bc c35e 6d3c
00000170: 3e3d 933c bc8c a6bb 4692 07bd 0cf8 6d3c
00000180: b679 babd c57e 51bd 4596 633d bebf 8b3c
00000190: daaa 8f3c e488 3dbd bad1 353d 4ab2 57bc
000001a0: a23d 78bd 66c4 ff3c 615f fd3b 349d 5fbc
000001b0: 6098 193d a07d 48bb 8db8 a73c 3f0d f73b
000001c0: 36bd d83b ac39 513c ad95 033d 2387 553c
000001d0: d534 ed3c d817 5b3d a64a 9a3a 2940 c33c
000001e0: 0d1a 7dbc ed38 32ba 9d2e 63bd 3c43 42bd
000001f0: fe60 18bd d125 92bd 4aff b23d 0332 7a3d
00000200: f431 343d e8c2 09bd 6b83 5f3d 81c1 6f3d
00000210: 28e6 b83d a3e1 483d b3f6 923d f6aa 72bd
00000220: cf7c 12bd 505c b2bc 840d 28bd c746 16bd
00000230: 8c9d eb3b e14d 713d 1281 653c 8e41 bc3d
00000240: 7b0a 2d3d b76f 5b3d 390c bf3d 8749 ffbc
00000250: ee07 4c3c baed b13d 9990 bdbd 6160 80bd
00000260: 16a2 893c 7e62 153d f378 1d3d 72ae ad3d
00000270: 053f f83c b8e6 653d d96d d83d edad 9f3d
00000280: 8912 a83d 7bdb 333e 908b b9bd 141a 51bc
00000290: 0be0 b53d ab57 a7bd cc59 4b3c 5e18 d9bb
000002a0: 0fe6 aabd 8644 c2bc eed5 a6bd ff7e d4bd
000002b0: f946 a4bd 8f43 cfbd 5f16 80bd 85c7 a4bd
000002c0: c496 9dbd 36be 94bd 6a3f 9dbd 54f4 a4bd
000002d0: 490b 12bd 5c0e 4bbd b8d9 f3bc c95b 85bd
000002e0: e748 a2bd 09d3 e0bc 95dc b2bd a938 f8bd
000002f0: 88f7 92bc 1678 27bd a694 403b 41da 14bc
00000300: 5fdc 8dbd 8470 98bd 6da1 71bc 0065 25be
00000310: a788 e2bd 2b9c 013d 5e82 48bc e41b 24bd
00000320: b0f6 53bb b7f5 a9bd bbe4 a8bd b511 ccbc
00000330: 8980 12be af9f 14be 0089 4cbc 493e 283d
00000340: 84a6 013b 2c89 f53b 2e5c 723d 104a 343d
00000350: 0a4f f3bc 0545 a33d b82a 3b3c e002 743c
00000360: 1e32 fbbd c4a1 a2bd 787c 99bd a9a2 50bd
00000370: 3fe9 c73c cb9e 17ba c335 103b 3566 26bc
00000380: d297 4d3b b990 56bd 2086 473d c8ac c13d
00000390: 6fb5 2fbd eaad 253d a883 d83d e2fb bfbd
000003a0: 7bc7 1fbd a85c 513d 214a 14bd a7bc 9ebc
000003b0: 8a8d 6dbd c93f 8f3b ba3b 10bc 691d 8bbd
000003c0: 3370 d73c ab45 323c c17f 66bd 2953 78b9
000003d0: 619d ca3c 1faf 8b3d 8fec 5d3d 6b83 983d
000003e0: 403a b93d f1b6 ad3c a9bf ee3c 1d54 d93c
000003f0: e763 38bd 6838 30bc cf4f 7f3d c76a 12bd
0.03593615 -0.058925718 -0.021494683 0.0060983025 -0.02924812 0.01090897 -0.047709122 -0.0016065775
0.1077458 -0.07103727 -0.039310843 0.043154754 -0.06638755 -0.049034733 0.0700305 -0.13554932
-0.10119897 0.03855512 0.12516409 -0.0114428345 -0.045753513 0.047215383 -0.006453321 -0.05752316
0.021260826 -0.024327923 -0.09509055 0.09396289 0.05221243 0.09373391 0.11574169 0.023091026
-0.03157488 0.058506615 0.019827198 -0.0036894071 -0.18838133 -0.030884348 0.026994998 -0.11693395
-0.06435859 0.022510748 -0.074172765 0.009666277 0.048149966 9.3341885e-05 -0.013672572 0.07110739
-0.09761525 -0.044300552 0.04110925 -0.11353821 -0.057079494 0.057726108 -0.0420477 -0.043094218
0.0077645127 -0.07158625 -0.037030414 0.0033233024 -0.15456553 -0.09112296 -0.06699966 0.031059643
0.03780981 0.07724928 0.007262967 -0.012439337 0.0841122 -0.023212252 0.01488217 0.16166301
0.04409908 0.051073756 0.13782321 0.046427652 0.04226091 0.15941523 0.032719966 0.12584603
0.15483062 0.03804792 0.038691994 0.07140504 -0.07377479 0.007155708 0.043003965 -0.051787473
0.018141087 0.09613468 -0.02827253 0.014487925 0.017973538 -0.005082695 -0.03309848 0.014524471
-0.09105246 -0.051146287 0.05556323 0.017059203 0.017537523 -0.046273127 0.044389464 -0.013165066
-0.060605653 0.03122158 0.0077323173 -0.01364832 0.03749883 -0.0030592456 0.020473743 0.007539421
0.0066143526 0.012770098 0.032125164 0.013032707 0.028955856 0.053489536 0.0011771515 0.023834305
-0.0154481055 -0.0006798644 -0.055464376 -0.0474274 -0.037201874 -0.07136119 0.08740099 0.06108285
0.04399295 -0.033633143 0.05456869 0.05853415 0.09028274 0.04904331 0.071759604 -0.059245072
-0.035763558 -0.021772534 -0.041028515 -0.036688592 0.007190412 0.05891216 0.014007824 0.09192191
0.042246323 0.053573336 0.09328503 -0.03116299 0.012453062 0.08687921 -0.092560954 -0.06268383
0.016800921 0.036470883 0.038445424 0.084805384 0.030303488 0.056128234 0.10567827 0.077968456
0.0820666 0.17564194 -0.090598226 -0.012762565 0.088806234 -0.08171018 0.012411546 -0.0066252192
-0.083446614 -0.023714315 -0.081462726 -0.10375785 -0.080213495 -0.10120308 -0.06254267 -0.08045868
-0.07694772 -0.07262842 -0.07678111 -0.080544144 -0.035655294 -0.04957424 -0.029766902 -0.06511647
-0.07924061 -0.02744438 -0.08733479 -0.12120182 -0.017940298 -0.040886007 0.0029385476 -0.009085239
-0.06926798 -0.07443336 -0.01474796 -0.1615181 -0.110612206 0.031643074 -0.012238113 -0.04006566
-0.0032343082 -0.082988195 -0.08246752 -0.024910787 -0.14306845 -0.1451404 -0.012483835 0.041075025
0.001978309 0.007493159 0.05916994 0.044015944 -0.029700775 0.07972149 0.011423759 0.014893264
-0.122654185 -0.079410106 -0.07494444 -0.050936375 0.024403213 -0.0005783855 0.00220047 -0.010156204
0.003137101 -0.052384112 0.048711896 0.094567835 -0.042897638 0.04044906 0.105719864 -0.09374215
-0.0390086 0.051113755 -0.036203507 -0.019377066 -0.05799631 0.0043716175 -0.008803302 -0.06792719
0.026298618 0.010880868 -0.05627418 -0.00023682103 0.024733247 0.06820511 0.054180678 0.07446941
0.090443134 0.021205397 0.029144125 0.026529366 -0.04501715 -0.010755636 0.06233197 -0.035746362

body.block1.conv.bias f4 [64]
00000000: 06d7 813e 5fe2 13bd c888 08bd 342e 733e
00000010: 8209 703e de42 8b3e 4493 ea3e 8f3a e63e
00000020: 84c5 11be d8b6 173e 9f6f 7e3e 741a dc3e
00000030: 619a 123f 2d50 993e 81a7 db3e 82d5 893e
00000040: 6883 163f 784d 863e 67e7 0a3f 06c3 213f
00000050: 6b97 303e af03 5f3e 4fe8 c23e e685 8c3e
00000060: ea76 303f 2b81 853c c044 4f3e 5fe1 d23e
00000070: e55c 173f 9190 02be 55fa 20be e354 033f
00000080: 0bdb ce3e f112 ca3e c761 3e3e d14a b23e
00000090: 8752 b33d 4ff4 e33e bb38 853e 0e59 b33e
000000a0: eb00 2e3f 888e afbb 16bf 443f 942a 8c3e
000000b0: 88a2 ea3e da8a 763e 0abd 6e3e 1da5 e8bc
000000c0: e6d6 233f ac89 4d3f 3450 033f 5e14 893e
000000d0: 3205 253f 5abe a0bd 917e a63e aca3 723e
000000e0: c5c5 113e b895 a03e fdf2 bd3e f86d 513e
000000f0: f34a 283f 4e01 fd3e 129d 39bd 2fa0 ac3e
0.25359362 -0.036104556 -0.03333357 0.23748094 0.23441127 0.27199453 0.4581548 0.44966552
-0.14235502 0.14815843 0.24847268 0.42988932 0.57266814 0.29943982 0.42901233 0.26920706
0.5879426 0.2623098 0.5425934 0.6318821 0.17245261 0.21778749 0.38067862 0.27445906
0.6893145 0.016296944 0.2024107 0.4118757 0.5912612 -0.1275046 -0.15720494 0.513014
0.40401492 0.39467576 0.18591987 0.34822705 0.08755975 0.4452233 0.26019844 0.3502888
0.6797015 -0.005357567 0.76854074 0.27376235 0.45827127 0.24076405 0.233143 -0.028399045
0.63999784 0.80288196 0.51294255 0.2677335 0.6446105 -0.07848807 0.32518438 0.23695248
0.142356 0.31364226 0.37099448 0.20452106 0.65739363 0.49415058 -0.04531581 0.3371596

body.block2.conv.weight f4 [64, 64, 3, 3]
00000000: 4d44 7abc f4b7 bdbc 763f 0e3d 1d5e c83c
00000010: b254 87bc f0a7 f5bc a464 0f3d ff41 df3c
00000020: b322 d03c 5141 453c 881a b2bc ab9a e53c
00000030: 83af 87bd 7ddc 1dbd b7ff 0e3d b21f 77bd
00000040: 3127 2cbc a2d1 853d 7035 f9bc 76c1 70bd
00000050: e651 1b3c 3215 3ebc c426 cdbc 928d b6bc
00000060: eabc 45bc afaa b0bc a6ec 8ebc ca9d 8b3d
00000070: 27c1 1fbc adf8 3b3c e8fd d2bc 18e9 89bc
00000080: e324 523c 030e 363c 9f39 903c 8ee9 713c
00000090: 6f1b 1c3d 854e fc3b 2765 1a3c 39a5 273c
000000a0: 4186 7a3c 04dc 5b3c c2bc 093d 1f40 fb3b
000000b0: f205 cb3c 2a34 5ebb b015 f4bc 80f5 1a3d
000000c0: 1689 453d 2410 133c abd2 fcbc a546 b13b
000000d0: 36e7 4b3b e3cc ea3c 9f15 8d3c 761e 52bb
000000e0: baa5 303d ca4d b5bc e52f 8c3b 0761 b13c
000000f0: 5820 8f3c ed15 e73c 7175 9e3d 2520 4a3d
00000100: a65f 43bc 9826 5c3c 7980 ab3c 86d2 70bc
00000110: b39f a4bb e298 bbbc 62bf 60bd f90b 39bc
00000120: 3f58 1f3c 7a31 9fbc d233 90bd 02b1 203d
00000130: 7ca6 4cbc d043 ecbc 4217 5e3d 940f cabc
00000140: 9263 1abd 2021 c4bd e240 64bd ca0c c7bc
00000150: 1ade bfbd d9d4 8cbd 9cb1 65bd 00ad 2abd
00000160: ca30 92bb dc7d f4ba d23b dc3c dd36 263d
00000170: 0502 303d 9963 5b3d 7c70 723c 94ca 073d
00000180: a54c 5abb 0315 63bc 11a5 00bd e9e4 c13c
00000190: fadc 9dbc bd56 c6bc a599 13bb 31b5 21bc
000001a0: 927e 39bc e143 f5bc 18eb 33b8 2ed5 d5bc
000001b0: 777e 28ba bdac 01bd c1b9 4ebd 9548 a63a
000001c0: 4968 89bd 9c98 5ebd 268e 8dbc 6a99 48bc
000001d0: c3db 39bd 7556 f83c 5564 443c 60c1 d33c
000001e0: f275 513d c143 cf3c 10be 433d c44b b73c
000001f0: c2b3 433d 36bf 07ba 3fb6 3cbd 8424 27bd
00000200: 40ad 6dbd fd01 0bbd dc97 35bd e3a1 8bbd
00000210: 1d3f ddbc 341f edbc 9d80 6bbd 93fd cbbc
00000220: ba71 27bd a8d5 1e3c 4f36 fe3b fe6e f23c
00000230: 0236 91bc 75af f5bc 7ace c3ba 54aa 153d
00000240: a080 2b3d 6b2c b33c 34fa 1a3d 1a63 dcbb
00000250: a79a 2cbb 7376 aa3c 0fe2 22bd 3cc2 5abd
00000260: 6392 fabc 6630 f4bc 0a8e 4bbc 405b 783c
00000270: 70a2 d8bc 3825 67bc cfff 62bc 2a90 59bc
00000280: 8abd ca3b 58fd 9d3c 78b8 98bc 0334 7abc
00000290: 7cec 0f3d 007b 8ebc 6b84 a1bc 04a0 da3c
000002a0: 6314 54bd f280 3fbd d94b 413b fd71 233d
000002b0: 97c7 39bc 16be e23c 5867 453b c4bd 003d
000002c0: 065b 113d 2737 d9bc e68a 10bc 960c 5dbb
000002d0: 0f61 443d ffd6 473c 88b8 3eb9 6284 0dbc
000002e0: 8b29 253b 0ae7 a7bc dfa9 4ebb 3f02 8cba
000002f0: f202 ca3c 521a 0dbc 1efa 02bc 8e7d c13b
00000300: 7bc7 6bbd e438 78bc b478 103d 26c9 0bbd
00000310: 52cf 2cbd a8ae d63a f964 2d3d a8ca 163c
00000320: 9e1d 923c de9e 2f3b 3560 183c f2cb ad3d
00000330: ad26 e8bb 6d51 b5bb a1a8 d83c e939 013d
00000340: a22b ddbc 815f 2dbc 75d9 97bd bdf7 61bd
00000350: 12dc 0ebd 9938 97bc cbef 1fbd 86d2 1abd
00000360: c34c 673d 122c 593d dd46 833d d5d3 3b3d
00000370: c3ff a73b 7f54 8a3c 67b6 11bd 0919 8bbc
00000380: 68e0 ba3c bee3 babb 1b22 5b3d 2e80 d53c
00000390: f934 283c d013 153d ae68 b73c c648 393d
000003a0: 706f 2d3c 4632 5bbd 16ed b5bc 8cab de3a
000003b0: a27a 31bc d387 16bd b632 5c3c c3dc 8bbc
000003c0: 8ad1 57bd 88cd 07bd dda2 83bc 7e87 b93b
000003d0: 3e3f bfbc fe7c 4d3d 7bef aabc e5a2 dd3c
000003e0: 6e63 013c acad b7bd c434 9dbd a95a 03bd
000003f0: abe5 18bd 09ad 7cbd 53ba 8abd c174 0c3d
-0.015275073 -0.023159005 0.03472849 0.02445894 -0.016519878 -0.029987305 0.035008088 0.02725315
0.02540717 0.012039498 -0.021741167 0.028027853 -0.06625273 -0.038540352 0.034911837 -0.06033296
-0.010507391 0.06534125 -0.030420989 -0.05877825 0.009479975 -0.011601733 -0.025042899 -0.022284303
-0.012068966 -0.021565763 -0.017446827 0.06817205 -0.009750641 0.011472863 -0.025755838 -0.01683478
0.012826177 0.011111739 0.0176056 0.014765156 0.0381121 0.00769979 0.009423531 0.010232263
0.015290798 0.013419155 0.03362728 0.007667556 0.024783108 -0.0033905604 -0.029795498 0.037831783
0.04822644 0.008976016 -0.030862173 0.005410033 0.0031113154 0.02866215 0.017222224 -0.0032061613
0.0431268 -0.02213182 0.0042781704 0.021652712 0.017471477 0.028208697 0.07737244 0.04934706
-0.01192466 0.013436936 0.020935284 -0.01469863 -0.0050239204 -0.022900049 -0.054870017 -0.011294358
0.009725629 -0.019432772 -0.07041134 0.039231308 -0.012490865 -0.02884093 0.0542214 -0.024665631
-0.037692614 -0.095766306 -0.05572594 -0.02429809 -0.093685344 -0.06876535 -0.056077585 -0.041668892
-0.0044613825 -0.0018653232 0.026883993 0.040579665 0.042970676 0.05356178 0.014797326 0.033152178
-0.0033309844 -0.01385999 -0.03140742 0.023668723 -0.019270409 -0.024211282 -0.0022522 -0.00986986
-0.011321681 -0.029939594 -4.2895874e-05 -0.026102629 -0.0006427536 -0.031658877 -0.050470117 0.0012686426
-0.06709344 -0.05434476 -0.017279696 -0.012243608 -0.045375597 0.030314663 0.011986812 0.025849044
0.051137872 0.025300862 0.04778868 0.022374995 0.047778852 -0.0005178334 -0.04607224 -0.04080631
-0.058026552 -0.033937443 -0.044334278 -0.06817987 -0.027007634 -0.028945543 -0.057495702 -0.024901187
-0.040879942 0.009694494 0.007757939 0.02959394 -0.017725948 -0.029990891 -0.0014938854 0.03653939
0.041870713 0.021871766 0.03783627 -0.006725681 -0.0026337297 0.020808434 -0.039766368 -0.053407893
-0.03058738 -0.029808234 -0.0124240015 0.015158474 -0.026444644 -0.014107995 -0.013854935 -0.013279
0.0061871456 0.019285843 -0.018642649 -0.01527119 0.03513764 -0.017392635 -0.019716462 0.02668763
-0.051777255 -0.04675383 0.0029494672 0.03990363 -0.01133909 0.02767853 0.0030121412 0.031430975
0.035487197 -0.026515556 -0.0088221785 -0.0033729426 0.047944125 0.012197255 -0.00018188555 -0.00863752
0.0025201763 -0.02049591 -0.0031534357 -0.0010681822 0.024659608 -0.008612232 -0.007994203 0.00590486
-0.057563286 -0.0151502825 0.03527136 -0.034127377 -0.042189904 0.0016378956 0.042332623 0.00920359
0.017836388 0.0026797573 0.009300281 0.08486165 -0.0070846886 -0.0055333884 0.026447596 0.031549368
-0.026998345 -0.010581852 -0.074145235 -0.055167902 -0.034877844 -0.018459605 -0.039047044 -0.037798427
0.05646969 0.053020544 0.064100005 0.045856316 0.0051269247 0.016885994 -0.035574343 -0.016979711
0.022812083 -0.0057034185 0.053499322 0.026062097 0.010266536 0.036395848 0.022388782 0.045235418
0.010585651 -0.05351474 -0.022207778 0.0016988381 -0.010832461 -0.036750626 0.013439825 -0.01707304
-0.052690066 -0.033154994 -0.01606887 0.005661904 -0.023345586 0.05016803 -0.020866146 0.027055213
0.007897241 -0.08968672 -0.0767608 -0.032068882 -0.037328403 -0.061688457 -0.0677382 0.034291033

body.block2.conv.bias f4 [64]
00000000: 995f 9c3c 1378 c63e 1ac5 163e 584f 973e
00000010: 3b04 c53e 4237 8c3e a36a 2c3f 0dd0 47bc
00000020: d166 e83e b90c 713e a9ab 0d3f b9d9 313f
00000030: 86a2 823e 5421 df3d 52cc 223f 707d d93e
00000040: 2f77 c93e 6567 083f e25d 6b3e 74e6 6e3e
00000050: 43b4 063f 99d9 d13d 3ce4 9e3d 3f8c fe3e
00000060: 4d82 a63e 9620 803d ba1a 903e 7a74 183f
00000070: 4e50 f43e 75ff d43e d0e6 663e 517d ed3d
00000080: f8a6 b33d 39fc b33e b834 c43d 674a 863e
00000090: 69b8 183f 7a70 8c3e 198d 2d3f 11e9 e43e
000000a0: 2990 be3e 6ca5 ad3e 3b0d a83e 185a 503d
000000b0: 311a 8a3e 1f39 753e 6406 af3e 34ec 803e
000000c0: 29c0 8c3e 14f0 ed3e 441f 8f3e a056 373f
000000d0: 8467 e03e b329 4d3e cddf 2d3f f85c 823e
000000e0: 96a2 c83e adb5 983e 8db3 12bd e9bf b23e
000000f0: cf97 163e d2fb 4b3e 7d71 0d3f 9d58 703e
0.019088553 0.38763484 0.14723626 0.29552722 0.3847979 0.27385908 0.67350215 -0.012195599
0.45390943 0.2354001 0.5534006 0.69472843 0.2551462 0.10895029 0.6359302 0.42478514
0.39348742 0.5328277 0.22985032 0.23330098 0.5261881 0.102465816 0.07758376 0.49716374
0.32521287 0.06256215 0.2814539 0.5955273 0.47717518 0.41601148 0.22548985 0.11596168
0.08772081 0.35153368 0.09580368 0.2622864 0.5965639 0.27429563 0.6779342 0.44709066
0.3721936 0.3391527 0.32822594 0.05086717 0.26973107 0.23947571 0.34184563 0.2518021
0.27490357 0.46472228 0.2795354 0.71616554 0.43828976 0.20035438 0.6791962 0.25461555
0.39186543 0.29826108 -0.035815764 0.3491204 0.14706348 0.1992028 0.55251294 0.23471303

tail.weight f4 [1, 64, 3, 3]
00000000: c970 0bbb 8fae 5b3c a36f 52bd 9c8f 6a3b
00000010: b36a a5bc a169 4fbc 3ae6 a33c 3bb2 d0b9
00000020: 9751 a93c ce69 acbb 17c4 60bd b19a dbbc
00000030: b2a7 35bb f861 83bd 6410 56bc 8022 933d
00000040: 1229 203c d3f9 733d 0fcd a4bc 7421 1fbc
00000050: 900d c4bc b4e9 033d 2a5b b73a ceaf 5a3d
00000060: 783e 9cbc 0468 043d 9e0d a83d 3e4f 18bd
00000070: 11b6 bbbc 0cae 29bd cc55 9bbb 20cb 25bd
00000080: 5824 b7bc 07f0 7a3d 2cb5 1e3d 6dcc 893d
00000090: aab9 3dbd 7b54 25bd c4f1 15bd 371d d6bc
000000a0: 2232 13bd 31b6 cfbb bab1 503d db85 393d
000000b0: 6bb2 823d 3c22 c5b9 3176 b03c 029c 1ebd
000000c0: 5081 b13c 2280 563d 20e8 9e3c 02e8 04bd
000000d0: 0c14 6fbc 8889 67bd f8dc 853d 1f64 a73c
000000e0: 5b71 bd3d 9401 32bd f235 11bb 7878 263d
000000f0: 355f fabd c6b5 36bd 75eb 013c 5f97 0f3d
00000100: 6daf 9c3c 3c9c e639 b5e3 673a 81a9 3bbd
00000110: f9a6 75bc d531 873d dda7 573c af97 5b3c
00000120: 3e0b 9abd 7cf9 adbd 44d5 71bd 39e8 8e3b
00000130: 1ad2 e73b 2094 0f3d 1f91 2f3d ea8e a83d
00000140: 76d8 323d 5e45 e5bc dc7f 083d 49d5 263d
00000150: d290 6e3b b293 87bc cf8e 123d bb81 20bd
00000160: 5088 a9bc 78ea 62b8 0b59 b63c 3e4a 5f3d
00000170: 11f9 5bbc 0562 9d3c a701 a53c 9bf4 f13a
00000180: 1f37 b1bc bb1b cebc 07ef 3abd cd51 813d
00000190: 1467 c63d 41a6 4d3d 2c06 413d 7199 70bc
000001a0: 58cc 4bbc a819 45bd dd05 aebd 071f 3bbe
000001b0: dcb1 05bc 88c4 c4bc 9739 a63c bb71 04bd
000001c0: f24c 21bd 8f2a 683a 1313 873c 5c99 a33c
000001d0: 2382 3c3d 8545 bd3c eeb7 243c 12d4 4f3d
000001e0: cc6d 413c 0b48 74bd c3a0 9bbc 92c1 1a3d
000001f0: 6365 98bc f836 26bd 6f8e 08bd 6df8 adbc
00000200: 3c6b 75bd db86 403c a15a 283d df75 3fbc
00000210: b76d 27bd fe66 4c3d fa39 9d3d 0c8a b4bc
00000220: c30f 51bc f41f 8fbd aee7 793a 5308 cb3c
00000230: ba76 e33b 8984 aa3a 7a63 a33c 3a24 883d
00000240: d169 0b3d ce47 d53d 49e0 433d a410 03bd
00000250: 191f f9bb 53b6 ef3c 44c0 06bd 500d 6ebc
00000260: e2d3 2bbc a077 483c 2ac7 563d 4c2f f23c
00000270: 6f57 23bb 24c8 3e3b e4ab 26bc d8cf 3ebc
00000280: 7cbc 15bd fb8b b3bc 5386 653d 98bd ad3c
00000290: aa41 383d be85 f1bc bc87 743b 15e1 ecbb
000002a0: 6123 d0bc dfa0 a3bc 0274 66bc 481d 913d
000002b0: fe7c ae3c 4d82 f13c 1f5c 7d3c 02e3 0fbd
000002c0: 4a66 c43c 4ecc 4fbd b562 31bd 92ad a5ba
000002d0: ba07 1e3d 85bb 763c 4259 1bbd dd82 493d
000002e0: f978 113d b138 953c 0a92 f3bb 5d78 78bd
000002f0: 2cf5 5cbd 55d7 113d 2341 943c 922a 0e3d
00000300: 8345 143d 4a8e e2bc 72ee 3b3b 4c91 133c
00000310: 93bc 80bd 959b 32bc 7f20 a03d 745e 213d
00000320: a3ad 9d3d af57 d43c ee4f 7fbd 505a 30bd
00000330: ee46 07bd ea03 38bc 222e d6bc b219 073d
00000340: 8dac 6b3d 44cd 853d f077 b93c 116d ce3b
00000350: f793 a8bd 7d0b 40bd efa7 b8bc 4543 cbbb
00000360: 5b3b 273d de14 bb3c 527a 9a3c c539 f0bc
00000370: a1c9 29bd 2e28 a9bb 89b1 21bc 041c bebc
00000380: c0fd 953c 1e22 183c 7443 51bc 8345 01bd
00000390: 96eb b43c 46a5 b2bc 22a8 50bc af26 ba3d
000003a0: 1ed5 433b 2e49 dcbb 0db7 a2bd 69b3 c1bd
000003b0: bede 2cbd 29c5 353b b42d f1bb 054f 34bc
000003c0: d1bb 863d e721 933d 8190 c83d b2e5 2e3d
000003d0: 7b57 d83c e7b0 8b3c 279b 1abc ffb5 963c
000003e0: a9e5 443d 4dec b4bd d8aa dfbc 1d43 f2bc
000003f0: 18a9 1e3d 5363 493c 5e8e b03d 81c2 a9bb
-0.0021276942 0.013408317 -0.051375996 0.0035791164 -0.02019248 -0.012659461 0.020007242 -0.00039805644
0.020668788 -0.0052616363 -0.054874506 -0.026807161 -0.0027718362 -0.064151704 -0.013065431 0.07184315
0.009775417 0.059564423 -0.02011731 -0.009712566 -0.023932248 0.0322053 0.0013988961 0.053390317
-0.019072756 0.03232576 0.08205722 -0.037184946 -0.022913964 -0.04142575 -0.0047404524 -0.04047692
-0.022356197 0.061264064 0.038746998 0.06728444 -0.04631964 -0.04036377 -0.03660752 -0.026136978
-0.035936482 -0.0063388576 0.050950743 0.04529367 0.06381687 -0.00037600275 0.021540733 -0.038723
0.021668106 0.05236829 0.019397795 -0.032447822 -0.014592182 -0.056527644 0.06536287 0.020433484
0.092501365 -0.043458536 -0.0022157398 0.04064223 -0.122251906 -0.044606946 0.0079296725 0.035056468
0.019126618 0.00043985422 0.00088458817 -0.04581595 -0.014993423 0.066013016 0.01316258 0.013402863
-0.075216755 -0.08494851 -0.059041277 0.004361179 0.0070746066 0.035053372 0.042863008 0.08230384
0.043663464 -0.027987178 0.03332506 0.04073075 0.0036402238 -0.016549919 0.035780724 -0.03918622
-0.020694882 -5.4100965e-05 0.022259256 0.054514162 -0.013426081 0.019211778 0.02014239 0.0018459739
-0.02163273 -0.025159707 -0.04563811 0.063144304 0.09687629 0.05020738 0.047125027 -0.014685021
-0.012438856 -0.04812017 -0.08497212 -0.18273555 -0.008160081 -0.024019495 0.020291133 -0.032335024
-0.03938002 0.00088564394 0.016488587 0.019970588 0.046022546 0.023104439 0.010053618 0.050739355
0.011805963 -0.059639018 -0.018997556 0.03778226 -0.018603032 -0.040579766 -0.03333896 -0.021236623
-0.05991672 0.011750902 0.041102055 -0.0116858175 -0.040876117 0.04990291 0.07677074 -0.022038482
-0.012760106 -0.069885164 0.0009533119 0.024784243 0.0069416435 0.0013009469 0.019944895 0.06647535
0.03403646 0.10414086 0.047821317 -0.03199829 -0.007602584 0.029261744 -0.032898203 -0.014529541
-0.0104875285 0.012235552 0.05243603 0.029563569 -0.002492394 0.0029110992 -0.010172818 -0.0116462335
-0.036556706 -0.021917334 0.056036305 0.02120857 0.044984497 -0.029482719 0.003731235 -0.0072289803
-0.025407495 -0.01997417 -0.014065744 0.07085663 0.021299835 0.029481078 0.015463858 -0.0351286
0.023974556 -0.05073195 -0.043307025 -0.0012640229 0.038581587 0.015059357 -0.03792692 0.049197067
0.03551576 0.01821551 -0.0074331807 -0.060661662 -0.05394475 0.035605747 0.018097466 0.034708567
0.036199104 -0.02765574 0.002867606 0.009006809 -0.06285968 -0.010901351 0.07818698 0.03939672
0.07699134 0.025920717 -0.062332086 -0.04305488 -0.03302663 -0.011231402 -0.026145045 0.03298349
0.057537604 0.06533292 0.022640198 0.006299623 -0.08231347 -0.046885956 -0.022541014 -0.0062030875
0.04082809 0.022837099 0.018857155 -0.029324422 -0.041452054 -0.0051622605 -0.009868988 -0.023206718
0.018309474 0.009285478 -0.01277243 -0.031560432 0.022084992 -0.021807324 -0.0127353985 0.090894096
0.0029881666 -0.006722591 -0.079450704 -0.09458048 -0.04220461 0.0027735925 -0.0073601846 -0.011005168
0.06578792 0.07184201 0.09793187 0.042699523 0.026408901 0.017052127 -0.009436405 0.01839733
0.048070583 -0.08834133 -0.027303144 -0.029573018 0.03873548 0.012291747 0.086209044 -0.0051806574
