TrainedModels/volcano/2020_08_18_21_33_09_video_train_depth_3_lr_scale_0.05_act_lrelu_0.05/1/netG_b.pth (torch_old, 936143 bytes, 46 tensors)

total_ops f8 [1]
0	0x0000000000000000	0.0

total_params f8 [1]
0	0x0000000000000000	0.0

total_ops f8 [1]
0	0x0000000000000000	0.0

total_params f8 [1]
0	0x0000000000000000	0.0

weight f4 [64, 3, 1, 1]
0	0xba816e2f	-0.0009874756
1	0xbd2fcfb6	-0.042922698
2	0xbb82b503	-0.0039888634
3	0x3ccd07ee	0.025028195
4	0xbc9ab499	-0.018884944
5	0xbb009c06	-0.0019624247
6	0xba211301	-0.00061444944
7	0xbc955784	-0.018230207
8	0xbd09aa76	-0.03360983
9	0x3c7f765b	0.015592183
10	0x3bb039aa	0.005377968
11	0xbc337bdd	-0.010954824
12	0x3bb39eca	0.0054815756
13	0x3aa3d909	0.0012500595
14	0xbc380cba	-0.011233503
15	0x3d0ea46a	0.034824766
16	0x3bc73325	0.006079095
17	0xbc82727f	-0.015923737
18	0xbb9ffcd4	-0.0048824344
19	0xbc42cebb	-0.011890109
20	0x3cd01b8a	0.025403757
21	0x3bc5928a	0.0060294317
22	0xbc84f06a	-0.01622792
23	0x3c64a14c	0.013954472
24	0x3b292d4e	0.0025814357
25	0x3c7a22cc	0.015267085
26	0x3c70ddcc	0.014701318
27	0x3ca6c1f4	0.020356156
28	0x3cbde480	0.023180246
29	0xbc3a66dd	-0.011377064
30	0x3a90f8a4	0.0011060429
31	0x3c162138	0.009163193
32	0x3cd89997	0.026440425
33	0xbc80a75e	-0.015704807
34	0x3ca1f4c8	0.019770041
35	0x3a639196	0.0008681057
36	0xbcb6cdce	-0.022314932
37	0xbce250c5	-0.027626405
38	0x3b219d59	0.0024660437
39	0xbc91e9e3	-0.017811721
40	0x3aa5e986	0.0012658096
41	0x3cac0823	0.020999974
42	0xbc89f034	-0.01683817
43	0xbc796a68	-0.015223123
44	0x3c99e3ec	0.01878544
45	0xbbc8da8d	-0.006129569
46	0xba7670c8	-0.0009400961
47	0x3a8dfc88	0.0010832706
48	0x3c223462	0.009900184
49	0xbb8fd4bb	-0.004389373
50	0x3c27f32a	0.010250846
51	0x3d259db8	0.040433615
52	0x3b3c8969	0.0028768426
53	0x3bdcf9fc	0.0067436676
54	0xbcf39cf7	-0.029737933
55	0xbbf30173	-0.0074159442
56	0x3b8f4dbe	0.0043732813
57	0xbc49a63d	-0.012307701
58	0x3c4be736	0.012445262
59	0x3c7300f4	0.01483177
60	0x3cade33f	0.021226523
61	0x3b66c90f	0.0035215055
62	0xbcc2b02a	-0.023765642
63	0x3c45acff	0.012065171
64	0x3d16724e	0.036730103
65	0x3c1897fe	0.0093135815
66	0x3ba7ccf6	0.005120869
67	0xbca9eaca	-0.020741839
68	0xbc592a9c	-0.013254788
69	0xba4d7ebc	-0.0007839014
70	0xbc619ee1	-0.01377079
71	0xbccad5f6	-0.024760228
72	0xbccc8421	-0.024965348
73	0xbc5e34ae	-0.0135623645
74	0x3825c03b	3.9518094e-05
75	0x3c4aaae0	0.012369841
76	0xbb92d6a1	-0.004481152
77	0x3cd816b3	0.026378011
78	0xbbe6b24c	-0.0070402976
79	0x3b3b7868	0.0028605703
80	0xbd23d5e8	-0.03999892
81	0xbc3cff98	-0.011535548
82	0xbb8bfc11	-0.004271992
83	0x3cbdc8e1	0.023167076
84	0x3c8e37a4	0.017360516
85	0x3b0c16e3	0.0021375946
86	0x3cd2c988	0.025730863
87	0x3c1cc14a	0.009567568
88	0x3bfd34bb	0.007727233
89	0x3b343557	0.0027497613
90	0xbc29f545	-0.010373418
91	0x3c3b8d85	0.011447315
92	0xbc2d3eda	-0.010574067
93	0x3cd5d5f8	0.026103005
94	0xbb3d8f28	-0.002892444
95	0xbc2d0126	-0.010559356
96	0x3cebd972	0.02879021
97	0xbbfdce0c	-0.00774551
98	0x3d02c4f6	0.031926118
99	0x3c165267	0.00917492
100	0x3d3d534e	0.046222024
101	0x3c5334a9	0.012890973
102	0xbc4d4c52	-0.012530403
103	0x3cf31e1c	0.029677443
104	0x3c136f6d	0.008998734
105	0x3b30f014	0.0026998566
106	0x3c8bcb45	0.0170647
107	0x3ab3500e	0.0013680474
108	0x3cec305d	0.028831655
109	0x3b98bcdf	0.004661187
110	0xbb73880f	-0.0037159955
111	0x3c813348	0.015771523
112	0x3b115a71	0.0022179151
113	0xbc17eb86	-0.009272462
114	0xbc60bc0a	-0.013716707
115	0xbc9ead61	-0.019369783
116	0x3a81831f	0.0009880996
117	0xb96be6f4	-0.00022497383
118	0xbd3f35fd	-0.046682347
119	0xbd31c9c6	-0.043405317
120	0xbc1e2748	-0.00965292
121	0x3d0098a1	0.03139556
122	0x3d3f57d7	0.04671463
123	0xbccfc926	-0.02536447
124	0xbc5d0a3a	-0.013491208
125	0xbccd3f8a	-0.025054712
126	0x3c012add	0.007883755
127	0xbc9be348	-0.019029275
128	0x3c15139d	0.009098914
129	0xbc0fa22d	-0.008766693
130	0x3c5c1f00	0.013435125
131	0xbc7d2c88	-0.015452512
132	0x3c92c11e	0.017914351
133	0xbc395108	-0.011310823
134	0x3c334292	0.010941165
135	0x3c975dda	0.01847737
136	0xbc225566	-0.009908056
137	0x3b98d8d1	0.0046645184
138	0xbc5517fc	-0.013006207
139	0x3d2423e9	0.04007331
140	0xbc06223e	-0.008186875
141	0x3c9e33e6	0.019311856
142	0xbb90daa4	-0.0044205952
143	0x3c44cb83	0.012011412
144	0x3c0a3be6	0.008437132
145	0xbc0e042e	-0.008667989
146	0x3bf6a689	0.0075271768
147	0x3a13053e	0.0005608386
148	0xbcaae8b3	-0.020862913
149	0x3c3eb7b4	0.011640478
150	0xbd13a1dc	-0.036043033
151	0xbc5de77d	-0.013543961
152	0xbcedc868	-0.029026225
153	0x3b40d483	0.0029423542
154	0xba872806	-0.001031161
155	0xbc986d7c	-0.018606894
156	0xbbb3494a	-0.005471383
157	0xbcf45046	-0.029823434
158	0xbc00915d	-0.007847157
159	0x3be99e46	0.0071294634
160	0x3cf7566a	0.030192573
161	0x3c1a1fa4	0.009406958
162	0x3bdc0892	0.006714889
163	0xbcb18096	-0.02166776
164	0xbc2bbd9c	-0.010482218
165	0x3d1011f1	0.03517336
166	0xbc52fd51	-0.012877778
167	0xbc8b7bcd	-0.017026806
168	0xbd150e26	-0.036390446
169	0x3996a3e5	0.0002873234
170	0xbb90e48e	-0.004421777
171	0x3c3f2e01	0.011668683
172	0xbaccc028	-0.0015621232
173	0x3d0ae16e	0.033906393
174	0xbd030c11	-0.03199393
175	0x3caa8c03	0.020818716
176	0x3cf1d714	0.029521503
177	0x3c339753	0.0109613715
178	0x3c861f31	0.016372295
179	0xbb23590f	-0.002492491
180	0xbc68acb3	-0.014201331
181	0x3d4ae176	0.049531423
182	0xbca20891	-0.019779475
183	0x3c63c881	0.013902784
184	0x3c873d18	0.016508624
185	0xbd1e1a07	-0.03859904
186	0x3cf2c68a	0.029635686
187	0xbc28d33c	-0.010304268
188	0xbb8d342f	-0.0043091993
189	0xbce6022d	-0.02807721
190	0x3c02480c	0.007951748
191	0xbc2fc6b1	-0.010728524

bias f4 [64]
0	0x3dc53c08	0.09630591
1	0x3ef40ad8	0.47664523
2	0x3dd231f0	0.10263431
3	0x3db73d00	0.08947182
4	0xbec222da	-0.37917215
5	0x3eb9d0a0	0.3629198
6	0x3e0707e0	0.13186598
7	0x3e95e9f6	0.2928006
8	0xbecfc1a0	-0.40577412
9	0x3e83ded0	0.2575593
10	0xbe3f4b1a	-0.18680993
11	0x3e0ac174	0.13550359
12	0xbcfe75e0	-0.031062067
13	0x3eb20c3a	0.34774953
14	0xbf07eb89	-0.53093773
15	0x3e9a5b16	0.30147618
16	0xbe588414	-0.21144134
17	0xbde371c8	-0.111056864
18	0xbef7d586	-0.48405093
19	0xbeaf5614	-0.3424536
20	0x3e57cd5c	0.21074432
21	0xbf033944	-0.51259255
22	0x3de80948	0.11329895
23	0xbe22d2da	-0.15900746
24	0xbef390b6	-0.47571343
25	0xbed75290	-0.42055178
26	0xbe74d320	-0.23908663
27	0x3f070b1e	0.5275134
28	0x3f053b68	0.5204377
29	0xbe5d2836	-0.2159737
30	0x3f0da1e8	0.55325174
31	0xbec551b6	-0.38538903
32	0x3f0c1200	0.54714966
33	0x3e09bd64	0.13451153
34	0x3e502650	0.20327115
35	0x3e3d20f0	0.18469596
36	0x3dbcc708	0.0921765
37	0x3e62aa44	0.22135264
38	0xbf07bf6e	-0.53026474
39	0x3f07eec2	0.5309869
40	0x3e9c5a7e	0.3053779
41	0x3dddde48	0.108334124
42	0xbf0581c4	-0.5215113
43	0x3eb4aa7c	0.3528632
44	0x3e9049c4	0.2818128
45	0xbf0bc76d	-0.54601175
46	0x3ed11820	0.40838718
47	0x3e818d9e	0.25303358
48	0x3f0ad8a2	0.54236805
49	0x3f081704	0.5316012
50	0xbb884100	-0.004158139
51	0x3f06519a	0.52468264
52	0xbe3f18d2	-0.18661812
53	0xbddafad4	-0.10692373
54	0x3ee229bc	0.44172466
55	0x3dfa7988	0.122302115
56	0x3df4bbf8	0.11949915
57	0x3e9c69ea	0.30549556
58	0x3ea98270	0.33107328
59	0xbe768526	-0.2407423
60	0x3f011d66	0.50435483
61	0x3cef2da0	0.02919656
62	0xbe6b36e8	-0.22970164
63	0xbb99ca00	-0.0046932697

total_ops f8 [1]
0	0x0000000000000000	0.0

total_params f8 [1]
0	0x0000000000000000	0.0

weight f4 [64, 3, 3, 3]
0	0xbccd6257	-0.025071306
1	0xbc4e7f8c	-0.012603652
2	0xbadcb44b	-0.00168384
3	0xbc26719c	-0.0101589225
4	0x3c3927d3	0.011300999
5	0xbc0f744f	-0.0087557575
6	0xbc824526	-0.015902113
7	0xbc34a919	-0.011026644
8	0x3c031be0	0.008002251
9	0x3c1b56fa	0.009481186
10	0xbb3348ac	-0.0027356548
11	0xbc51482e	-0.012773557
12	0x3c86752c	0.016413294
13	0x3b20f487	0.0024559812
14	0x3b51a95f	0.0031991822
15	0x3cc1118f	0.023567943
16	0x3cc91424	0.024545737
17	0xbca08c1b	-0.019598057
18	0xbcbd0cf3	-0.023077464
19	0xbbb17147	-0.005415115
20	0x3d44bd2e	0.04803198
21	0x3b267a37	0.0025402436
22	0x3c5513e1	0.013005228
23	0xb945da41	-0.0001886869
24	0xbc303f4e	-0.0107572805
25	0x3b69d53e	0.003568008
26	0x3ca68ad9	0.02032988
27	0x3d343a2c	0.04400079
28	0xbdd6f68d	-0.104962446
29	0xbdcb996c	-0.09941372
30	0xbcc78094	-0.024353303
31	0xbd1e4502	-0.03864003
32	0xbda0cc16	-0.07851426
33	0x3c3edae6	0.011648869
34	0x3d4d07a5	0.05005612
35	0x3d3f7ecf	0.046751793
36	0x3cba0bfa	0.022710789
37	0x3cd2f0f6	0.025749665
38	0xbd8fb626	-0.07017164
39	0x3be88ffb	0.007097242
40	0xbd503a7f	-0.050837036
41	0xbd836988	-0.06416613
42	0x3d818115	0.063234486
43	0x3d8d182a	0.068893746
44	0x3d10feaf	0.035399135
45	0x397068bf	0.00022927205
46	0x3c02f2c9	0.007992455
47	0x3c9aac77	0.018881066
48	0x3d2d53cd	0.042316247
49	0xbdc161ef	-0.094425075
50	0xbca62ae5	-0.020284126
51	0x3d31da63	0.04342116
52	0x3d4e3d1d	0.05035125
53	0x3d9f864e	0.077892885
54	0xbdcf1b8f	-0.10112678
55	0xbd78f3a0	-0.060779214
56	0xbd3868b2	-0.04502172
57	0x3b1dd791	0.0024084786
58	0x3d499d6f	0.049222406
59	0xbd1a4890	-0.037666857
60	0x3c38e6eb	0.011285524
61	0xbdb87e3a	-0.09008451
62	0xbcb4875d	-0.022037202
63	0x3ca964be	0.02067792
64	0x3d012ff9	0.03153989
65	0xbda329f3	-0.079669856
66	0xbc895de3	-0.016768401
67	0xbb13d417	-0.0022556835
68	0xbc0a0654	-0.00842436
69	0xbdc904bb	-0.098153554
70	0xbc5fe218	-0.013664745
71	0xbc8ad3dd	-0.016946727
72	0x3c49b9a2	0.012312325
73	0x3d40ae70	0.047041357
74	0x3dba2a04	0.09090045
75	0xbc0fe5f5	-0.008782853
76	0xbd7e1670	-0.062033117
77	0x3b8ff4fa	0.004393217
78	0xbd897e59	-0.06713552
79	0xbcdb522b	-0.02677258
80	0xbd77c637	-0.060491767
81	0x3be31cfb	0.006930945
82	0x3d34cc2e	0.044140033
83	0x3e4b5b29	0.19858994
84	0x3c8a3813	0.016872441
85	0x3d2959fd	0.041345585
86	0xbbf32e1c	-0.007421268
87	0xbb7f2b00	-0.0038935542
88	0xbb95b9e9	-0.0045692814
89	0xbc978ed8	-0.01850073
90	0xbd102a9a	-0.035196878
91	0xbc5a67c6	-0.013330406
92	0xbe696f7b	-0.22796433
93	0xbc86a381	-0.016435387
94	0x3caf04ab	0.02136453
95	0xbc29f9ca	-0.010374496
96	0x3ba4e0bd	0.0050316737
97	0xbb751865	-0.0037398573
98	0x3b791f78	0.0038013142
99	0x3b8b2f00	0.004247546
100	0x3dde98f3	0.108690165
101	0xbd3b3a95	-0.045710165
102	0xba7ff5f3	-0.00097641273
103	0x3bbd8a52	0.0057843113
104	0x3c446a8e	0.011988295
105	0x3aafe036	0.001341826
106	0xbc535db6	-0.01290076
107	0x3d5645aa	0.05231253
108	0x3c54a5eb	0.012979011
109	0x3d4cfb8f	0.050044592
110	0xbc84c1af	-0.016205637
111	0x3c8a6bfe	0.016897198
112	0xbd20692f	-0.03916281
113	0xbc1bbfe6	-0.009506201
114	0xbc80f983	-0.015743976
115	0xbbf3ad4d	-0.0074364305
116	0xbcdcabbe	-0.026937362
117	0xbd87eb72	-0.066367045
118	0xbbdacd0d	-0.006677276
119	0xbcadbb61	-0.021207513
120	0xbd1be17e	-0.038056843
121	0x3ca99f24	0.020705767
122	0x3b808f68	0.0039233454
123	0x3c982bb4	0.018575527
124	0x3c934f1d	0.01798206
125	0xbaff42c6	-0.0019474856
126	0xbcc228c3	-0.023701077
127	0xba32d438	-0.0006821784
128	0x3b13a52d	0.0022528872
129	0xbca5a844	-0.020221837
130	0x3a98dd65	0.001166266
131	0x3b02562a	0.0019887784
132	0x3cab5210	0.020913154
133	0xbc95746b	-0.018243989
134	0xbbc0cd2b	-0.005883833
135	0xbcd7c369	-0.026338296
136	0x3c4f39b6	0.012648037
137	0x3c0712d7	0.008244238
138	0xbb40dcf2	-0.0029428569
139	0xbbd39cf9	-0.0064579216
140	0xbd5517e6	-0.052024744
141	0x3c351116	0.011051437
142	0xbc999f90	-0.018752843
143	0xbcf55d41	-0.029951693
144	0xbc80bd09	-0.015715139
145	0x3a974616	0.0011541273
146	0xbc1a162e	-0.009404702
147	0x3cbab8a0	0.022793114
148	0xbb01a831	-0.0019784088
149	0xbb675245	-0.003529684
150	0xbcc37aac	-0.023862205
151	0xbd6b4133	-0.057435226
152	0x3d384b3e	0.04499363
153	0x3bdea4a2	0.006794528
154	0x3ca59fc2	0.02021778
155	0x3bfd2fdc	0.0077266525
156	0xbca001a5	-0.019532034
157	0xbc9e562d	-0.019328201
158	0xbcc13ac8	-0.0235876
159	0x39d37e96	0.0004033937
160	0xbcdc1897	-0.026867194
161	0xbd28324b	-0.041063588
162	0x3d88f639	0.06687588
163	0x3cf900e2	0.030395929
164	0x3d6bf9ad	0.057611156
165	0x3d2ad14b	0.041703504
166	0x3c546caa	0.012965361
167	0x3cd62294	0.026139535
168	0x3db24838	0.08705181
169	0x3d19a06b	0.037506502
170	0x3de998ca	0.11406095
171	0x3d9ca9c6	0.07649569
172	0x3c29bdb1	0.010360167
173	0x3d596b51	0.05308086
174	0x3c7d733d	0.0154693695
175	0x3a4e258b	0.00078638707
176	0xbd202158	-0.0390943
177	0x3dc51472	0.0962304
178	0x3cdec9c8	0.027195826
179	0x3d9c8e44	0.076443225
180	0x3d44e1c3	0.048066866
181	0x3d01d31c	0.03169547
182	0xba1a8bf5	-0.0005895489
183	0xbc4c9f1f	-0.012489109
184	0xbc7792f7	-0.015110723
185	0x3c9d60f3	0.019211268
186	0x3e0358c9	0.12826838
187	0xbb8f1c0a	-0.004367356
188	0x3da47886	0.080308005
189	0xbd0b4e90	-0.03401047
190	0xbce03d0f	-0.027372865
191	0xbcb1d0f7	-0.021706088
192	0x3b62f9d1	0.0034633765
193	0x3d39f091	0.045395438
194	0xbb9bdb47	-0.0047563645
195	0xbd5421af	-0.051789936
196	0xbd85203c	-0.06500289
197	0xbd416e84	-0.047224537
198	0x3c9fcf6d	0.019508088
199	0xba2b6b19	-0.0006539091
200	0xbd562d4c	-0.052289292
201	0xbda1010d	-0.078615285
202	0xbdbc29d5	-0.09187666
203	0xbb943274	-0.004522616
204	0x3d2dff48	0.042479783
205	0x3d4c163e	0.0498259
206	0xbc4d31d7	-0.01252409
207	0xbd532f9c	-0.051559076
208	0x3b804b5a	0.0039152326
209	0xbcdafe36	-0.026732545
210	0xbd75ccf1	-0.0600099
211	0xbdc0bb53	-0.09410729
212	0xbd2bf9ea	-0.041986383
213	0xbd02f493	-0.031971525
214	0xbd7691d0	-0.06019765
215	0xbd861fa7	-0.06549006
216	0xbcd8e73c	-0.026477449
217	0xbc098395	-0.008393188
218	0xbc80a96a	-0.015705783
219	0xbcffd7f6	-0.031230908
220	0xbcf54453	-0.029939806
221	0xbd01b1d9	-0.03166375
222	0xbd9cf67d	-0.076642014
223	0x3ce253bb	0.027627816
224	0xbc1dd3f9	-0.009633058
225	0xbcfb60aa	-0.030685741
226	0x3cd3080a	0.02576067
227	0xbc485bf3	-0.012228954
228	0xbd17f3b5	-0.03709765
229	0x3cd9bf43	0.026580459
230	0xbb2dc9be	-0.0026517953
231	0xbb8c90ef	-0.0042897384
232	0xbc461320	-0.012089521
233	0xbd96681c	-0.07344076
234	0xbd520f93	-0.051284384
235	0x3bcdf094	0.0062847827
236	0x3ccfa75b	0.025348356
237	0xbca43cec	-0.020048581
238	0x3d20ecda	0.03928838
239	0xbc99ef50	-0.01879087
240	0xbb8cd916	-0.0042983396
241	0xbab99ecd	-0.0014161706
242	0xbd736833	-0.059425544
243	0xbc61f586	-0.0137914475
244	0xbcaeb00d	-0.021324182
245	0xbaf987a2	-0.0019037614
246	0x3d510979	0.051034424
247	0xbd05f184	-0.03270103
248	0xbb3f3050	-0.0029173084
249	0xbd02d368	-0.031939894
250	0x3c18b7c8	0.009321161
251	0xbd9ff839	-0.078110166
252	0xbd4886bd	-0.04895662
253	0x3c088772	0.008333074
254	0x3d21ece0	0.039532542
255	0x3c5c0926	0.0134299155

bias f4 [64]
0	0xbe59b059	-0.21258678
1	0x3e12c5d5	0.1433328
2	0xbe6b40f3	-0.22973995
3	0xbd8d9cda	-0.06914683
4	0xbdbed43b	-0.093178235
5	0xbe8b7564	-0.27238
6	0xbe58b3f0	-0.2116239
7	0xbd8550a1	-0.06509519
8	0x3dc57078	0.09640592
9	0xbe66c1d1	-0.22534873
10	0xbe785fb4	-0.24255258
11	0xbd33c575	-0.04388948
12	0xbde1e034	-0.110290915
13	0xbe2cb634	-0.1686638
14	0xbdd2c8c7	-0.102922015
15	0xbe116f29	-0.1420256
16	0xbe0d3ce0	-0.13792753
17	0xbe3292dc	-0.17438835
18	0xbe453c6f	-0.19261335
19	0xbe022363	-0.12708811
20	0xbe065782	-0.13119319
21	0xbe4825f4	-0.19545728
22	0xbe06192f	-0.13095544
23	0x3c4911ec	0.012272339
24	0xbe11b91e	-0.14230773
25	0xbe542861	-0.20718528
26	0x3d8489b4	0.06471577
27	0x3d6a6e5a	0.057234146
28	0xbc8198af	-0.015819876
29	0xbe6f621a	-0.23377267
30	0xbe104eaf	-0.14092515
31	0xbcafca9c	-0.021458916
32	0xbdfc8d5a	-0.12331648
33	0xbe6111c3	-0.21979432
34	0xbe7f2e33	-0.24919967
35	0xbdcaf3da	-0.09909792
36	0xbe48529a	-0.1956276
37	0xbe4f194b	-0.20224492
38	0xbdf07e74	-0.11742869
39	0xbe88f564	-0.26749718
40	0xbe4b297c	-0.19840044
41	0xbe51c606	-0.20485696
42	0x3c5a16fa	0.013311142
43	0xbd884a4f	-0.06654798
44	0xbdbd89d0	-0.09254801
45	0x3d6b72b6	0.057482444
46	0xbd198023	-0.037475716
47	0xbe83d9b1	-0.25752023
48	0xbdbfefe7	-0.093719296
49	0x3d718ef6	0.05897423
50	0xbd434397	-0.04767188
51	0x3d594d94	0.0530525
52	0xbe6164d5	-0.2201112
53	0xbe738bf9	-0.23783864
54	0xbdfd9a5a	-0.12382956
55	0xbc4711c6	-0.012150234
56	0xbe75b891	-0.23996188
57	0x3d82db31	0.06389464
58	0xbdd334f6	-0.10312836
59	0xbe3c3fad	-0.18383665
60	0xbe009ac0	-0.12559032
61	0xbdcb8edb	-0.09939357
62	0xbd38292e	-0.044961147
63	0xbe128cb4	-0.14311486

total_ops f8 [1]
0	0x0000000000000000	0.0

total_params f8 [1]
0	0x0000000000000000	0.0

total_ops f8 [1]
0	0x0000000000000000	0.0

total_params f8 [1]
0	0x0000000000000000	0.0

total_ops f8 [1]
0	0x0000000000000000	0.0

total_params f8 [1]
0	0x0000000000000000	0.0

weight f4 [64, 64, 3, 3]
0	0x3d85100d	0.06497202
1	0x3ca56b60	0.020192802
2	0x3d2502dd	0.040285934
3	0xbc82ef92	-0.015983377
4	0x3d322a41	0.043497328
5	0x3d400c17	0.04688653
6	0x3d765f9e	0.06014978
7	0x3c7199b7	0.014746121
8	0x3d260285	0.040529747
9	0xbc2626c1	-0.010141076
10	0xbc706bf2	-0.014674174
11	0xbc85ac7a	-0.016317595
12	0xbd009baa	-0.031398453
13	0xbd89ef7f	-0.067351334
14	0xbcdfa00a	-0.027297992
15	0x3cf12233	0.029435253
16	0xbe0e0bf9	-0.13871755
17	0xbd21e2d7	-0.039522972
18	0xbd90d067	-0.070709996
19	0xbd461e88	-0.04836896
20	0x3da198c3	0.07890465
21	0xbdc6e150	-0.09710944
22	0xbd290351	-0.04126293
23	0x379f9c0b	1.902694e-05
24	0xbdacabb1	-0.08431185
25	0xbd600425	-0.054691453
26	0x3dc02ef2	0.09383954
27	0x39a66f2e	0.00031744823
28	0x3c0c9500	0.008580446
29	0x3d850d10	0.06496632
30	0x3dbd53a7	0.09244471
31	0xbcf61f51	-0.03004423
32	0xbd881de0	-0.06646323
33	0x3ca2a195	0.019852439
34	0x3c1f62ff	0.009728192
35	0xbca390fe	-0.019966599
36	0x3d157122	0.036484845
37	0x3a86569b	0.0010249199
38	0x3e0ff98a	0.14060035
39	0xbc6578c1	-0.014005841
40	0xbd01e91b	-0.031716447
41	0x3d1518fa	0.036400773
42	0x3b7891d3	0.0037928715
43	0xbc9d5837	-0.019207103
44	0xbcbe876c	-0.023257934
45	0xbc71028a	-0.014710078
46	0xbd51262c	-0.051061794
47	0x3da40668	0.080090344
48	0xbd1a2288	-0.037630588
49	0xbd103999	-0.03521118
50	0x3d924a43	0.071430705
51	0x3b769f18	0.0037631448
52	0x3d8c8163	0.06860616
53	0x3cbe3e39	0.02322303
54	0xbd916f20	-0.071012735
55	0xbd7544c6	-0.05988004
56	0xbe37227b	-0.17884247
57	0x3dab6f08	0.08370787
58	0xbc8087f0	-0.01568982
59	0xbccac3e7	-0.024751617
60	0x3e0e4046	0.13891706
61	0x3c9cd60f	0.01914504
62	0xbca088d4	-0.019596495
63	0xbd57f21b	-0.052721124
64	0xbd56e0a6	-0.052460335
65	0x3d5027b1	0.050819103
66	0x3d167ca7	0.03673997
67	0xbdbb5850	-0.09147704
68	0x3d1d0199	0.0383316
69	0xbda2dc1e	-0.0795214
70	0x3bd4ec9c	0.0064979326
71	0x3daf4879	0.08558745
72	0xbd824335	-0.06360475
73	0x3d926749	0.07148606
74	0x3d880f8a	0.06643589
75	0xbd9d0193	-0.07666316
76	0xbce73097	-0.028221412
77	0x3d8a6242	0.067570224
78	0xbd8d7a65	-0.069081105
79	0x3c0a764f	0.0084510585
80	0xbcd0b565	-0.02547712
81	0x3d5c0321	0.05371392
82	0xbd5efcdd	-0.054440368
83	0x3d1697ef	0.03676599
84	0x3d635099	0.055496786
85	0x3c0dc9e9	0.008654096
86	0x3c8d7614	0.017268218
87	0x3d8ed1f1	0.06973637
88	0x3d25a42e	0.040439777
89	0xbd6540bf	-0.05596995
90	0xbd17034f	-0.03686839
91	0xbd196034	-0.037445262
92	0x3d1272fb	0.035754185
93	0xbd51bb80	-0.051204205
94	0xbcfecade	-0.031102594
95	0xbb3b9faf	-0.0028629114
96	0xbd50966c	-0.050924703
97	0xbd302dba	-0.04301236
98	0x3cc4a787	0.024005665
99	0xbc9f72e4	-0.019463964
100	0x3b58c2a8	0.0033075009
101	0x3d89892f	0.06715619
102	0xbd0ed524	-0.034871235
103	0xbc835cbd	-0.016035432
104	0x3b886988	0.004162971
105	0xbda83c75	-0.08214656
106	0x3ce3511c	0.027748637
107	0xbb7e7da5	-0.0038832214
108	0x3e04c56f	0.1296594
109	0x3c02917f	0.007969259
110	0x3d140223	0.03613485
111	0x3e04036d	0.12891932
112	0xbdb39a7c	-0.087697
113	0x3c8cca85	0.017186413
114	0x3d4cb947	0.04998138
115	0xbdbb2d84	-0.09139541
116	0x3df47a6f	0.11937415
117	0xbd1e7226	-0.03868308
118	0x3c2d7cde	0.010588853
119	0x3d9c129b	0.07620736
120	0xbc68f57a	-0.014218682
121	0x3cd4af33	0.025962448
122	0x3da1fcf2	0.079095736
123	0x3d3f31e4	0.04667844
124	0x3c64dcd4	0.013968665
125	0x3d8f7d8a	0.070063666
126	0xbd90fd4a	-0.07079561
127	0x3d7c7227	0.0616323
128	0xbd2aff99	-0.041747663
129	0xbd338db2	-0.043836303
130	0xbc8a868d	-0.016909862
131	0x3d9a39b6	0.07530539
132	0xbd1915de	-0.03737437
133	0xbdb88493	-0.090096615
134	0xbc0f0185	-0.00872839
135	0x3e880c00	0.26571655
136	0x3e063a62	0.13108209
137	0x3ec258ca	0.37958366
138	0x3e6eef0a	0.23333374
139	0xbd08dd29	-0.03341404
140	0x3e4bcdae	0.1990268
141	0x3d58c47d	0.05292176
142	0xbddb8317	-0.10718363
143	0x3e1654b7	0.14680754
144	0xbce83107	-0.02834369
145	0x3dfb4c02	0.12270357
146	0xbd1affcb	-0.0378416
147	0x3bb5a8f7	0.005543824
148	0x3db6de02	0.089290634
149	0xbe0cf8d4	-0.13766795
150	0xbd382c0b	-0.044963878
151	0x3cd4dfe1	0.02598566
152	0xbd187899	-0.037224386
153	0xbd4779b5	-0.048700053
154	0x3d584c9c	0.052807435
155	0x3cdd3fd0	0.027007967
156	0xbdb38678	-0.08765882
157	0xbd7b74cf	-0.061390694
158	0x3d8bc83b	0.068253
159	0xbd14da76	-0.036341153
160	0xbd050600	-0.032476425
161	0x3ccdf8b0	0.025142998
162	0xbd01da1a	-0.03170214
163	0xbc57c257	-0.013168893
164	0x3d000d68	0.031262785
165	0xbdbb7204	-0.09152606
166	0xbd9e5f91	-0.077330716
167	0xbd6a416b	-0.057191294
168	0xbd989e00	-0.07452011
169	0xbd00a732	-0.03140945
170	0x3d6c7d35	0.057736594
171	0xbd63ecb3	-0.055645656
172	0xbdc5b944	-0.09654477
173	0x3df47303	0.11935999
174	0xbd3e28d3	-0.04642565
175	0xbcdeb9d7	-0.027188225
176	0xbd284606	-0.041082405
177	0xbdb24929	-0.087053604
178	0xbcfd9240	-0.030953526
179	0xbd4737d2	-0.04863722
180	0xbddaed7e	-0.10689829
181	0xbd3cba58	-0.04607615
182	0x38648e78	5.449212e-05
183	0x3ca8ddec	0.020613633
184	0xbb6e29bd	-0.0036340796
185	0xbc1e8dea	-0.00967739
186	0x3d2cde8d	0.04220443
187	0xbcff6e18	-0.031180426
188	0x3ccdceb0	0.02512297
189	0xbdf21643	-0.11820652
190	0x3cfb3f1d	0.030669743
191	0xbdd87d96	-0.105708286
192	0xbd7b0639	-0.06128523
193	0x3d353da5	0.044248242
194	0xbdfce8d4	-0.12349096
195	0xbe194d28	-0.14970839
196	0xbd56484d	-0.052315045
197	0xbdd32deb	-0.103114925
198	0xbd2d07a9	-0.042243633
199	0x3cdcf854	0.02697388
200	0x3dc54ced	0.09633813
201	0xbd6f7d9a	-0.058469392
202	0xbc13bde0	-0.009017438
203	0x3ccbccec	0.024877988
204	0x3c8244c7	0.015901936
205	0x3c3ac154	0.011398632
206	0x3c4179de	0.011808841
207	0xbd28c4a2	-0.04120315
208	0xbac19b8a	-0.0014771086
209	0x3ddf1c46	0.108940646
210	0xbd765b29	-0.06014553
211	0xbdc27336	-0.09494631
212	0x3e0239fc	0.12717432
213	0xbd8e902d	-0.06961093
214	0xbd0a080c	-0.03369908
215	0x3d1bd11c	0.03804122
216	0xbd96b48a	-0.07358654
217	0x3d0cf47d	0.03441285
218	0xbdbfacd4	-0.09359136
219	0xbdf44a94	-0.11928287
220	0xbcb62e3d	-0.022238845
221	0xbda06689	-0.07832057
222	0xbdcacbda	-0.09902163
223	0xbdad20f5	-0.08453552
224	0xbdda7011	-0.10665906
225	0x3db4a23d	0.08820007
226	0x3dcb36b0	0.0992254
227	0x3dd9ab17	0.10628336
228	0x3ccc5fda	0.02494805
229	0xbb89f483	-0.0042100563
230	0x3d878fb5	0.06619207
231	0x3d5451c8	0.051835805
232	0x3daa8e70	0.08327949
233	0x3decc588	0.115611136
234	0xbcd2094e	-0.025639202
235	0x3d266e51	0.04063255
236	0x3b43d479	0.0029881282
237	0xbd65f7af	-0.056144413
238	0xbc191db7	-0.0093454635
239	0x3d0fdc02	0.035121925
240	0xbd5a33be	-0.053272
241	0xbc35e3f1	-0.011101709
242	0x3d591476	0.05299803
243	0xbc802989	-0.015644806
244	0xbd1dd54a	-0.038533486
245	0x3d0f2d45	0.03495528
246	0xbd4a5481	-0.049396995
247	0xbd607d38	-0.054806918
248	0x3cb3f3be	0.021966811
249	0xbe1d39c5	-0.15354069
250	0xbd76f18c	-0.06028895
251	0x3d6e6896	0.05820521
252	0xbdc0f43d	-0.09421585
253	0x3d2d5320	0.042315602
254	0xba93677e	-0.0011246053
255	0xbd106cf0	-0.03526014

bias f4 [64]
0	0xbd7729d5	-0.06034263
1	0x3d0d6ae7	0.03452578
2	0xbcfeb8cf	-0.031093983
3	0x3e5402c1	0.20704176
4	0xbd22261f	-0.039587136
5	0xbc9b449f	-0.01895362
6	0xbd846a86	-0.0646563
7	0x3e4f5908	0.20248806
8	0x3e4f14f5	0.20222838
9	0x3cab82b8	0.020936355
10	0xbdc9719e	-0.09836124
11	0x3c7c55a0	0.015401274
12	0x3d9ad39b	0.07559892
13	0x3e02f42d	0.12788458
14	0xbcd26ba6	-0.025686096
15	0xbbb48c37	-0.005509879
16	0x3d64e825	0.055885453
17	0xbd808df0	-0.062770724
18	0x3e19e8bf	0.15030192
19	0x3d14bb74	0.03631158
20	0xbda5d77b	-0.0809774
21	0x3d1df7ac	0.038566276
22	0xbd84360a	-0.0645562
23	0xbd39e1d9	-0.0453814
24	0xbd6b5dc4	-0.05746247
25	0xbdc13227	-0.09433394
26	0xbc3d9ecd	-0.011573506
27	0x3d2fb59a	0.042897798
28	0x3cb9e298	0.022691056
29	0xbdbf57a3	-0.09342887
30	0xbd96e501	-0.07367898
31	0xbd9eb438	-0.07749218
32	0xbc896d82	-0.01677585
33	0xbda9a9d0	-0.08284342
34	0xbd596108	-0.05307105
35	0xbc004240	-0.007828295
36	0xbd8018ee	-0.06254755
37	0x3d1863c3	0.037204515
38	0xbd856b4c	-0.06514606
39	0xbc2cc56f	-0.010545119
40	0xbbc5bb04	-0.006034257
41	0x3cbad022	0.022804324
42	0xbd01efff	-0.03172302
43	0xbdcb6174	-0.09930697
44	0xbd2d528b	-0.042315047
45	0x3c0d965b	0.008641805
46	0xbd4d5063	-0.05012549
47	0xbcb79dc3	-0.022414094
48	0x3c0ffb13	0.008787888
49	0xbd3c296b	-0.045937937
50	0x3bd35c41	0.0064502065
51	0x3d7f396d	0.062310625
52	0xbc884e33	-0.01663885
53	0xbddcb55b	-0.10776778
54	0xbd3ecdae	-0.04658287
55	0xbdbb9bb3	-0.09160557
56	0xbd5147a3	-0.05109371
57	0xbd46059e	-0.0483452
58	0xbd98d42e	-0.07462345
59	0xbd8b3fb0	-0.06799257
60	0xbce93f5b	-0.028472593
61	0xbd53efed	-0.051742483
62	0x3dd1532c	0.10220942
63	0xbd5a714f	-0.053330716

total_ops f8 [1]
0	0x0000000000000000	0.0

total_params f8 [1]
0	0x0000000000000000	0.0

weight f4 [64, 64, 3, 3]
0	0xbd6b8399	-0.05749855
1	0xbdaa785b	-0.08323737
2	0x3d7097ee	0.05873864
3	0xbdd18a17	-0.10231417
4	0xbd2014b2	-0.039082237
5	0x3d090460	0.033451438
6	0xbdbffb3f	-0.09374093
7	0x3d078f77	0.033095803
8	0x3d714fc8	0.058913976
9	0xbc9e50a6	-0.019325566
10	0xbd06ebeb	-0.032939833
11	0x3c030219	0.007996106
12	0x3d5e93bc	0.05434011
13	0x3c4104ac	0.011780899
14	0x3d4c2006	0.049835227
15	0xbd538e9c	-0.051649675
16	0xbb4bdcda	-0.003110698
17	0x3c6dafe2	0.014507266
18	0xbd026749	-0.03183678
19	0x3d3ed082	0.046585567
20	0x3c5d2874	0.013498414
21	0x3cf7b001	0.030235292
22	0xbbdcb295	-0.006735156
23	0xbcefe2c2	-0.029282931
24	0xbbb0a37d	-0.005390583
25	0xbcabf0c2	-0.020988826
26	0xbd4a4d8a	-0.049390353
27	0x3d68c23d	0.056825865
28	0xbc88158e	-0.01661184
29	0x3bbdd3b7	0.0057930606
30	0x3d923f79	0.07141013
31	0xbbb30c4d	-0.005464113
32	0x3cc41f10	0.023940593
33	0x3da83fd8	0.08215302
34	0xbc111156	-0.008854231
35	0x3d392039	0.045196746
36	0x3cea6d67	0.02861662
37	0x3d1f9220	0.038957715
38	0xbcd7c7ec	-0.026340447
39	0x3d82094a	0.06349428
40	0x3c64a7ca	0.01395602
41	0xbd617580	-0.055043697
42	0xbd1593e0	-0.036517978
43	0xbd1f5e3f	-0.03890824
44	0xbd8082f2	-0.06274976
45	0xbce7bb8b	-0.02828767
46	0xbcbb71ec	-0.02288147
47	0xbd2a6c3a	-0.04160712
48	0xbd77d7c0	-0.06050849
49	0x3c92a02d	0.017898643
50	0xbdaf3023	-0.08554103
51	0xbdf19897	-0.11796682
52	0xbd809e43	-0.06280186
53	0xbd987925	-0.074449815
54	0x3b187934	0.0023265602
55	0xbd0762a3	-0.03305305
56	0x3c9b2b2b	0.018941483
57	0xb972b3c5	-0.00023145888
58	0xbd70cf5f	-0.058791514
59	0xbd5f1712	-0.05446536
60	0xbd7c1533	-0.061543655
61	0xbd707136	-0.058701716
62	0xbd680fe6	-0.056655787
63	0xbe124231	-0.14283063
64	0xbde584c6	-0.11206965
65	0xbe2af916	-0.16696581
66	0xbdb54d44	-0.08852628
67	0xbdf4ab98	-0.119467914
68	0xbdaf7129	-0.085665055
69	0xbd659a87	-0.056055572
70	0xbb6a519a	-0.0035754205
71	0x3bc9afd0	0.0061549917
72	0xbd413f6c	-0.047179624
73	0xbd8712d5	-0.06595389
74	0xbd3596bf	-0.044333216
75	0xbd2483b8	-0.04016468
76	0xbc70c813	-0.014696139
77	0xbd20539c	-0.039142236
78	0x3c06df02	0.00823188
79	0x3c89c071	0.016815396
80	0xbd004a02	-0.03132058
81	0x3bcbbe64	0.0062177647
82	0xbb0f15c3	-0.002183304
83	0x3d5a15cd	0.053243447
84	0xbcdf25c3	-0.027239686
85	0xbd1fb0a8	-0.038986832
86	0xbd90c061	-0.07067943
87	0xbd574161	-0.052552585
88	0xbcb34e27	-0.021887852
89	0xbdf44069	-0.11926348
90	0x3d362a03	0.04447366
91	0xbd0b33db	-0.033985
92	0xbd79c5aa	-0.060979523
93	0x3cf64c4d	0.03006568
94	0xbd705aee	-0.058680467
95	0xbd00e649	-0.031469617
96	0x3d066edd	0.03282057
97	0x3c961f87	0.01832558
98	0xbce3bf79	-0.027801262
99	0xbd9fddcf	-0.078059785
100	0x3cfae07b	0.030624619
101	0x3d557ace	0.05211907
102	0xbe0d166b	-0.13778083
103	0x3da9b821	0.08287073
104	0x3d5b7e52	0.053587265
105	0xbe1bbc12	-0.15208462
106	0x3d7c38d3	0.06157763
107	0x3d90ba25	0.07066754
108	0xbc453e03	-0.0120387105
109	0x3daf76a9	0.085675545
110	0x3d2fc346	0.042910837
111	0xbd8223cb	-0.06354483
112	0xbcbd60c1	-0.023117425
113	0xbd41e72e	-0.04733961
114	0xbcb81ad1	-0.022473725
115	0xba06867b	-0.00051317335
116	0x3d466bcb	0.048442643
117	0xbc84a81f	-0.016193448
118	0xbd8772f4	-0.066137224
119	0xbc35745a	-0.011075104
120	0x3cd4adf7	0.02596186
121	0xb9d95b94	-0.00041457696
122	0xbcfc9dc2	-0.030836944
123	0x3cc2648d	0.023729587
124	0x3cb39559	0.0219218
125	0x3cc90d25	0.0245424
126	0x3db16da7	0.08663493
127	0x3d1f3504	0.03886892
128	0xbd1c92f1	-0.03822607
129	0x3d2741ce	0.04083424
130	0xbc458170	-0.012054786
131	0xbdc3a6e9	-0.0955332
132	0xbbddd575	-0.006769831
133	0xbcef3687	-0.029200805
134	0xbdeb7947	-0.11497741
135	0x3d59d59c	0.05318223
136	0x3d094c5f	0.0335201
137	0x3c470ad6	0.01214858
138	0xbd648bb8	-0.05579731
139	0xbc0c3891	-0.008558408
140	0xbda45fcd	-0.08026085
141	0xbdb293f6	-0.087196276
142	0xbdb8617d	-0.090029694
143	0xbdc010fb	-0.09378239
144	0xbcd17f03	-0.02557326
145	0x3be9673f	0.0071229036
146	0x3d015837	0.03157827
147	0xbc8313b0	-0.016000599
148	0xbcd511a5	-0.02600939
149	0x3d68c7ee	0.056831293
150	0x3c856817	0.016284985
151	0x3d000cd1	0.031262223
152	0x3d63ddd4	0.055631474
153	0xbd715071	-0.058914606
154	0xbc8f06c0	-0.017459273
155	0x3c871aca	0.016492266
156	0x3cff1b5a	0.031140972
157	0x3bb67f3c	0.0055693667
158	0x3c91cc8c	0.01779773
159	0xbc551bc5	-0.013007109
160	0xbca1edb7	-0.019766672
161	0x3d697edf	0.05700576
162	0xbda51e27	-0.08062392
163	0xbdd7f885	-0.10545448
164	0xbd21e7bb	-0.039527636
165	0x3c9a9cb4	0.01887355
166	0xbcff3d28	-0.031157091
167	0xbcb2a454	-0.021806873
168	0x3cac35b7	0.021021707
169	0x3ca07759	0.01958816
170	0xbd0c9cbd	-0.034329165
171	0x3dbfb30a	0.09360321
172	0xbccb4a57	-0.024815721
173	0xbd8cd5d2	-0.068767205
174	0x3da3305f	0.079682104
175	0xbb3825c5	-0.0028098684
176	0xbd204933	-0.03913231
177	0x3c87fee9	0.016601043
178	0xbd3c9340	-0.046038866
179	0xbdeaa4b0	-0.11457193
180	0x3ca437d6	0.020046156
181	0xbbfbe1be	-0.0076868227
182	0x3d0eaae7	0.034830954
183	0x3d5e9ec6	0.054350637
184	0x3c8168f8	0.015797123
185	0xbac66bb7	-0.0015138303
186	0x3d316b10	0.043314993
187	0x3d8409e4	0.06447199
188	0x3c0ee014	0.008720417
189	0xbcf156dc	-0.029460363
190	0x3bca8058	0.0061798505
191	0xbd7c2951	-0.06156284
192	0xbdc26f7d	-0.09493921
193	0xbd8e1190	-0.069369435
194	0xbda77c8b	-0.081780516
195	0xbdf2a863	-0.118485235
196	0xbdfda46a	-0.12384875
197	0xbdcdd8f3	-0.100511454
198	0xbc6b0f20	-0.014346868
199	0xbc4333a5	-0.0119141685
200	0xbc57a7d4	-0.013162572
201	0x3d805b52	0.06267418
202	0xbcd36027	-0.025802685
203	0xbd4211af	-0.047380146
204	0x3d8aa967	0.06770592
205	0x3d82562b	0.063640915
206	0x3bd0a7cc	0.006367659
207	0xbd7bd5dd	-0.061483253
208	0xbdd15789	-0.10221774
209	0xbc6ba0fa	-0.0143816415
210	0xbcf230d1	-0.029564293
211	0xbc907a0c	-0.017636321
212	0xbc2cd42f	-0.010548635
213	0xbcd12aa4	-0.025533028
214	0x3c8ac314	0.016938724
215	0xbc5a6c0e	-0.013331426
216	0x3cec852b	0.028872093
217	0x3d494510	0.04913813
218	0x3d2fe6ef	0.042944845
219	0xbc62de93	-0.013847011
220	0x3d1cbcf4	0.038266137
221	0x3d18c7f3	0.03730006
222	0x3c8687f2	0.016422246
223	0x3d27ef06	0.040999435
224	0x3d994101	0.07483102
225	0x3c7543f9	0.014969819
226	0xbce67994	-0.028134145
227	0xbe22f301	-0.15913011
228	0x3d87045d	0.06592629
229	0xbcdee83d	-0.02721035
230	0xbdf4515d	-0.11929581
231	0x3de39995	0.11113278
232	0xbc92ea1c	-0.017933898
233	0xbdd256a2	-0.1027043
234	0x3de0e534	0.10981217
235	0x3d163840	0.036674738
236	0x3dc3a741	0.095533855
237	0x3da1fcfc	0.07909581
238	0x3d1d27e0	0.038368106
239	0x3d92817e	0.07153605
240	0x3cb3dbf0	0.02195546
241	0x3c38f233	0.011288214
242	0x3d5d70f9	0.054062817
243	0xbdb91037	-0.09036296
244	0xbc7a9516	-0.015294334
245	0xbd2c290f	-0.042031344
246	0xbd7d7b4e	-0.06188517
247	0xbbd77176	-0.006574805
248	0x3c98a79a	0.018634606
249	0xbcd09d3b	-0.025465598
250	0xbd4799e3	-0.048730742
251	0x3d156468	0.036472708
252	0xbdb9da84	-0.09074882
253	0xbc8d42d3	-0.017243778
254	0xbc5d0536	-0.013490012
255	0xbcc61e97	-0.024184508

bias f4 [64]
0	0xbd1198e7	-0.03554621
1	0x3a858013	0.0010185264
2	0xbd084ec7	-0.033278253
3	0xbe2d1c43	-0.16905312
4	0xbda4afeb	-0.08041366
5	0xbd9a1f96	-0.07525556
6	0xbcda5999	-0.026654052
7	0xbd69da96	-0.057093225
8	0xbc987b01	-0.01861334
9	0xbdeb034e	-0.1147524
10	0xbd9c5525	-0.076334275
11	0xbdc3fa22	-0.095691934
12	0xbb822761	-0.0039719795
13	0xbcbf3b1a	-0.023343612
14	0xbde82ab7	-0.11336272
15	0xbe02ac7c	-0.1276111
16	0xbda4136c	-0.08011517
17	0xbd26c986	-0.04071953
18	0xbd8a7967	-0.06761437
19	0xbd7d1920	-0.06179154
20	0xbde62a83	-0.11238577
21	0xbda5dec1	-0.080991276
22	0x3ca3f735	0.020015338
23	0xbd942bde	-0.072349295
24	0xbd1cfccd	-0.038327027
25	0xbd19ff99	-0.037597273
26	0x3d00e451	0.03146774
27	0xbdac6cc2	-0.084191814
28	0xbc4fa416	-0.0126733985
29	0xbdcf8366	-0.10132484
30	0xbd9a3c2c	-0.07531008
31	0xbc93caed	-0.018041098
32	0x3dc9c70c	0.09852418
33	0xbddfa018	-0.10919207
34	0xbd75ff20	-0.06005776
35	0xbdd946c3	-0.106092
36	0xbda7557a	-0.081706
37	0x3c7d1448	0.01544673
38	0xbda0abc9	-0.078452654
39	0xbdf7adfb	-0.12093731
40	0x3d106faa	0.03526274
41	0xbda04764	-0.07826117
42	0xbd8c39a5	-0.06846932
43	0xbdaa8377	-0.08325856
44	0xbd80a027	-0.06280547
45	0xbd81dbfc	-0.06340787
46	0xbc12b3b2	-0.0089539755
47	0x3d0382c3	0.032107126
48	0xbb41b89d	-0.00295595
49	0xbde07efb	-0.109617196
50	0xbcad0673	-0.02112124
51	0xbdfbf3fc	-0.12302396
52	0xbdd3cce6	-0.10341816
53	0xbc2e24d9	-0.010628902
54	0xbcdda8bc	-0.027057998
55	0xbd89343d	-0.06699417
56	0xbd8bf7f5	-0.068344034
57	0xbe1232a4	-0.1427713
58	0xbd989bc0	-0.07451582
59	0xbdc1ca67	-0.09462433
60	0xbdba2971	-0.090899356
61	0xbd8e0ec8	-0.06936413
62	0xbd28f04f	-0.0412448
63	0xbdc24467	-0.09485703

total_ops f8 [1]
0	0x0000000000000000	0.0

total_params f8 [1]
0	0x0000000000000000	0.0

weight f4 [64, 64, 3, 3]
0	0xbd6657d9	-0.05623612
1	0xbb878457	-0.004135649
2	0xbd1edd58	-0.03878531
3	0xbccc1a96	-0.02491502
4	0xbcd6a50e	-0.026201751
5	0x3d2033f8	0.03911206
6	0xbc6c4ecf	-0.014423086
7	0x3c5e5ca8	0.013571896
8	0x3d1ab9da	0.037774898
9	0xbd1ecda0	-0.038770318
10	0xbc8adefa	-0.016952027
11	0x3cc8b8c6	0.02450217
12	0x3ad3cad7	0.0016158473
13	0x3c1a4326	0.0094154235
14	0x3d9aeb52	0.07564415
15	0xbe04d9c2	-0.12973693
16	0xbdb3b048	-0.08773857
17	0xbe2da8b1	-0.16958882
18	0xbd6d6ae1	-0.057963256
19	0xbce04e42	-0.027381066
20	0x3c697149	0.014248201
21	0xbd290786	-0.04126694
22	0x3d2a5b38	0.0415909
23	0xbd3a4758	-0.045478195
24	0xbd86b5ea	-0.06577666
25	0xbd0516ca	-0.032492436
26	0xbc80338e	-0.015649583
27	0x3ce31bf9	0.0277233
28	0x3cb24482	0.021761183
29	0x3c72cc29	0.014819183
30	0xbb3f3a9c	-0.002917922
31	0xbc00298e	-0.007822407
32	0xbcccb38a	-0.024987955
33	0xbcd9b667	-0.026576234
34	0xbb9de2e1	-0.004818306
35	0x3c37a44c	0.011208605
36	0xbcd2e697	-0.02574472
37	0xbc31b3ad	-0.010846061
38	0x3b198360	0.0023424253
39	0x3cdf77e8	0.027278855
40	0xbb8ee591	-0.0043608625
41	0x3ca87175	0.020561913
42	0x3d18d356	0.03731092
43	0xbcea9c44	-0.028638966
44	0xbca03ae0	-0.019559324
45	0xbc3d53a2	-0.011555584
46	0xbc2a144d	-0.010380817
47	0x3bfd90a4	0.00773819
48	0xbc8d3158	-0.017235443
49	0xbccb7a8f	-0.024838714
50	0xbc4f9544	-0.012669865
51	0x3c1b7847	0.009489126
52	0xbd5a8be0	-0.05335605
53	0xbd8fc8ac	-0.07020697
54	0x3d20a74f	0.039222058
55	0xbd24035c	-0.040042266
56	0xbd4d251b	-0.050084215
57	0x3d8ecaf6	0.069723055
58	0x3d611339	0.054949973
59	0xbe01b268	-0.12665713
60	0x3d1d8196	0.03845366
61	0xbdad582a	-0.084640816
62	0xbde0d90f	-0.10978901
63	0x3c6b40af	0.0143586835
64	0xbd0ffaea	-0.0351514
65	0x3c1ee881	0.009698988
66	0x3c7a935e	0.015293924
67	0xbc3dad46	-0.011576956
68	0x3ce4af97	0.027915759
69	0xbca4987b	-0.02009224
70	0xbdac106f	-0.08401572
71	0xbe034ed0	-0.12823033
72	0xbdd33512	-0.10312857
73	0xbb6cb1d9	-0.0036116748
74	0xbcfd942c	-0.030954443
75	0x3c182a3e	0.009287415
76	0x3d494f17	0.04914769
77	0x3d065e91	0.03280503
78	0x3db293ee	0.087196216
79	0x3da8552d	0.08219371
80	0x3cd2bf71	0.025726052
81	0xbcb7af11	-0.022422345
82	0xbd5c19a9	-0.05373541
83	0x3cac63f3	0.021043753
84	0x3bf86547	0.0075804326
85	0x3c59c5b1	0.013291762
86	0xbd5b8066	-0.053589247
87	0x3d8c4877	0.06849759
88	0xbbf8a974	-0.0075885598
89	0xbd5a0bf1	-0.053234044
90	0xbd1e3946	-0.03862884
91	0x3d83897a	0.06422706
92	0xbce930ad	-0.028465593
93	0xbd6a9ac7	-0.057276513
94	0x3a0ede5f	0.0005450006
95	0xbd4c031e	-0.04980766
96	0xbe0c20a1	-0.13684322
97	0xbdb9afd8	-0.09066743
98	0xbd0ce15c	-0.034394607
99	0x3d21e6ef	0.039526876
100	0x3d1932d1	0.037401978
101	0xbbc88b13	-0.0061200946
102	0x3d4d89c4	0.05018021
103	0x3e10d3f6	0.14143357
104	0xbd28edf1	-0.041242544
105	0x3de56216	0.11200349
106	0x3dcdf323	0.1005614
107	0xbd2c8c3d	-0.04212593
108	0x3ca3ffc6	0.020019423
109	0xbd2fb268	-0.04289475
110	0xbd61d01a	-0.0551301
111	0x3d4db959	0.05022559
112	0x3ce69e78	0.028151736
113	0xbcf95f1c	-0.03044086
114	0xbc994089	-0.01870753
115	0x3da2f8ca	0.07957609
116	0x3d47bcd5	0.04876407
117	0xbc592229	-0.013252773
118	0x3d41e778	0.047339886
119	0xbb070d62	-0.0020607342
120	0x3c650502	0.013978245
121	0x3c5b12bb	0.013371165
122	0xbe002892	-0.12515476
123	0xbce4eb96	-0.027944367
124	0xbe117f84	-0.142088
125	0xbe2e17e1	-0.17001297
126	0xbd2c67a1	-0.042091016
127	0xbd3617b6	-0.044456206
128	0xbcfcfc39	-0.030881988
129	0xbc8d35c5	-0.017237553
130	0x3d467c3f	0.048458334
131	0xbd27a4a9	-0.040928517
132	0xbd431f98	-0.047637552
133	0x3c049651	0.008092479
134	0x3d11c187	0.035584953
135	0xbd76a596	-0.06021651
136	0xbcb4261d	-0.02199083
137	0xbd31ea7a	-0.043436505
138	0xbd2cad32	-0.04215736
139	0xbcd28e00	-0.025702477
140	0xbd86cfad	-0.0658258
141	0xbdcd4d70	-0.10024536
142	0xbdbca4bc	-0.09211108
143	0xbd908cb8	-0.0705809
144	0xbd677afb	-0.056513768
145	0x3c01d4fb	0.007924314
146	0x3cd80f10	0.02637437
147	0x3bed80ec	0.0072480347
148	0x3d2a4bc7	0.041576173
149	0xbd273ce1	-0.040829543
150	0xbce84d84	-0.028357275
151	0xbd15b5b3	-0.036550235
152	0xbdb0f421	-0.08640314
153	0xbd423a08	-0.047418624
154	0xbc88e878	-0.016712412
155	0xbbdd2cb7	-0.006749715
156	0x3a57e85d	0.0008236224
157	0x3a6c877b	0.0009022874
158	0x3c7dc434	0.015488673
159	0xbd3e07f1	-0.046394292
160	0x3d560f17	0.052260485
161	0x3cd00624	0.025393553
162	0xbd331dce	-0.043729596
163	0x3bd66855	0.006543199
164	0xbd396e82	-0.045271404
165	0xbcbcc468	-0.023042873
166	0x3d5e4042	0.0542605
167	0xbd242e22	-0.04008306
168	0xbd8ab3d3	-0.0677258
169	0xbd56f94f	-0.052483853
170	0xbd878bd0	-0.06618464
171	0xbda5e8ca	-0.081010416
172	0x3c1986a4	0.00937048
173	0xbb9720da	-0.0046120705
174	0x3dd48f14	0.103788525
175	0x3d88260d	0.066478826
176	0xbe058877	-0.13040338
177	0x3d4bc460	0.049747825
178	0x3dc460b3	0.095887564
179	0x3d76bbaa	0.060237564
180	0x3d17ec6f	0.037090715
181	0x3d095ddd	0.03353678
182	0xbd26dd32	-0.040738292
183	0x3d1fa19d	0.038972486
184	0xbcc6802e	-0.024231043
185	0xbd80730d	-0.06271944
186	0xbd9b1b6e	-0.07573591
187	0xbdba55b8	-0.09098381
188	0xbd8584cd	-0.0651947
189	0xbcf0f0fe	-0.029411789
190	0xbd36fa2f	-0.044672187
191	0x3b3bc206	0.0028649583
192	0x3cf5bfdd	0.029998714
193	0x3c6270cc	0.013820838
194	0xbddc63cb	-0.107612215
195	0x3d171b4c	0.036891267
196	0x3d3b0302	0.045657165
197	0xbda3b099	-0.07992668
198	0xbd4cbfa2	-0.049987443
199	0x3cbde253	0.023179209
200	0xbdc99a4d	-0.09843884
201	0xbd1e6cf4	-0.038678125
202	0x3c8af87a	0.016964186
203	0xbc9fb572	-0.0194957
204	0xbde72c54	-0.11287752
205	0xbd89e6d4	-0.0673348
206	0xbd149cae	-0.036282234
207	0x3d6ade14	0.057340696
208	0x3cc115e4	0.023570009
209	0x3a986016	0.0011625316
210	0x3c87cd68	0.016577438
211	0x3d89d18e	0.067294225
212	0xbd82761d	-0.063701846
213	0xbda7c96f	-0.08192717
214	0xbd44d4a6	-0.04805436
215	0xbd3d9625	-0.046285767
216	0x3c7a8e73	0.015292752
217	0xbc8d6d95	-0.017264167
218	0xbc3394f6	-0.010960808
219	0xbae6ac6b	-0.0017598992
220	0xbc5c93f9	-0.013463014
221	0xbceb6b45	-0.028737674
222	0xbd3d2f52	-0.046187706
223	0xbd50fb16	-0.051020704
224	0xbd41a761	-0.047278766
225	0x3c473571	0.0121587375
226	0xb99d13a7	-0.00029960016
227	0xbe16ca62	-0.1472564
228	0xbc751795	-0.014959236
229	0x3b9e5974	0.004832441
230	0xbe2c365f	-0.16817616
231	0xbdb3c498	-0.08777732
232	0xbdbdc261	-0.092655905
233	0xbe23209c	-0.15930408
234	0xbd769705	-0.060202617
235	0xbca42228	-0.020035818
236	0xbddae762	-0.10688664
237	0x3c022e74	0.007945646
238	0x3be728b5	0.007054413
239	0xbd91d781	-0.07121182
240	0x3bb0f65b	0.0054004616
241	0xbd60cad9	-0.05488095
242	0xbd699f85	-0.057036895
243	0xbd53f5d5	-0.051748116
244	0xbda8c813	-0.08241286
245	0x3bd95993	0.0066329925
246	0xbceecdec	-0.029150926
247	0xbd38fa71	-0.045160715
248	0xbc8b2e8e	-0.016989972
249	0xbd10c7fd	-0.035346974
250	0x3c6d22ee	0.01447366
251	0x3c012b7b	0.007883902
252	0xbd2c7ac7	-0.042109277
253	0xbcd97ecf	-0.026549725
254	0x3cb5db08	0.022199169
255	0xbca509a9	-0.020146208

bias f4 [64]
0	0xbde0dcff	-0.10979652
1	0xbd18a6a1	-0.037268285
2	0xbcd3f20b	-0.025872251
3	0xbcba6180	-0.02275157
4	0x3ca806a8	0.020510986
5	0xbd97fb44	-0.07420972
6	0x3d6024d0	0.054722607
7	0x3d74de1d	0.059782136
8	0xbdb05279	-0.086094804
9	0xbccfa721	-0.025348248
10	0xbdef523e	-0.11685608
11	0x3cc3a28a	0.023881216
12	0xbd448dab	-0.047986668
13	0x3cd5fdbb	0.026121965
14	0x3ba279f8	0.0049583875
15	0x3d440057	0.047851887
16	0xbb202e88	-0.0024441797
17	0xbd0c64c9	-0.034275804
18	0xbe05a592	-0.13051441
19	0x3bc5e19c	0.0060388576
20	0xbcfa0fd1	-0.03052512
21	0xbd02c31f	-0.031924363
22	0x3da5a87d	0.08088777
23	0xbbcf0548	-0.0063177682
24	0xbc282354	-0.010262329
25	0x3dbc582e	0.091965064
26	0xbba7860a	-0.0051124142
27	0xbc4c55e0	-0.012471646
28	0x3d4a07ee	0.04932397
29	0x3bfa6d18	0.0076423995
30	0xbd9d2365	-0.076727666
31	0xbdee79f9	-0.11644358
32	0x3d9f16f5	0.077680506
33	0x3d876a7b	0.066121064
34	0xbcc5edee	-0.024161305
35	0xbd510c11	-0.051036898
36	0xbd467a6b	-0.04845659
37	0xbd56677e	-0.05234479
38	0x3d2aa18d	0.041657973
39	0xbcf7803a	-0.03021251
40	0x3dc7bc4f	0.09752714
41	0xbd04f7fd	-0.032463063
42	0xbdd6a030	-0.10479772
43	0x3cd3aad6	0.025838297
44	0xbc334820	-0.010942489
45	0x3da0511c	0.078279704
46	0xbd84ae11	-0.06478513
47	0xbdb2b94c	-0.08726749
48	0x3d512d20	0.051068425
49	0xbdf2aebf	-0.118497364
50	0x3c73ae5a	0.014873112
51	0x3d9394ba	0.07206102
52	0xbc02e1b5	-0.007988383
53	0x3d5e2501	0.05423451
54	0x3da50746	0.08058028
55	0xbddb6afb	-0.10713764
56	0xbd9b7590	-0.07590783
57	0x3d151a6f	0.036402162
58	0xbdbabf7e	-0.091185555
59	0xbd39b6df	-0.045340415
60	0x3db52f53	0.08846917
61	0x3d3c3b54	0.045955017
62	0x3d83f175	0.06442539
63	0xbcde9328	-0.027169779

total_ops f8 [1]
0	0x0000000000000000	0.0

total_params f8 [1]
0	0x0000000000000000	0.0

total_ops f8 [1]
0	0x0000000000000000	0.0

total_params f8 [1]
0	0x0000000000000000	0.0

weight f4 [64, 64, 3, 3]
0	0x3e0882a1	0.13331081
1	0x3ce153ae	0.027505722
2	0x3d386be1	0.045024756
3	0x3c84a71c	0.016192965
4	0x3cdfe53d	0.027330989
5	0x3cb8c643	0.022555476
6	0x3ac4edfd	0.0015024539
7	0xbbfd6d1c	-0.007733954
8	0xbcfed57a	-0.031107653
9	0xbe227d52	-0.15868118
10	0xbd9e994d	-0.077440836
11	0xbd200549	-0.03906754
12	0xbd87a2d4	-0.06622854
13	0xbd87d706	-0.06632809
14	0xbd17ea15	-0.037088472
15	0x3b88b043	0.0041714027
16	0xbe2dcb4c	-0.16972083
17	0xbdd35824	-0.10319546
18	0x3c2da5ab	0.01059858
19	0xbe2762dc	-0.16346306
20	0x3d2a87f3	0.041633558
21	0xbd06a783	-0.032874595
22	0xbdbb2f02	-0.091398254
23	0xbd44e7ef	-0.04807275
24	0xbd246921	-0.04013932
25	0xbdeef266	-0.116673276
26	0x3d7108fc	0.05884646
27	0x3c994f35	0.018714527
28	0x3cf236fb	0.029567232
29	0x3d8d82f4	0.06909743
30	0x3d62b9c5	0.055352945
31	0xbd1a7763	-0.037711512
32	0xbd9b6112	-0.07586874
33	0xbdba5c1f	-0.09099602
34	0xbd1f6b15	-0.03892048
35	0x3b1ca939	0.0023904576
36	0xbd9f5522	-0.0777991
37	0xbd963d28	-0.073358834
38	0x3cd09f10	0.025466472
39	0xbdb10dcf	-0.08645212
40	0xbd5b8a5b	-0.053598743
41	0xbd421ae8	-0.04738894
42	0xbd1ae241	-0.03781343
43	0xbc95346f	-0.018213479
44	0xbdc13e5c	-0.09435722
45	0x3d120d75	0.035657365
46	0xbdb1335b	-0.086523734
47	0x3d73e43c	0.059543833
48	0xbcc628f9	-0.02418946
49	0xbe047c94	-0.12938148
50	0x3b231eff	0.0024890301
51	0xbc9e998a	-0.019360323
52	0x3cbae586	0.022814523
53	0xbc164964	-0.009172771
54	0xbd9cf125	-0.07663182
55	0xbdb34578	-0.087534845
56	0xbe3b3fe3	-0.1828609
57	0x3de5b9f6	0.1121711
58	0x3d083f47	0.03326347
59	0x3d238691	0.039923254
60	0x3e2c3a2a	0.16819063
61	0x3d5311e4	0.051530734
62	0x3d70808c	0.05871634
63	0xbd6d555e	-0.05794274
64	0xbdefc263	-0.11706998
65	0xbd690298	-0.05688724
66	0x3d69eda0	0.057111382
67	0xbe000dc3	-0.1250525
68	0xbcc35246	-0.023842942
69	0xbd3b2a5e	-0.0456947
70	0xbbf91665	-0.0076015466
71	0x3d42128c	0.04738097
72	0xbc8ae457	-0.016954584
73	0x3e0236b4	0.1271618
74	0x3d83bd41	0.06432582
75	0xbdbb9b89	-0.09160525
76	0xbd606f65	-0.054793734
77	0x3c067ef8	0.008208983
78	0xbd1fae52	-0.038984604
79	0xbc65b153	-0.014019328
80	0xbcdd6c21	-0.027029099
81	0x3d53abd9	0.05167756
82	0xbe3c45de	-0.18386027
83	0xbdde16de	-0.10844205
84	0x3d981484	0.07425788
85	0xbdfa96aa	-0.12235768
86	0xbda3dad6	-0.08000724
87	0x3d954703	0.07288935
88	0xbd94f155	-0.07272593
89	0xbe0ae846	-0.13565168
90	0xbccf3212	-0.02529243
91	0xbb3ecd39	-0.0029114021
92	0x3d888121	0.066652544
93	0xbd7a2103	-0.06106664
94	0x3c20cddc	0.009814706
95	0x3d04cc93	0.03242166
96	0xbc7063c0	-0.01467222
97	0x3cd199f5	0.025586108
98	0x3d4dbe74	0.05023046
99	0xbc6cc8b5	-0.014452149
100	0x3cfe140a	0.031015415
101	0x3e3d2c38	0.184739
102	0xbd916d8e	-0.07100974
103	0xbd0ceb31	-0.034403984
104	0x3d5984f2	0.053105302
105	0xbe50bd84	-0.20384794
106	0xbd2b0747	-0.041754987
107	0x3beca497	0.007221769
108	0x3e021824	0.12704521
109	0xbbde7333	-0.006788635
110	0x3d0ceb67	0.034404185
111	0x3db8fbf6	0.09032433
112	0xbdd7d9d0	-0.10539591
113	0x3bf2e3ff	0.007412433
114	0xbd30375e	-0.043021552
115	0xbe1c9628	-0.15291655
116	0x3e0370d3	0.12836008
117	0xbbbbadd6	-0.00572751
118	0xbd217dd7	-0.03942665
119	0xbbad9a73	-0.005297953
120	0x3d198a79	0.037485573
121	0xbd86e672	-0.06586923
122	0x3b988bf2	0.0046553547
123	0x3d87a213	0.0662271
124	0xbd9660e2	-0.07342698
125	0xbc3c2a58	-0.011484705
126	0xbc0dd766	-0.008657312
127	0x3dffd72c	0.12492213
128	0x3c45436e	0.012040002
129	0x3ac422d7	0.0014963996
130	0xbc9eee63	-0.019400781
131	0x3da9f15d	0.082979895
132	0x3c92e2ca	0.017930407
133	0xbcf7e708	-0.030261531
134	0x3c10837a	0.008820409
135	0x3e7e0a06	0.24808511
136	0x3dde4ffb	0.10855099
137	0x3eb48a58	0.35261798
138	0x3e622985	0.22086151
139	0xbd599e1b	-0.053129297
140	0x3e383a1b	0.17990915
141	0x3d4035f3	0.04692645
142	0xbdfdbc6d	-0.12389455
143	0x3df9a725	0.121900834
144	0xbdcb7b57	-0.099356346
145	0x3d52a025	0.051422257
146	0xbde177b2	-0.11009158
147	0xbcfa0a60	-0.030522525
148	0x3d7a0c3c	0.061046824
149	0xbe403a0f	-0.18772148
150	0xbd7d3c22	-0.061824925
151	0xbc67e778	-0.014154308
152	0xbdfa9a1a	-0.12236424
153	0xbd236918	-0.039895147
154	0x3c8197b1	0.015819402
155	0xbde1ab9e	-0.110190615
156	0x3bbed8cb	0.0058241836
157	0xbd797a46	-0.060907625
158	0xbc01b7b4	-0.007917333
159	0x3cc35068	0.023842052
160	0xbc5b9110	-0.013401285
161	0xbc956917	-0.018238587
162	0xbd06161f	-0.03273594
163	0xbd18b664	-0.037283316
164	0x3c87fd6f	0.016600339
165	0xbd2843b5	-0.041080195
166	0xbd0caccd	-0.034344483
167	0xbd73e112	-0.059540816
168	0xbcbfe139	-0.023422824
169	0x3c590436	0.013245633
170	0x3dbb544c	0.09146938
171	0xbd4b389f	-0.049614545
172	0xbe2fc1ed	-0.1716382
173	0x3d1f4fed	0.038894583
174	0xbd492df7	-0.0491161
175	0xbd1ff619	-0.039053056
176	0xbe04c39d	-0.12965246
177	0xbdd65048	-0.10464531
178	0xbd03a773	-0.032142114
179	0xbdd09f80	-0.10186672
180	0xbdb71d36	-0.089411184
181	0xbde3f12f	-0.111299865
182	0x3d0e7e08	0.03478816
183	0x3c0b5932	0.008505153
184	0xbd56ba03	-0.05242349
185	0xbd51cb66	-0.051219366
186	0x3ca4f463	0.020136064
187	0xbd84e762	-0.06489445
188	0x3b237fbc	0.0024947962
189	0xbde05a0d	-0.10954676
190	0x3cdae599	0.026720809
191	0xbdedc54e	-0.116098985
192	0xbc044ee7	-0.008075452
193	0x3d6a4dd7	0.05720314
194	0xbd9afac4	-0.07567361
195	0xbdbe57b1	-0.092940696
196	0xbb49f23d	-0.0030814551
197	0xbd621581	-0.05519629
198	0xbdc789cc	-0.097430795
199	0xbd1a98d6	-0.037743412
200	0x3b9d1e84	0.0047948975
201	0xbdbc9911	-0.092088826
202	0xbd316a75	-0.043314416
203	0xbd251dce	-0.040311627
204	0x3ca79b92	0.020459924
205	0x3c659847	0.0140133565
206	0xbd6cab72	-0.05778069
207	0xbd255bfd	-0.04037093
208	0xbb3358a7	-0.0027366073
209	0x3dabb5bb	0.08384272
210	0xbd088496	-0.03332957
211	0xbc812454	-0.015764393
212	0x3dea58db	0.11442729
213	0xbd744c42	-0.059643038
214	0x3c306ca7	0.010768092
215	0x3cb205f9	0.021731364
216	0xbd816076	-0.063172266
217	0x3dabdb62	0.08391453
218	0xbd832d01	-0.06405068
219	0xbdeda3fb	-0.116035424
220	0xba6f2407	-0.0009122495
221	0xbd5b797b	-0.05358265
222	0xbe11c096	-0.14233622
223	0xbd4022a5	-0.04690804
224	0xbdb83602	-0.08994676
225	0x3d8a0afc	0.06740376
226	0x3dd19319	0.10233135
227	0x3ddf9c51	0.10918487
228	0x3ccb1993	0.024792468
229	0x3d029611	0.031881396
230	0x3db1e56d	0.086863376
231	0x3da056ce	0.07829057
232	0x3e00f3bd	0.12592979
233	0x3e0c6a15	0.13712342
234	0xbdc54096	-0.096314594
235	0x3d9f9948	0.07792908
236	0x3d91e5e4	0.07123926
237	0xbe10af2f	-0.14129327
238	0xbbffdaf7	-0.007808085
239	0x3dda7649	0.10667092
240	0xbe1ea9fb	-0.1549453
241	0xbcaca71e	-0.021075781
242	0x3df13306	0.1177731
243	0x394177ef	0.00018450593
244	0xbd956b8f	-0.07295906
245	0x3d0baf9a	0.034103014
246	0xbc4ac24e	-0.012375427
247	0xbd16926e	-0.03676074
248	0x3d4942b4	0.04913588
249	0xbe1e52d4	-0.15461284
250	0xbd174312	-0.036929198
251	0x3e061484	0.13093764
252	0xbe1928a3	-0.14956908
253	0xbc70752c	-0.014676373
254	0xbd70523a	-0.058672167
255	0xbd880bba	-0.06642862

bias f4 [64]
0	0xbda72c87	-0.0816279
1	0xbcc2211c	-0.023697428
2	0xbca433a4	-0.020044155
3	0x3df5237f	0.11969661
4	0xbd8e079e	-0.069350466
5	0xbdcfae05	-0.101406135
6	0xbdfb6b69	-0.12276346
7	0x3e00d5bd	0.12581535
8	0x3e098f0b	0.13433473
9	0xbce2a5b4	-0.027666904
10	0xbe3b3cd3	-0.18284921
11	0xb9cf07b3	-0.00039487853
12	0xbb1c24ae	-0.0023825574
13	0x3dd5abd8	0.10433167
14	0xbd080ffa	-0.03321836
15	0xbd1f082c	-0.038826153
16	0xbd084cda	-0.033276416
17	0xbdf179ff	-0.11790847
18	0x3e0f00f2	0.13965204
19	0xbcfc42a5	-0.030793497
20	0xbded6704	-0.11591914
21	0x3ca23166	0.019798946
22	0xbdf766e3	-0.12080171
23	0xbd05237c	-0.032504544
24	0xbdc9d53e	-0.09855126
25	0xbe233143	-0.1593676
26	0xbd102782	-0.035193928
27	0xbc13bbaf	-0.009016915
28	0xbd626206	-0.055269264
29	0xbe26581c	-0.16244549
30	0xbdc3c580	-0.095591545
31	0xbd5be515	-0.053685267
32	0xbd7b851f	-0.06140625
33	0xbdc8bc8a	-0.09801586
34	0xbe1bf315	-0.15229447
35	0xbd0dedfe	-0.034650795
36	0xbd9f2ea7	-0.0777257
37	0x3d2191a1	0.039445523
38	0xbdad8fa5	-0.08474664
39	0xbcee2fe2	-0.029075567
40	0xbdc7f2a4	-0.09763077
41	0xbd035368	-0.032061964
42	0xbd44e631	-0.04807109
43	0xbe1d23a4	-0.15345627
44	0xbde1f46f	-0.1103295
45	0xbcfcb224	-0.030846663
46	0xbdd6e3dd	-0.1049268
47	0xbd475a7a	-0.04867027
48	0xbcb0b2d9	-0.021569656
49	0xbd906260	-0.070500135
50	0xbd875c8d	-0.066094495
51	0xbc5b5c73	-0.013388741
52	0xbc487a02	-0.01223612
53	0xbe32ec7d	-0.17473026
54	0xbd946291	-0.072453626
55	0xbde6a456	-0.11261813
56	0xbdb893fe	-0.09012602
57	0xbde3d1db	-0.11124011
58	0xbde9e2c7	-0.114202075
59	0xbdab563e	-0.08366059
60	0xbdae0044	-0.084961444
61	0xbdde3c89	-0.1085139
62	0x3ca03702	0.01955748
63	0xbdba017a	-0.09082313

total_ops f8 [1]
0	0x0000000000000000	0.0
