TrainedModels/volcano/2020_08_11_13_51_56_video_train_depth_3_lr_scale_0.1_act_lrelu_0.05/5/netD_a.pth (torch_old, 454648 bytes, 9 tensors)

head.conv.weight f4 [64, 3, 3, 3]
0.06526664 -0.009030461 -0.11347817 0.058123026 0.0075329267 -0.08238553 0.13546771 0.02680864
-0.01386745 0.08956514 0.0026329057 -0.15296227 0.11439552 -0.029153217 -0.12147361 0.13970646
-0.03992629 -0.07525596 0.096699096 0.017753473 -0.15242295 0.10071158 -0.014885134 -0.11187966
0.13711217 -0.019974323 -0.06175058 0.020455007 0.06862072 0.18657155 -0.038619366 -0.02794511
0.05500136 -0.038673345 -0.05241225 0.003653843 0.015858762 0.045929376 0.14656736 -0.056658126
-0.020645415 -0.018062945 -0.048795912 -0.014210763 -0.083527185 -0.0046369922 0.0017379023 0.16268569
-0.05619615 -0.06740185 0.0003021545 -0.08851632 -0.036266986 -0.047250915 0.0051871343 0.049394354
-0.006889657 0.037669145 0.029975252 -0.06522966 0.0015381458 0.05165862 -0.033020202 -0.05234985
-0.097341694 -0.06280633 -0.08967179 -0.2524326 -0.11509413 -0.053307936 -0.08418864 -0.0501503
0.047371026 0.048778348 0.07146408 0.0528181 -0.09292015 0.076686546 0.05253254 0.025280336
0.0857325 0.1184446 0.06143983 -0.14252518 0.033808444 -0.039940204 -0.017759733 -0.11547091
-0.015014371 0.17473459 0.10771746 0.04569277 -0.13728581 0.028387325 -0.02155706 -0.01996252
-0.10676243 -0.021857638 0.15352446 0.11487119 0.04199328 -0.11994155 0.014261027 -0.02842808
-0.01985233 -0.10351035 -0.02674457 0.16191338 -0.14948298 -0.016346997 0.039216958 -0.05855163
0.02909118 0.120068185 -0.023583414 0.07274205 0.12259345 0.03752722 -0.003921877 -0.04455421
-0.0054107583 -0.012639928 -0.057172187 0.0043730233 -0.03548614 -0.0634866 0.11153759 0.019777961
0.0048770052 0.06351633 -0.01683831 -0.06333994 0.018814044 -0.037767082 -0.059529103 0.026015522
0.014728036 0.13892932 -0.017109053 -0.11275988 0.0051349793 -0.03630138 -0.13649675 -0.058193497
-0.042940527 -0.029364627 -0.08237041 -0.027830377 0.056431774 -0.023226075 -0.019828029 0.051899206
0.033768184 0.016590156 0.014305857 -0.056923654 0.044619687 0.056082357 0.01780051 0.05579648
0.08422622 0.02405718 -0.1002887 -0.09534425 -0.095838465 -0.10306895 -0.09339289 -0.07733874
-0.10153488 -0.05477403 -0.13412061 0.040422108 0.05178647 0.05456146 0.047435522 0.043727484
0.092688344 0.040618367 0.050791424 -0.019968148 0.059254196 0.04445621 0.045040518 0.057136476
0.06210984 0.086663075 0.061964165 0.06867467 0.007092713 -0.013792565 -0.01033981 0.058690418
-0.04447291 -0.017798107 0.027344218 -0.060994897 0.023567006 0.090438984 0.00038060083 -0.01172615
0.06615433 -0.03970347 -0.008909538 0.01564902 -0.03761187 0.027476331 0.09126398 0.001093524
-0.02342786 0.06398161 -0.033705316 -0.020968374 0.030153772 -0.04869052 0.010226278 0.10444578
-0.007929768 -0.0023217783 -0.0037387367 0.0036901713 0.009005483 0.0009135742 0.016894832 -0.010607935
0.017275918 0.004909658 0.0056535555 -0.006548581 0.025994865 -0.012916693 0.015789144 0.015993422
0.000980545 0.00083528436 -0.020652365 -0.02073969 -0.0395366 -0.014605402 0.0016433315 -0.004625997
0.002694353 0.018310307 -0.03751072 -0.029106414 -0.045923542 -0.018494576 -0.008443339 -0.026325075
0.0058270986 -0.023479136 -0.02178892 0.07754811 0.0041939463 0.03174808 -0.0137013085 -0.0014234287
00000000: 84aa 853d 80f4 13bc 3e67 e8bd 6912 6e3d
00000010: c5d6 f63b bfb9 a8bd 0cb8 0a3e cb9d db3c
00000020: 4d34 63bc ee6d b73d d48c 2c3b 24a2 1cbe
00000030: 3348 ea3d bad2 eebc 28c7 f8bd 360f 0f3e
00000040: c089 23bd cc1f 9abd 2d0a c63d bb6f 913c
00000050: c314 1cbe df41 ce3d c7e0 73bc 2a21 e5bd
00000060: 2267 0c3e 31a1 a3bc 2dee 7cbd 4291 a73c
00000070: 0589 8c3d 9d0c 3f3e 572f 1ebd 25ed e4bc
00000080: 1b49 613d f167 1ebd 3aae 56bd 5075 6f3b
00000090: 3cea 813c 7120 3c3d c115 163e 5a12 68bd
000000a0: 9320 a9bc bef8 93bc 39de 47bd 43d4 68bc
000000b0: 4d10 abbd e9f1 97bb 53ca e33a 1497 263e
000000c0: ef2d 66bd fb09 8abd 7e6a 9e39 0b48 b5bd
000000d0: b18c 14bd 2d8a 41bd d6f8 a93b bc51 4a3d
000000e0: a2c2 e1bb f64a 1a3d a98e f53c 2197 85bd
000000f0: 9c9b c93a fd97 533d 3140 07bd cc6c 56bd
00000100: 155b c7bd 9ba0 80bd d8a5 b7bd d93e 81be
00000110: 79b6 ebbd 6c59 5abd 186b acbd 676a 4dbd
00000120: 1f08 423d cecb 473d c25b 923d cb57 583d
00000130: eb4c bebd d60d 9d3d 5c2c 573d b518 cf3c
00000140: 8594 af3d 1593 f23d 55a8 7b3d 1ff2 11be
00000150: b97a 0a3d 5798 23bd dc7c 91bc 037c ecbd
00000160: d6fe 75bc a0ed 323e f99a dc3d 5828 3b3d
00000170: a794 0cbe 898c e83c 6e98 b0bc 7088 a3bc
00000180: 43a6 dabd ca0e b3bc 8435 1d3e 9641 eb3d
00000190: 2501 2c3d eaa3 f5bd 15a7 693c 01e2 e8bc
000001a0: 5ba1 a2bc 3cfd d3bd 6e17 dbbc 9fcc 253e
000001b0: 1112 19be 23ea 85bc f6a1 203d d5d3 6fbd
000001c0: a050 ee3c 4fe6 f53d 0132 c1bc c9f9 943d
000001d0: 4612 fb3d 24b6 193d 1783 80bb 7a7e 36bd
000001e0: bb4c b1bb b317 4fbc 622d 6abd 944b 8f3b
000001f0: ea59 11bd 4305 82bd d26d e43d 6405 a23c
00000200: 49cf 9f3b da14 823d 7ff0 89bc 5fb8 81bd
00000210: e91f 9a3c a8b1 1abd cad4 73bd 811e d53c
00000220: dc4d 713c 7d43 0e3e 4928 8cbc a7ee e6bd
00000230: 5443 a83b c1b0 14bd cec5 0bbe 4e5c 6ebd
00000240: 68e2 2fbd 168e f0bc d1b1 a8bd 88fc e3bc
00000250: 0125 673d 9c44 bebc 646e a2bc 4394 543d
00000260: 8250 0a3d 14e8 873c 1d63 6a3c c728 69bd
00000270: 22c3 363d 9db6 653d 60d2 913c da8a 643d
00000280: cc7e ac3d 9013 c53c 2964 cdbd d943 c3bd
00000290: f546 c4bd d015 d3bd c644 bfbd c663 9ebd
000002a0: 85f1 cfbd bc5a 60bd ea56 09be a791 253d
000002b0: 0d1e 543d d67b 5f3d c04b 423d 971b 333d
000002c0: 63d3 bd3d 725f 263d ab0a 503d 3e94 a3bc
000002d0: 87b4 723d b717 363d 687c 383d f007 6a3d
000002e0: e366 7e3d 697c b13d 23ce 7d3d 4ea5 8c3d
000002f0: fd69 e83b 36fa 61bc 4e68 29bc 5d65 703d
00000300: 3a29 36bd 56cd 91bc fb00 e03c c9d5 79bd
00000310: 980f c13c 1338 b93d 618b c739 0a1f 40bc
00000320: ec7b 873d 1ba0 22bd 50f9 11bc 6032 803c
00000330: e70e 1abd 0b16 e13c 9ce8 ba3d 9454 8f3a
00000340: c9eb bfbc ca08 833d 960e 0abd dec5 abbc
00000350: 0b05 f73c b66f 47bd 1e8c 273c abe7 d53d
00000360: dceb 01bc fa28 18bb 9805 75bb cdd6 713b
00000370: bc8b 133c ed7c 6f3a 0867 8a3c e7cc 2dbc
00000380: 3a86 8d3c 32e1 a03b 7641 b93b 7b95 d6bb
00000390: 2ff3 d43c 8aa0 53bc 3c58 813c a304 833c
000003a0: a185 803a fcf6 5a3a 262f a9bc 48e6 a9bc
000003b0: 21f1 21bd 7f4b 6fbc 0e65 d73a ad95 97bb
000003c0: be93 303b 7fff 953c d7a4 19bd 9370 eebc
000003d0: 531a 3cbd f081 97bc ee55 0abc afa7 d7bc
000003e0: 3ff1 be3b 5157 c0bc ad7e b2bc 8bd1 9e3d
000003f0: 5f6d 893b 460a 023d 747b 60bc 5792 baba

head.conv.bias f4 [64]
1.1330251e-05 7.787421e-05 -0.001618933 -0.123669006 3.987142e-05 7.5577664e-05 0.0022628764 -0.27522016
0.08370473 0.01786048 -0.2642113 0.48255846 0.20658104 -0.005439725 0.21925671 0.0001713824
-0.3478216 0.18432792 0.16976129 9.306316e-05 4.3768312e-05 8.703704e-05 -5.316095e-06 0.0001671049
-0.26408812 -6.817665e-06 0.08561756 0.18946517 0.002622438 0.0036036384 0.17366345 -0.19475994
1.6373202e-05 -0.2969011 0.22078143 0.00012835355 0.13382636 0.123031735 0.081257515 6.370015e-06
0.2553947 0.17433034 -0.1453827 0.15742171 -0.32820037 -0.26738468 -0.42700243 0.08684056
0.16536759 -0.21090238 -0.13467395 -1.2104101e-06 0.100279726 6.299533e-05 0.13030626 0.13229708
0.1295679 0.06864064 -0.44359207 0.019375691 0.18361653 0.20444354 -0.19978848 0.19805461
00000000: 0f17 3e37 6650 a338 6132 d4ba 2d46 fdbd
00000010: 9c3b 2738 737f 9e38 c44c 143b a8e9 8cbe
00000020: 636d ab3d 2450 923c b446 87be e711 f73e
00000030: fb89 533e b83f b2bb d584 603e 1db5 3339
00000040: ac15 b2be 75c0 3c3e e7d5 2d3e e72a c338
00000050: de93 3738 a887 b638 e960 b2b6 e138 2f39
00000060: 8f36 87be 4cc3 e4b6 4258 af3d 2803 423e
00000070: 35dd 2b3b 052b 6c3b d5d4 313e 266f 47be
00000080: 2f59 8937 6c03 98be 8714 623e a596 0639
00000090: c709 093e 10f8 fb3d 576a a63d 03be d536
000000a0: 18c3 823e a783 323e 34df 14be 2833 213e
000000b0: e109 a8be a5e6 88be 10a0 dabe 77d9 b13d
000000c0: 1f56 293e cbf6 57be f8e7 09be 6075 a2b5
000000d0: 755f cd3d 5c1c 8438 016f 053e e378 073e
000000e0: 73ad 043e 7793 8c3d 801e e3be c5b9 9e3c
000000f0: f905 3c3e a659 513e 5a95 4cbe d4ce 4a3e

body.block0.conv.weight f4 [64, 64, 3, 3]
0.056701954 -0.108809695 -0.057671484 0.0865444 -0.09304241 -0.0022749733 0.13901244 -0.057654284
0.012025607 0.03293352 -0.06510958 0.063219495 0.06424279 0.026073342 -0.05786432 0.112985395
-0.050433736 -0.18202679 -0.031189462 -0.05477789 -0.09572933 0.008161288 0.032824907 -0.022216845
0.090213105 0.04661429 -0.03992796 -0.034507155 -0.053390715 -0.20473275 0.074096695 -0.007660375
-0.1613394 -0.0015892244 -0.09525807 -0.18295701 0.008265552 0.026583176 0.032182317 0.006982203
-0.010968025 -0.044971135 0.016356323 0.0423285 0.005132015 0.07253853 0.025485989 -0.021227874
0.07050089 0.027902214 0.008575931 0.118909836 0.022357812 -0.028964626 0.11657274 0.080667205
-0.004936654 0.1559475 0.1309268 0.12568752 0.14393276 0.13876998 0.21304473 0.03102148
-0.0579556 -0.26728556 0.06732605 -0.07351182 -0.2210066 0.15007675 -0.0032778312 -0.22587346
0.01008999 -0.044791475 -0.054557316 0.07841124 0.03585904 0.016855044 0.09744265 0.07379241
0.057266403 -0.059107207 -0.015242963 -0.09669494 -0.00676611 0.06649908 -0.054946806 0.12517601
0.027068134 -0.043907937 -0.025273478 -0.009315971 -0.011926367 -0.019841524 -0.0006719521 -0.008403246
-0.022400938 -0.024212513 -0.02783839 -0.005230514 -0.035951238 -0.01712996 -0.032124896 -0.008202299
-0.0312514 -0.035839263 0.032687556 0.024924181 0.13064875 0.005749003 -0.082204506 0.071518764
0.019733397 -0.23300582 0.11061407 0.020658202 -0.24940556 -0.016800432 -0.047868926 -0.05282092
0.009056146 -0.020831559 -0.044692732 0.06622166 0.019291747 0.004830574 0.050160635 0.0040805084
0.021704646 0.06219301 0.020946408 -0.0338621 0.027614223 0.030103132 -0.03450083 -0.028069
-0.014687755 -0.049739096 0.07718223 0.030376943 0.006304389 -0.00931994 0.067165695 0.042199913
0.068007454 0.05608164 0.00097496295 0.022350393 0.030249683 -0.024210528 -0.012894357 0.041608833
-0.044647194 -0.019487847 0.02541407 0.006620787 -0.01747579 0.0028182245 0.023359185 0.101789996
0.06774798 0.023307674 0.026714444 0.00819127 0.037899893 0.024581932 0.029212259 0.08677213
0.008324819 0.031487755 0.045322273 0.05176114 0.0009629807 -0.03507823 0.0035304304 -0.0035975552
-0.047779005 0.036309708 0.007867554 -0.06024535 0.112862766 -0.023303056 -0.13339233 0.17843236
0.06618661 -0.1025579 0.18837124 -0.0030284768 -0.112828195 0.1634026 -0.03018191 -0.21703337
0.19020794 0.048094682 -0.20105964 0.18602845 0.010442413 -0.21885104 -0.019771004 -0.01927603
-0.11711357 -0.045873366 0.002013564 -0.10882155 -0.011687368 -0.0402736 -0.11847136 0.04372373
0.12994124 0.11282954 0.1570575 0.10597072 0.027709689 0.25971636 0.08727886 -0.08258956
-0.0391554 0.07420768 0.109126724 0.14794058 0.16849422 0.13547586 0.112790465 0.12213491
0.108429715 0.038627457 0.01871003 0.041016906 -0.010831278 0.0100708455 -0.06187282 0.031984296
-0.02509091 -0.017716544 0.0032924055 0.033541914 0.074194014 0.032241095 0.0712281 0.10180151
-0.043382324 -0.0014400535 0.012441397 -0.075230666 -0.07382684 -0.081945434 0.020232718 0.016380148
-0.031388834 0.04251501 0.058212236 -0.007182363 -0.101500385 -0.12072474 -0.16543965 0.028717156
00000000: 4f40 683d 9ed7 debd ef38 6cbd 313e b13d
00000010: 058d bebd b817 15bb 4759 0e3e e626 6cbd
00000020: 0d07 453c 4ce5 063d 2c58 85bd 3979 813d
00000030: b991 833d c397 d53c 2303 6dbd e364 e73d
00000040: 9b93 4ebd 3b65 3abe 0b81 ffbc c85e 60bd
00000050: bd0d c4bd ecb6 053c 6973 063d 1a00 b6bc
00000060: a6c1 b83d a0ee 3e3d 808b 23bd 6057 0dbd
00000070: 39b0 5abd 76a5 51be 02c0 973d e203 fbbb
00000080: 2836 25be 864d d0ba aa16 c3bd 1559 3bbe
00000090: 3d6c 073c f6c4 d93c 9bd1 033d f7ca e43b
000000a0: 3bb3 33bc a733 38bd b2fd 853c a660 2d3d
000000b0: 762a a83b 158f 943d fec7 d03c 14e6 adbc
000000c0: c562 903d 2f93 e43c 1082 0c3c 0087 f33d
000000d0: bb27 b73c 3947 edbc b0bd ee3d d934 a53d
000000e0: a8c3 a1bb b4b0 1f3e ad11 063e 3bb4 003e
000000f0: 1c63 133e b819 0e3e 6628 5a3e c220 fe3c
00000100: da62 6dbd a7d9 88be 3de2 893d 5d8d 96bd
00000110: 8e4f 62be b8ad 193e e2d0 56bb 5f4b 67be
00000120: 7c50 253c 4477 37bd 7e77 5fbd 1296 a03d
00000130: eee0 123d 9713 8a3c 0390 c73d 7a20 973d
00000140: 2d90 6a3d 661a 72bd 9fbd 79bc ff07 c6bd
00000150: 3fb6 ddbb ab30 883d e70f 61bd 242e 003e
00000160: febd dd3c cfd8 33bd 530a cfbc 04a2 18bc
00000170: cf66 43bc b18a a2bc f125 30ba c5ad 09bc
00000180: 2c82 b7bc 5259 c6bc 560d e4bc bb64 abbb
00000190: 9b41 13bd 2154 8cbc 6595 03bd ef62 06bc
000001a0: 7801 00bd 31cc 12bd 63e3 053d cc2d cc3c
000001b0: c9c8 053e 2262 bc3b d65a a8bd 6e78 923d
000001c0: efa7 a13c 1499 6ebe a189 e23d 643b a93c
000001d0: 2c64 7fbe 0fa1 89bc 3512 44bd c05a 58bd
000001e0: 3b60 143c f2a6 aabc ba0f 37bd 399f 873d
000001f0: ba09 9e3c cb49 9e3b 3d75 4d3d c9b5 853b
00000200: f1cd b13c 19be 7e3d cd97 ab3c fcb2 0abd
00000210: 3937 e23c d89a f63c be50 0dbd f6f0 e5bc
00000220: e9a4 70bc 39bb 4bbd b811 9e3d 11d9 f83c
00000230: 0c95 ce3b a9b2 18bc 2b8e 893d d1d9 2c3d
00000240: 7e47 8b3d ddb5 653d a894 7f3a 2c18 b73c
00000250: 2fce f73c 2855 c6bc da42 53bc 066e 2a3d
00000260: fadf 36bd faa4 9fbc 2b31 d03c 30f3 d83b
00000270: 6329 8fbc f6b1 383b c35b bf3c 4677 d03d
00000280: 74bf 8a3d bcef be3c 40d8 da3c ad34 063c
00000290: eb3c 1b3d 0c60 c93c 8c4e ef3c 96b5 b13d
000002a0: d264 083c 4ef9 003d d9a3 393d 7d03 543d
000002b0: 8a70 7c3a 31ae 0fbd cb5e 673b f6c4 6bbb
000002c0: ebb3 43bd 7db9 143d eae6 003c d4c3 76bd
000002d0: 9824 e73d 0de6 bebc 0098 08be f9b6 363e
000002e0: d88c 873d e009 d2bd 64e4 403e 6979 46bb
000002f0: 7812 e7bd 0353 273e 0e40 f7bc ff3d 5ebe
00000300: dfc5 423e eefe 443d 94e2 4dbe 3e7e 3e3e
00000310: a816 2b3c 7d1a 60be cdf6 a1bc c4e8 9dbc
00000320: 3dd9 efbd b6e5 3bbd 00f6 033b d5dd debd
00000330: 607c 3fbc eef5 24bd 1da1 f2bd a717 333d
00000340: 510f 053e 2d13 e73d aed3 203e 2d07 d93d
00000350: 6eff e23c 8bf9 843e 42bf b23d b724 a9bd
00000360: 6a61 20bd 32fa 973d d57d df3d bc7d 173e
00000370: c089 2c3e 2fba 0a3e b0fe e63d de21 fa3d
00000380: 6610 de3d d337 1e3d c745 993c 5801 283d
00000390: ac75 31bc 3000 253c 5b6e 7dbd f701 033d
000003a0: 748b cdbc 4922 91bc 66c5 573b 3f63 093d
000003b0: 08f3 973d 3d0f 043d 0ae0 913d 4f7d d03d
000003c0: aab1 31bd 2dc0 bcba 00d7 4b3c 8912 9abd
000003d0: 8732 97bd 02d3 a7bd 16bf a53c a92f 863c
000003e0: 9491 00bd 3824 2e3d f46f 6e3d 075a ebbb
000003f0: 6fdf cfbd 883e f7bd 0369 29be 3e40 eb3c

body.block0.conv.bias f4 [64]
0.049468126 0.16209748 0.28267354 -0.14069282 0.1863967 0.10912619 0.015664682 0.23157845
0.27204147 0.21570444 0.28171524 0.3404173 0.28729448 0.19789249 0.15976234 0.100766614
0.3177425 0.17511728 0.39834753 0.11056119 0.15573668 0.016678521 0.06614899 0.2635222
-0.038853247 0.015861867 -0.060654964 0.07075507 0.19480215 0.21745962 -0.020749398 -0.11968561
0.15234865 0.11805251 0.35178193 0.1198271 0.08122855 0.10201549 0.02473034 -0.06335042
0.11858069 0.15750687 -0.004097454 0.28510785 0.04879297 0.1037787 0.14954394 0.13907057
0.048749633 0.06739788 -0.0043834615 0.26544747 0.15706909 0.2245851 0.43270475 0.52113765
0.1510503 0.05291993 0.31473097 0.15630327 0.021184497 -0.03763452 0.17659052 0.062693074
00000000: 179f 4a3d e2fc 253e 96ba 903e c711 10be
00000010: c7de 3e3e 8d7d df3d 3853 803c e722 6d3e
00000020: 0549 8b3e a0e1 5c3e fb3c 903e 2d4b ae3e
00000030: 4318 933e 54a4 4a3e bd98 233e ba5e ce3d
00000040: 25af a23e f251 333e 35f4 cb3e e86d e23d
00000050: 7079 1f3e 65a1 883c 1f79 873d 62ec 863e
00000060: 9524 1fbd bff0 813c 5771 78bd 09e8 903d
00000070: 377a 473e bcad 5e3e a4fa a9bc bb1d f5bd
00000080: 4901 1c3e 84c5 f13d c31c b43e e967 f53d
00000090: 275b a63d 7fed d03d 4897 ca3c ddbd 81bd
000000a0: 6fda f23d 7b49 213e ef43 86bb a8f9 913e
000000b0: 23db 473d ed89 d43d 0c22 193e 8468 0e3e
000000c0: b2ad 473d e607 8a3d 24a3 8fbb bbe8 873e
000000d0: b8d6 203e a3f9 653e 7a8b dd3e 4769 053f
000000e0: eeac 1a3e 92c2 583d 6b24 a13e f70d 203e
000000f0: 1c8b ad3c a826 1abd 25d4 343e 3a65 803d

body.block1.conv.weight f4 [64, 64, 3, 3]
-0.017151043 0.020086205 -0.014439258 -0.0072394805 0.05311587 0.04065913 0.0035005575 0.023272937
-0.026729824 -0.10151923 -0.1736414 -0.2641587 -0.06396652 -0.17196102 -0.18547441 -0.054947477
-0.08502986 -0.16059859 0.029376226 -0.023901047 0.024916101 0.013842487 -0.016802277 0.061289188
0.032329854 0.08216291 0.070860915 0.06054017 0.035110027 0.03823053 0.041721325 0.06433208
0.028190533 -0.055478666 -0.0768214 -0.0021108256 0.08595601 0.060476623 0.05630869 0.03347383
0.025347197 0.06837804 -0.04061783 -0.0072892574 -0.0014505308 -0.019824734 -0.042573478 -0.021417337
-0.12180289 -0.061937086 -0.069053195 -0.16943038 -0.10751736 -0.06235094 -0.0013024088 -0.03334828
-0.019791244 -0.0033740143 -0.08676129 -0.013613363 0.048992027 -0.04837733 -0.12321234 0.001252397
-0.040844098 -0.13246779 -0.003946799 -0.04662167 -0.016828194 -0.059244726 -0.041739907 -0.026600102
-0.029314702 -0.04868147 -0.06506278 0.09424982 0.026148347 -0.0366606 0.13833086 0.06665582
0.040147558 0.026822217 -0.030091358 0.008585035 -0.026190512 -0.0026591774 -0.0058874334 0.09682625
0.056624033 -0.025627213 -0.020557469 -0.032924563 -0.011339257 -0.02393688 0.0048597725 0.03171228
0.056378473 0.062427506 0.022143058 0.01984722 0.015870111 0.098955855 -0.028541803 -0.03142581
0.009155996 -0.060709998 -0.115353145 -0.029358737 -0.08403233 0.026063198 0.0494277 -0.11235468
-0.022028713 0.043361872 -0.15659894 0.0104108425 0.05538673 0.08228618 0.040815428 0.070654705
0.029119851 0.029786035 0.049827933 0.011713299 -0.00266807 -0.045751333 0.07590337 0.020440605
0.007958044 0.07677871 0.021332048 -0.037157796 0.03668892 -0.07322778 -0.11407578 -0.16867466
-0.14073561 -0.3001965 -0.03951997 -0.063563496 -0.17724778 -0.00762421 -0.013965494 -0.12150946
0.022999799 0.022623228 0.110386536 -0.0155871175 0.0397046 0.06492219 0.01938785 0.10152791
0.093415886 0.11080795 0.08980605 0.057297476 0.119189516 0.1435979 0.04792141 0.15313232
0.10280198 0.08076813 0.052082606 -0.015700778 -0.097647436 0.0372342 0.011555296 -0.06604165
0.021204684 0.013977327 -0.05682744 -0.04900539 -0.028581688 -0.038391124 0.016244167 0.088629715
0.09522562 0.043830328 0.07015471 0.06457971 0.012335871 -0.008374587 0.068039834 0.016400084
0.054068297 0.14221458 -0.053058192 0.04945096 0.11033141 -0.07671299 -0.023340816 -0.07232973
-0.041606672 -0.024864476 -0.066490665 0.0019676439 -0.02540466 -0.04464874 0.02293214 0.084907606
0.05015073 0.04555973 0.081428304 0.07909777 0.06294605 0.12359522 0.044043392 0.12251523
0.07175286 0.15046452 0.0016601958 0.006705287 0.07326925 0.019839378 -0.003947949 0.0010858187
0.123194955 0.076437935 0.016346987 0.054293603 0.09286928 0.08603772 0.016617738 0.036466498
0.022418234 -0.053070128 -0.043721706 -0.08222052 0.08255221 0.041852858 0.05732356 0.06568573
0.018010687 0.037132982 -0.1048657 -0.16391034 -0.16175205 -0.07923577 0.029456144 -0.016363304
-0.06631453 -0.025558047 0.022980446 0.027033687 -0.0353116 -0.06777548 0.063206606 -0.039704088
-0.093549706 0.022179827 -0.053330924 -0.070234574 -0.0287662 -0.023942368 -0.04558952 -0.10784988
00000000: 5880 8cbc d38b a43c a392 6cbc 2a39 edbb
00000010: 0790 593d 308a 263d 9c69 653b e3a6 be3c
00000020: 81f8 dabc 50e9 cfbd 0dcf 31be cf3f 87be
00000030: e100 83bd 8d16 30be 01ed 3dbe 9b10 61bd
00000040: 2324 aebd f573 24be 69a6 f03c 21cc c3bc
00000050: da1c cc3c 99cb 623c eea4 89bc 5f0a 7b3d
00000060: 4f6c 043d 0745 a83d 871f 913d f8f8 773d
00000070: 88cf 0f3d 9e97 1c3d fbe3 2a3d 8ac0 833d
00000080: d5ef e63c 993d 63bd 8a54 9dbd c755 0abb
00000090: b409 b03d 56b6 773d f1a3 663d db1b 093d
000000a0: eda4 cf3c c909 8c3d e25e 26bd b9da eebb
000000b0: bd1f beba 7b67 a2bc 8761 2ebd 6973 afbc
000000c0: cb73 f9bd beb1 7dbd c36b 8dbd 287f 2dbe
000000d0: 1032 dcbd b363 7fbd 96b5 aaba 3598 08bd
000000e0: 3f21 a2bc 911e 5dbb e7af b1bd 950a 5fbc
000000f0: ddab 483d 4f27 46bd c056 fcbd 7827 a43a
00000100: 244c 27bd a3a5 07be 2654 81bb 5df6 3ebd
00000110: 48db 89bc 99aa 72bd 77f7 2abd 75e8 d9bc
00000120: 6325 f0bc 3966 47bd a33f 85bd 0d06 c13d
00000130: 0f35 d63c 6d29 16bd 9ba6 0d3e d982 883d
00000140: c471 243d 44ba db3c 2782 f6bc 3fa8 0c3c
00000150: 7c8d d6bc 9845 2ebb 5feb c0bb d74c c63d
00000160: 9aee 673d 29f0 d1bc 2368 a8bc e8db 06bd
00000170: 4ac8 39bc 4717 c4bc ba3e 9f3b bce4 013d
00000180: 1ded 663d fcb3 7f3d 5c65 b53c a396 a23c
00000190: 0902 823c 5ea9 ca3d 80d0 e9bc 5ab8 00bd
000001a0: 0803 163c 0cab 78bd 453e ecbd bc81 f0bc
000001b0: 2419 acbd 7d82 d53c b374 4a3d 361a e6bd
000001c0: 8f75 b4bc 389c 313d 795b 20be 3d92 2a3c
000001d0: 32dd 623d a885 a83d 142e 273d 6ab3 903d
000001e0: c18c ee3c d801 f43c 6018 4c3d 23e9 3f3c
000001f0: c9da 2ebb c065 3bbd 3a73 9b3d 0e73 a73c
00000200: 7562 023c 283e 9d3d 8cc0 ae3c c632 18bd
00000210: 1f47 163d 72f8 95bd 90a0 e9bd 0db9 2cbe
00000220: ff1c 10be 5bb3 99be b1df 21bd 942d 82bd
00000230: 7180 35be 82d4 f9bb 87cf 64bc f4d9 f8bd
00000240: 136a bc3c 5954 b93c 5612 e23d 1c61 7fbc
00000250: 4aa1 223d edf5 843d 45d3 9e3c dded cf3d
00000260: d450 bf3d 47ef e23d 3cec b73d c2b0 6a3d
00000270: a219 f43d 540b 133e 3e49 443d b8ce 1c3e
00000280: d889 d23d c369 a53d 9254 553d eb9e 80bc
00000290: 61fb c7bd e382 183d 6d52 3d3c d840 87bd
000002a0: 72b5 ad3c 2901 653c e4c3 68bd e0b9 48bd
000002b0: 2524 eabc 0340 1dbd 7d12 853c 7f83 b53d
000002c0: a605 c33d 6e87 333d 46ad 8f3d 5e42 843d
000002d0: 651c 4a3c 9035 09bc 7858 8b3d 7859 863c
000002e0: b876 5d3d b3a0 113e 8c53 59bd 178d 4a3d
000002f0: 6ff5 e13d b31b 9dbd 3d35 bfbc 9c21 94bd
00000300: c26b 2abd 96b0 cbbc 422c 88bd 96f3 003b
00000310: 6f1d d0bc 99e1 36bd 2fdc bb3c 0ae4 ad3d
00000320: da6a 4d3d d79c 3a3d e2c3 a63d 03fe a13d
00000330: dce9 803d 7e1f fd3d d866 343d 44e9 fa3d
00000340: 2af3 923d 5f13 1a3e ed9a d93a 06b8 db3b
00000350: 300e 963d 3186 a23c cc5d 81bb 0852 8e3a
00000360: a34d fc3d 7e8b 9c3d 1eea 853c f862 5e3d
00000370: 4032 be3d 8b34 b03d ec21 883c e55d 153d
00000380: 72a6 b73c 1060 59bd 8815 33bd 3b63 a8bd
00000390: 2211 a93d e76d 2b3d 1ccc 6a3d 3d86 863d
000003a0: 268b 933c c118 183d d4c3 d6bd 1dd8 27be
000003b0: 54a2 25be 5d46 a2bd 034e f13c 560c 86bc
000003c0: eacf 87bd 1c5f d1bc 7d41 bc3c c075 dd3c
000003d0: e5a2 10bd dfcd 8abd 7772 813d c1a0 22bd
000003e0: fd96 bfbd 78b2 b53c 8771 5abd 25d7 8fbd
000003f0: 18a7 ebbc c922 c4bc 14bc 3abd 66e0 dcbd

body.block1.conv.bias f4 [64]
0.0354228 0.45132452 0.20554744 0.5805882 0.5446203 0.45221728 0.09077346 -0.14925641
0.5118118 0.3951643 0.028011901 0.226885 0.46339774 0.24954605 0.16754115 0.16903964
0.20040426 0.31619683 0.51217633 0.0785101 0.3102726 -0.09111783 0.15540865 0.16911559
0.392209 0.6923325 0.48685196 -0.046393953 0.304769 0.1492544 0.40250748 0.8680109
0.4471853 0.97178 0.25778937 0.4847227 0.59213454 0.63160515 0.35165355 0.5006775
0.43134105 0.42116746 0.6756704 0.06797807 0.6335154 0.12432245 0.4997248 0.41583112
0.26059467 0.0945891 0.19209439 0.08218762 -0.22683086 0.5283796 0.50932664 0.32124335
0.38181752 0.12878914 0.5597368 0.29640758 0.979608 0.14140196 0.6283759 0.3848412
00000000: 7f17 113d 0214 e73e 077b 523e 6ea1 143f
00000010: 3c6c 0b3f 0689 e73e 70e7 b93d acd6 18be
00000020: 1906 033f fa52 ca3e 3779 e53c 8b54 683e
00000030: 7842 ed3e 0089 7f3e e88f 2b3e ba18 2d3e
00000040: c636 4d3e 8de4 a13e fd1d 033f e7c9 a03d
00000050: 0ddc 9e3e fc9b babd 7223 1f3e a32c 2d3e
00000060: 9ecf c83e b43c 313f a944 f93e 9607 3ebd
00000070: af0a 9c3e 25d6 183e 7615 ce3e f635 5e3f
00000080: 79f5 e43e 93c6 783f f8fc 833e 932d f83e
00000090: 2196 173f e0b0 213f ef0b b43e 672c 003f
000000a0: bcd8 dc3e 43a3 d73e bcf8 2c3f 1638 8b3d
000000b0: 112e 223f c59c fe3d eedb ff3e d1e7 d43e
000000c0: aa6c 853e eeb7 c13d 64b4 443e fc51 a83d
000000d0: 5946 68be e343 073f 3b63 023f 027a a43e
000000e0: 967d c33e 4de1 033e e94a 0f3f bcc2 973e
000000f0: 97c7 7a3f adcb 103e 3edd 203f e809 c53e

body.block2.conv.weight f4 [64, 64, 3, 3]
-0.074048534 -0.01802392 -0.052333478 -0.06913112 -0.0043650465 0.02764171 -0.0027948273 0.11226798
0.14384012 -0.1041771 -0.0088516725 -0.035683576 -0.07333231 -0.05782377 -0.028762206 -0.023687517
-0.028227484 0.003725584 0.05031125 -0.01847027 0.03631517 0.013235825 -0.1191724 -0.0028920942
0.0738583 -0.05707546 -0.029746842 0.019184895 0.0521985 0.02825211 0.03695663 0.08097413
0.044657562 0.08966478 0.074003376 0.080063604 0.08619074 -0.102108024 -0.12760921 0.020530723
-0.19352835 -0.18900815 0.12942004 -0.07506203 0.009024816 0.049076 0.054400146 0.0010969253
0.10940237 -0.02102419 -0.036268312 0.13217212 -0.019538205 -0.019500386 0.053939193 -0.043677196
-0.17511438 0.09842114 0.005619891 -0.16552754 0.14155242 -0.016918886 -0.17015314 -0.07829506
-0.015213183 0.0014621782 -0.06755059 0.016051684 0.0433446 -0.12504376 0.06097938 0.06879787
0.10820857 0.06338288 0.017589787 0.00939379 -0.013619178 0.0043072496 0.033330277 -0.01461153
-0.05689442 0.06534384 -0.029765254 0.0440626 0.0701941 -0.035912637 -0.011786435 0.048752867
-0.057234306 0.07135686 -0.008783191 0.0023731147 -0.028196352 -0.001826283 0.0017113632 0.031646226
-0.026259588 -0.0009329983 0.062435992 -0.030664468 -0.025883585 -0.12381762 -0.015888218 -0.011280658
-0.09431757 -0.01356706 0.038132757 0.033082698 -0.010544649 0.035099793 0.0010355874 0.028835658
0.012175775 -0.019822042 -0.01840588 -0.0664188 -0.047952674 -0.077442355 0.01336237 0.04454668
-0.0867673 -0.008918448 0.04251582 -0.26884392 -0.09230187 0.09928773 0.04366883 0.009988452
-0.06738072 0.06394445 0.023755763 -0.04825814 0.03329951 0.017709782 0.026830528 0.023406746
0.068571016 -0.07348282 -0.045925513 0.012956294 -0.11255104 -0.24444674 -0.11989057 -0.2244923
0.102909856 0.064958066 0.14385255 0.021532847 0.032756586 0.09626746 0.048226997 0.020611243
0.0735799 -0.013006771 -0.050166868 -0.03220291 0.05080763 0.043597374 -0.022655766 -0.00094457896
0.009059711 -0.10490094 0.09747574 0.070939586 -0.052638896 0.13887198 0.098548956 -0.06531461
0.05815161 0.092064455 -0.09586713 0.0361486 0.082570516 0.0016902967 -0.028387506 -0.0072213984
0.023263589 -0.21534424 -0.053979002 0.013915874 -0.04784013 -0.07351437 -0.056767166 0.026908083
-0.04210843 -0.014156498 0.12490925 0.013601712 0.017010426 -0.039359152 -0.096905224 -0.014803617
-0.016106632 -0.014568531 0.009976338 -0.1272886 -0.10619575 0.0053032977 -0.03727566 -0.11038995
-0.12461998 0.060681317 -0.027263207 -0.12426758 0.107282996 0.035685655 0.006609355 -0.16013266
-0.018604396 0.004739061 -0.16990292 2.606738e-05 0.032738335 -0.1745662 -0.040058378 0.006305292
0.057845715 0.06511573 -0.08265895 0.017707765 0.0025769738 -0.08461496 0.0383906 -0.01872371
-0.02323274 0.14079767 0.06856506 -0.06531003 0.08076085 -0.0076401914 -0.13107282 0.06847562
-0.03220925 -0.15370783 0.031660452 -0.026971763 -0.04972962 0.07825669 0.009563267 -0.037045673
0.03647422 -0.024547726 -0.17429018 0.14563309 0.034204017 -0.10915087 0.120880164 0.018849969
-0.07675472 0.07219346 -0.08021024 -0.26056227 0.033307653 -0.038838707 -0.08880537 0.07762562
00000000: c2a6 97bd e6a6 93bc a15b 56bd 9e94 8dbd
00000010: aa08 8fbb de70 e23c 6c29 37bb c1ec e53d
00000020: d34a 133e ce5a d5bd 9b06 11bc f128 12bd
00000030: 402f 96bd 9ed8 6cbd b89e ebbc 530c c2bc
00000040: 533d e7bc ed28 743b 2b13 4e3d f74e 97bc
00000050: 37bf 143d 13db 583c a910 f4bd 4a89 3dbb
00000060: 0543 973d f5c7 69bd a6af f3bc a429 9d3c
00000070: 18ce 553d f870 e73c d65f 173d c4d5 a53d
00000080: d9ea 363d 2ba2 b73d 158f 973d 63f8 a33d
00000090: c584 b03d 031e d1bd fdab 02be 0c30 a83c
000000a0: 4c2c 46be 5a8b 41be b086 043e 1fba 99bd
000000b0: d2dc 133c ea03 493d b0d2 5e3d b5c6 8f3a
000000c0: 5a0e e03d ec3a acbc 158e 14bd 2158 073e
000000d0: 960e a0bc 46bf 9fbc 58ef 5c3d dce6 32bd
000000e0: 2f51 33be 0691 c93d 1027 b83b 0d80 29be
000000f0: 1ef3 103e 7a99 8abc a03c 2ebe 2959 a0bd
00000100: b740 79bc 8fa6 bf3a f757 8abd d27e 833c
00000110: 1b8a 313d 790b 00be 84c5 793d e6e5 8c3d
00000120: 749c dd3d e2ce 813d 7518 903c 69e8 193c
00000130: f922 5fbc d423 8d3b 5485 083d 3365 6fbc
00000140: 200a 69bd fed2 853d 43d6 f3bc fc7a 343d
00000150: edc1 8f3d 2119 13bd e41b 41bc 16b1 473d
00000160: 856e 6abd 8c23 923d 60e7 0fbc 4286 1b3b
00000170: 09fc e6bc e45f efba d24f e03a 799f 013d
00000180: 591e d7bc 7594 74ba e2bc 7f3d 0d34 fbbc
00000190: d009 d4bc 1894 fdbd 0228 82bc 82d2 38bc
000001a0: 9229 c1bd 6048 5ebc 1831 1c3d b981 073d
000001b0: 77c3 2cbc cdc4 0f3d 8cbc 873a c238 ec3c
000001c0: e77c 473c d661 a2bc eec7 96bc 9406 88bd
000001d0: 066a 44bd 199a 9ebd d8ed 5a3c 9476 363d
000001e0: 0eb3 b1bd af1e 12bc 1225 2e3d e9a5 89be
000001f0: c308 bdbd 5e57 cb3d 16de 323d 9ba6 233c
00000200: e7fe 89bd 4ff5 823d 729b c23c 54aa 45bd
00000210: 1165 083d 1b14 913c b2cb db3c 81bf bf3c
00000220: f66e 8c3d 297e 96bd 641c 3cbd a346 543c
00000230: 2981 e6bd 3f50 7abe 3089 f5bd 4fe1 65be
00000240: 67c2 d23d bc08 853d 154e 133e a765 b03c
00000250: c52b 063d e027 c53d ac89 453d e9d8 a83c
00000260: 0fb1 963d 5a1a 55bc c67b 4dbd 33e7 03bd
00000270: a91b 503d 2993 323d 9698 b9bc 9f9d 77ba
00000280: 2f6f 143c 4ed6 d6bd 5ca1 c73d c648 913d
00000290: e29b 57bd 7534 0e3e 09d4 c93d abc3 85bd
000002a0: 6230 6e3d 4a8c bc3d fc55 c4bd 8e10 143d
000002b0: bb1a a93d f28c dd3a ea8c e8bc 7ba1 ecbb
000002c0: 4893 be3c 3383 5cbe 1619 5dbd 68ff 633c
000002d0: 03f4 43bd b48e 96bd b084 68bd 576e dc3c
000002e0: e479 2cbd a8f0 67bc 6cd0 ff3d b7d9 5e3c
000002f0: 7359 8b3c 1037 21bd 3f76 c6bd df8a 72bc
00000300: 0ef2 83bc d9b0 6ebc cb73 233c f157 02be
00000310: 287d d9bd 49c7 ad3b 5dae 18bd 2014 e2bd
00000320: c338 ffbd f98c 783d 1757 dfbc 0080 febd
00000330: 30b7 db3d 1f2b 123d 4a93 d83b d1f9 23be
00000340: 3f68 98bc 204a 9b3b 08fb 2dbe 46ab da37
00000350: a218 063d 7bc1 32be 4114 24bd 9f9c ce3b
00000360: a1ef 6c3d 655b 853d 1849 a9bd e00f 913c
00000370: 72e2 283b 9c4a adbd 763f 1d3d 7762 99bc
00000380: 9652 bebc 442d 103e d76b 8c3d 44c1 85bd
00000390: f265 a53d 925a fabb f437 06be f23c 8c3d
000003a0: d9ed 03bd 9665 1dbe 64ae 013d e3f3 dcbc
000003b0: 49b1 4bbd 0b45 a03d 40af 1c3c 34bd 17bd
000003c0: fe65 153d 5018 c9bc 2079 32be d720 153e
000003d0: 8319 0c3d 7e8a dfbd 0590 f73d 406b 9a3c
000003e0: 9431 9dbd 2ada 933d 4445 a4bd 6b68 85be
000003f0: 9b6d 083d 5615 1fbd 97df b5bd 2efa 9e3d

body.block2.conv.bias f4 [64]
0.1573895 0.6996376 0.78017074 0.49142292 0.27712756 1.0653458 1.2699001 0.41579407
0.53178996 0.58059204 0.8793888 0.7847006 0.71582735 0.09695097 0.2683101 0.77069527
0.5264793 0.11211589 1.1027945 1.028617 0.72659457 0.6085197 0.4964438 1.0207008
0.2730898 0.9004584 0.79821664 0.74703467 0.5499528 0.9091342 0.41043675 0.71055
0.6008667 0.670924 1.4153515 0.53455967 0.25504142 1.0830456 0.7808243 0.80710566
0.33772698 0.5361944 0.4112 0.8985369 0.49954608 0.36092052 0.4060779 0.8531367
0.4255952 0.54281193 0.55934954 0.62092906 0.6835771 1.2294431 0.32491982 0.26903826
1.3352895 0.28069273 0.69450074 0.44975665 0.74279743 0.66614896 0.6255528 0.84500307
00000000: b72a 213e 731b 333f 45b9 473f c99b fb3e
00000010: aae3 8d3e 405d 883f 168c a23f f6e2 d43e
00000020: 6323 083f aea1 143f a01f 613f 23e2 483f
00000030: 7640 373f 3b8e c63d f15f 893e 494c 453f
00000040: 59c7 063f 049d e53d 5f28 8d3f b9a9 833f
00000050: 1a02 3a3f f2c7 1b3f e22d fe3e 53a6 823f
00000060: 6dd2 8b3e 7184 663f ed57 4c3f aa3d 3f3f
00000070: b5c9 0c3f 05bd 683f c424 d23e 9be6 353f
00000080: 66d2 193f adc1 2b3f 3d2a b53f e7d8 083f
00000090: ca94 823e 3da1 8a3f 1ae4 473f 7a9e 4e3f
000000a0: 8dea ac3e 0944 093f ce88 d23e 8406 663f
000000b0: 81c4 ff3e 93ca b83e 71e9 cf3e 2b67 5a3f
000000c0: 9de7 d93e b9f5 0a3f 8831 0f3f 35f5 1e3f
000000d0: e9fe 2e3f 645e 9d3f e45b a63e 62bf 893e
000000e0: c4ea aa3f f5b6 8f3e cdca 313f 8146 e63e
000000f0: f927 3e3f bd88 2a3f 3a24 203f 1f52 583f

tail.weight f4 [1, 64, 3, 3]
-0.06749301 -0.061399993 -0.093163565 0.0046708276 0.03520988 0.015561398 0.0135584185 0.089106254
0.07338443 -0.043639835 -0.02089632 -0.037043445 -0.015397742 0.00029681736 -0.016115816 0.014182437
0.051775564 0.09674237 -0.060583677 -0.056096297 -0.04993002 0.041050784 -0.026995305 0.019147443
0.04171149 0.0005826099 0.083088666 0.0037743207 -0.03847129 -0.04590418 -0.019718925 0.001424628
0.017708354 0.09386004 0.044536848 0.06539519 -0.0016818183 -0.05975963 -0.070955835 -0.022298086
-0.049127724 0.019031258 0.047811355 0.03337573 0.08394884 0.07000523 0.028599761 0.095474824
0.018105924 -0.008966103 0.014747834 -0.09129123 -0.063522734 -0.052988783 0.07571571 0.08804157
0.03046267 0.024682673 0.043709334 -0.01711333 -0.0120630255 -0.055620566 -0.104204 -0.018858673
-0.010011112 -0.044544697 0.004536461 -0.011114832 -0.06896529 0.01120652 -0.055861626 -0.015859572
-0.02858415 0.027938707 -0.046289876 0.017058043 -0.01837623 0.016525371 -0.011776867 0.035731886
-0.051561296 0.011371087 0.05141801 0.011353745 -0.039867975 0.030447843 -0.034615166 -0.05107664
-0.047476664 0.007752012 0.12794356 0.014654585 -0.037132893 0.04396517 -0.007675734 -0.038374342
0.09056166 -0.031718504 -0.07675926 0.012456059 -0.010232163 -3.5339202e-05 0.011213388 -0.008539734
-0.0012883141 -0.07936426 -0.022009904 0.014813944 0.00476194 -0.0007388058 0.029653184 -0.028118815
-0.025847511 0.030241497 -0.06979644 -0.0501299 -0.010294969 -0.08375215 -0.0759353 -0.04397353
0.02085526 0.010891767 0.032540563 -0.009543818 0.0646313 0.0859142 -0.04436503 -0.017115666
-0.007790876 -0.02720884 -0.06207759 0.021836719 0.024468677 0.06316874 0.069983974 -0.013292539
-0.04184581 -0.06322168 0.03113883 -0.10690877 -0.015050552 0.072606534 0.020075114 0.093988895
-0.009886887 -0.036275633 0.016269654 -0.04786892 -0.063015215 -0.022175146 0.018404504 0.05371776
0.05113126 -0.006979352 -0.09494466 -0.061675716 -0.0290148 -0.030449243 -0.01204739 0.083767295
0.07729876 0.07905308 0.0024576504 -0.015151783 0.027823351 -0.037477423 0.008989496 0.040535115
-0.07109897 -0.043899994 0.045795336 0.048715714 0.043463454 -0.047261972 0.02529342 0.030286467
-0.020350246 -0.039904505 0.019978747 -0.0016727678 0.02973776 0.006936061 0.046805575 -0.034545656
-0.034552496 -0.0031694984 -0.09095461 -0.056900352 0.013746937 0.071879715 0.028245078 0.05200068
-0.013666685 -0.053417727 -0.029623752 -0.06026362 -0.023754347 -0.023125563 0.0060168863 -0.08744178
-0.006024215 0.0041185035 -0.061922193 0.006507422 0.083246484 -0.010583067 0.049971465 0.061699074
0.10426434 0.114694014 -0.009056076 0.019542614 0.031708453 -0.16194408 -0.13611862 -0.051658142
0.02896675 -0.009523297 0.036882713 -0.037340086 -0.043821596 -0.011854243 -0.02524918 0.008068603
0.031069474 0.078286774 0.03756803 0.07261258 -0.054861378 -0.0461536 -0.01761105 -0.023993231
-0.042416517 -0.0027298543 -0.015575028 -0.02625794 -0.023310672 -0.07071124 -0.039559588 -0.02694152
-0.12747404 -0.018708838 -0.018270353 -0.039076824 0.0059445878 -0.0841786 0.0034122188 0.06574101
-0.009181562 -0.038886365 0.0072869137 0.038559645 -0.07767926 0.017052721 -0.023562577 0.019844757
00000000: c639 8abd 8f7e 7bbd 8acc bebd be0d 993b
00000010: 3c38 103d 3cf5 7e3c 2124 5e3c 577d b63d
00000020: 934a 963d afbf 32bd c22e abbc deba 17bd
00000030: d046 7cbc 279e 9b39 5105 84bc 745d 683c
00000040: 9d12 543d dd20 c63d 9726 78bd 3bc5 65bd
00000050: 6c83 4cbd de24 283d 4225 ddbc 19db 9c3c
00000060: abd9 2a3d 4aba 183a 642a aa3d 985a 773b
00000070: 1294 1dbd 0506 3cbd 9589 a1bc 95ba ba3a
00000080: 1c11 913c b139 c03d 456c 363d eaed 853d
00000090: 7570 dcba 84c6 74bd 4b51 91bd 7aaa b6bc
000000a0: 273a 49bd 71e7 9b3c d7d5 433d fdb4 083d
000000b0: 5fed ab3d e75e 8f3d 0c4a ea3c 4e88 c33d
000000c0: e052 943c 90e6 12bc e6a0 713c e5f6 babd
000000d0: 3518 82bd c40a 59bd d710 9b3d 234f b43d
000000e0: d98c f93c 5133 ca3c 8f08 333d 4131 8cbc
000000f0: ffa3 45bc 64d2 63bd e868 d5bd 817d 9abc
00000100: a605 24bc 8074 36bd 98a6 943b fc1a 36bc
00000110: ad3d 8dbd 8d9b 373c 29cf 64bd efeb 81bc
00000120: 4f29 eabc b7df e43c 749a 3dbd 4fbd 8b3c
00000130: bf89 96bc 3760 873c c3f3 40bc 995b 123d
00000140: f031 53bd cc4d 3a3c b19b 523d 0f05 3a3c
00000150: 9a4c 23bd c16d f93c a2c8 0dbd bd35 51bd
00000160: e476 42bd 9704 fe3b a303 033e c919 703c
00000170: a918 18bd d214 343d b984 fbbb 6a2e 1dbd
00000180: 6478 b93d 43eb 01bd f533 9dbd 8014 4c3c
00000190: cda4 27bc 2e39 14b8 5cb8 373c 3eea 0bbc
000001a0: a6dc a8ba bb89 a2bd 1d4e b4bc 2fb6 723c
000001b0: 0c0a 9c3b 6bac 41ba 3ceb f23c 6e59 e6bc
000001c0: 29be d3bc 04bd f73c 70f1 8ebd 0355 4dbd
000001d0: 3bac 28bc 3f86 abbd f783 9bbd 971d 34bd
000001e0: a6d8 aa3c 6273 323c 4149 053d ad5d 1cbc
000001f0: 6a5d 843d c9f3 af3d 1bb8 35bd 2736 8cbc
00000200: 9b4a ffbb 13e5 debc 1245 7ebd ebe2 b23c
00000210: 8972 c83c 9d5e 813d c253 8f3d f3c8 59bc
00000220: 8366 2bbd 5e7a 81bd dc16 ff3c fcf2 dabd
00000230: 9796 76bc bcb2 943d 9174 a43c 407d c03d
00000240: 9cfc 21bc c295 14bd f047 853c 3312 44bd
00000250: 1f0e 81bd a7a8 b5bc 0bc5 963c 2707 5c3d
00000260: 036f 513d 0cb3 e4bb 5972 c2bd ad9f 7cbd
00000270: 72b0 edbc b170 f9bc 6b62 45bc 308e ab3d
00000280: d04e 9e3d 95e6 a13d 8810 213b 2f3f 78bc
00000290: cced e33c ed81 19bd ae48 133c 2608 263d
000002a0: 569c 91bd 7bd0 33bd e493 3b3d 218a 473d
000002b0: bc06 323d c595 41bd 2534 cf3c 531b f83c
000002c0: 8fb5 a6bc e872 23bd 78aa a33c c640 dbba
000002d0: 9a9c f33c e647 e33b 34b7 3f3d bf7f 0dbd
000002e0: eb86 0dbd 5cb7 4fbb 6946 babd 5810 69bd
000002f0: d53a 613c ac35 933d 3962 e73c aafe 543d
00000300: 3bea 5fbc 8ccc 5abd 83ad f2bc fcd6 76bd
00000310: 7a98 c2bc d271 bdbc 4d29 c53b ad14 b3bd
00000320: c766 c5bb 83f4 863b 20a2 7dbd 363c d53b
00000330: 227d aa3d 9a64 2dbc e1ae 4c3d 2bb8 7c3d
00000340: 8b88 d53d b2e4 ea3d f05f 14bc d517 a03c
00000350: b9e0 013d abd4 25be ae62 0bbe 7d97 53bd
00000360: ad4b ed3c 9a07 1cbc 5412 173d ebf1 18bd
00000370: 467e 33bd 4d38 42bc 5ed7 cebc 2d32 043c
00000380: 6985 fe3c d154 a03d efe0 193d e8b5 943d
00000390: 53b6 60bd 8f0b 3dbd 0c45 90bc 748d c4bc
000003a0: f1bc 2dbd 5be7 32bb 672e 7fbc e41a d7bc
000003b0: 06f6 bebc 0ed1 90bd 3c09 22bd 76b4 dcbc
000003c0: 8e88 02be 4743 99bc b5ab 95bc 050f 20bd
000003d0: d1ca c23b d465 acbd 889f 5f3b 39a3 863d
000003e0: 436e 16bc 4f47 1fbd 10c7 ee3b b8f0 1d3d
000003f0: 4e16 9fbd 26b2 8b3c 4e06 c1bc 7991 a23c
