TrainedModels/volcano/2020_08_19_23_39_50_video_train_depth_3_lr_scale_0.1_act_lrelu_0.05/3/netD_b.pth (torch_old, 454648 bytes, 9 tensors)

head.conv.weight f4 [64, 3, 3, 3]
000000 8f 9b 2d 3b 34 6f 2d bc 89 dd 69 3c 2e b5 75 bc
       0.0026490425 -0.010585595 0.0142740095 -0.01499681
000010 76 a6 77 bc be 6d 0c 3d a2 55 d6 bc 97 d3 00 bd
       -0.015115371 0.034284346 -0.02616388 -0.031451788
000020 02 9d 5f bc 16 05 f1 3c dd 45 ba bc 45 21 48 3c
       -0.013648273 0.02942137 -0.022738392 0.012214963
000030 da e5 bc ba 98 4f 00 3d 3b 10 89 bc 94 19 04 bd
       -0.0014411763 0.031325907 -0.016731372 -0.032250956
000040 24 17 5b bc 42 3f f1 bc d4 43 81 3c 0b f6 57 3c
       -0.013372216 -0.029449109 0.015779413 0.01318122
000050 c6 69 9e 3c e0 08 af bc 39 74 f2 bb bf a2 4b bc
       0.019337546 -0.021366537 -0.0073991087 -0.012428938
000060 70 0e 65 bc fc 20 d3 bc d2 f3 13 bc 18 4f a2 3c
       -0.013980493 -0.025772564 -0.009030299 0.019813105
000070 f8 4b 24 3d 5a 7e 8b 3d 93 80 c9 bc 97 22 8a 3c
       0.040111512 0.06811209 -0.024597442 0.016862197
000080 cd 8c 63 bc e5 54 05 bd 2d 8b be bb 54 11 f6 bc
       -0.01388855 -0.032551665 -0.005814931 -0.03003756
000090 ec 1e 3d bc c2 96 74 3c 7c a5 8c 3b eb b2 ec bc
       -0.011543017 0.014928522 0.004292188 -0.028893908
0000a0 9a 60 50 3c 7d 16 12 3c d0 d3 91 bd 62 0a 9f bc
       0.012718344 0.008916494 -0.07120478 -0.01941413
0000b0 3b ee 46 3b 26 51 34 bd 34 91 69 3d ad a2 35 3d
       0.0030354399 -0.0440227 0.057023242 0.044344593
0000c0 ab 79 bf bc 06 e2 fc 3c 46 2c 0d 3d df 38 2f bd
       -0.023373445 0.030869495 0.03446605 -0.042778846
0000d0 65 71 c2 bc 69 20 0f bd 26 fb e5 3c 24 21 b5 bb
       -0.023735711 -0.034943018 0.028073858 -0.0055276323
0000e0 d5 7e 6f bc 22 4d a4 bc 45 49 02 3c aa f1 1d 3c
       -0.014617641 -0.020056311 0.007952039 0.009640137
0000f0 ec d9 11 3d a9 3f 66 3c 9e 21 22 3d c7 b9 5f bb
       0.035608217 0.014053264 0.03958284 -0.0034137832
000100 c4 74 53 bc b2 87 ac 3c 92 8a 1b bc bd 55 0a bc
       -0.012906257 0.021060798 -0.009493487 -0.008443293
000110 4c 72 76 3c 81 15 5b bc b5 6a 3a 3b c2 0e 50 3c
       0.015041899 -0.013371826 0.002844495 0.012698831
000120 bd dd b8 3c d0 9c d3 bc 95 b5 4b 3a e0 7d 97 3c
       0.02256667 -0.02583161 0.0007770893 0.018492639
000130 e3 ee 8f bb e7 65 0b 3d c0 3d 16 3d db 99 18 3c
       -0.004392491 0.03403273 0.036679983 0.009314026
000140 1b f2 81 3b b0 32 7d 3d d2 71 05 3c fb a3 64 3d
       0.003965629 0.061815917 0.008144813 0.055820446
000150 04 66 b7 3c 23 3e 4a bb fa 24 06 3c 0b df b1 ba
       0.022387512 -0.003085979 0.008187527 -0.00135705
000160 9b ef 3d bd a3 9f 38 bc da 06 ab bb 16 fe c7 3c
       -0.046371084 -0.011268529 -0.0052193226 0.02441315
000170 9f 93 df 3c a0 32 94 bc 85 0a f0 bc 52 55 30 bc
       0.02729207 -0.018090546 -0.029301891 -0.010762529
000180 b9 3f 13 bd d0 7c 10 bd 9b 7f 06 3b f8 ce 39 3d
       -0.035949443 -0.03527528 0.0020522836 0.045363396
000190 7c 3b dc bb 57 b8 9c 3c e6 ca 2a 3c 73 55 26 bd
       -0.0067209583 0.019130869 0.010424351 -0.040608834
0001a0 43 0b 41 bc 09 db 88 3c e6 1f 33 bb 21 01 08 3d
       -0.01178247 0.016706007 -0.0027332245 0.0332042
0001b0 6c 4b df 3c aa 55 23 bc 8d 68 a6 bb 2b 0f 4f 3d
       0.027257644 -0.009969154 -0.0050783814 0.050551575
0001c0 13 eb fb 3b 38 04 b1 bb ce 1a 5a 3d 9f dc ac 3c
       0.007687935 -0.0054021142 0.05324822 0.021101294
0001d0 64 59 63 3c 7c 67 41 bd 07 d8 e4 bc ea 29 0c bd
       0.013876293 -0.04721783 -0.027935041 -0.03421966
0001e0 3c f0 02 bc 80 25 20 bb a9 e3 f1 3c dc 76 fc 3c
       -0.007991847 -0.0024436414 0.029527502 0.030818395
0001f0 29 b1 02 3d 64 72 21 bc db f6 f8 37 44 38 c4 bc
       0.031907234 -0.009853933 2.9678855e-05 -0.02395261
000200 f6 ed 17 bd 62 5f 04 bd 41 9d cc bc 08 73 cb 3c
       -0.03709217 -0.032317527 -0.024977328 0.024835125
000210 05 55 8d 3b 4b 2d 03 3d ea f7 02 bc f1 1f 8e bc
       0.0043131136 0.032025617 -0.007993678 -0.017349215
000220 f7 84 a0 bc 9b 29 1e bd 73 46 d1 bb 74 04 91 bc
       -0.019594653 -0.038613897 -0.006386572 -0.017702319
000230 30 b5 e4 3c 27 47 ba 3b eb ac 81 3b ba e9 ff b9
       0.027918428 0.0056847516 0.003957381 -0.0004881153
000240 cf 4c 76 bc 47 42 85 bb af 07 41 bc d3 6a 49 bd
       -0.015032961 -0.0040667388 -0.011781617 -0.04917414
000250 ad d2 2d bc 2e 38 1b bc 22 a7 00 3d c1 66 68 3c
       -0.010609311 -0.0094738435 0.03140939 0.014184655
000260 7f 57 b6 bc 81 86 8c 3c 03 b4 2e bb 06 f1 a2 bb
       -0.022258518 0.01715398 -0.0026657588 -0.00497258
000270 7d 84 0d bc 50 54 d0 3c d8 8d b9 3b 14 68 59 3a
       -0.008637545 0.025430828 0.005662661 0.0008293402
000280 fa 4c a8 3c fb a6 9c 3a 7b 99 9b 3b 43 a2 67 bc
       0.020544518 0.001195162 0.004748521 -0.014137807
000290 08 ca 82 3c 2b 42 ab bb cb ef 57 3d 90 f4 1a 3c
       0.015965477 -0.0052263937 0.05271892 0.009457722
0002a0 c8 e1 9c bd 9e 64 ef ba 08 2d 90 3b ca 7d 2b bb
       -0.07660252 -0.0018264239 0.0043998994 -0.0026167505
0002b0 03 04 ce 3c e8 b8 9e 3c 1f ed 1a bc e1 78 28 3c
       0.025148397 0.01937528 -0.009455948 0.010282726
0002c0 68 55 d8 3c 9a 2b 6e bc 98 99 ba bc 00 07 e3 3b
       0.026407912 -0.014536763 -0.022778317 0.0069283247
0002d0 ff c2 70 3c 98 12 a0 3c 52 35 07 3d 94 23 4f 3b
       0.014694928 0.019540116 0.033009835 0.00316069
0002e0 70 c7 f4 3c 38 dc 86 bc f6 97 06 bd bf 31 5b 3c
       0.029880255 -0.01646243 -0.032859765 0.01337856
0002f0 16 c0 00 bd 37 64 47 bb fd 04 ea 3c 8e 83 7d 3d
       -0.031433187 -0.0030424723 0.028566832 0.06189304
000300 c5 41 08 3c c8 ab 07 bc 2b 9c 3e 3c 54 e1 8b bb
       0.008316462 -0.008280702 0.011633913 -0.0042688046
000310 31 20 4d bd 40 02 ed bb 0f 76 41 3d a2 eb 2a bb
       -0.05007953 -0.0072329342 0.04723173 -0.002608039
000320 5a 7d 0e 3d 5b a2 82 bc 40 6d ab b9 e6 db 0f 3d
       0.034787513 -0.015946558 -0.0003269706 0.03512182
000330 3d b3 93 3b 01 f3 21 bc 91 f0 85 bb 35 97 86 3d
       0.004507451 -0.009884597 -0.0040875156 0.06571809
000340 de 59 93 3c 7d 3c 6e bc d3 e5 f4 3c fb 47 54 bb
       0.017987188 -0.014540789 0.029894745 -0.0032391537
000350 78 14 b4 3c 80 36 17 3c d5 6e 00 be 9d e3 33 3c
       0.021982417 0.009229302 -0.12542279 0.01097956
000360 02 97 23 3b 11 60 81 3b 7e 92 8e 3a cc aa 6c bd
       0.0024961834 0.0039482196 0.0010877398 -0.057780072
000370 fa b5 9c 3c 47 fa cc 3c b5 b8 11 bc 9f bd 15 3c
       0.019129742 0.025021685 -0.008894135 0.0091394475
000380 aa 15 ed b9 9a 8b 23 bd 9f 29 81 b9 79 79 0b 3d
       -0.00045220304 -0.039928056 -0.00024635807 0.034051392
000390 1e 9f 91 bc 55 e0 27 3b a3 2f c4 3c 89 f9 c6 bc
       -0.017776068 0.002561589 0.023948496 -0.02428891
0003a0 2f da 61 3a ff bb b7 3c 28 b7 79 bc 02 a2 54 bc
       0.0008615581 0.02242851 -0.015241422 -0.012978079
0003b0 f0 a4 77 b9 81 6c 24 bd 0f b7 87 3c e3 53 1a 3d
       -0.000236172 -0.04014254 0.016566781 0.037677657
0003c0 d0 a3 eb 3b 09 d1 92 bc 92 f4 c4 3c 8f b1 f0 3a
       0.007191159 -0.017921941 0.024042401 0.0018363463
0003d0 67 b5 98 3c 4b 7b 55 3d fc 9e a2 3c 77 81 55 bc
       0.018641187 0.052119534 0.0198512 -0.013031355
0003e0 33 16 06 3d 50 66 d5 3b e5 39 b6 3b 60 9f 34 bb
       0.032736015 0.0065124407 0.005561101 -0.0027560815
0003f0 82 ab 69 3c b6 74 e0 3b 3e 6f 87 3d d4 b9 04 bd
       0.014262082 0.0068498505 0.06613015 -0.032403782

head.conv.bias f4 [64]
000000 3f d6 36 3e a2 47 53 3d be d3 62 be 56 47 12 3e
       0.17855166 0.051581986 -0.22151086 0.14285025
000010 f8 54 30 3e d8 0b 5b 3e 5e fe 09 be 02 f2 11 be
       0.17219913 0.21391237 -0.1347594 -0.14252475
000020 3a 87 a2 bd 80 86 2d 3e 84 ba f5 3d 11 a3 0f be
       -0.07935949 0.16945839 0.11998466 -0.14027049
000030 85 fb b9 3d 06 de 3e 3d f9 0d 8b bd c9 5d 08 3e
       0.09081177 0.046598457 -0.067897744 0.13317026
000040 33 3b 10 3e 85 52 0c 3e b0 2b 0d 3d 1a c9 49 3d
       0.14085083 0.13703354 0.03446549 0.04926405
000050 70 d1 5a 3e 19 54 af 3d a8 7f 23 3e f5 26 ca 3d
       0.21368957 0.08560962 0.15966666 0.09870712
000060 85 c5 c0 3d e7 fa 34 3d 2c 2c 24 be 70 d9 be bd
       0.09412674 0.04418459 -0.16032475 -0.09318817
000070 b7 c9 c7 3d 2d 79 ba bd c6 ae 09 3e 96 a8 b6 3d
       0.09755271 -0.09105144 0.13445577 0.08918874
000080 cf 3a 6b 3d 79 f2 d7 3d ed 1e 43 be 44 5c 11 3e
       0.05742913 0.10544295 -0.19054766 0.14195353
000090 64 d0 1a bd 3c 7c 42 3d 4f de f2 3d 09 fd 82 3d
       -0.037796393 0.04748176 0.11858808 0.06395919
0000a0 fd fe d5 3d d9 dd 49 3d a8 f2 bb 3d 3f 7e f4 3d
       0.10449026 0.049283836 0.091771424 0.11938142
0000b0 aa d6 c6 3d e5 09 f8 3d 24 27 40 3c 04 8c c9 3d
       0.09708913 0.12111262 0.011728082 0.09841159
0000c0 be ad 00 3e 54 2b 80 3e 06 46 ec 3d fa a0 47 3e
       0.12566277 0.25033057 0.115367934 0.19495001
0000d0 c8 71 2e be 73 08 1b bd 99 24 bd bd 82 b3 ad 3d
       -0.17035592 -0.037849855 -0.09235496 0.08481504
0000e0 4e 2a f3 3d cf 72 43 be ff 4f b6 bd 6b 58 d1 bd
       0.11873303 -0.19086765 -0.08901977 -0.102219425
0000f0 c3 fd 0e 3e ad 61 0d bd a5 26 49 3e 4e 1d 0f 3e
       0.1396399 -0.03451698 0.19643648 0.13976023

body.block0.conv.weight f4 [64, 64, 3, 3]
000000 99 9a f3 bb 9b 26 02 bc aa 98 b0 3c 8c a9 d9 3c
       -0.007434201 -0.007943775 0.02155717 0.026570104
000010 41 40 58 bb 64 b6 07 3d cd e3 c3 3c b7 54 5c bc
       -0.0032997283 0.033132926 0.023912335 -0.013447932
000020 3e fa c5 3c 44 a0 3d bb 8b a6 0e 3d 20 6c ce 3c
       0.024167176 -0.0028934637 0.034826797 0.025198042
000030 fa bf b5 bc 86 81 e9 3c 00 27 2c 3d 9f 2e 47 b9
       -0.022186268 0.028504144 0.04202938 -0.00018995487
000040 40 76 11 bd b0 90 8d bc e3 95 15 bd 59 b9 e6 3b
       -0.035513163 -0.017280906 -0.036519896 0.007041138
000050 cb 66 d4 37 00 47 45 3c e8 3d 0a bc 6a 89 57 3c
       2.5320236e-05 0.0120408535 -0.008437611 0.013155321
000060 84 01 d8 3c b4 bc 89 3c 68 6d 13 bc 23 e3 6a bc
       0.02636791 0.016813613 -0.008998252 -0.01433638
000070 2a 3b 03 bd 6a 5e 1e bd 0c f0 29 3c 88 26 a7 bc
       -0.032038845 -0.03866426 0.010372173 -0.020404115
000080 dd 9e eb bb 2a f5 18 3d 8f 4e fe 3b 00 aa fa 3c
       -0.007190569 0.03734318 0.0077608298 0.03059864
000090 87 f4 25 bc b4 62 34 3b 26 cc fa 3b ef 6a 5a 3d
       -0.010129101 0.0027524652 0.007653731 0.053324636
0000a0 5a 88 ad 3c 82 24 8b bb f3 c3 6c 3c bc c4 5f 3d
       0.021183182 -0.0042462954 0.014451015 0.05463098
0000b0 e8 8d 11 3d 54 72 03 3d 15 b2 0f 3d 2c ff 1e 3b
       0.035535723 0.032091454 0.03508194 0.002426098
0000c0 b7 f4 8d bb 90 c7 bd 3b 98 bf 99 3c 3e 5c cb 3c
       -0.004332151 0.005791612 0.018768117 0.024824258
0000d0 c0 6c 46 3d 59 74 9a 3c 65 d8 ec bb 6b 89 74 3c
       0.048443556 0.018854307 -0.0072279447 0.014925341
0000e0 19 84 03 bd fd 23 15 bc 2a 2d a0 bb d2 c2 65 bd
       -0.0321084 -0.009102819 -0.0048881965 -0.056094
0000f0 05 e9 9c bc f7 ae 48 bc 6f c5 4a bd d6 06 36 bc
       -0.019154081 -0.012248746 -0.049504694 -0.011110028
000100 a3 db 5e bd 7d 3d 97 bd fb 98 3a bc 4a 34 4a 3b
       -0.05440868 -0.07384775 -0.011389012 0.003085392
000110 5e 9a 90 bd 6c b3 b2 3a cb bc 0a bd 6b 5e 97 bd
       -0.07060693 0.0013633794 -0.033871453 -0.07391056
000120 05 f2 ad 3c 3f 92 d3 3c cb 78 20 bd a2 51 f3 3c
       0.021233568 0.025826572 -0.039177697 0.029702011
000130 37 b1 c1 bc 53 fe bd bc 58 ff 9a 3c 3e 88 c9 3b
       -0.023644073 -0.02319256 0.018920586 0.0061502745
000140 4b 21 f1 3c df c0 c5 b9 2f d0 99 bb a3 1a af bc
       0.02943482 -0.00037718468 -0.004694007 -0.021375006
000150 76 85 21 3d c9 bb 5e 3d 0b 1d a3 3c 1e 8b 42 3c
       0.03943392 0.054378305 0.01991131 0.011873988
000160 05 96 9d 3b db 5e ed 3c 12 4a 8a 3c 6a df e5 3c
       0.0048091435 0.028975895 0.016881023 0.028060634
000170 42 f9 93 3c a1 ff 8b 3c dc 3b b0 bc e2 72 ca bc
       0.018063191 0.017089667 -0.021512918 -0.024712984
000180 03 e4 3d 3d 4b d4 23 bc 81 01 42 bd 91 43 13 bd
       0.046360027 -0.009999345 -0.047364715 -0.03595311
000190 2c b8 07 bc 05 5d 46 bd 5e 66 1b bb 0a 9d dd bc
       -0.008283656 -0.048428554 -0.0023712139 -0.027052421
0001a0 1a 34 36 bc 69 b1 53 bd 22 17 d6 bb 6e c2 fb 3c
       -0.01112082 -0.051682863 -0.0065335194 0.03073236
0001b0 ca 3e 93 bb 03 37 e0 ba 02 8b d5 bb e0 46 f3 3c
       -0.004493569 -0.0017106239 -0.006516815 0.029696882
0001c0 c9 b9 38 bc 54 33 70 3c 79 0b 23 3d bc 29 64 bc
       -0.011274763 0.014660675 0.039805863 -0.013925966
0001d0 39 1c 1d 3d 67 8d bf 3c ef b9 82 3c 74 d8 d3 3c
       0.038356993 0.023382856 0.0159578 0.025860049
0001e0 e4 03 03 3d c6 26 04 3c 20 f7 7d 39 69 13 8e 3b
       0.031986132 0.008065885 0.00024220021 0.00433581
0001f0 0f 92 52 bb 32 d3 da 3c 95 2f 84 bb 74 95 bc bc
       -0.0032130515 0.026712034 -0.0040339925 -0.023020484
000200 47 85 c5 3c f3 04 2e 3c cc ad 02 bc 1f de 07 3d
       0.024111403 0.010621297 -0.007976007 0.033170816
000210 00 96 a9 bc 2f b9 d9 bb 86 4a 10 bd 40 74 30 3c
       -0.020701408 -0.00664439 -0.03522732 0.010769904
000220 f0 98 22 3d 77 f4 25 3c b1 02 8e 3c 18 26 2d 3c
       0.039696634 0.010129086 0.017335268 0.010568164
000230 43 45 19 3b 5c d5 f0 bb 8f 95 5a bc 08 a5 6f bc
       0.002338723 -0.007349653 -0.013341322 -0.014626749
000240 1f fa 84 bc db db f6 3c c9 2e 5b 3c 4b a9 93 bb
       -0.016232548 0.030134132 0.013377854 -0.0045062653
000250 6e 10 58 bb 3b e3 2b 3d c1 b2 b6 bb 3a 97 a1 3c
       -0.0032968777 0.04196475 -0.0055755083 0.01972543
000260 66 1e 71 bb 46 01 51 bc 85 70 35 3c ff f6 e6 b9
       -0.00367918 -0.012756651 0.01107419 -0.00044053045
000270 02 5a 01 3d 37 98 8b 3c a5 92 1d 3c d5 be 5c 3d
       0.03157998 0.017040355 0.009617482 0.05389293
000280 22 b3 45 3d 73 97 5c 3d 51 82 ef bc 80 1b 6b 3c
       0.048266537 0.05385537 -0.029236944 0.014349818
000290 aa 2e e4 3c da 67 ac bc 2d dd 70 bd 5c b5 f6 bc
       0.027854282 -0.021045614 -0.05880468 -0.030115776
0002a0 50 e1 51 bd c3 14 08 bd e2 4c e7 bc 04 4e c5 3c
       -0.051240265 -0.033222925 -0.028234903 0.024085052
0002b0 3a a2 15 3c 62 b8 34 3c 3a 10 32 bc 90 77 40 bd
       0.009132916 0.011030288 -0.0108681265 -0.046989024
0002c0 c3 1b 03 bd 21 4c 41 bc 47 e9 f9 bc 3b 4f e8 bb
       -0.032008898 -0.011797936 -0.030506743 -0.007089523
0002d0 4c fc 51 3b 79 76 c1 3b 1a 99 dc b9 91 b2 cf 3c
       0.003204125 0.0059040156 -0.0004207574 0.025353702
0002e0 2e 8f b4 3c f1 43 0e 3d fd 8b 56 3c a4 73 e4 3b
       0.02204093 0.034732763 0.013094899 0.0069717932
0002f0 30 c9 96 3b ef bd fa 3c 3b 46 ec 3c b9 21 96 3d
       0.00460162 0.030608146 0.028842082 0.07330651
000300 91 a3 99 bc 21 91 fc 3c 10 81 f9 3c e2 50 3f bd
       -0.018754752 0.030830922 0.03045705 -0.046707995
000310 43 24 a7 bc d7 ad f0 bb a1 30 6c bc bd 94 24 bc
       -0.020403033 -0.007344942 -0.014415891 -0.010045228
000320 ef df 9b 3c 99 70 0d 3c ee 13 54 3c ce 3a 8d bc
       0.019027678 0.008632802 0.012944205 -0.017239954
000330 1f 44 12 3d bd b4 3a b9 5f 49 cf 3c b6 11 ce bc
       0.035709497 -0.00017805673 0.02530354 -0.02515493
000340 1e 6b 0e bd 3b 34 eb ba cf 35 52 bc 7e 63 2e bd
       -0.034770124 -0.0017944643 -0.012830212 -0.042575352
000350 75 1f 9b bc ec 1f 84 bc 5f 28 2e 3c 66 52 8a bc
       -0.018935898 -0.016128503 0.010629742 -0.016884994
000360 46 2f a0 bb 1f 0a db bb 8f 93 53 3d 1d 9e aa bc
       -0.004888448 -0.006684556 0.051654395 -0.020827347
000370 59 7a 77 3c 9e 88 b3 bc 2e d9 5d bd e3 08 1d 3c
       0.015104854 -0.02191573 -0.054162197 0.009584638
000380 ef fc a4 bc 59 02 86 bc 4f 9d a8 bc 01 ec 2c 3c
       -0.02014014 -0.016358541 -0.020582823 0.010554315
000390 5b 97 cd 3c 32 af c4 3c 81 4f 7d bc 4f 36 2c 3c
       0.025096586 0.02400932 -0.01546085 0.010510995
0003a0 9b ca a1 3c 43 96 4c bc 64 25 94 bc a2 a1 e4 bb
       0.01974993 -0.012486997 -0.018084235 -0.006977276
0003b0 77 ed 31 bd e0 0e 45 bb d7 90 f4 bc 48 c9 bb bc
       -0.043439355 -0.003006868 -0.029854221 -0.022923127
0003c0 8e c6 21 bc fd 1b 0f 3c 15 75 21 bc 81 4d 85 3b
       -0.009873999 0.0087347 -0.009854575 0.004068077
0003d0 a7 1a e3 39 bb ad 22 bd 77 85 f3 3a b0 96 b3 bc
       0.00043316672 -0.039716464 0.0018579204 -0.02192244
0003e0 76 ef 24 bc 33 5d 84 bb 9c eb 0e bb c2 89 a3 3c
       -0.010066858 -0.0040394305 -0.0021807915 0.019963149
0003f0 ae 1d 97 bc 98 2a e1 bc b7 cc 58 bc b7 cf 88 bb
       -0.01844677 -0.02748613 -0.013232402 -0.004175152

body.block0.conv.bias f4 [64]
000000 0c 84 87 3d 47 a9 78 3d 04 0a 5a 3d d6 ea 5c 3d
       0.06616983 0.06070831 0.053232208 0.053934895
000010 3b 63 a7 3c 28 0d f7 3d 9a 79 4b 3c c8 c9 fd bc
       0.020433059 0.12063056 0.012419129 -0.030980006
000020 50 91 88 bc 36 6d 20 3c af ba 31 bd 12 e7 18 3e
       -0.016670853 0.009791663 -0.043390926 0.14931896
000030 62 46 8b bc ee f0 72 3d 5a c3 1b 3d 90 f1 b1 3c
       -0.017001335 0.0593118 0.0380281 0.021721631
000040 24 f1 76 3b 39 f3 9f 3c bf eb 39 3d 50 24 da 3c
       0.0037680352 0.019525157 0.04539084 0.026628643
000050 a2 53 04 3e 4b c9 52 3b 4f ae fc 3c fc 74 96 3d
       0.12922528 0.0032163437 0.030844836 0.07346532
000060 f0 e3 dd 3d ac 49 14 bd bb 64 b0 3d 6e f2 a1 3c
       0.10834491 -0.03620307 0.08612963 0.01976892
000070 b9 bc 95 3d 9a 18 04 3d 79 e3 88 3d 69 2c af 3d
       0.073113866 0.032250024 0.06684012 0.085533924
000080 de 33 af 3d d8 1b 52 3c f1 48 c0 bc 69 7e 50 3d
       0.08554815 0.012824021 -0.023472281 0.050901804
000090 4b a3 88 3d 51 12 4a 3d 35 52 31 bc b4 8d ca 3d
       0.06671771 0.049333874 -0.010822822 0.09890309
0000a0 fe ab b3 3c fc 7c 80 bd 8b e1 ee 3d f4 a4 37 bd
       0.021932598 -0.06273839 0.11664113 -0.044835046
0000b0 a1 41 bc 3c e3 c2 91 3d 11 75 c2 3c ae 98 6d 3d
       0.022980513 0.0711725 0.023737462 0.058006935
0000c0 c2 88 ab 3c 4f 01 5f 3a 27 18 fd 3d 10 5d dd ba
       0.020939235 0.000850697 0.12358122 -0.0016888697
0000d0 2c 52 00 3d b4 ad d7 3c 16 74 2c bd c9 ec f3 bc
       0.031328365 0.026327945 -0.042102896 -0.029775994
0000e0 5d e0 20 ba 01 18 de 3c 0a c5 9a 3d 09 8c 02 bd
       -0.00061369484 0.027111055 0.075571135 -0.03187183
0000f0 35 05 98 bd 75 ad 2b bd d2 00 be bc 13 6d ee 3d
       -0.07422868 -0.04191347 -0.02319375 0.11641898

body.block1.conv.weight f4 [64, 64, 3, 3]
000000 8d fa 28 3c 05 f7 6f bc 9e 4e 62 bd 27 50 d2 3c
       0.010313642 -0.014646296 -0.055250756 0.025672985
000010 33 4a 59 3b f0 2a 03 bd 97 1b 26 3d 75 53 ff 3b
       0.0033155798 -0.03202337 0.040553655 0.0077919313
000020 94 a3 ae 3c 88 d2 70 3c c9 aa 96 3c d4 6f 42 3c
       0.021318235 0.014698632 0.018391984 0.011867482
000030 78 45 c7 3c 68 d8 dc 3b 97 44 2a bd d3 f6 8f 3b
       0.024325117 0.006739665 -0.04156932 0.0043934374
000040 84 2f 29 3c 6c e1 44 3d e1 e6 cc 3c bb 77 53 bc
       0.01032627 0.04806654 0.025012435 -0.012906964
000050 6e 23 f0 bb b8 8f a1 bc cc 54 ad bd 4c 79 0d bd
       -0.0073284423 -0.01972185 -0.08463439 -0.034539506
000060 78 d0 e4 bc 76 1a 60 bd 96 b7 9e 3c 22 95 10 bc
       -0.027931437 -0.054712735 0.01937465 -0.0088246185
000070 2d d4 8d bb 25 11 4a 3b a5 e6 03 bd 82 c6 14 3c
       -0.004328272 0.0030832973 -0.03220238 0.009080531
000080 83 8f 66 ba ea f0 41 3c f7 f7 e2 3c 8c 3a 5f 3d
       -0.00087951886 0.011837224 0.02770613 0.054499194
000090 ca ff c6 bc bc 6e 01 3c db 0d 99 bc d2 91 34 3c
       -0.024291892 0.007899936 -0.018683365 0.011021094
0000a0 a5 15 ae 3c c1 2e 3e 3d 4e 76 89 3d 03 43 11 3d
       0.021250555 0.046431307 0.06712018 0.035464298
0000b0 e7 ef 61 3d f1 dc 02 3c 3f 00 72 bc 37 52 f2 3c
       0.05516043 0.007987247 -0.0147705665 0.029580219
0000c0 a0 41 08 bd 98 5c 1e 3c c5 0c 96 3c 7b 56 b8 39
       -0.03326571 0.009665631 0.018316636 0.00035159648
0000d0 6c 22 a9 3c e2 95 32 3d 78 40 10 3d 9b e0 21 3a
       0.020646296 0.04359997 0.035217732 0.00061751314
0000e0 b5 1c 39 3d 7f 77 62 3c ae a0 ae bc b3 03 ca bc
       0.045193393 0.013822435 -0.021316852 -0.024659967
0000f0 ad 6d 3c bd dc cd 19 bc 3b 56 b6 bc c8 98 0a 3c
       -0.046003032 -0.00938746 -0.022257915 0.008459277
000100 67 3a e3 3b b0 bf b8 bb c0 1d fe 3c e1 cb 5e 3b
       0.0069344523 -0.0056380853 0.031020045 0.0033996033
000110 df 96 13 3c 70 7f 48 3d dc 11 4b 3c 92 88 59 3b
       0.009008138 0.04894966 0.012394395 0.0033192975
000120 17 cb 9c 3c c5 b6 12 3d e4 2b 3b 3d 15 11 a4 bc
       0.01913981 0.035818834 0.045696154 -0.020027677
000130 bf c9 d7 3c ec da 47 3d 0b 0c 7f 3c e4 94 5a 3d
       0.026341317 0.048792765 0.015566836 0.05336465
000140 02 9d 6e 3d 2d 13 df bb 99 fc 13 bd 9b de 04 bd
       0.058255203 -0.006807706 -0.036129568 -0.032438856
000150 30 4c 19 3c 2e 3b 22 bb 27 c0 e2 bc 44 a7 69 3c
       0.009356543 -0.0024754512 -0.027679516 0.014261071
000160 f1 36 63 ba 4c 5a 5e 3c b9 ea 95 3b 00 5e ad bb
       -0.00086675497 0.013571333 0.0045751003 -0.0052907467
000170 c5 32 fd 3b bb b5 a8 3c fd 9d 87 3c eb 4b db bb
       0.0077269995 0.020594468 0.016554827 -0.0066923997
000180 52 e2 38 3c e2 35 68 bc 8b e6 1f bc 3c ea 9a 3b
       0.011284428 -0.014173003 -0.009759556 0.00472763
000190 11 0a df bb 26 88 b4 bc 80 9e 58 bc d2 ca 59 bc
       -0.00680662 -0.022037577 -0.013221383 -0.013292985
0001a0 25 0b 26 bd e6 47 3b 3d 64 5e 6f 3c 8e 00 56 bc
       -0.040537972 0.045722865 0.014609907 -0.013061656
0001b0 66 dc a3 bb d5 95 0d bc ca ab ab 3b 1a 6c 45 3c
       -0.005000639 -0.00864168 0.0052389847 0.012049699
0001c0 a2 1e f7 3c aa 83 1c 3c d4 23 90 3c 4b 6b 61 3c
       0.030165974 0.0095528755 0.01759521 0.013758491
0001d0 37 af 95 bc 94 c6 85 3d 43 8d fe 3c b9 8e 72 3d
       -0.018272026 0.065320164 0.031073218 0.059218142
0001e0 bf b8 34 3d 86 3a d6 bc 77 b4 00 bc 68 48 60 3d
       0.0441215 -0.026150953 -0.007855526 0.054756552
0001f0 1e 64 fe 3c 8c f8 e3 3c 67 3c 0a 3d d9 dc cc 3c
       0.031053599 0.027828477 0.03374901 0.025007652
000200 af 5d 6c 3d d5 42 0a bc 81 45 8e bd 39 04 c8 bc
       0.05770653 -0.008438786 -0.069468506 -0.024416076
000210 9b 9a a8 3b d2 a6 2f bd 20 97 d5 bc a0 ad cc 3c
       0.0051453835 -0.0428837 -0.026073039 0.024985135
000220 7b af 2f 3b ee a3 9d bc c7 33 6e 3d a6 4c 9c bc
       0.0026807475 -0.019243207 0.058154847 -0.019079518
000230 b1 8d 08 bd b2 40 87 3c a0 c9 3c 3c 26 8b 2a bc
       -0.033338252 0.016510341 0.0115226805 -0.010409152
000240 d6 b8 10 3d 69 38 30 bc 1d 47 81 bd 68 ae 9b ba
       0.035332523 -0.010755637 -0.06312392 -0.0011877539
000250 2b a4 44 b9 c6 20 ab 3c fc fb 1b 3c 73 bb 05 3c
       -0.00018753174 0.020889651 0.009520527 0.008162367
000260 1b 77 97 bc 00 f5 c1 bb 78 dc fb 3c 3a 4e 85 bb
       -0.018489411 -0.005919099 0.030744776 -0.004068163
000270 e3 b2 8b bb 0d d4 1d 3d e5 05 01 bc 9a bc 2e 3d
       -0.0042632683 0.038532306 -0.0078749405 0.042660333
000280 c0 41 97 3a e2 a8 5e 3c bb 12 9a 3c 96 73 1d 3b
       0.0011539981 0.0135900695 0.01880776 0.0024025193
000290 ff 09 7e 3d 12 10 98 bb 9b fe 9a bc 9b 28 17 bd
       0.06202125 -0.0046405876 -0.018920233 -0.03690396
0002a0 37 2b f5 3c 5f d3 d6 bc 4d d7 58 3c ee 06 ca 3d
       0.029927833 -0.026223836 0.013234925 0.09864603
0002b0 0b 9b 0d 3d 59 cf 04 bc 40 e3 0b 3d 62 a0 2a 3d
       0.03457169 -0.008106076 0.03415227 0.04165686
0002c0 10 e6 b8 bc 02 44 fc 3c fa 50 b1 bb 1b e2 8b bd
       -0.02257064 0.030794147 -0.0054112645 -0.068302356
0002d0 83 37 8e 3c fd 8b 50 3d 34 37 19 3d a0 0e 13 bc
       0.017360454 0.050914753 0.03740616 -0.008975655
0002e0 24 2e 43 3b 64 78 b4 3c 54 0c 06 3d 18 6f 4f 3d
       0.002978214 0.022030063 0.0327266 0.050643057
0002f0 d9 19 c3 3c d8 4d 4a bd 0d 34 6b bd f8 57 49 bd
       0.023816036 -0.049390644 -0.057422686 -0.04915616
000300 5b fc 8b 3c 57 be f7 3b 6d 06 46 bc d8 79 69 bc
       0.017088106 0.007560532 -0.012086493 -0.014250241
000310 0d c9 22 3c 6d 6d b2 3c 69 7c 92 3c 75 c6 07 3c
       0.00993563 0.021780694 0.017881589 0.008287062
000320 87 35 18 bd 90 6e 46 bb 52 2f 44 3c e5 6c 38 bd
       -0.037160423 -0.0030278303 0.011974173 -0.045025725
000330 1b 6b e6 3b 15 04 3d bd c1 fb a1 3c 57 06 4e 3d
       0.007031811 -0.04614647 0.019773366 0.050299015
000340 f0 5e fc 3c 1f 6b 0b 3d 87 b1 06 3d d1 f0 0c 3d
       0.030806988 0.034037706 0.032884147 0.034409348
000350 06 25 00 3c 0a c0 18 3c a4 a3 6b 3b 62 56 5e bc
       0.007821327 0.009323129 0.0035955692 -0.0135704
000360 09 2f be 3c 37 db ca 3c 40 c3 8c 3d 83 a0 a0 3c
       0.023215787 0.024762733 0.068731785 0.019607788
000370 a3 ca 61 3c bf 4a c8 bb f8 97 7f 3c d6 ca ea 3c
       0.0137812225 -0.006112426 0.015600197 0.028661173
000380 9b b4 94 bc 10 b8 8d bc 73 3b 94 bc 17 62 1d bd
       -0.018152526 -0.017299682 -0.018094754 -0.038423624
000390 a5 e6 b8 3b 01 c1 1f bd f3 4a c5 bc bc ef db 3c
       0.0056427293 -0.039002422 -0.02408359 0.026847713
0003a0 72 26 a1 3c 33 7f e6 3c 6f fd 27 3d a6 0a 91 bc
       0.019671652 0.028136825 0.041013177 -0.017705273
0003b0 b6 af d3 3c d9 f6 1c 3d fc 54 86 3b 96 35 8d bc
       0.025840621 0.03832135 0.0040994864 -0.017237466
0003c0 11 13 f3 3c 22 31 9f 3c bf 33 68 3b 08 8e 68 3d
       0.029672178 0.019432608 0.0035431234 0.056776077
0003d0 6d 8c a6 3c cd 91 13 3c 54 f9 1b 3d 8b 99 ad 3c
       0.020330632 0.00900693 0.038079575 0.021191379
0003e0 f2 b1 1f 3c 2e 2a c2 3b d0 fd 19 3d e8 28 8a 3a
       0.009747015 0.0059254384 0.03759557 0.0010540755
0003f0 34 2b 02 3d f2 71 93 3c 16 45 cf bc 90 f7 95 3c
       0.031779483 0.01799867 -0.025301497 0.018306524

body.block1.conv.bias f4 [64]
000000 b2 7b 06 bd 2a 56 2e 3e 9c c5 f0 bd a0 b9 f9 3d
       -0.03283281 0.17025056 -0.11756441 0.12193608
000010 01 f5 13 3e 82 93 f0 3d 0b 52 bc bb 98 00 36 3e
       0.1444893 0.11746885 -0.005747085 0.17773664
000020 6c 48 50 bd 8e c9 f8 bd 1c 7e cb 3d ba 8d b4 3d
       -0.050850317 -0.121478185 0.09936163 0.08816095
000030 4e 0d 95 3d 31 d4 f4 3d 57 ac c7 bd 14 f9 31 3e
       0.07277928 0.11954535 -0.09749668 0.17380172
000040 29 4a 32 3e d9 d0 41 3e 20 71 bc 3d af 61 b5 bc
       0.17411102 0.18927325 0.092012644 -0.022141306
000050 ca 65 06 3e 53 27 df 3d f6 4a 9c 3d c5 2e b1 bd
       0.13124767 0.108961724 0.07631485 -0.08651499
000060 d1 eb 87 bc f0 2c a8 bd 77 39 aa bd 39 d3 21 be
       -0.016591938 -0.08211696 -0.08311742 -0.15803231
000070 3d f0 00 3e 6a 36 22 3e b2 42 a3 3d 62 1f 04 3e
       0.12591644 0.1584107 0.079717055 0.12902597
000080 28 ab b9 bc 5a 85 1e 3e 21 c7 28 3e a6 2b 02 be
       -0.022664621 0.15480557 0.16482212 -0.12711963
000090 13 29 21 3e 03 1d 43 3e 3e 94 d3 3d 7f e9 83 3d
       0.15738325 0.19054036 0.10331009 0.0644102
0000a0 e4 44 ef 3d ba 2a a2 bd 2d e2 03 3e 90 ed 8b bd
       0.11683062 -0.07918306 0.12879248 -0.06832421
0000b0 ad f5 11 3e 4f 7e 1c 3e 98 29 f1 3d 4f 51 b2 bb
       0.14253874 0.15282558 0.117755115 -0.0054418216
0000c0 85 9d 42 3e ad 3b 0b be b3 ea 45 3c a0 6c fe bd
       0.19005401 -0.13596983 0.012079882 -0.12423062
0000d0 b7 8e 40 3e a4 75 de bd 13 5d 71 bc b3 3a 0d 3e
       0.18804441 -0.10862282 -0.014731663 0.13791923
0000e0 8d 31 44 3e 58 31 90 bd 8d 13 91 3d f1 d9 df 3d
       0.19159527 -0.070406616 0.07083807 0.10930241
0000f0 77 e1 3b 3e 95 85 16 3e d2 fb df bd e0 f3 07 3e
       0.18347727 0.14699395 -0.10936703 0.13276625

body.block2.conv.weight f4 [64, 64, 3, 3]
000000 f8 ba 4c 3d c2 bf 5d 3d c0 71 4e 3d f2 8f 24 bc
       0.049982995 0.054137953 0.05040145 -0.010044085
000010 50 f2 53 bc db 1e 45 3d 74 ba 84 3c 44 4d 5f 3c
       -0.01293619 0.04812513 0.016202189 0.013629261
000020 04 99 88 3c 4b e8 0b bb aa ec 9a 3c 2a ed 7e 3c
       0.016674526 -0.0021348174 0.018911678 0.015559474
000030 74 37 1c 3c a8 20 5a 3b 2d dd e7 bb 9d 44 10 bb
       0.009534705 0.0033283625 -0.0070759268 -0.0022013553
000040 ac 0d c0 bc d9 96 39 bc 5e 3b 8b 3c 3b 74 83 3c
       -0.02344402 -0.011327469 0.016996082 0.016046634
000050 ab 4d 70 3c c8 5c 12 bb 0f bf 84 3c 75 9b 15 3d
       0.014666955 -0.0022333134 0.016204385 0.03652521
000060 6c 33 ec bb a8 c8 27 bc 0b d9 59 3d c9 2d c2 3c
       -0.0072082784 -0.010240711 0.053185504 0.023703473
000070 0a 0a 0f 3d d8 92 d1 3c ff c6 f2 bb e3 c0 50 3c
       0.034921683 0.025582716 -0.007408976 0.0127413
000080 cd a7 c6 3c c1 14 a5 bb 79 5f 39 bd 92 43 c8 bc
       0.024249936 -0.0050378744 -0.045257065 -0.024446283
000090 d8 42 0c 3c dc 11 a2 3c fd 14 88 3c 50 77 d7 3c
       0.008560859 0.019783907 0.01661157 0.02630201
0000a0 e9 86 f6 3c 30 81 18 3d f6 82 f9 bc 6b bd ec bc
       0.030093627 0.037232578 -0.030457955 -0.028898915
0000b0 ef 21 90 bc 80 06 db 3c 27 57 12 bc 45 8f 82 bc
       -0.017594306 0.026736498 -0.008931912 -0.015937457
0000c0 a3 86 ad 3c 65 05 a5 bb 8a 0d 97 3b 56 a9 3f bd
       0.021182364 -0.0050360435 0.0046097683 -0.04679235
0000d0 63 0c 5b bd ae 7e e4 3b dc dd 6f 3d 0a 2b 51 3d
       -0.05347861 0.006973109 0.05856119 0.051066436
0000e0 11 03 1c 3d a9 8d 91 3c 94 b2 6d bc c8 d3 38 3d
       0.03808886 0.017767744 -0.014507908 0.045123845
0000f0 46 99 f2 bb 7f 98 2e 3a 84 86 a5 3c c6 e1 88 3c
       -0.0074035255 0.0006660297 0.020205744 0.01670922
000100 b8 30 40 3d a9 12 9d 3c 97 be bf 3c ea cd 3d 3d
       0.04692146 0.019173937 0.02340631 0.046338953
000110 e5 de fe 3c 3f d3 f4 bc f8 47 fd bb 99 e1 bc bb
       0.031112144 -0.029885886 -0.0077295266 -0.005764198
000120 f7 53 a8 bc 3d f3 0e bd 1a 15 34 bd 7d cb 65 3c
       -0.02054785 -0.03489994 -0.043965437 0.014025566
000130 ba 19 ea bc eb 23 8e bc a9 1a b4 bc 5d fa b8 3b
       -0.02857672 -0.017351111 -0.021985369 0.00564508
000140 d2 21 bc ba 4d 67 62 3d f5 a2 02 3d 5e 28 6a 3d
       -0.0014353341 0.055274297 0.03189369 0.057167403
000150 bd 8c 1c bc 69 d7 1e 3d 7a 9f 3b 3c ab eb 19 3c
       -0.009555039 0.03877965 0.011451596 0.0093945665
000160 06 44 87 bc 1a 0d fd 3c a2 0b 72 3d 87 fb 00 3d
       -0.016511928 0.030890036 0.059093125 0.031489875
000170 5e c7 85 3d b5 26 df bc 22 5d 87 3c 66 cb 5b 3c
       0.06532167 -0.027240137 0.016523901 0.013415193
000180 f9 5f c0 bc 89 af e4 3c c3 b9 39 3c 32 8c c2 bb
       -0.023483263 0.027915733 0.011335793 -0.0059371227
000190 e1 9b 16 3d ff 7b 6f 3c 20 c0 cb 3c 38 bb b1 3c
       0.03676975 0.014616965 0.024871886 0.021695718
0001a0 b4 1c 15 3c a4 15 ed bb 62 12 b0 3c e7 77 dc 3c
       0.009101082 -0.007235246 0.02149314 0.026912643
0001b0 21 6a 22 3d 53 c9 47 ba d7 6d 10 3d ca 88 a0 3c
       0.039651994 -0.0007621247 0.035261 0.019596476
0001c0 6e 88 dd bb 43 1f 07 bc d3 07 a2 3c e2 29 20 3c
       -0.0067606485 -0.0082471995 0.019779122 0.009775611
0001d0 50 3d 91 bc fa bd 19 bc 6b a7 1f bc 50 0d 23 3d
       -0.017729431 -0.009383673 -0.009744505 0.039807618
0001e0 e0 60 b0 ba ab f0 36 3c 2e d7 0f bd 21 05 c0 bb
       -0.0013456605 0.011165778 -0.03511732 -0.0058599864
0001f0 90 74 ce bc 81 2c 9a bb b7 37 30 3d 68 cd f9 3a
       -0.025202066 -0.0047050123 0.043021884 0.0019058408
000200 af d6 55 3d c0 30 01 bc c6 78 11 3d 4f 93 36 3d
       0.05220669 -0.007885158 0.03551557 0.04457408
000210 0b 64 d4 39 d4 38 2f 3d d6 cf 9e 3c d3 bd 55 3d
       0.0004051033 0.042778805 0.019386213 0.052182984
000220 d7 28 bb 3b ff 45 b1 3b 68 cd 91 3c 1c bc 40 3c
       0.0057116556 0.0054099555 0.01779814 0.011763599
000230 65 32 b4 3a 7b 0b 3e 3c 04 c8 ae 3b 37 e3 3b bb
       0.0013747929 0.011599417 0.0053339023 -0.0028669366
000240 95 de c8 bb 38 48 a3 ba 30 14 46 bc 17 87 e0 3c
       -0.0061300495 -0.0012457436 -0.012089774 0.027408166
000250 93 89 6b bc 1b 0b 19 3b d5 0b ec bc 74 85 9e bc
       -0.014376062 0.0023352567 -0.028814236 -0.019350745
000260 57 67 84 3c b1 28 ac 3d 0f ad 5b 3d ce aa be 3c
       0.016162558 0.08406199 0.05363184 0.023274805
000270 fc 2f db 3c c0 c4 ae 3c 5f a1 21 3d f5 5e 9b 3c
       0.02675628 0.021334052 0.039460536 0.018966177
000280 f5 46 22 bc cc 55 54 3d 80 d3 89 3b 0e 39 46 3d
       -0.009904613 0.051839635 0.004206121 0.048394255
000290 31 2b 22 3d 52 60 7e 3c 3c fb 3b 3d 2c 46 87 bc
       0.03959197 0.015525894 0.045893893 -0.016512953
0002a0 42 62 33 bb 94 54 e6 3c ce b5 0d 3d 62 8c 78 bc
       -0.0027371799 0.028116502 0.03459721 -0.015170189
0002b0 11 d6 da bc c3 68 23 3c b7 aa 2d bd cc 62 73 bc
       -0.026713403 0.009973708 -0.042399134 -0.014855098
0002c0 c0 82 34 3b 3c 92 4d 3d 52 49 b1 bc dd 9c 14 3d
       0.0027543753 0.050188288 -0.021641407 0.03628241
0002d0 8e 50 00 bd 70 44 3d 3c 4e 3a 80 bc 4a ed 0f 3c
       -0.031326823 0.011551961 -0.015652802 0.008784601
0002e0 9b cc c5 3a 32 83 eb 3c 2c c0 0d 3c 3d f9 bb 3a
       0.0015090884 0.028749082 0.008651774 0.0014341247
0002f0 b1 2d 2a 3d 29 87 f2 bc 8f 67 91 bc 3a 5c 4a 3c
       0.04154748 -0.029605465 -0.017749576 0.01235109
000300 e1 68 94 bb 44 07 9f 3c 49 16 1c 3d 96 90 21 bc
       -0.004529104 0.019412644 0.03810719 -0.009861132
000310 b3 3b 6f bc c1 ae 9a bc cd 44 5e 3d 4d 3c 04 3d
       -0.014601636 -0.018882157 0.054264832 0.03228407
000320 9b 52 2f 3d 98 ef 0f 3d 38 0f 06 3d 27 5f d7 3b
       0.042803388 0.035140604 0.032729357 0.0065726223
000330 49 63 e1 3c 93 83 35 3c 9c 65 91 3c 0b e3 22 bc
       0.027513163 0.011078733 0.017748646 -0.009941827
000340 d4 3e 14 3c 84 a3 ee bb cc b4 d3 3c 30 75 ad bc
       0.0090481825 -0.007282676 0.025843047 -0.021174043
000350 21 7c 15 3d 80 59 a9 bb f7 eb 9b 3c 91 c2 cb 3c
       0.03649533 -0.00516814 0.019033415 0.02487305
000360 47 44 90 3c 69 f0 f0 3c 69 aa 10 3d 95 44 15 bc
       0.017610682 0.029411511 0.035318766 -0.0091105895
000370 9b 34 84 3c c4 78 21 3d 8e ae 70 bc 57 4c 88 bc
       0.016138365 0.03942181 -0.014690055 -0.016637964
000380 43 26 95 3c 4c 51 15 3d 4f de 31 3c 80 97 66 3d
       0.018206721 0.036454484 0.010856225 0.056296825
000390 a0 72 1a 3d 25 80 c0 3c b4 54 1c 3d 57 ee 11 3d
       0.03770697 0.023498604 0.038166717 0.03562769
0003a0 ac 4c aa 3c 23 74 f0 3c 85 cb 86 3b f1 02 15 3d
       0.020788513 0.029352253 0.004113617 0.03637976
0003b0 b0 06 ac 3d 41 be 06 bb 5e ef f0 3c b0 69 00 3d
       0.08399713 -0.0020560178 0.029411014 0.03135079
0003c0 fb 3e 63 3c 4e 6e 57 3d 9e 6d 31 3c 88 3f 11 3d
       0.013869996 0.05259543 0.010829357 0.03546098
0003d0 02 40 fb 3c 62 7c 9d 3c 4d 1e 33 3c dd 61 ca 3c
       0.03067017 0.01922435 0.010932517 0.024704868
0003e0 82 19 3a 3c 31 a1 e6 bb be b1 05 3d 41 e1 36 3d
       0.011358621 -0.0070382585 0.03264021 0.044648413
0003f0 ab 58 21 3d e5 5a 2b 3d 4d a5 96 3d 53 4c 14 3d
       0.0393912 0.04183473 0.07355747 0.0362056

body.block2.conv.bias f4 [64]
000000 1a 71 0a be 67 9f 57 3e 43 4d e0 bd 25 43 02 3e
       -0.13519707 0.21056901 -0.109522365 0.12720926
000010 8f 72 22 3e e7 ce 01 3e 5b bf 05 3e bf ee c4 3d
       0.15864013 0.12676583 0.13061278 0.0961585
000020 7d a4 8b bd 61 e8 9d bd 4e 84 e8 bd b1 4d 8a 3d
       -0.06818483 -0.077103384 -0.1135336 0.067531
000030 58 a7 98 3d a6 6b 94 3d 8e 72 72 3b 37 92 03 3e
       0.07453793 0.07247095 0.003699455 0.12848745
000040 d5 ba a1 3d 14 f2 c5 3d 64 e7 4e bb 4b 86 99 3c
       0.078969635 0.09665313 -0.0031571025 0.018740794
000050 26 e3 46 3e 04 27 04 be b3 7d 9d bd 73 5c 5c 3e
       0.19422588 -0.12905508 -0.07689991 0.21519642
000060 e2 88 ff bd 60 e7 05 be e0 a1 52 3e 50 b8 e8 bd
       -0.1247728 -0.13076544 0.20569563 -0.1136328
000070 4e 4b 00 be 91 64 be 3d ac 31 bc 3d c4 c3 97 bd
       -0.12528726 0.09296525 0.09189162 -0.07410386
000080 ab 3b 9d 3d 06 f9 b4 bd 4a 6c 8f 3d 53 56 d0 3d
       0.076773964 -0.0883656 0.070030764 0.10172715
000090 2a fe c9 bd 53 a9 e1 3d 6d 2a 2d 3e b5 60 30 3c
       -0.09862931 0.11018624 0.16910715 0.010765244
0000a0 c4 24 22 3e ea b6 fe 3c 42 b6 af bd 05 94 a6 bd
       0.15834337 0.03109308 -0.08579685 -0.08133701
0000b0 fa f2 7b 3d c9 a5 a3 3d 29 34 97 3d 16 7f 00 3c
       0.061511017 0.079906054 0.07382996 0.0078428
0000c0 7c 22 05 3e 6e 62 c6 3d f0 f8 99 3d 80 9b 2b 3e
       0.13001436 0.09686743 0.07518184 0.16758537
0000d0 68 09 0d 3e 8b 5b d3 3d c4 34 ed 3d e0 ed d8 bd
       0.1377312 0.10320195 0.1158233 -0.10592246
0000e0 96 4a ac 3d e3 eb b0 bd 6a d5 6e bd 23 69 02 3e
       0.08412664 -0.08638742 -0.058308996 0.12735419
0000f0 01 2b e0 bd fb 64 b9 3d 1d 08 eb 3c 91 9f 98 3d
       -0.10945702 0.090524636 0.028690392 0.0745231

tail.weight f4 [1, 64, 3, 3]
000000 57 c3 0e 3d 26 48 26 3d f3 da 2f 3d d5 28 3e 3d
       0.03485426 0.04059615 0.042933416 0.04642566
000010 4a 46 e9 3c e2 a0 5f 3d 49 d9 b6 3c a1 c8 32 3c
       0.0284759 0.05459679 0.022320407 0.0109120915
000020 df f7 06 3d c8 93 3a bd 09 bb c7 39 41 6c 95 3c
       0.032951232 -0.04555109 0.0003809559 0.018240096
000030 23 1f b4 bc e7 6a 90 3a 19 3e e1 3b b6 60 d4 bd
       -0.021987503 0.0011018188 0.0068738577 -0.10370009
000040 00 47 88 bd 58 78 7d bd 6e 22 ea 3c 95 e6 6e 3d
       -0.06654167 -0.061882347 0.02858087 0.05832537
000050 06 df b9 3d f4 87 1b bd 12 0c 14 3c 96 7a 04 3d
       0.090757415 -0.037971452 0.009036081 0.03234347
000060 2d 3a 54 bb c4 fb 06 3c 3d 91 4d 3d 9c 47 82 3b
       -0.0032383308 0.008238737 0.05018734 0.0039758217
000070 2f 65 f9 3b 10 51 6b bc 84 a5 55 bd be bb 87 bc
       0.007610939 -0.0143625885 -0.0521598 -0.016569015
000080 06 9b 36 bc 6f b8 94 bd c6 10 ee bc 8c 7f 8b bd
       -0.011145359 -0.072617404 -0.029060733 -0.06811437
000090 0a 15 b1 bc a8 ba 32 3c 8f 79 3d 39 ce 66 1f 3b
       -0.021616478 0.01090876 0.00018069729 0.002432275
0000a0 8a 6f 0e 3c cd 19 72 3c 01 5d cd bd 43 9e a9 bd
       0.008693585 0.014776659 -0.10027505 -0.08282139
0000b0 e8 34 08 bd 72 a3 85 bc 00 e8 1d 3d 84 d8 81 ba
       -0.03325358 -0.016313288 0.03855133 -0.0009906446
0000c0 07 9c c4 3c 88 50 d8 bc 85 ad 34 bd 53 6a c3 bd
       0.02400018 -0.026405588 -0.044110794 -0.09541764
0000d0 9d 87 56 bd 5e 29 b5 bd 0e 4e af 3c b2 d6 95 3c
       -0.052375425 -0.08845781 0.021399524 0.018290851
0000e0 47 3c 80 bc 01 3a 31 bd 29 0f a6 bc c4 43 00 3d
       -0.015653742 -0.043268207 -0.0202709 0.031314626
0000f0 10 f5 ac bd 54 ec 72 bd da 2a 7c bd 62 9f f6 bc
       -0.084451795 -0.05930741 -0.061564304 -0.030105297
000100 91 9e 10 bd 01 0a ee bc 2a ab bf bc e1 73 9a 3c
       -0.03530747 -0.029057505 -0.023397047 0.018854083
000110 2b e1 91 bc 1c 72 8d bd ae 4b 40 bd 38 f9 b6 bc
       -0.017807564 -0.0690653 -0.046947174 -0.022335634
000120 82 b9 75 3d b9 78 3d 3d ee 20 82 3d ff aa e6 3b
       0.059991367 0.04625771 0.06353937 0.0070394273
000130 1b 62 47 3d 85 94 40 bd 3c 43 9d 3a 11 2a c8 3b
       0.048677545 -0.04701664 0.0011998187 0.0061085303
000140 4f 43 04 bd 1e 1c 19 3d 69 cd fc 3c 18 d2 86 3d
       -0.032290753 0.03738033 0.030859666 0.06583041
000150 6f b0 6e bc dd d0 83 3c 97 b0 98 3d b6 0f 84 bc
       -0.014568432 0.016090805 0.07455557 -0.016120773
000160 c0 3b d4 3c 83 d6 79 3c 90 9d b7 3c b0 55 39 3d
       0.025907397 0.0152488975 0.022413999 0.045247734
000170 5a 99 8b 3d e4 dc 6a bc d4 db a1 3b 56 a7 23 3d
       0.06816359 -0.014334891 0.0049395356 0.039954506
000180 ed 6a 36 bc f0 0b 85 3c f5 9d 9b 3c 5b ae 1f bd
       -0.0111338915 0.016241044 0.018996218 -0.038984638
000190 bc 41 de bb fb b4 12 3a 4a 88 d2 bc cf 22 66 3b
       -0.0067827385 0.0005596426 -0.025699753 0.0035115962
0001a0 05 a3 f1 bb d4 9a 48 bd 2c 1c 0f bd 9c 8f 4d bd
       -0.00737417 -0.04897578 -0.034938976 -0.050185785
0001b0 c4 eb 53 bd eb f8 f0 bc 61 17 9e bc fa c8 bc 3b
       -0.051738515 -0.029415568 -0.019298257 0.005761263
0001c0 07 30 d6 bc b8 6f 4c bc a0 06 9f bd 85 10 84 bd
       -0.026145948 -0.012477808 -0.077649355 -0.06448463
0001d0 21 c9 5e bd d9 74 74 bd a6 bf 09 bd 20 59 02 bd
       -0.05439103 -0.059681747 -0.033630036 -0.031823277
0001e0 4c e2 3d bc 49 5f 80 3c 16 28 ef 3b fe 62 88 bd
       -0.011589598 0.015670436 0.00729848 -0.06659506
0001f0 c9 a7 72 ba 63 5d 3f bd ec f8 e1 3c c2 ab 44 3d
       -0.00092565693 -0.04671992 0.027584516 0.048015364
000200 54 85 5c 3d 50 17 2c 3d ff 76 8f 3c a6 5c 16 3d
       0.05383809 0.04201442 0.017512796 0.03670945
000210 c0 64 73 3d d9 f5 32 3d 7c 50 b7 3d ee 35 0d bb
       0.059422255 0.04369149 0.08950898 -0.0021547037
000220 af 35 3f bc b1 9b 9b bc 39 38 e4 b8 75 94 e0 bc
       -0.011670514 -0.018995138 -0.000108823595 -0.02741454
000230 a7 3c 9c bc 5b bd 9f bd 29 97 83 bd ec cc a2 bd
       -0.01907189 -0.077997886 -0.06425316 -0.07949242
000240 63 1a 0a bd e0 1c 3c 3d b9 d9 7d bc f3 ea 16 3c
       -0.03371657 0.045925975 -0.015493804 0.00921129
000250 02 35 ec bb a2 0f fd bc d9 d8 b2 bd 32 b6 9d bd
       -0.0072084675 -0.030891243 -0.08732767 -0.077007666
000260 8d 25 9d bd 10 c6 20 bd 86 31 87 bc ee dd 2f bc
       -0.07673178 -0.039251387 -0.016503107 -0.0107340645
000270 d5 b9 6b bd 00 cf c5 bb 3c 58 7c bc 24 45 c7 bd
       -0.05755027 -0.006036639 -0.015401896 -0.097299844
000280 72 01 ee 3a 23 2d 4e bd 8e 3c c1 3d 91 7c 22 3d
       0.001815839 -0.050336014 0.09435378 0.039669577
000290 eb 43 22 3d 48 69 25 3c 6d 78 32 3c e1 04 0a 3b
       0.039615553 0.010095902 0.01089297 0.0021060037
0002a0 c3 4a c8 3c 52 a9 0a bb 96 5f 52 38 c3 e9 b1 bd
       0.024449712 -0.0021158052 5.0156923e-05 -0.08687165
0002b0 86 a7 cb bc eb c2 b7 bb 20 72 96 bc fa 74 3d 3d
       -0.024860155 -0.005607953 -0.018364966 0.046254136
0002c0 e5 30 78 3d c4 f9 c6 bc 79 3e 0c bc b4 cc 51 ba
       0.060593504 -0.02428902 -0.0085598165 -0.00080032204
0002d0 e0 e2 bd bc 32 f5 1e 3d 3c 04 ec 3c de d0 17 bd
       -0.023179471 0.038808055 0.028810613 -0.037064426
0002e0 23 e7 45 bd 88 15 11 bb c1 d0 b7 bd 28 79 95 bd
       -0.048316132 -0.0022138078 -0.089753635 -0.07298499
0002f0 23 07 96 bd d5 6d 1e 3d 48 f3 56 3d 2a a2 66 3d
       -0.0732558 0.038678963 0.052478105 0.056306995
000300 51 c5 34 3d 56 31 95 3c ed 30 ff 3c 41 02 28 bc
       0.044133488 0.018212002 0.03115126 -0.010254444
000310 7d dc 6e bc 21 30 32 3d d8 6a 59 3d 70 95 4f 3c
       -0.014578936 0.04350293 0.05308041 0.012669906
000320 54 5f 9d 3d 3a cb 45 3d 63 36 9b 3a 32 52 00 3c
       0.07684198 0.048289515 0.001184177 0.007832097
000330 17 6d b9 3c cf 26 cf 3c a9 44 d3 3c ab 1e bd bc
       0.022635026 0.02528706 0.025789576 -0.023085913
000340 bd 18 dd ba 38 a5 c5 3b 04 c6 8e bc 63 32 64 bc
       -0.0016868334 0.0060316585 -0.017428406 -0.013928029
000350 d5 7c c2 bb cb eb a8 bd b1 2a c6 bd 12 a4 a6 bd
       -0.0059352913 -0.08248099 -0.096761115 -0.08136763
000360 11 d2 3f 3d 15 73 83 3d 25 63 93 3d 62 38 95 3c
       0.046831194 0.064184345 0.07196645 0.018215362
000370 eb 6f 9f 3c 7f c0 08 3d 1f fb 35 3c c9 df b5 3c
       0.019462546 0.033386704 0.011107235 0.022201436
000380 fc 1e 55 3d 05 d4 4e 3d 0e 87 2f 3d 1e 0a 15 3d
       0.052031502 0.050495166 0.042853408 0.0363866
000390 17 99 92 3c 42 6d 81 3c ac 78 a3 3c f0 6c e9 3c
       0.017895265 0.015799168 0.019955002 0.028494328
0003a0 80 bc da bc f6 8f c0 3c 76 f5 db bc d0 10 5d 3c
       -0.026701212 0.023506146 -0.026850443 0.013492778
0003b0 53 b6 0a 3c ff 9e fc bc 96 1a 54 bc 93 7f 73 bb
       0.008466321 -0.030837534 -0.012945792 -0.0037154898
0003c0 c3 f6 97 bd 98 c4 d3 bd 7f 19 a5 bd 19 4c 83 3d
       -0.07420113 -0.10340232 -0.080615036 0.06410999
0003d0 0f db 15 3d 91 88 6f 3d 7f 5e cf bc 60 6e d3 3b
       0.036585864 0.05847985 -0.025313614 0.0064523667
0003e0 ae cb 15 3d e1 a9 27 bc 5e b8 99 bc fd 78 7a 3d
       0.036571197 -0.010233373 -0.018764671 0.06115054
0003f0 39 53 4d 3d 41 d1 85 3d d9 f5 da 3c d7 e8 41 3c
       0.050128195 0.06534053 0.026728557 0.0118352985
