TrainedModels/volcano/2020_08_19_23_39_50_video_train_depth_3_lr_scale_0.1_act_lrelu_0.05/1/netG_b.pth (torch_old, 936147 bytes, 46 tensors)

total_ops f8 [1]
000000 00 00 00 00 00 00 00 00
       0.0

total_params f8 [1]
000000 00 00 00 00 00 00 00 00
       0.0

total_ops f8 [1]
000000 00 00 00 00 00 00 00 00
       0.0

total_params f8 [1]
000000 00 00 00 00 00 00 00 00
       0.0

weight f4 [64, 3, 1, 1]
000000 16 5b e5 3c 68 06 3a bc 55 a8 08 bc d2 c0 a7 bc
       0.027997535 -0.011354066 -0.008340915 -0.020477686
000010 3b 60 09 3d f7 cf 15 bc 4a a4 5e 3a 83 07 41 bd
       0.03353904 -0.009143821 0.0008493109 -0.047126304
000020 91 b8 dd 3b bc 27 4e bd bc dc b0 3c 7a 47 25 3b
       0.006766387 -0.050330862 0.02158963 0.0025219605
000030 a6 d9 c5 3c 00 ec af bc 7a 67 7f bc 85 ac b0 ba
       0.024151634 -0.021474838 -0.015588636 -0.0013479149
000040 bf 19 d2 3a 80 0a 45 3c 1d 62 65 3c e1 f6 b0 3c
       0.0016029401 0.012026429 0.014000443 0.021602096
000050 c8 24 af 3c 1f 1a d9 bb 84 36 19 bb 4c f3 44 3d
       0.021379843 -0.0066254283 -0.002337844 0.04808359
000060 3e 8d 82 3c d2 51 73 3b 5b db b3 3c 17 b3 47 bb
       0.01593649 0.0037127626 0.021955183 -0.0030471736
000070 b2 d8 ed bc 0e 71 d1 3c 38 ab 35 bc eb 31 16 ba
       -0.029033992 0.025566604 -0.011088185 -0.0005729484
000080 fd 7e c3 bc 16 43 49 bc 76 78 0f 3b 9f 99 fd ba
       -0.023864264 -0.012284061 0.0021891869 -0.0019348151
000090 9f 9b eb 3b e4 d6 9c bb 03 4e 86 bc 12 2c 24 3c
       0.0071901823 -0.004786359 -0.01639462 0.010020273
0000a0 93 fa 16 bd b2 0c 82 3c e4 5d f8 bc 11 02 3d bc
       -0.03686006 0.015875194 -0.030318208 -0.011536137
0000b0 61 c4 5f 3c 83 a1 f4 bb 08 78 f1 bc 71 04 a7 3c
       0.01365766 -0.0074655428 -0.02947618 0.02038786
0000c0 c8 ec a6 3a 12 41 53 3c ea cc 2e 3c 1f a6 23 3c
       0.0012735361 0.012893932 0.0106689725 0.009988337
0000d0 7a 1b c5 bb 0d d8 48 bb 90 15 0c bc a9 9d 2d bc
       -0.0060152384 -0.0030646354 -0.008550063 -0.010596671
0000e0 06 e4 77 bd 94 0e 21 3d cd 33 f8 bb b6 0a e6 3c
       -0.060520194 0.039320543 -0.0075745345 0.02808128
0000f0 b2 f9 4f bc 61 b0 d9 3c b0 69 16 3d 56 bf 07 39
       -0.012693809 0.026573362 0.036721885 0.00012945881
000100 9a 24 e1 3b 69 89 83 bc 98 b2 fb 3c ad cf 05 3d
       0.0068708183 -0.016056733 0.030724809 0.03266876
000110 b8 8a 0c 3d ed e5 7c 3a 5a 80 9b 3b ca 3e 4b bc
       0.03431198 0.0009647299 0.0047455253 -0.012405107
000120 6f 7a c1 3c 93 0c db 3b a7 45 16 b9 aa d5 95 bb
       0.023617951 0.0066848486 -0.00014331062 -0.00457259
000130 44 d2 64 bc 57 b9 4a 3c ad 7b 83 3c 74 c7 b1 bc
       -0.013966147 0.01237329 0.016050184 -0.021701552
000140 e1 53 b5 3b 40 c4 eb ba 1a 6a 91 3b 46 43 53 bc
       0.005533681 -0.0017987564 0.004437697 -0.012894457
000150 c6 4c 1c bc 48 9a cb 3c 02 f2 82 3d 14 94 41 3b
       -0.009539789 0.02485384 0.063938156 0.0029537724
000160 03 f9 7a 3b 83 de d7 3c fa 53 47 3c 34 04 5f bc
       0.0038295395 0.026351219 0.012166018 -0.013611842
000170 fc 8a 4e bc 33 a3 0a bc 44 1f a8 bb 3f 22 a3 ba
       -0.012606379 -0.008461761 -0.0051306803 -0.0012446119
000180 31 a1 b6 bc 46 df 2b bd cb 4d 01 bd a1 3c fd 3c
       -0.022293659 -0.041960977 -0.03156833 0.0309127
000190 a6 0b d7 3c 09 c8 f2 3c f3 dc a9 3c 86 34 74 bc
       0.026250672 0.0296364 0.02073524 -0.014905101
0001a0 09 62 f3 3c 9b 51 ee bb 09 45 4e 3c 71 58 17 3c
       0.029709833 -0.0072729117 0.012589701 0.009237395
0001b0 2d 87 de bc ef 2e a6 bc 6f b1 1a 3d 9d c9 07 3c
       -0.027164066 -0.020286052 0.03776687 0.008287814
0001c0 e3 f8 7c bc 69 db b1 3a 3c 72 3f 3c e9 56 34 38
       -0.015440199 0.0013569418 0.01168495 4.2996286e-05
0001d0 06 f6 0f 3c c4 31 62 bc 34 29 d0 3c 2e d3 bb 3c
       0.008786684 -0.01380581 0.025410272 0.022927847
0001e0 3f 46 f1 3c e1 df 32 bc 56 e9 88 bc 7c e1 10 3c
       0.029452441 -0.010917635 -0.016712826 0.008842822
0001f0 69 8a 5c 3c 80 00 2b bc cc 8e d4 3a e3 95 cf 3c
       0.013460734 -0.010437131 0.0016216873 0.025340026
000200 20 cd 33 3c 26 43 93 bc 4a 62 ec 3c 38 97 1d 3c
       0.010974199 -0.017976355 0.028855462 0.009618573
000210 40 6e a7 b8 e0 c7 08 3b 42 84 17 bc 5f 54 8a bc
       -7.983716e-05 0.0020871088 -0.009247841 -0.016885934
000220 aa f7 8e bb bc ce 83 bc ce af 2d 3c c5 46 ac 3c
       -0.00436302 -0.01608979 0.010600997 0.02102984
000230 eb 55 00 3c c5 ea f6 39 a9 f9 63 bc 5f ed bd 3b
       0.007832984 0.00047095693 -0.013914504 0.005796119
000240 3c a2 4c 3d b7 23 a6 3c 5c 19 4f 3b 78 c4 ce bc
       0.049959406 0.020280702 0.0031600809 -0.025240168
000250 bb c4 1e 3d ba c7 d4 bb 2e f7 ba 3c c0 20 38 3d
       0.038761836 -0.006493536 0.022822943 0.044953108
000260 38 5e 2e bd 5b 40 b1 bb 08 6c 06 39 98 27 de bc
       -0.042570323 -0.005409283 0.0001281948 -0.02711849
000270 f6 be 22 3d ba 3b d0 bb bf ce 9a bc af 01 b0 ba
       0.039732896 -0.006354776 -0.018897412 -0.0013428236
000280 a1 aa 71 3a 45 f2 fb 3b ba 0a 47 bd 65 2b 88 3c
       0.0009218846 0.007688793 -0.048594214 0.016622255
000290 ff a4 bf bc 7e 47 14 3d ec 03 8b 3c d9 56 90 bc
       -0.023394106 0.036200993 0.016969644 -0.017619537
0002a0 2b b8 11 3c f2 1a f6 3b df e1 16 bc 76 e6 01 3d
       0.008894007 0.0075105364 -0.009209125 0.031713925
0002b0 4e 71 7d 3c 45 3d b9 3a f2 af ac bc d2 b5 fc 3b
       0.0154689085 0.001413264 -0.021079991 0.0077121044
0002c0 3c fa f9 bb 21 18 a9 bb ad 42 c4 3a 14 e2 dc bc
       -0.007628707 -0.005160347 0.0014973484 -0.026963271
0002d0 cf 7c 68 3c bb b6 24 bb 5d a9 ad 3c ac 25 b1 3c
       0.014189913 -0.002513333 0.021198923 0.021624409
0002e0 07 85 80 3b 18 d0 91 3c 98 f1 03 bd a4 89 86 3c
       0.003922108 0.017799422 -0.032212824 0.016423054
0002f0 26 49 15 bc cf 4f 1c 3c 4d 9c ce 3b c4 54 70 ba
       -0.009111678 0.009540512 0.0063052536 -0.00091679045

bias f4 [64]
000000 53 9c ba be 7a 46 9a 3e dd ba 99 be 1e 04 c2 3e
       -0.3644739 0.30131894 -0.30025378 0.37893766
000010 a6 09 7b be 20 d0 d7 3c 4c d3 03 3f e5 16 e1 be
       -0.245154 0.026344359 0.5149429 -0.4396278
000020 b8 23 05 bf 08 9b c5 bd 82 25 a3 3e 6c bf 14 3e
       -0.5200763 -0.096487105 0.31864554 0.14526147
000030 98 6d 89 3e fc 3d de 3e 6f de f1 be 8c 13 8d 3e
       0.26841426 0.43406665 -0.47240016 0.27553976
000040 74 15 8b 3e 4c 50 02 bf 74 1b ac 3e 2c 8f 29 3e
       0.27164805 -0.50903773 0.33614695 0.16558522
000050 40 fc 11 3d ec 4d 2c 3e 4b 18 99 be 60 b8 7e 3e
       0.035640955 0.168266 -0.29901347 0.24875021
000060 22 44 c6 3e b7 10 bb be 6c 24 de 3e 60 7a f9 3c
       0.38723856 -0.3653619 0.43387163 0.03045386
000070 88 79 cd 3d cc c7 05 bf 90 cf 08 bd 8e a4 c3 be
       0.10032946 -0.5225799 -0.033401072 -0.38211483
000080 3a 0d c2 be 00 07 5c bb aa 93 86 be f4 25 82 be
       -0.37900716 -0.0033573508 -0.26284534 -0.2541958
000090 13 0d e7 be 6c 6a c7 3e ce 5d 1c be 7a a6 16 be
       -0.45127162 0.3894838 -0.15270159 -0.14711943
0000a0 38 47 f6 bd 14 dc fe bd e0 bb 3a bd d8 c3 ce 3d
       -0.12025303 -0.1244432 -0.045589328 0.10095948
0000b0 ea f4 11 bf 10 fa 0e 3e f2 5d 98 be f6 01 77 be
       -0.57014334 0.13962579 -0.29759175 -0.24121842
0000c0 61 b8 09 bf 61 28 10 bf b8 d2 70 3e 8c 8e 1a 3e
       -0.53796965 -0.56311613 0.23517883 0.1509344
0000d0 80 fc 5e 3d a8 d8 07 be 9e 25 b0 3e f2 fb da be
       0.05444002 -0.13266242 0.344037 -0.42770344
0000e0 78 53 43 3e b4 b7 5c be 02 15 37 be cc 6a 04 3e
       0.1907481 -0.21554452 -0.17879108 0.12931365
0000f0 a0 5c d4 bc 6a 99 03 3f 40 58 d0 be 40 6f 9c 3d
       -0.025923073 0.51405966 -0.4069233 0.07638407

total_ops f8 [1]
000000 00 00 00 00 00 00 00 00
       0.0

total_params f8 [1]
000000 00 00 00 00 00 00 00 00
       0.0

weight f4 [64, 3, 3, 3]
000000 66 9b 3f 3d 5b 6b 4b 3d a0 b1 13 bd 37 e7 1f 3d
       0.04677906 0.04966293 -0.03605807 0.039038863
000010 f2 0c 43 bb 5e 17 9e 3c 41 e5 6c 3d 86 90 25 3d
       -0.0029762355 0.019298252 0.05783582 0.04042103
000020 b7 e8 48 3d d5 d3 b2 bb fe 42 12 3d 33 dd 41 bc
       0.04905006 -0.0054573813 0.03570842 -0.011832523
000030 30 1c 49 3d 37 4f 3e 3d e6 77 cc 3c bc ab 91 3d
       0.049099147 0.046462264 0.024959516 0.07112834
000040 e1 f0 ac bc f8 26 6b 3d f1 df da 3b f9 ea 94 3c
       -0.021110954 0.05741021 0.006679528 0.01817845
000050 6b 5f eb bc 60 f4 68 bc 4a ff 1b 3d 69 5e b4 3c
       -0.028732022 -0.01421842 0.03808526 0.022017675
000060 c8 c4 27 3c c7 b7 3c 3d 8c 2e 3c 3d 77 6a 14 bd
       0.010239787 0.0460737 0.045942828 -0.036234345
000070 3a 29 44 bc 70 2c f2 bc 50 3a f9 bc 5e 52 3f bd
       -0.01197272 -0.029562205 -0.030423313 -0.04670941
000080 f3 de 85 3c 61 19 12 bd 6c 96 19 bd 60 1e a3 3c
       0.016341662 -0.035668734 -0.03749697 0.019911945
000090 b8 c3 52 bd 6c 8e 7a bd 92 ff 85 bd 1b 3a e6 bc
       -0.051456183 -0.06117098 -0.06542887 -0.028103879
0000a0 ab a9 56 bd 0f 3d 3d bd 36 a0 c2 bc c6 5e 0c bd
       -0.0524079 -0.04620081 -0.023758035 -0.03427007
0000b0 7d 6b cb bc b8 1e fa bc 20 7a a5 bb 97 17 43 bd
       -0.024831528 -0.030532226 -0.005049959 -0.04762992
0000c0 4a f8 0d bd 4d e6 3f bd 5a 7d a9 3c 86 8d 35 bd
       -0.034660615 -0.04685049 0.020689655 -0.04432442
0000d0 16 db 7e bd 9a a3 f3 3b 74 48 af bb 9d 29 51 3d
       -0.062220655 0.0074352743 -0.0053492133 0.051065076
0000e0 72 c4 17 3d 22 23 40 3d 13 de 6c 3b 45 21 e1 3c
       0.03705258 0.046908505 0.0036143109 0.027481684
0000f0 eb c1 47 3c 85 1b 28 3d ef e8 55 ba 7f 80 ce 3c
       0.01219223 0.04104187 -0.0008160015 0.025207756
000100 ca ea 46 3d 64 23 72 3d d1 8a 63 bc 15 9f 1d 3c
       0.048563756 0.059115782 -0.013888077 0.009620448
000110 de c0 11 3c 76 b1 ab bc a3 30 10 3d 02 9b 81 bb
       0.008896081 -0.020958643 0.035202634 -0.003955246
000120 4a f0 ac 3c 90 99 33 3d e5 28 35 3c 75 45 b3 3c
       0.021110673 0.04384762 0.011057113 0.021883706
000130 c6 be 77 ba 71 d6 7d 3c f3 3b 78 3d a8 7d 8c 3d
       -0.00094507297 0.015493021 0.060604047 0.068599045
000140 d6 ff b0 3c af 33 d9 3c 90 bb 73 3c 68 68 a5 3d
       0.021606367 0.026513902 0.014876261 0.080765545
000150 ba 6d 88 3c dc c2 48 3c 58 96 86 3d 88 bf 2b 3c
       0.016653884 0.012253489 0.065716445 0.010482676
000160 79 26 38 3d 20 79 ba 3b 03 c3 b7 bc d6 c3 32 bd
       0.044958565 0.0056907088 -0.022431856 -0.043643795
000170 80 9e a9 bb 28 99 16 bd c6 01 46 bd 37 fc ca 3c
       -0.0051763654 -0.036767155 -0.048341535 0.024778469
000180 f1 39 4c 3d 7c d1 a5 35 8b 01 81 bc 44 56 39 bd
       0.049859945 1.2354426e-06 -0.015747806 -0.045248285
000190 1d fe 06 bd 27 ba b7 3c 8a 63 13 3b 94 13 10 bc
       -0.032957185 0.022427632 0.002248975 -0.00879373
0001a0 63 a6 fd 3c 92 d7 41 bd 56 2a 8f 3d 35 ca 1f 3a
       0.030963128 -0.047324724 0.06990497 0.00060955
0001b0 70 30 2a 3d 63 66 2e bc d1 4e 7c 3b 80 60 59 bc
       0.0415501 -0.010644528 0.0038499127 -0.013267636
0001c0 c4 e0 a1 39 82 3a 64 3c 02 78 ed bc de ab 41 3d
       0.00030875776 0.013929965 -0.028987888 0.047283046
0001d0 04 7e 5b 3c 32 48 76 3d 9a ec c9 3c 2c 93 73 3d
       0.013396744 0.060127445 0.024648953 0.059466526
0001e0 f6 a2 1f ba 41 95 22 bc 9d a7 5d 3c 09 34 59 3b
       -0.0006089652 -0.00992328 0.013528732 0.0033142588
0001f0 36 5b 55 3d a6 4c 0e 3d a3 f8 9b bc c8 12 2a 3d
       0.05208894 0.034741066 -0.019039458 0.041521817
000200 38 f2 12 3c 2f 96 55 3d 03 37 1e 3d 16 9c 2f bc
       0.008968882 0.05214518 0.038626682 -0.010718366
000210 89 00 e2 bc 9b ad b1 bc b2 c1 c1 3c d6 b4 1e bd
       -0.027588146 -0.021689227 0.023651931 -0.038746677
000220 eb 37 18 3d f3 50 4e bd 36 ec ac bc de 54 c8 bc
       0.037162703 -0.050370168 -0.021108728 -0.02445453
000230 4f 38 8c bc 47 53 52 3d 13 c4 51 bc e6 8e 5a bd
       -0.017116694 0.05134895 -0.012803095 -0.053358935
000240 fd 7f 22 3d 01 d5 32 3c ae 75 f1 bc 29 40 37 bd
       0.03967284 0.010915042 -0.02947506 -0.044738922
000250 35 6c bb bc 8e e0 19 bd 1a 8f 22 bd ae 1c f0 bb
       -0.022878746 -0.037567668 -0.039687254 -0.0073276376
000260 63 bb 86 3d e4 30 bd bd a6 27 51 3d 64 40 1f 3d
       0.0657871 -0.09237841 0.051063202 0.038879767
000270 e6 d9 49 bb 7b 11 97 3c f8 e0 9a bc 4d cb 88 3d
       -0.0030800044 0.018440953 -0.018906102 0.066794015
000280 13 6f 48 bd 04 34 58 bd df ef d9 bc dd 8d 22 bd
       -0.048934054 -0.05278398 -0.026603637 -0.039686073
000290 cd 4b 49 bc 12 25 bb 3c 47 5d 1c bd 0a ee ec 3c
       -0.012286139 0.022844825 -0.038174894 0.0289221
0002a0 26 f2 38 bd 29 35 46 3d 7b ef 93 bc db 19 3d bd
       -0.045152806 0.04839054 -0.01805853 -0.046167236
0002b0 d2 e0 fd 3c c6 bd 8f bd e3 2c d0 bc 2f 0b 47 bd
       0.030990992 -0.07018618 -0.025412029 -0.04859465
0002c0 7d 67 0e bd 69 b6 82 bd 3d c9 28 bd c7 00 4f bd
       -0.034766663 -0.06382448 -0.04120754 -0.05053785
0002d0 ec 8f 44 bd da 09 37 bd ad 1e a7 3c 61 27 42 3c
       -0.047988817 -0.04468713 0.02040037 0.011850209
0002e0 46 dd 98 bb 9b 4a f7 3c 0f d4 1b bd 7a 19 03 bd
       -0.0046650497 0.030186942 -0.03804403 -0.03200672
0002f0 d7 d3 cf bc c3 c5 d6 3b 9b 6b 27 3c d1 ec 7c bc
       -0.025369568 0.0065543368 0.010218526 -0.015437321
000300 a2 b3 eb bc 04 b6 2a bd 72 19 42 bc 34 c5 50 bd
       -0.028772179 -0.04167749 -0.011846887 -0.050969318
000310 93 e6 1e 3b e8 28 77 3c ea b5 f0 bb ad b3 d5 bb
       0.002424632 0.015085436 -0.0073459046 -0.006521663
000320 12 43 a6 bc 91 3c 15 bd ba 6f ff bc 73 66 7c 3c
       -0.020295653 -0.036434714 -0.031181205 0.015405285
000330 3b 43 0b bd 26 6e 61 bd e1 02 01 bd 88 78 10 3d
       -0.033999663 -0.055036686 -0.031496886 0.035271198
000340 de 95 bc 3b db 2b 32 3d fc ec f4 bc 5d 2a 8e 3b
       0.0057551702 0.043498855 -0.02989816 0.004338546
000350 5d e1 ee 3c 2b 26 e8 bc c9 29 b6 bb de f7 10 bc
       0.029160196 -0.028338512 -0.0055591804 -0.008848159
000360 80 c1 33 3d ba 0c 9f bc 62 d9 d6 3c aa 76 99 bc
       0.043885708 -0.019415248 0.026226703 -0.018733341
000370 80 8c ad bc 8d b4 a5 3b db ad 3b bc 06 81 95 3d
       -0.02118516 0.0050569237 -0.011455025 0.073
000380 f0 cf 63 3d 7b 07 ca bc 99 ef 0a 3d 83 58 eb 3c
       0.055618227 -0.02466177 0.033919904 0.02872873
000390 42 c2 53 3d 09 0a 6e 3d 50 d2 e6 3c 6b 3f ad 3c
       0.05169893 0.05811504 0.028176457 0.021148404
0003a0 db 7c dc 3c c6 63 97 3d db 64 5f 3c 13 c0 f9 3c
       0.026915004 0.07392077 0.013634886 0.030487096
0003b0 cf e6 8b 3d 47 7e 57 3d 8d 14 fa 3c 28 cf 57 3d
       0.068311326 0.05261066 0.030527378 0.052687794
0003c0 43 d6 d2 3c 19 26 35 3d ff 0e 1d 3d ee 30 b4 3d
       0.025736934 0.044225786 0.03834438 0.08798395
0003d0 27 a7 42 bd 13 56 69 3b 8f 8a 1d 3d d0 57 31 3d
       -0.04752269 0.0035604283 0.038462218 0.043296635
0003e0 88 10 62 bc 47 c5 03 ba 88 b8 14 3c 55 1b 01 3d
       -0.013797887 -0.000502665 0.009077199 0.031520206
0003f0 75 25 9a bc b0 2c 4b 3d 11 cd 3c 3d fa a3 1a 3d
       -0.018816689 0.049603164 0.046094004 0.037754036

bias f4 [64]
000000 01 a3 d2 3d 5a ec 2d bd ec ee 33 3e f4 7e 31 bd
       0.10284997 -0.04246173 0.1757161 -0.043333963
000010 c2 eb f2 bc a4 0f 1d bd 4a 47 10 be fa 7f 54 3e
       -0.029653434 -0.038344994 -0.14089695 0.20751944
000020 18 ea 5c 3d d5 8b ca bd 3b a3 bd ba 1b c8 da 3d
       0.053934187 -0.09889952 -0.0014468202 0.10682698
000030 38 b2 27 3e 39 df 63 3b 56 f6 27 3c c0 66 a9 3c
       0.16376579 0.0034770502 0.010251602 0.020678878
000040 3c d2 80 bd e1 9b 64 bd 6f e6 3a be ca 1c 65 bb
       -0.06290099 -0.05581272 -0.18251966 -0.0034959787
000050 c5 3c 13 3d 19 4c 07 be 70 a5 d2 3d 0d 9a b1 3d
       0.035946626 -0.13212623 0.10285461 0.08671961
000060 2a 0e 40 be 53 7e 22 be 31 77 de 3d a0 0e c9 bc
       -0.18755403 -0.15868501 0.10862578 -0.024543107
000070 87 20 66 3b e5 54 ee bd cb e4 51 3e d1 2f 3c 3e
       0.0035114603 -0.11637286 0.20497434 0.18377616
000080 d5 24 26 3d 68 ca 7a 3c 0e 39 5c be b8 15 45 3e
       0.04056247 0.0153070465 -0.2150614 0.19246566
000090 fc 71 12 be 36 f7 42 3e 1d bf 05 3e 89 3d 26 be
       -0.14301294 0.19039616 0.13061185 -0.16234411
0000a0 c6 6b 3d 3e 05 67 aa 3d 8d bf 2b be b4 4d a3 bd
       0.18498144 0.08320431 -0.1677229 -0.07973805
0000b0 6c 21 a4 3c 88 00 1d be e2 3d df bc 75 b1 d3 3d
       0.020035468 -0.15332234 -0.027251188 0.103365816
0000c0 d2 36 30 bc 24 cf 06 be 65 a4 11 be de d7 aa bc
       -0.010755258 -0.13164955 -0.14222868 -0.020854887
0000d0 a1 63 18 3d 9e f7 3f 3e fc 14 ec bc 58 4c 46 3e
       0.03720439 0.18746802 -0.0288186 0.1936506
0000e0 45 39 b5 3d 01 4b 0e bd a6 ef f7 bd f8 96 0f be
       0.08848814 -0.034739498 -0.12106256 -0.14022434
0000f0 bd 6c 3d 3e 18 02 c2 3d ec 07 45 3e 48 5a 0c 3e
       0.18498512 0.094730556 0.19241303 0.13706315

total_ops f8 [1]
000000 00 00 00 00 00 00 00 00
       0.0

total_params f8 [1]
000000 00 00 00 00 00 00 00 00
       0.0

total_ops f8 [1]
000000 00 00 00 00 00 00 00 00
       0.0

total_params f8 [1]
000000 00 00 00 00 00 00 00 00
       0.0

total_ops f8 [1]
000000 00 00 00 00 00 00 00 00
       0.0

total_params f8 [1]
000000 00 00 00 00 00 00 00 00
       0.0

weight f4 [64, 64, 3, 3]
000000 9d 3c eb 3c 43 07 c1 bb a5 a7 df ba 50 3b d0 bc
       0.028715426 -0.0058907582 -0.0017063512 -0.025418907
000010 aa df a9 3c 99 3a ea bc 56 5f 0a 3c ca 11 a2 bb
       0.020736534 -0.028592395 0.008445581 -0.0049459683
000020 21 70 1d bc 26 32 06 3d c1 7a 98 3c d1 b2 37 3c
       -0.009609253 0.03276267 0.018613221 0.011212067
000030 7e d9 e6 bc 30 34 24 bc dc a4 cd bb 12 6a ff 3c
       -0.02817988 -0.010022208 -0.0062757563 0.031178508
000040 cc 9c 67 3d bf fe d9 3c f4 cd 5d 3d e9 85 5d bc
       0.056546018 0.02661073 0.05415149 -0.013520696
000050 86 50 a9 3b 6a da cc bc 5b ae 5f 3b dd 27 5e 3c
       0.00516707 -0.025006492 0.0034131024 0.013559309
000060 31 bb 36 3d 41 57 03 bc dd 5a 41 bb 21 6f 99 3b
       0.044612113 -0.008016408 -0.0029503622 0.004682437
000070 ef cd 41 3d 31 e1 4d 3d 77 76 96 3c 73 22 5b 3d
       0.047315534 0.050263587 0.018367035 0.05349965
000080 ca 82 22 3d 5b 46 f5 3c dd c7 dd 3c 43 f3 8c 3d
       0.03967551 0.029940775 0.027072841 0.06882336
000090 fe 60 ba 3c 18 0a 8a 3a ca 3c 0c 3c e8 7a 57 3c
       0.022751328 0.0010531573 0.008559415 0.013151862
0000a0 62 24 b6 3b 2b 43 9a bb fd cd ad bc 61 b8 d4 bc
       0.0055585364 -0.004707714 -0.021216387 -0.025966825
0000b0 b3 a0 d3 3c 6c 1c 2a bc d1 f0 93 3c 90 e9 56 3d
       0.025833463 -0.010382753 0.018059166 0.052468836
0000c0 24 1e 6f 3c b8 51 92 3c a2 ff 3b 3b 5d 71 5d 3d
       0.014594588 0.017861232 0.0028686305 0.05406319
0000d0 5f e5 4e 3c cf e3 0c 3d 2a 43 02 3d 07 9b b1 3c
       0.0126279285 0.034396943 0.031802334 0.021680368
0000e0 9e 2b 55 3d 87 38 15 3d f3 b2 19 3d 72 d7 37 3d
       0.05204355 0.03643086 0.037524175 0.0448832
0000f0 29 43 eb 3b f7 d7 22 3d 8d 47 0d 3d c6 97 c7 3b
       0.007179637 0.03975674 0.034492064 0.006091091
000100 fa f4 4f 3c 7b 70 92 3d 71 47 8b 3c c0 e0 df 3c
       0.012692684 0.0715036 0.01700184 0.027328849
000110 88 3c 48 3c 2e 1c fc 3b 54 24 8f 3c de 77 b1 b7
       0.012221463 0.007693789 0.017473377 -2.1155862e-05
000120 44 66 aa 3c 95 85 d6 bb 1a c9 02 3c ed 97 30 3c
       0.020800717 -0.006546686 0.007982517 0.010778409
000130 79 ab 07 39 20 ab f4 ba 60 29 3d 3c 81 dd e0 3c
       0.00012938482 -0.0018666722 0.011545509 0.027449371
000140 97 2a 7c ba 7e b9 ee 3c 7d 17 ca 3d ca 40 0b 3d
       -0.00096193835 0.029141184 0.09867761 0.033997335
000150 40 cd e4 3c 86 8f f8 bb 32 15 33 bd 62 6e 4b bc
       0.027929902 -0.0075854687 -0.043721385 -0.012416454
000160 18 3a 1b bd 4c c2 12 bd b3 22 15 3b 7f 37 d0 3c
       -0.0378972 -0.035829827 0.0022756278 0.025417088
000170 07 dd 7e 3c 1e 43 ef 3c ed 11 fa 3c ad 84 04 bc
       0.015555627 0.029206809 0.030526126 -0.008088273
000180 c6 66 bf 3c 2b 65 c4 3c 10 01 0e 3c e3 5a 09 bc
       0.023364436 0.023974022 0.0086672455 -0.0083834855
000190 58 7e d7 bc c9 b5 0b 3d 53 e4 82 bc 3b 8c 18 3d
       -0.026305363 0.03410891 -0.015978014 0.03724311
0001a0 9e ca f9 39 58 13 e6 bb 69 f1 35 ba 62 ab e0 3c
       0.00047643943 -0.007021349 -0.0006940575 0.027425472
0001b0 13 8d b9 bb bb 42 17 bc e8 69 6a 3d f6 de f8 bc
       -0.0056625693 -0.009232218 0.057229906 -0.030379754
0001c0 06 22 6a bc d8 64 50 3b 98 a4 06 3b fa 3d 0b 3d
       -0.014290338 0.0031798389 0.0020544883 0.033994652
0001d0 9b 50 9c 3c 1c c8 4f bc 5b 48 7a 3c 05 1a 0a 3d
       0.019081404 -0.012681987 0.01527604 0.03371622
0001e0 9e 8b e7 3b 36 bf 4b bc 20 58 77 bc 8b 54 b9 bc
       0.007066204 -0.012435725 -0.015096694 -0.022623321
0001f0 88 b0 c7 3b 26 c3 17 3d 53 b9 03 3b 32 94 4b 3d
       0.006094042 0.037051342 0.0020099476 0.049701877
000200 d6 47 16 3d 8a d5 e4 3c dd 8d 5a 3c b2 21 63 3c
       0.0366896 0.027933855 0.013339487 0.013863014
000210 54 9a bb bb 07 5e 79 3b bd 21 c0 bc a2 23 ce 3c
       -0.0057251845 0.003805043 -0.023453588 0.025163475
000220 55 e6 92 3d 05 82 2d 3c 41 2f 6b 3c 22 35 d2 3b
       0.071728386 0.010590081 0.014354528 0.0064150253
000230 d3 3e 15 3c 6d 25 95 3b 27 7e 50 3d ce 6b d6 3c
       0.009109217 0.0045515806 0.05090156 0.026174452
000240 55 62 00 b5 59 b9 1e 3d 4c fd c7 3c 92 8e 85 bc
       -4.782681e-07 0.03875098 0.024412774 -0.016303334
000250 3e 35 4a bc 3b 68 4f 3c 9a 00 c4 b9 8a 0a 32 3b
       -0.0123417955 0.012659128 -0.0003738448 0.0027166926
000260 a1 ab f3 3c 15 4c 37 3d cc a3 2e 3d 83 43 77 3d
       0.029744925 0.04475029 0.042636678 0.06036712
000270 78 63 5f 3c b9 ac 0d bb de 79 8b 3c 13 ac 66 3c
       0.013634555 -0.0021617843 0.017025884 0.014079112
000280 05 28 f3 3c 62 72 b5 3c 6e d6 d9 3c b0 28 ea 3b
       0.029682169 0.022149269 0.026591506 0.0071459636
000290 54 ec d1 3c 36 23 1e 3d 42 4a 1d 3b 30 98 25 3d
       0.025625385 0.0386078 0.002400056 0.04042834
0002a0 e3 18 bb 3b 07 c6 44 bc 24 3b ac bb 19 79 3c 3d
       0.005709754 -0.012010104 -0.0052560735 0.046013925
0002b0 45 eb 8a 3d df 8a 3d 3c b8 29 05 bb 85 23 24 3c
       0.06783155 0.011568754 -0.0020319056 0.010018234
0002c0 48 d6 4f bc 86 3d 28 3d fb 55 64 3c 48 1c 47 bc
       -0.012685366 0.0410743 0.013936515 -0.012152739
0002d0 48 65 54 3c 80 39 f6 bb 7c 1c 3c 3d 69 6e 88 39
       0.0129636 -0.0075141788 0.045925602 0.00026022203
0002e0 b3 fb 34 3d 96 9a cb 3c 4e 75 e2 bb 91 3c d9 bc
       0.04418535 0.024853986 -0.0069109565 -0.026518138
0002f0 6e c2 e3 3c 40 c9 2b bd 32 fc 28 3d b3 96 d2 3b
       0.027802672 -0.041939974 0.041256137 0.006426656
000300 61 ec a4 3c d6 43 69 3b 8f 15 09 3d 01 74 b9 bb
       0.020132245 0.0035593412 0.033467826 -0.0056595807
000310 d3 a4 e5 3c 53 03 0f bd 0a 56 5f 3c f1 cd 39 3c
       0.028032696 -0.03491528 0.013631353 0.011340604
000320 84 66 b3 3c 7b a5 9c bb 14 fc d2 3c b7 e5 a3 3c
       0.02189947 -0.004780469 0.025754966 0.020006998
000330 55 7b df 39 cf 20 bd 3c ef d4 22 bc 36 8e 7f 3d
       0.00042625764 0.023086933 -0.009938463 0.062391482
000340 21 1c 31 3d 93 31 39 3c b0 77 52 3d 0f 30 51 3d
       0.043239716 0.011303323 0.051383674 0.051071223
000350 3d 0b 3a 3d 8f 5d 4c 3d 2f a6 08 3c 32 c3 36 3d
       0.045420874 0.049893912 0.0083404025 0.044619747
000360 89 2b 17 bd 4d 46 27 bd 93 0a 56 bd c8 10 35 3b
       -0.036906753 -0.04083853 -0.052256178 0.002762841
000370 06 5b 25 3b 2c 0d af 3b 65 54 24 bc 45 7e 95 3c
       0.0025231256 0.0053421464 -0.010029887 0.018248687
000380 5e e4 e3 bc ab 8a ae bb b5 13 40 3c 64 2b 8a bc
       -0.027818855 -0.005326589 0.0117234485 -0.016866393
000390 0e e3 3d bd 3c 99 af bc 91 06 0e 3c e7 fb 67 bc
       -0.046359114 -0.021435373 0.008668558 -0.014159179
0003a0 10 96 95 bb 3d 97 8a 3c d8 bb ed 3c 1f 6b 4b 3c
       -0.004565008 0.01691782 0.029020235 0.012415676
0003b0 f4 ed 99 3c db c6 89 ba 39 eb 92 bc 47 7f d9 3b
       0.018790223 -0.0010511534 -0.017934429 0.006637487
0003c0 59 19 84 3c 55 d5 93 3c 53 da ec 3c 09 d0 17 3d
       0.016125368 0.01804606 0.028912699 0.037063632
0003d0 51 88 1b 3d bb 86 0e 3d b7 81 c7 3c 4f 8f 5e bc
       0.0379718 0.034796458 0.024353845 -0.013583972
0003e0 41 94 36 3b b0 fa 35 3d a6 94 1a 3d 81 83 6e 3c
       0.0027859362 0.044428527 0.03773942 0.01455772
0003f0 3a ef 17 3d e5 6d 1f 3d bc ea b8 3c 3a 9c b6 3b
       0.03709338 0.038923163 0.022572868 0.005572823

bias f4 [64]
000000 7f ee 08 bd 2a b6 d1 bc 86 b7 af bc 8e 3b ed 3b
       -0.033430573 -0.025599558 -0.021449815 0.0072397655
000010 b4 14 3b 3d 2f 93 c6 3c 58 3b 7c bb 22 ff ac 3c
       0.04567404 0.024240104 -0.003848752 0.02111775
000020 30 07 fb bc 03 a9 48 bc 73 56 cc 3c 1a 7a 21 3d
       -0.030643076 -0.012247327 0.024943566 0.039423086
000030 dd eb 05 bd 9a ac 94 bc 1c 5b d2 bb 02 36 d3 bb
       -0.03269564 -0.01814871 -0.0064195525 -0.006445647
000040 1b 45 62 bd b7 90 15 3c d6 2a 1d bd 4b 88 70 bb
       -0.055241685 0.009128741 -0.03837093 -0.003670233
000050 49 0b 8a ba 81 24 a3 bb 91 03 2a 3b bc 83 43 3d
       -0.0010531928 -0.004978717 0.0025942067 0.047733054
000060 e0 96 a8 3c c2 14 32 3d 33 0e fc bb 9b 2d b6 ba
       0.020579755 0.043476827 -0.0076921224 -0.001389909
000070 80 b7 47 bc 33 43 45 3d b3 11 fa 3c df 0a 07 3d
       -0.012189746 0.04815979 0.030526018 0.03296935
000080 a0 d6 95 3b 12 bc 6b ba 8a ab 8d 3d 4f 20 0d bc
       0.0045727044 -0.0008992563 0.06917484 -0.00861366
000090 1a a9 de 3c b3 3d 9f 3b 1c 83 01 bd 74 61 59 bd
       0.027180243 0.00485965 -0.031619176 -0.053071454
0000a0 9c 51 fe 3c 54 dd 08 3d c0 0f 63 3d 9f 52 29 3c
       0.031044774 0.0334142 0.055434942 0.01033464
0000b0 5f c7 1d 3c b8 f0 02 bc ec 53 05 3d b3 67 1e 3d
       0.009630053 -0.007991962 0.032550737 0.038673114
0000c0 2d 52 3e 3c d3 19 90 3c ee d5 64 bc 9c ca 09 3d
       0.011616272 0.017590439 -0.01396702 0.03364049
0000d0 73 03 50 3d 41 e1 c5 bc 7f 6a 03 3d f2 cb 95 3c
       0.05078454 -0.024155261 0.032083984 0.018285725
0000e0 3c d8 05 bc 05 83 57 bd 2f ee 89 bc 68 96 72 3d
       -0.00816923 -0.052615184 -0.016837208 0.05922547
0000f0 bc f5 22 bc eb 0a 29 3d 85 32 cf bc 94 8e 3e bd
       -0.009946283 0.041270178 -0.025292644 -0.04652269

total_ops f8 [1]
000000 00 00 00 00 00 00 00 00
       0.0

total_params f8 [1]
000000 00 00 00 00 00 00 00 00
       0.0

weight f4 [64, 64, 3, 3]
000000 e4 0b f3 3b a7 ff d2 3c dc 5d 12 3d 2c 5e d0 bc
       0.007417189 0.02575667 0.035734043 -0.02543553
000010 fb ad 9d 3a 1d 5b 06 3c 2d c8 0c 3c e9 a4 18 bd
       0.001203 0.008200434 0.0085926475 -0.037266646
000020 c7 6b bb 3b 7c 34 3d 3c fe 55 fa 39 dc 42 c0 3c
       0.005719635 0.011548158 0.00047747785 0.023469381
000030 e6 79 e7 3b ce 86 8d 3c 7d 0a a5 3c 4b 8f 0c 3c
       0.007064092 0.017276194 0.020146603 0.008579086
000040 5d ec b2 bb 23 91 9e 3c 3b 0b a2 bc 83 1b 97 3c
       -0.0054603056 0.019356316 -0.019780746 0.018445736
000050 09 09 45 3d be ed 1f bb 7f ef 0e bd 47 f1 ac bc
       0.04810432 -0.002440318 -0.03489637 -0.021111144
000060 c9 a3 0b bb 08 95 da 3c 04 76 cc ba 63 00 ae ba
       -0.002130734 0.026682392 -0.0015599136 -0.0013275262
000070 e3 19 c2 bb 75 17 8f bc 50 88 58 3c c0 a9 0c bd
       -0.005923496 -0.01746724 0.013216093 -0.034341574
000080 06 7c 78 3d 16 b0 b1 3c cb 79 d7 3c 3a e1 aa bc
       0.060665153 0.02169041 0.026303193 -0.02085935
000090 6e 52 93 bc 0b 35 85 3c df 00 0c bd f1 8e 2a bd
       -0.017983641 0.016260644 -0.03418052 -0.041640226
0000a0 fc 67 08 bd 49 bc 06 3b 9b cf b7 bc 70 40 88 bc
       -0.033302292 0.0020559004 -0.022437861 -0.016632289
0000b0 69 19 d6 bc d7 31 d8 3c 9c c2 61 bc c4 00 e9 3c
       -0.026135163 0.026390953 -0.013779309 0.028442748
0000c0 b3 01 6a 3c 49 2e a3 bb 14 ff 9d bb 42 30 93 bb
       0.014282632 -0.004979883 -0.0048216674 -0.0044918368
0000d0 e5 c2 8b 3c 60 f0 3b 3d ac a6 1c 3c e2 0e 9b 39
       0.017060706 0.045883536 0.009561222 0.00029574992
0000e0 52 19 e3 3b e3 42 85 bc 91 3d 61 bb 0e 3e 84 ba
       0.0069305087 -0.016267246 -0.0034368972 -0.0010089295
0000f0 a7 06 ae bb a1 e5 0f bd dc a8 19 bd 37 ce 30 3c
       -0.0053108516 -0.0351311 -0.037514552 0.010791353
000100 0a 59 9f ba 9e 39 d9 3c a5 94 1c 3c 52 de 89 3c
       -0.0012157273 0.026516732 0.009556924 0.016829643
000110 c7 60 f8 3c ad f1 a1 bc d0 aa 5b 3b 96 47 2f 3d
       0.030319585 -0.01976856 0.003351856 0.04279288
000120 02 43 13 bd 5e 15 bd 3c 2c 19 78 bd 5a 9b eb 3b
       -0.035952576 0.023081478 -0.06057088 0.00719015
000130 4b d6 99 bc 7e ee 1a bd 49 7f 05 bd cf e9 ab bb
       -0.01877894 -0.0378251 -0.03259209 -0.005246378
000140 e4 e9 ba bb 42 ac 33 bd 60 37 0d bc f4 b4 1f bc
       -0.0057041515 -0.04386545 -0.008619159 -0.009747732
000150 75 b6 22 bc 5b 45 95 bc df 4f 20 3d c5 0b ca bc
       -0.009931196 -0.018221548 0.03913867 -0.024663815
000160 e7 a6 8f bc ea 67 27 bb f2 a2 22 3d 6f 3c cf 3c
       -0.01753564 -0.0025544115 0.039706178 0.025297372
000170 b3 d8 4a 3b 3d b7 e3 bc 49 9b 17 3b 83 d4 c8 bc
       0.0030951917 -0.027797336 0.0023133329 -0.024515396
000180 7b 6d 24 bd aa 05 83 bc a2 86 13 bd 77 db e2 3c
       -0.04014347 -0.015993912 -0.036017068 0.02769254
000190 32 bf 79 3d f6 ae 57 3d e1 9d 94 3b 33 3c 34 3b
       0.060973354 0.05265709 0.004535422 0.0027501702
0001a0 87 17 bf 3b dd 97 e2 3c 3e 3a 10 bd a9 85 6c 3c
       0.005831662 0.027660305 -0.035211794 0.014436164
0001b0 b2 e7 4e 3d 01 1d b1 3c 8a 96 23 3d 2c e7 98 3c
       0.05051393 0.021620275 0.039938487 0.018664919
0001c0 65 42 e8 3b af a1 2c 3d a5 fe af 3c ec 50 c8 3b
       0.007087993 0.04214638 0.021483729 0.0061131623
0001d0 12 c0 9e 3c 55 f3 b1 3c a8 df 8c 3c 29 fb 26 3c
       0.019378696 0.021722475 0.017196491 0.010191717
0001e0 d6 68 46 39 56 32 4e bc 66 6e 66 bd 79 53 2a 3d
       0.00018921806 -0.012585243 -0.056257628 0.041583512
0001f0 df 7d d9 3c 61 c7 1b 3c 6d 48 c8 3c c7 7a 34 3c
       0.026549278 0.009507985 0.024448598 0.0110156005
000200 86 62 15 3c 3d f1 ae 3b bf b6 5b 3c 95 d9 db bb
       0.009117728 0.0053388164 0.013410269 -0.0067092874
000210 4a a2 b4 bc 37 c5 eb 3c 4a 7c 5f 3c a2 21 b7 39
       -0.022050042 0.028780563 0.013640473 0.00034929538
000220 d7 87 13 3b 22 d4 dd 3c 73 9c 91 ba a4 96 fd 3c
       0.0022511387 0.027078692 -0.0011109248 0.03095562
000230 eb 15 6f 3c 01 00 20 3b 71 ba 77 bc 07 9a e8 3b
       0.014592628 0.0024414065 -0.015120135 0.0070984396
000240 11 3e 23 bd 43 7b 47 bd 4c 9f b3 bc 68 aa 4b bd
       -0.039854113 -0.048701536 -0.021926545 -0.04972306
000250 9d 11 46 bd 16 4c 60 bb c8 72 47 bc a8 6a ba bc
       -0.04835664 -0.0034225038 -0.012173362 -0.022755936
000260 af 36 8f 3b ee 9b e7 ba 22 59 e1 3a e6 12 34 3c
       0.0043705325 -0.0017670372 0.0017192701 0.010990834
000270 26 7b d8 bb 60 02 0f 3c 58 c7 32 3a 8d 43 91 bc
       -0.0066064773 0.008728594 0.00068198657 -0.017732406
000280 a8 4e ed b9 9b 4c 0f bd dc 1e 07 3d c2 7a 8e bc
       -0.00045262766 -0.034985166 0.032988414 -0.01739252
000290 fd 83 ce 3c 0a 84 04 3d 0e cd bb 3c f3 c4 3b 3d
       0.025209421 0.032352485 0.022924926 0.045842122
0002a0 03 54 21 bc 00 b4 48 3c 2a 7a 6e 3d b0 82 b2 bc
       -0.00984669 0.012249947 0.058221973 -0.021790832
0002b0 03 99 1b 3c 52 6b d1 3a d9 ce c0 3c 9b 71 9c 3c
       0.00949693 0.0015977419 0.023536133 0.01909714
0002c0 ab f3 7d bb b9 09 bb 3b d5 ac 1b 3c 1b 14 80 3c
       -0.0038749974 0.005707946 0.009501656 0.015634587
0002d0 77 c1 b5 3c 06 41 17 3b 03 02 ff bb 41 21 e7 ba
       0.022186978 0.0023079528 -0.0077822222 -0.0017633812
0002e0 a2 f0 01 bc 32 9a 7e ba 31 fd 3c 3c 64 a7 32 3c
       -0.0079309065 -0.0009712308 0.011534975 0.010904167
0002f0 14 f5 ea 3b 66 77 8c bc 33 21 f4 3c f0 43 f2 3c
       0.007170329 -0.017146777 0.029800987 0.02957341
000300 d0 58 14 bd df 10 fe 3b a6 09 0b 3d ab 79 e8 3c
       -0.03621751 0.007753476 0.03394475 0.028378328
000310 ec bf 36 bb e9 b5 43 bc 0e ea bf bc ed 4b 18 3d
       -0.002788539 -0.011945226 -0.023427036 0.037181783
000320 c3 79 3e bb 58 2b 91 bc ed db d3 3b 71 3a 2a 3b
       -0.0029064275 -0.017720863 0.006465426 0.0025974775
000330 88 9e ad bc 92 8b 3a bd 61 05 e4 bc 35 a0 24 3c
       -0.021193758 -0.04554326 -0.027834596 0.010047962
000340 20 32 aa bc 24 e9 95 bc 7d de 02 bc 05 26 b2 bc
       -0.020775855 -0.018299647 -0.007987616 -0.021746645
000350 16 a8 07 bd 90 4e 88 3c aa 6d 78 3b 35 94 ce bb
       -0.033119284 0.016639024 0.0037907162 -0.0063042887
000360 cf 8e a5 3c 92 2f 2b 3c c4 67 10 bc 14 0d ae 3c
       0.020209698 0.010448353 -0.008813802 0.02124647
000370 29 20 ea 3b 4d 89 16 3d 90 4b b0 bc e7 4c 1b bc
       0.007144947 0.036752034 -0.021520406 -0.009478784
000380 d7 05 d8 bb 29 7d 20 3c 80 a8 e6 3b 83 db 3f 3d
       -0.006592493 0.0097954655 0.0070391297 0.046840202
000390 d4 45 c2 3b 3c 89 db 3c 43 43 0b 3d a9 bc c8 3c
       0.0059287343 0.026798837 0.033999693 0.024504023
0003a0 f9 26 05 3d d1 55 ac 3c 73 03 20 bc e0 f7 da bb
       0.03250787 0.021037014 -0.009766447 -0.006682381
0003b0 c3 8a 8e 3b 38 1d 1a bc de ad a9 3c b8 0e 16 3a
       0.004350038 -0.00940638 0.02071279 0.0005724239
0003c0 45 83 c8 3c 15 ba a5 3c 08 d6 40 3a 1a 91 9c 3c
       0.024476657 0.020230332 0.0007356112 0.019112159
0003d0 0f 32 d7 3c 61 40 c7 bb a2 fc 48 3b d2 8f 7d bc
       0.026268987 -0.0060806726 0.003066816 -0.015476184
0003e0 60 53 4b 3c 32 ae 56 bb 78 5a 0b bc 7c 05 41 3a
       0.012410015 -0.0032757637 -0.008505456 0.0007363183
0003f0 0c 13 b1 bc 69 b2 cc ba 89 bc 1c 3c dd db b8 3c
       -0.021615528 -0.0015617135 0.009566435 0.022565776

bias f4 [64]
000000 d5 fa 15 bd 2b e3 03 3b 51 07 18 3d 20 3a c0 3c
       -0.036616165 0.0020124416 0.037116352 0.023465216
000010 d8 07 0a 3d 9c b4 01 bd f0 e3 a3 bb 31 0e 19 3b
       0.033698887 -0.031666383 -0.0050015375 0.0023354406
000020 94 1b fe bb aa ef ba 3b 93 d1 b8 bc e9 ff 11 3d
       -0.0077547524 0.0057048397 -0.02256087 0.035644446
000030 6b 8d 69 3d dc d4 07 3d 95 e7 bd bc 5d 48 0c bb
       0.057019632 0.033161983 -0.023181716 -0.0021405437
000040 89 4d cc 3c 88 8f 3c bc 33 53 89 3b a8 67 04 3c
       0.024939315 -0.01150883 0.0041908263 0.008081354
000050 a6 2e 02 3d 71 3b 86 bb 71 15 c7 3c b5 aa 67 3d
       0.03178277 -0.0040964414 0.024302216 0.056559283
000060 74 b4 03 3c 6a 04 1f bd 71 96 02 3c ef 83 b7 3c
       0.008038629 -0.03882257 0.007970438 0.022401778
000070 8c 21 b8 3c 34 ea aa 3b f9 4c 12 3d 92 c5 18 bd
       0.022476934 0.0052159075 0.035717938 -0.037297793
000080 ca 3c 05 3c 5f 69 ef 3c 4b 57 a2 3c 2d a6 7f 3c
       0.008132169 0.02922505 0.019817015 0.015603584
000090 67 dd b7 3c f7 2c 1b 3d b5 6d b9 3c 01 65 c9 bc
       0.02244444 0.03788468 0.02263532 -0.024584295
0000a0 82 a5 c9 3c d0 43 db 3c 0a 15 59 3c 99 ba fd 3c
       0.024615053 0.026765734 0.013249645 0.030972766
0000b0 31 27 4d ba 4e 83 22 3d f6 7b cd 3b 28 6a 68 3d
       -0.00078259694 0.039676003 0.006270881 0.056741863
0000c0 ca b2 89 3c a5 ed 08 bd 01 83 51 bb aa a0 0a bb
       0.016808886 -0.03342976 -0.0031968954 -0.0021152892
0000d0 ea 64 cb bb da d5 b5 bc e5 f7 85 bc 69 14 5b bd
       -0.0062070983 -0.022196699 -0.016353557 -0.05348626
0000e0 40 d5 a0 3c 15 d5 0f bd c8 7b be bc 9d 6f db 3b
       0.019632936 -0.03511532 -0.023252383 0.006696655
0000f0 b2 30 b9 3b 6c 79 9b 3c 84 6b b7 bc cd bf c8 bc
       0.005651557 0.018978797 -0.022390135 -0.02450552

total_ops f8 [1]
000000 00 00 00 00 00 00 00 00
       0.0

total_params f8 [1]
000000 00 00 00 00 00 00 00 00
       0.0

weight f4 [64, 64, 3, 3]
000000 9d ce 03 bb 9d 69 15 bc 09 58 20 bd 35 2f 97 3c
       -0.0020112165 -0.009119418 -0.039146457 0.018455127
000010 bb 82 33 bd c8 c4 72 bd 3d 28 41 bd 92 8f 16 bd
       -0.043825846 -0.059269696 -0.047157515 -0.036758013
000020 66 44 0a bd 21 7e 89 3d 8a e6 6e 3b 2d 23 50 3b
       -0.033756636 0.0671351 0.003645333 0.0031759248
000030 30 4c c9 3c 9e f6 f9 3b 27 56 2b 3d db db 5a 3c
       0.024572462 0.007628276 0.04183021 0.013358082
000040 ff b2 bf bc 2f 3e 11 bc 92 dc 1a 3d 18 99 d4 3c
       -0.023400782 -0.008864923 0.03780801 0.025951907
000050 14 38 94 bc fd 8a 12 3c 86 ee bf bc e4 18 92 3b
       -0.018093146 0.00894427 -0.023429167 0.0044585336
000060 1f 10 a6 3c b6 76 a1 3b 76 42 87 bc 81 aa 83 3c
       0.020271359 0.0049274815 -0.016511183 0.016072514
000070 df 17 80 3d 89 21 57 3c 3f 78 82 bc 2a 12 cc 3b
       0.06254553 0.013130554 -0.015926478 0.0062277513
000080 50 62 c2 3b bd 41 87 3b ce 8b cd 3c c9 be b9 3c
       0.00593213 0.0041277097 0.025091078 0.022673981
000090 59 07 a1 bc 2d 06 ff bc 39 fa a5 bc 51 a4 1b bd
       -0.019656824 -0.031130875 -0.020260917 -0.0379985
0000a0 fd a8 b6 bc ef f6 06 bb f6 4c 66 bd dc 8a da 3c
       -0.022297377 -0.0020593961 -0.05622574 0.026677541
0000b0 99 72 4d bb 3f fb 1e 3c 78 8c d8 3b ea e1 c9 3c
       -0.0031348823 0.009703456 0.006608542 0.024643857
0000c0 9b 77 12 3d 77 03 2f bc 48 dc 06 3d 6c 79 55 bc
       0.035758596 -0.010681978 0.03292492 -0.0130294375
0000d0 4b 28 2c bc 28 64 11 3d 69 c5 51 bd 39 d9 0f 3b
       -0.0105076535 0.035495907 -0.051213656 0.0021949543
0000e0 cd d7 0e bd ec 57 de bc 8f 7a 07 bc 1c 21 de ba
       -0.034873772 -0.027141534 -0.008268966 -0.0016947123
0000f0 d5 d1 04 bb 7e b4 b0 3b f7 cc 2f bc 99 a3 05 3d
       -0.0020266671 0.00539261 -0.01073002 0.032626722
000100 cb 1a d4 bc 3a 59 be 3c 65 d2 50 3c 68 d2 8a 3c
       -0.025891682 0.023235906 0.012745474 0.016946033
000110 cc 84 16 3c 67 ff 36 3b 8f 78 2d ba d4 95 83 39
       0.009186935 0.0027923228 -0.0006617391 0.00025097898
000120 e1 67 0f 3d ca 25 bd 3c e2 cd 0e 3d 94 89 90 bc
       0.035011176 0.023089308 0.034864314 -0.017643727
000130 31 27 83 3b dc 07 aa 3c 10 f7 17 bc 0e 11 1f 3d
       0.0040024747 0.0207557 -0.009275213 0.038834624
000140 eb ef 37 3c a1 97 a0 3a 7a ec 69 bc 68 82 56 3b
       0.0112266345 0.001225222 -0.014277572 0.0032731537
000150 2a bf 4e bc 6a 68 22 3d ca eb a7 bc f0 c4 4a bc
       -0.012618819 0.03965036 -0.020498175 -0.012376055
000160 5e 93 c9 3c 91 6f cc bc da d9 02 3d ad f6 a8 3c
       0.024606403 -0.024955543 0.03194604 0.020625437
000170 2d f2 a2 bb 0b d7 47 bc 35 8a 19 3d 39 b1 8f 3b
       -0.0049727173 -0.012197266 0.03748532 0.0043851403
000180 a7 21 82 3c 96 f5 a6 3b c3 b5 a6 3c 63 6e f7 3b
       0.015885187 0.005095194 0.020350343 0.007551001
000190 f4 42 21 bc 96 b2 c9 bc 00 df 05 bc c4 e8 0a bc
       -0.009842623 -0.02462129 -0.008170843 -0.008478347
0001a0 3b 19 c3 3b 6f f2 bc bb 7c 9c 74 3d 49 06 41 bc
       0.0059539354 -0.005766205 0.059719548 -0.011781284
0001b0 56 fd 12 bc 28 83 03 bd 26 5f fa bc 14 be 6c bc
       -0.008971533 -0.032107502 -0.030562948 -0.014449615
0001c0 bb 8d ef 3c f4 d7 e9 bc 84 37 1b 3d 96 6b 90 3c
       0.029242387 -0.028545357 0.03789474 0.017629426
0001d0 0a 49 9f 3c e4 aa b3 bc c3 c6 cc bc d8 ae 92 bc
       0.019444007 -0.021932073 -0.02499712 -0.017905638
0001e0 e0 02 78 3c 7e 4d a1 bc 97 ad 02 bd 20 5e 17 bc
       0.015137404 -0.019690271 -0.03190383 -0.00923875
0001f0 34 bf 94 ba d1 8e 50 bc ec 20 58 3d 29 7f c8 3c
       -0.0011348487 -0.012729363 0.05276577 0.024474697
000200 76 89 4f bd 0b 1f 86 3c 0c 9a 7d bc d8 87 e7 bc
       -0.050668202 0.016372224 -0.015478622 -0.028263018
000210 33 3f 6a 3c 58 16 a0 bc 58 90 1a 3c e1 2c 70 3b
       0.014297294 -0.019541904 0.009433828 0.0036647844
000220 2c 0a 43 3a ac 5e 4a bb 82 f4 e6 bc e1 c5 af bb
       0.00074401754 -0.0030879183 -0.028192762 -0.005364165
000230 4e 46 2f 3d ba 53 78 bc cb b4 0c bc 2c 8d 4f 3c
       0.042791657 -0.015156681 -0.008588026 0.012667935
000240 05 c3 be bc 10 71 4c bd ac 56 61 3c b3 f2 d4 bc
       -0.023286352 -0.049912512 0.013753574 -0.025994634
000250 a3 bf 17 bd 41 79 ce 3c e4 a2 34 bd 0f 42 e2 bc
       -0.037047993 0.025204303 -0.044100657 -0.02761939
000260 cd 78 81 bc d8 14 3a bd 61 49 a2 bd ac 1e 10 bd
       -0.015804673 -0.045430034 -0.07924152 -0.0351855
000270 3a 79 b4 bc ac 89 4e bc 9b c6 20 3b ef 2d 98 3c
       -0.022030462 -0.012606066 0.002453244 0.01857659
000280 93 05 d7 bc 75 76 42 bd d7 8b fd 3c e6 33 c8 3c
       -0.026247775 -0.04747625 0.03095047 0.02443881
000290 6d c8 4f bc a4 4c 20 3d e9 9a 07 bd a5 88 92 bc
       -0.012682063 0.03913559 -0.03310672 -0.017887423
0002a0 37 f3 eb bb 63 9d b7 bc 38 20 dd 3c 51 d4 eb bb
       -0.0072006243 -0.022413915 0.026992902 -0.007196941
0002b0 03 e9 1b 3d d5 2f 22 3d eb 4b 88 bc 2b f3 42 bc
       0.038064014 0.039596397 -0.016637763 -0.011898796
0002c0 b7 3e 89 3d 0e 1d 41 bd 6f e9 9c 3c 6a c5 48 3d
       0.06701415 -0.04714685 0.019154279 0.049016394
0002d0 0c 8c 2b 3d 42 c6 96 3b 58 96 aa 3b de 04 c5 bc
       0.041881606 0.004601271 0.0052059107 -0.024050172
0002e0 17 0c 9c bb 0b 20 0a bb b0 f5 23 3d 37 c9 95 3c
       -0.0047621834 -0.0021076228 0.040029228 0.018284423
0002f0 86 0a bc bb cd 8a 3e bd c7 0e f3 bc df fe 53 bc
       -0.005738559 -0.04651909 -0.029670132 -0.012939184
000300 ab 01 3c bc c7 de 80 bc 20 39 e4 3c ed 3d 9c ba
       -0.011475007 -0.015731229 0.02785927 -0.0011920311
000310 69 a1 db bc ab 46 ed ba 5d 38 55 3d 03 c1 0a 3d
       -0.026810365 -0.0018102726 0.052055705 0.033875477
000320 e3 3b 12 3c 91 d4 a5 bc 70 70 48 bc ce 45 64 3b
       0.008925411 -0.020242961 -0.012233838 0.0034831646
000330 c0 f8 b6 bb 45 0f f7 3b 4a db 24 3d 39 2f 38 3c
       -0.0055838525 0.007539662 0.040248193 0.0112417275
000340 cf d6 2d bd c0 92 8c 3c 75 ef 65 bc 21 ac 6f bb
       -0.042441186 0.01715982 -0.014034142 -0.0036571103
000350 07 9a 70 3c b1 fe 9f bc 34 bb 95 3a 5e f3 a4 bc
       0.0146851605 -0.019530626 0.0011423589 -0.020135578
000360 4c c2 d3 3c b7 b9 bc 3b cc 25 cc 3c fc b6 89 38
       0.025849484 0.0057594436 0.024920367 6.5667526e-05
000370 51 90 69 3c 84 fb 16 bc a0 b1 92 3c 60 79 82 bc
       0.014255599 -0.009215239 0.017906964 -0.015927017
000380 e5 6d ff bc 50 63 31 bc d5 38 b4 3c 76 02 b7 3b
       -0.031180331 -0.010826901 0.021999756 0.00558501
000390 01 82 d3 3a 83 66 14 3d ee a5 cb 3b ec 6b 57 bc
       0.0016136767 0.036230575 0.0062148487 -0.013148289
0003a0 76 88 c9 3b 45 5f d2 bc 33 46 5e 3a 9a c5 dd 3c
       0.0061503006 -0.025680194 0.00084790884 0.027071763
0003b0 07 f5 47 3d 4c 00 47 3c 58 a0 17 bc c3 82 2b 3c
       0.04881766 0.012146067 -0.0092545375 0.010468188
0003c0 30 e3 b2 b9 58 08 aa bc d9 86 b0 3c 3e 79 05 bd
       -0.00034120074 -0.020755932 0.021548675 -0.03258633
0003d0 d2 cc d2 3a fa 32 bd 3c 40 21 31 ba f9 05 0b bd
       0.001608277 0.023095597 -0.0006756969 -0.033941243
0003e0 10 6d 26 3c 03 03 c8 bc ec 5c 37 3c 3e c6 4f 3c
       0.010157838 -0.024415499 0.011191588 0.012681542
0003f0 d1 ea 81 bc 9c b0 79 3a 16 68 fc 3c 7c 1d e1 3c
       -0.01585904 0.0009524913 0.03081135 0.02747988

bias f4 [64]
000000 01 d1 b1 3c 01 02 af bc 01 bf dd bc 62 4b a6 3c
       0.021706106 -0.02136326 -0.027068617 0.020299617
000010 ee 7c 8d 3b 1d bf c4 bc e5 01 e6 3c 98 d8 5b bc
       0.0043178713 -0.024016911 0.028077075 -0.013418339
000020 d1 2c c8 3c 25 27 61 3c 60 83 b3 3c 11 1b 63 3d
       0.024435433 0.013742243 0.02191323 0.055445734
000030 37 8c ad bc 0d 66 8f bc 65 58 e8 3a 2e 1b 4b 3c
       -0.021185024 -0.017504716 0.0017726539 0.012396617
000040 dc 8e e8 3c a7 39 b1 bc 2f 74 99 3b bc e5 72 3c
       0.028388433 -0.021633936 0.0046830396 0.014825281
000050 16 67 b5 ba c5 2c 19 3d ae 7a 33 3c 1b 63 1a 3d
       -0.0013839926 0.03739621 0.010954542 0.03769217
000060 53 56 1d 3d 4c db 00 3c 0b d4 da 3c 8e 9d 5b 3d
       0.038412403 0.007864784 0.026712438 0.053617053
000070 bd aa be bc e8 1c 1e 3d 78 1c 02 3d 08 69 4e bc
       -0.023274774 0.038601786 0.03176543 -0.012598284
000080 94 8c 1f bc c6 13 0e 3d 16 be f6 3c 58 8e 10 bd
       -0.009738106 0.034686826 0.030119937 -0.035292
000090 0d 45 e1 3c 7d 63 86 bc 54 21 8d 3c 77 1b af 3c
       0.027498746 -0.016404862 0.017227806 0.021375401
0000a0 a9 17 9b 3b fa 56 82 3c 06 8b de bc d8 0c e1 3c
       0.004733045 0.015910614 -0.0271659 0.027471945
0000b0 cb e7 86 3c 93 89 5a 3b ad fa 7e 3c 96 78 af 3c
       0.01646795 0.003334616 0.015562695 0.021419805
0000c0 b9 04 25 3c b6 8b 1f 3d 1f 97 78 3c b0 a5 b6 3c
       0.010071927 0.038951598 0.015172749 0.022295803
0000d0 b2 54 fb 3c 3e 1b ab bc bd fb cc bc 9b 32 32 3d
       0.030680034 -0.020887014 -0.025022382 0.043505292
0000e0 1a c9 bf bc 7b c3 1f 3a 25 05 37 bc fc fd fe bc
       -0.023411322 0.00060944975 -0.01117066 -0.031126969
0000f0 dd ad c7 bb a9 e2 84 3b 7f 60 ac bc 35 e8 54 3d
       -0.006093724 0.0040553403 -0.021042107 0.051979262

total_ops f8 [1]
000000 00 00 00 00 00 00 00 00
       0.0

total_params f8 [1]
000000 00 00 00 00 00 00 00 00
       0.0

total_ops f8 [1]
000000 00 00 00 00 00 00 00 00
       0.0

total_params f8 [1]
000000 00 00 00 00 00 00 00 00
       0.0
