TrainedModels/volcano/2020_08_16_10_42_19_video_train_depth_3_lr_scale_0.1_act_lrelu_0.05/0/netG_b.pth (torch_old, 487074 bytes, 12 tensors)

weight f4 [64, 3, 1, 1]
000000 28 42 97 3c 6e cb fd 3c 90 11 95 bc 84 84 77 3d
       0.018464163 0.030980792 -0.018196851 0.06042911
000010 38 5d b6 3c cf 4f 85 3a d1 0d 6a 3c c3 81 bd 3b
       0.022261247 0.001017088 0.014285521 0.005783291
000020 ad 23 03 bc 8c 6b d2 3c ea fc 3a 3c 4e f4 a5 3c
       -0.008004111 0.025686048 0.0114128385 0.020258095
000030 25 6e b2 bc 88 43 38 3c a9 9a 55 bc 2a ca c4 3b
       -0.021781037 0.011246569 -0.013037362 0.006005545
000040 a1 3c b6 3b a5 ba 5c bc b8 00 47 3b c1 a7 2b bc
       0.0055614267 -0.013472234 0.0030365419 -0.010477007
000050 74 53 01 3d 08 90 13 3c 10 24 1b bc a3 3a fa bc
       0.031573728 0.009006508 -0.009469047 -0.030545538
000060 d8 14 ff 3c 61 eb 44 3b 89 4a aa 3a c8 2d 4a 3c
       0.031137869 0.0030047523 0.0012992184 0.012340017
000070 b0 9f 05 3c 8d 49 19 bc c3 ac 86 3c b1 7f a9 3c
       0.008155748 -0.009355915 0.016439801 0.02069077
000080 24 c8 1f 3c fd ae ac 3b 54 db e9 3c c4 72 9a 3c
       0.009752307 0.0052698837 0.028546967 0.018853553
000090 d6 12 aa 3b 93 1d 06 bc 4d c5 c9 bc d1 ee ba 3b
       0.0051902337 -0.008185762 -0.024630213 0.0057047387
0000a0 0c c3 9f bb 17 a0 e2 38 09 41 72 3c 03 d7 c3 bb
       -0.0048755463 0.00010806339 0.014786013 -0.005976559
0000b0 fc 9b 82 3c 8c 68 80 bc 4a d3 02 3b 5a 44 18 bc
       0.01594352 -0.015674852 0.0019962364 -0.00929364
0000c0 e2 63 22 3c 9d 26 a5 bc b8 5a 67 3c b2 f0 10 3b
       0.009911509 -0.020160014 0.01412075 0.0022116122
0000d0 3f c8 8d bc a8 2d 47 bc cc b2 92 bc 4c e1 1e bb
       -0.017307399 -0.012156881 -0.017907523 -0.0024243174
0000e0 d2 41 40 3c fc 50 8c bc 56 06 bb 3a f3 42 27 bb
       0.011734443 -0.01712846 0.0014268856 -0.0025522083
0000f0 bc c9 e8 bc ff 47 46 3c da c4 15 bc 97 24 7f bd
       -0.028416507 0.012102126 -0.009141171 -0.062290754
000100 9b 2c 0c bd 88 41 e7 3c bd 73 cf bc 43 52 a0 3b
       -0.034222227 0.02822949 -0.025323743 0.004892619
000110 6a 78 79 bc 32 78 29 3c d1 0f c6 bc c5 45 da 3c
       -0.015226463 0.010343598 -0.024177464 0.026644597
000120 8b fb 84 bc 11 f8 8e ba d4 11 e6 bb c0 bb b2 bc
       -0.016233226 -0.001090767 -0.0070211682 -0.021818042
000130 9f fa 5a 3c aa 1d bd 3c f1 d5 4b 3c 58 54 ee 3c
       0.013365417 0.023085434 0.012441144 0.029092953
000140 40 9e d0 bc 21 6f 19 bb 40 23 45 3c 53 f7 da bc
       -0.025466084 -0.0023412185 0.01203233 -0.026729262
000150 e0 1f 07 bc 2f 01 e1 bc 31 c1 ee 3b 5a 05 ef 3c
       -0.008247346 -0.027466385 0.007286214 0.029177357
000160 cd 66 9a 3b 61 f9 48 3b 16 e5 f0 bb f7 71 89 bc
       0.004711962 0.003066622 -0.007351528 -0.016777975
000170 fc 16 80 3c e1 8f 3b 3c b1 95 c1 bc d6 22 20 bb
       0.01563596 0.011447878 -0.023630949 -0.0024434826
000180 08 d2 a2 ba 5d 48 8a bc 99 93 92 3c 8d f8 8e bb
       -0.0012422213 -0.016880209 0.017892646 -0.0043631257
000190 49 7c 95 bb 13 50 32 3b 92 f3 e9 ba 98 ab df bc
       -0.004561935 0.0027208372 -0.0017849079 -0.027303502
0001a0 a6 33 97 bb 4f 89 a7 3c 3e 19 15 bb 89 74 b8 bc
       -0.0046143113 0.020451216 -0.0022750641 -0.022516506
0001b0 12 13 5b 3c b6 5a 3f 3d a6 57 89 bb 9a 2c fc 3c
       0.013371246 0.046717368 -0.0041913567 0.030782986
0001c0 20 5b b5 ba c1 f0 46 3a c4 e3 1b 3b b1 a3 54 3c
       -0.0013836361 0.0007588976 0.0023786882 0.01297848
0001d0 cd 7d 49 bc 0d 79 89 3c b3 a1 33 bc d6 87 bb bb
       -0.01229806 0.016781354 -0.010963845 -0.00572298
0001e0 86 2b 45 3c a4 db a3 3c 7b e1 f9 3c 60 42 13 3d
       0.012034303 0.020002194 0.030503025 0.035951972
0001f0 41 5a eb 3c 83 e2 2b 3a 26 a9 af ba e9 72 b7 3c
       0.02872956 0.0006556885 -0.0013401851 0.02239366
000200 b8 1a 87 bb b6 64 2c bd a1 78 d0 3b 3a 4f 96 3d
       -0.004123058 -0.042088233 0.0063620363 0.0733933
000210 e3 fc 7e bc 74 64 b1 bb c6 e5 c6 3b d8 19 91 3c
       -0.015563223 -0.0054135863 0.0060698716 0.017712519
000220 63 07 42 bc c8 a3 b9 bb 46 68 8f bb 7a 7f ef 3c
       -0.011842581 -0.005665276 -0.004376444 0.02923559
000230 e8 1c 09 3a b4 f7 9b 3c 51 63 34 bb 9d ad 68 3b
       0.00052304426 0.019039012 -0.0027525018 0.0035503872
000240 e9 d6 fa 3b 52 f0 61 bc 49 4a b8 3b 6c 5d bd 3b
       0.007655014 -0.013790207 0.00562409 0.005778959
000250 d2 ac 9b 3c 31 ad 2d bc 5f 45 3b 3c 61 75 d6 bc
       0.019003306 -0.010600374 0.011430114 -0.026179017
000260 aa 1b 81 bb 7f 84 93 bc 20 d6 ba bc bd 9c 86 bb
       -0.0039400654 -0.018007515 -0.02280718 -0.00410804
000270 9f 73 c8 3a db 33 7d 3c d6 88 77 3a 11 4a 11 3c
       0.0015293247 0.015454258 0.00094426924 0.008867756
000280 f0 51 01 bc 94 87 74 bc 57 37 a6 3c 06 24 69 bc
       -0.007893071 -0.0149249025 0.02029006 -0.01422978
000290 92 d6 4d 3c 74 c3 3e bc f4 2f fa bb 3f 92 2a ba
       0.012563365 -0.011643279 -0.007635111 -0.0006506778
0002a0 68 c8 de 3a 77 8b 77 3c 18 69 6f 3b 23 a6 b4 bb
       0.0016996982 0.015108935 0.0036531147 -0.005512969
0002b0 18 eb 3e 3d 33 c3 e8 bc 68 ca 05 3c b3 28 17 bb
       0.04661092 -0.02841339 0.008165933 -0.002306503
0002c0 4c b0 35 3d 3d 9f 2f 3c 1f f3 16 bc 5f 98 1b 3c
       0.044357583 0.010719118 -0.009213238 0.009496777
0002d0 f6 a6 75 bc d4 7c d2 3a e6 e4 26 bc c1 e1 cd bb
       -0.01499342 0.001605893 -0.01018641 -0.0062830155
0002e0 6a d7 dc 3b 80 5b 7a 3c c4 20 c0 3c 69 31 38 bc
       0.0067395465 0.015280604 0.023453124 -0.011242249
0002f0 7a f6 06 3d 4d b1 9a bc 7a 18 00 bb 43 d8 ba 3c
       0.032949902 -0.018883372 -0.001954584 0.0228082

bias f4 [64]
000000 9a 6c 08 be a8 58 f2 3d 35 ea 8b be 7a 68 28 be
       -0.13322678 0.11833316 -0.27327123 -0.16446105
000010 ae bc 9f be 0c f4 73 3e 0c 92 da bd e9 7e 99 be
       -0.3119864 0.23823565 -0.106723875 -0.29979637
000020 68 0b f5 3e 88 5b cb 3d f2 ae bd 3e 74 c8 a1 3e
       0.47860265 0.099295676 0.37047535 0.31598246
000030 1c d4 f4 3e 6c a0 58 be b6 d9 a3 3e 40 a4 8e 3d
       0.47818077 -0.21154946 0.32002038 0.06964922
000040 74 aa d5 bd 58 24 b9 3e b8 7f 0a bf 12 c4 c3 3e
       -0.10432902 0.3616054 -0.54101133 0.38235527
000050 4c ed 01 3e ec 37 75 3e 08 e5 e2 3d 78 41 ff 3d
       0.12688178 0.23947114 0.110788405 0.12463659
000060 26 3b 22 be 0c c8 2a 3e 56 3a aa 3e 32 be 01 bf
       -0.15842876 0.16677874 0.33247632 -0.5068084
000070 95 74 91 be 44 6e 70 be e6 5e b6 3e aa ff d6 be
       -0.28409258 -0.23479563 0.35619277 -0.4199193
000080 44 05 e9 bd 24 f4 2a 3e 48 ff cb 3d 7e 19 01 be
       -0.113779575 0.16694695 0.099608004 -0.12607381
000090 9c 32 ae bd a8 82 2b 3e d0 98 4a 3e 1c 06 02 3f
       -0.08505747 0.1674906 0.19784856 0.5079057
0000a0 a0 dd d2 3d 60 4a 35 bd a6 8d c0 3e 00 9f 18 bc
       0.10296178 -0.044260383 0.3760807 -0.009315252
0000b0 6e 11 90 3e 98 4e cb 3e bc dd f4 bd 7b b9 02 bf
       0.28138298 0.397084 -0.11956355 -0.5106427
0000c0 06 52 c5 be 44 2e b0 be b6 85 ba be 60 35 08 be
       -0.3853914 -0.34410298 -0.36430138 -0.13301611
0000d0 62 35 c7 3e 78 c4 fd 3e f8 9f 0c 3f f0 49 0b bd
       0.38907915 0.49563956 0.5493159 -0.03400606
0000e0 80 ba 0e bd 98 4e fe be de b1 13 3f 70 21 08 3d
       -0.03484583 -0.49669337 0.5769328 0.033235013
0000f0 ac e2 b7 3e dc b8 c8 3e d3 2f 0c bf 44 0f f1 3e
       0.35915124 0.39203537 -0.54760474 0.4708196

weight f4 [64, 3, 3, 3]
000000 27 72 82 bd 4e 46 f4 3c bf 32 f0 3b 33 6b 08 bd
       -0.06369429 0.02981868 0.007330268 -0.03330536
000010 f9 e0 88 3c 2e 20 c6 bc 25 66 70 bd f7 84 38 3d
       0.016708838 -0.024185266 -0.058691163 0.04504868
000020 0f b4 ab bc 82 af b4 bc fe 7d 5d bd 8d 02 da bb
       -0.020959882 -0.022056345 -0.054075234 -0.006653136
000030 cc 4e bc 3c b9 04 22 bc be 1b f2 bb c7 59 7a 3c
       0.022986792 -0.009888821 -0.007388561 0.015280194
000040 84 60 45 3c 3f ef dc 3c 80 59 06 3d ce ca 3b 3d
       0.012046937 0.02696955 0.032800198 0.045847706
000050 22 f6 2b bd 37 e6 87 3c 94 d2 82 bb 5f 07 65 bc
       -0.041982777 0.016589267 -0.003992388 -0.013978808
000060 b5 7d 85 bc bf ab 18 3c 97 f6 48 bd a4 ed dc 3b
       -0.016295293 0.009318291 -0.04906329 0.006742196
000070 be 2c 60 bc 8b d2 46 bd b6 af 99 3b 54 b0 8a bc
       -0.013682542 -0.048540633 0.004690136 -0.016929783
000080 d1 97 24 bd 8d 73 22 bd 0c c6 25 bd cf 43 12 bd
       -0.040183846 -0.03966098 -0.040472075 -0.0357092
000090 01 34 ac bc 10 7d ae bc b2 73 44 bd 72 93 03 bd
       -0.021020891 -0.021299869 -0.0479619 -0.032123037
0000a0 11 87 ea bc 25 45 d5 bc 0b 86 f2 bc 95 65 b6 bc
       -0.028628858 -0.026033947 -0.029604932 -0.022265235
0000b0 bb c9 b2 bc 14 2f b2 39 03 7e c6 3b 00 ff 67 bd
       -0.021824708 0.00033985882 0.0060575022 -0.05663967
0000c0 6a 87 01 bc 65 8a e2 3b ca ea 99 bc 64 5f 11 bd
       -0.00790582 0.0069134706 -0.018788714 -0.035491362
0000d0 7d 68 2b bd 15 d5 1f bd 6c 85 22 bd 94 0f 67 3d
       -0.041847695 -0.03902157 -0.039678022 0.05641134
0000e0 a3 10 01 3d 09 13 c2 bc 6a 18 0e 3c 18 25 2e bd
       0.031510007 -0.023690717 0.008672813 -0.042515844
0000f0 37 fa 90 3b 30 ce 42 bd d6 56 76 3d e5 5f 5c bd
       0.004424359 -0.047559917 0.060141407 -0.05380239
000100 b0 f0 22 3c a5 29 75 bd fd 8d 88 3d a3 39 6b bc
       0.00994508 -0.05985417 0.06667707 -0.014357003
000110 89 e0 f1 3c 16 7e 9c bc d5 27 c5 3c 49 54 dd 3b
       0.029526012 -0.019103091 0.024066845 0.0067544323
000120 e9 d7 cc bc d6 bd ca 3c 8f 48 85 bc 9a 15 2c bd
       -0.025005298 0.024748724 -0.01626995 -0.04201279
000130 5f 67 ba 3c 2e 72 82 bd a9 e1 62 bd 45 b5 9b 3c
       0.02275437 -0.06369434 -0.055390988 0.019007334
000140 43 65 96 bd d2 33 91 bc 36 5a 33 3c 7e ff cd bc
       -0.07343533 -0.017724905 0.010946801 -0.025146242
000150 56 87 2d bd 94 f8 25 3d 56 27 17 3d 02 7c 33 bc
       -0.042365395 0.040520266 0.036902748 -0.010954859
000160 ee ce af 3b 56 e5 b8 bc 0e a4 7c bb 13 55 89 3c
       0.005365244 -0.022570293 -0.0038549933 0.0167642
000170 72 be 5c bc 1f 49 ea bc a2 c7 ac bc 11 8f cf bc
       -0.01347314 -0.02859932 -0.021091286 -0.025336774
000180 c8 ef 4b bd 03 3a c8 bb a3 20 23 bd c0 97 3a bd
       -0.04978922 -0.006110431 -0.039826047 -0.045554876
000190 be 17 e1 3c 19 d2 4a bc 72 d8 d7 bc 0a c3 1e 3d
       0.027477141 -0.012379193 -0.026348326 0.038760222
0001a0 04 ca 0a bd de 61 56 bc 98 7f 12 bd 83 79 5d bd
       -0.033884063 -0.013084857 -0.035766214 -0.05407096
0001b0 50 63 a6 bd f4 84 38 be 90 51 6e bc 8e ec 88 3c
       -0.08124411 -0.18019468 -0.014545813 0.01671436
0001c0 83 de 22 bc 17 fa f3 3a 55 51 ed 3b e0 e5 c5 3c
       -0.009940746 0.0018613961 0.0072423615 0.024157465
0001d0 81 65 95 bc 19 7a 25 bd ad 78 30 3c 82 dd 78 3d
       -0.018236877 -0.040399645 0.010770959 0.06075812
0001e0 e4 61 11 bc 2a 7d 1c b9 57 f0 99 3b a1 58 93 3a
       -0.008873437 -0.00014923947 0.00469784 0.0011241623
0001f0 3b b8 96 bb 50 a0 3f 3d b5 f8 48 3e 97 e0 21 3e
       -0.0045995987 0.046783745 0.19626124 0.1580833
000200 b9 62 4b be 6c 58 22 bc 08 7a 01 bc 36 45 3f 3c
       -0.19861878 -0.009908777 -0.00790263 0.011674216
000210 aa d8 f5 3b 37 e5 8a bb 56 67 82 bc c0 06 cf 3c
       0.007502635 -0.0042387503 -0.015918415 0.025271773
000220 91 a0 4a 3c 3a ac c1 3c d4 09 84 3b a3 9a 9b bc
       0.012367384 0.023641694 0.004029492 -0.018994635
000230 7b 34 3b 3d e6 e8 93 3c eb 24 ba bc 17 26 1b bd
       0.045704346 0.01805539 -0.022722682 -0.037878122
000240 32 53 bc 3c d6 12 9f bc f4 74 19 bd 75 18 93 bc
       0.02298889 -0.019418161 -0.03746505 -0.017955998
000250 03 a0 e9 bc 2d ec 6c bd 92 9b 51 3d 89 7c b3 bc
       -0.028518682 -0.057842422 0.051173754 -0.021909969
000260 3f f7 73 3d 64 ec 55 3b bb 07 fb 38 3b c4 d2 bc
       0.059561964 0.003264212 0.000119700526 -0.025728336
000270 34 ce fc 3a 6f 60 38 3d e7 87 d9 bc f6 42 eb bc
       0.0019287528 0.04501384 -0.026554061 -0.028718453
000280 cb 4c 9b 3c f2 a8 70 bd 88 80 70 bc 17 72 e0 3c
       0.018957516 -0.05875487 -0.014679082 0.027398152
000290 6a d4 db bc d0 5b 85 bb 38 2e 73 3c 22 bd bf bb
       -0.026834685 -0.004069783 0.014842562 -0.005851404
0002a0 d9 c0 9b bc c5 d8 02 3d e5 41 fb 39 48 d2 f8 3c
       -0.019012855 0.03194501 0.00047923546 0.030373707
0002b0 67 e1 09 bc 92 a8 0a bc 30 c2 db bb 01 c2 7d ba
       -0.0084155565 -0.008463042 -0.0067064986 -0.0009680093
0002c0 25 c0 09 bc 71 40 60 3c 48 26 b4 3c 97 02 8f bc
       -0.008407627 0.013687239 0.02199091 -0.01745729
0002d0 7d b5 47 3c 23 b2 27 3d 1f c3 0d bc 4b 3e 17 3c
       0.012189266 0.04094137 -0.0086524775 0.00923116
0002e0 f7 33 00 3c 50 d2 dc bc 46 8b c8 bb 85 55 0e 3b
       0.007824889 -0.026955754 -0.0061201183 0.0021718454
0002f0 a4 85 be bb 45 de 2f bc b0 71 86 bd a8 a2 9e bd
       -0.005814271 -0.0107341455 -0.06564653 -0.07745868
000300 3b d8 4c 3c 35 5f 7c 3c 96 53 e1 bc 87 7f 6f 3d
       0.012502725 0.0154035585 -0.027505677 0.05847123
000310 f4 cb ac 3c 62 3e fb 3c 7a f4 86 bc 7f 56 8a bd
       0.021093346 0.030669395 -0.016473997 -0.06754779
000320 73 6d 38 bd 1f c1 a0 3c a6 39 ff 3b 06 28 29 3c
       -0.045026254 0.019623337 0.0077888547 0.010324484
000330 12 41 0f 3d 4b df d4 ba 67 26 37 3d a2 3d 45 bc
       0.034974165 -0.0016240863 0.044714358 -0.01203862
000340 68 07 41 bd b6 6d de bc 80 c0 10 3d d5 a1 1f bc
       -0.047126204 -0.027151924 0.035339832 -0.009743174
000350 f7 21 92 bb f7 06 9b 3d 44 01 d4 3c 39 7f c7 3d
       -0.0044596153 0.07569688 0.02587951 0.09741063
000360 6a 78 a5 bc ef b7 00 bc 25 e4 97 3b 4c 27 c6 3b
       -0.02019902 -0.007856353 0.0046353512 0.006047165
000370 77 95 59 3c cf 6e 34 bc 3b e7 72 3a cd ef 60 3c
       0.013280264 -0.011012747 0.00092660234 0.013729048
000380 71 a7 a1 bc 64 cb 16 3b 40 21 92 3c e3 78 f6 3b
       -0.019733163 0.0023009414 0.01783812 0.007521735
000390 3a bd cf 3b 40 98 52 ba 00 7d 98 bb c8 b8 2f 3c
       0.0063396962 -0.0008033551 -0.004653573 0.010725208
0003a0 9a 0a 8f 3c 9a dc ae bb 59 51 07 3c 07 44 b0 3b
       0.01746111 -0.0053363563 0.008259141 0.0053792032
0003b0 5b 31 cd 3b c0 1b 80 bb 19 48 5c bc 0b 39 c4 bc
       0.006261987 -0.003909558 -0.013444924 -0.023952981
0003c0 e4 f6 28 bc 52 93 44 3c 7f ef 83 bc fd fd 4f 3d
       -0.01031277 0.0119980145 -0.016105412 0.05077933
0003d0 bc 28 40 bd cf c0 bf 3c 63 8b 3c 3d c8 5e 53 bd
       -0.046913847 0.023407368 0.046031367 -0.051604062
0003e0 bf bc ed bb ed 60 a2 bc 6b 0f 18 bc a2 bf 5a bd
       -0.0072551663 -0.019821608 -0.00928102 -0.05340541
0003f0 26 43 f7 3c 4b 7e bc bb 72 02 91 3c 13 11 2b bd
       0.030183386 -0.00575236 0.017701361 -0.04176433

bias f4 [64]
000000 c1 16 43 be b7 be 32 be 7e 56 47 be c4 8c b6 3d
       -0.19051649 -0.17455564 -0.19466588 0.08913568
000010 0d 55 6c bd b0 c5 cd bd 81 ea 5a be 9a 3e 37 3d
       -0.0576983 -0.100474715 -0.21378519 0.044737436
000020 3b 07 1e be ad 68 37 be 34 2d 28 be a7 eb 34 be
       -0.15432446 -0.17911024 -0.16423494 -0.17668019
000030 ee ad 8b bd e5 5c 8f bd fd d6 06 be ca 7a 9a 3c
       -0.06820284 -0.0700014 -0.13167949 0.018857379
000040 5f 50 33 be 98 d7 17 be ae df 33 be d3 38 fb bd
       -0.17511128 -0.14828336 -0.17565796 -0.12266698
000050 c3 10 2f 3e e8 27 10 bc 58 93 f7 bd 78 6f 33 be
       0.17096238 -0.008798577 -0.120886505 -0.1752299
000060 25 2a cf 3d 16 a1 c5 bd 04 08 47 be 64 59 7b bc
       0.1011546 -0.09649865 -0.19436651 -0.015341137
000070 94 35 b4 bd ca a3 ce bd 04 4f ae bd d8 b2 ce bd
       -0.08799282 -0.10089834 -0.08511165 -0.100927055
000080 8b 80 5e be 5f 7e fe bd 25 4c 2b bd 1d 8f d1 bd
       -0.21728723 -0.12426447 -0.041820664 -0.10232375
000090 df 9e 3d be 53 bc 72 be e3 30 4b be 2d e2 95 bc
       -0.18517636 -0.23704652 -0.19842868 -0.018296326
0000a0 39 99 74 be bd bf 5b be ba 44 ea bd 4e 1c fa b8
       -0.23886575 -0.21459861 -0.1143889 -0.00011926201
0000b0 5a bc 5d 3d 19 00 c3 bd dc d9 4c be 1e 8f ae bd
       0.054134704 -0.09521503 -0.20004982 -0.08523391
0000c0 02 3c d3 bc 8d d0 4a be 92 5c 2d be 85 a3 b1 bd
       -0.02578545 -0.19806118 -0.16929844 -0.08673767
0000d0 ea 90 6d bd e6 ca 08 be 5f c2 5d be b9 be 5d bd
       -0.05799953 -0.1335865 -0.21656178 -0.054136965
0000e0 2f fe 49 bd c0 c9 0b be c8 e3 dd bd d2 8e f2 3d
       -0.049314674 -0.1365118 -0.108344615 0.11843647
0000f0 a8 89 01 3d ee 67 50 be a1 53 23 3d f3 16 d0 bd
       0.03162542 -0.20352146 0.039874677 -0.10160627

weight f4 [64, 64, 3, 3]
000000 fa fe 9c 3c 7e d5 82 bc d7 d8 20 3d 0d 60 ba 3c
       0.019164551 -0.015970942 0.039269295 0.022750879
000010 97 60 0d 3d dd ef 43 3c a8 ee 5a 3d 8e c6 e5 3b
       0.034515943 0.011959043 0.053450257 0.007012195
000020 58 a2 03 bd 33 e4 e4 3a 83 ae 40 3b 9b 08 24 3c
       -0.032137245 0.0017463028 0.0029400892 0.010011817
000030 4a 03 58 3c f0 23 a8 bc 2c ce 58 bd e8 19 a1 3b
       0.013184378 -0.020524949 -0.052930996 0.0049164183
000040 ec 40 1a 3b 5e 95 20 bd d9 55 01 3b d6 a0 88 3c
       0.0023537232 -0.039204948 0.0019735007 0.016678255
000050 73 59 ea bb 7a 08 c4 bc 3f 5d 0a 3c 9a 32 0c bd
       -0.0071517765 -0.023929823 0.008445083 -0.034227945
000060 69 17 f1 3c c1 18 f8 3c dd c8 90 3a 51 dd 45 bd
       0.029430108 0.030285241 0.001104619 -0.048306767
000070 db b8 37 3b 17 da 23 3c 9a 7b 1c 3c f4 b7 36 3c
       0.0028033766 0.010000727 0.009550953 0.011152256
000080 5c be 4f 3c f6 f6 be bc 80 01 a2 3b 12 6d ad bc
       0.012679663 -0.02331112 0.0049440265 -0.021170173
000090 3d 76 b4 3c 2f 93 3c bd 16 28 b3 3b 94 eb aa bc
       0.022029037 -0.046038803 0.005467425 -0.020864286
0000a0 89 e2 b2 bc c4 31 28 bd 9e 5d 06 bd 3b 6a 48 3c
       -0.021836536 -0.041063085 -0.032804124 0.012232359
0000b0 cb 29 c0 bb 45 b6 92 bc 30 fb 4f bc 1a 06 ab 3c
       -0.005864357 -0.017909179 -0.012694165 0.020876933
0000c0 c2 9f 3e bd 27 e9 de 3b 2a 21 e5 bc 88 e9 20 3d
       -0.046539076 0.0068026963 -0.027969915 0.039285213
0000d0 bf 16 b8 bc cd 9e 84 bb ee 02 e9 3c 8d ad 92 bc
       -0.022471784 -0.004047251 0.02844378 -0.017905021
0000e0 d4 9e 87 3b c8 ce 4b 3b ff 9c ca bc 78 9f ae 3b
       0.004138807 0.0031098593 -0.024733065 0.0053290688
0000f0 df ef cb ba 37 23 4b 3c 59 41 23 bd 2e 68 07 3c
       -0.0015559158 0.012398533 -0.039857242 0.0082645845
000100 15 e6 c8 3b 51 fe 8e 3c 99 02 92 bc 90 e5 6d 3c
       0.0061309435 0.017455252 -0.017823504 0.014520064
000110 85 0e 21 bd 95 e8 c6 bc 8a 2f 3e b8 09 c7 6e bc
       -0.039320488 -0.024280826 -4.5343804e-05 -0.014573821
000120 38 e7 19 bd e7 dc 47 bc 5c 7f 0a bd 97 74 38 bc
       -0.037574023 -0.012198663 -0.033812866 -0.011258266
000130 f6 8b fb bc 99 3f 6d bd ae 47 82 3c b3 52 58 bc
       -0.030706387 -0.05792198 0.01590332 -0.013203311
000140 b6 36 35 bd fe 4e 09 bd 7a d3 8d 3d 59 10 9d 3d
       -0.04424163 -0.0335226 0.069251016 0.07669134
000150 b7 de 70 bd 74 cb 26 3d 03 e2 9a 3c 2b a5 44 3b
       -0.058806147 0.04072137 0.018906599 0.0030005674
000160 16 d1 97 3d 71 87 75 3d 7e 17 cf 3c 0d d8 18 3d
       0.07412927 0.05994362 0.025279757 0.037315417
000170 b6 7a 81 3c 08 a2 92 3c 6d b3 ce 3c f1 0e 32 3d
       0.015805583 0.017899528 0.025232041 0.04347128
000180 e5 df b1 bc 45 b5 93 3d 5f 70 cf bc d8 a9 64 3b
       -0.021713207 0.07212309 -0.025322137 0.0034891274
000190 c7 12 e0 3a b5 e1 95 bc cf f3 94 3c 27 e4 6d 3c
       0.001709544 -0.018296102 0.018182663 0.014519728
0001a0 23 c7 16 3c eb 94 26 bb a3 62 83 3c 75 8a 57 bc
       0.009202751 -0.0025418352 0.016038245 -0.013155569
0001b0 ee ae ee 3b 81 fc d7 bc 8e 59 b7 3c 40 77 24 bb
       0.007284037 -0.02636552 0.02238157 -0.0025095493
0001c0 d3 09 59 bc e7 53 1f bc fd bd d4 bc 79 e3 38 3a
       -0.013246971 -0.009724594 -0.0259695 0.0007052939
0001d0 c7 0a 9e 3a 53 5f f4 3c a0 96 80 bd 54 4a 12 bd
       0.0012057655 0.02983061 -0.062787294 -0.035715416
0001e0 8d 37 45 bd 0a 10 02 bd cb 63 89 3c 17 77 4b 3c
       -0.04814868 -0.031753577 0.016771218 0.01241853
0001f0 83 24 01 3b 8a 84 dd 3c 04 ae ad bb d6 ad 0b 3d
       0.00197056 0.027040739 -0.0053002853 0.03410133
000200 e5 26 1a 3d aa 79 8c 3c 9d fb 66 bc 91 40 2b bd
       0.03763475 0.017147858 -0.014098075 -0.041809622
000210 b2 7c 2a 3c 7c 9a 20 3d 56 ed 99 bd 54 fc bb bc
       0.010405706 0.039209828 -0.07515971 -0.022947468
000220 b0 39 6e bd 2a 40 ba 3b 0b 6a a5 3b b4 1f 32 bc
       -0.058160484 0.0056839185 0.0050480417 -0.010871816
000230 4f 3d 38 bc f8 53 2d bd 1f ad ba bb 79 d8 d3 bc
       -0.011245086 -0.042316407 -0.005696907 -0.025860058
000240 41 01 35 3b 30 22 fd 3c ae 55 99 3d 0e 0a 08 3d
       0.0027619156 0.030900091 0.07487045 0.033212714
000250 dd d9 20 bd c6 14 7e 3d 96 34 d8 bc a1 90 75 3c
       -0.03927027 0.06203153 -0.026392262 0.0149880955
000260 26 83 97 3c 95 b6 0e 3d 75 6a 13 3c d5 24 04 3c
       0.018495154 0.034842093 0.008997549 0.008065422
000270 5f 08 c4 bb d1 76 55 bc c3 be 60 bd ce 18 21 bc
       -0.005982443 -0.013028816 -0.054869425 -0.009832574
000280 92 92 85 bd a4 0a 4a bc 67 80 18 bc d0 06 68 3d
       -0.06522097 -0.0123316385 -0.009307957 0.056647122
000290 e4 bf 67 3c bf 44 43 bd 69 0e d1 bc fc 0a 13 3b
       0.014144871 -0.047672983 -0.025519567 0.0022436967
0002a0 89 d4 c3 3c 06 af da bb 4b 01 41 3d 7b b5 40 3d
       0.023905056 -0.0066736965 0.047120374 0.047048073
0002b0 fc 85 85 3c ef e8 fa bb 5c b4 07 bc 31 57 65 3c
       0.01629924 -0.0076571624 -0.008282747 0.013997839
0002c0 c3 73 f5 3b 03 6e 13 3d 98 00 83 bc 4b 02 da 3b
       0.0074906065 0.035993587 -0.015991494 0.0066531054
0002d0 dd 97 c9 3b bb 22 87 bb 3a 5c e6 bc ef a7 b9 bc
       0.0061521367 -0.0041240132 -0.028120149 -0.022663085
0002e0 97 f1 94 bc 62 20 48 bc 8b 74 53 bc aa e7 d7 3c
       -0.018181605 -0.012214752 -0.012906204 0.026355583
0002f0 50 3a 36 bc 8c 6e f1 bc 15 c6 17 bc 44 c5 52 bd
       -0.011122301 -0.029471658 -0.009263535 -0.05145766
000300 2f e8 5b bd fe d2 33 3c 2f f9 5c bd df 45 b3 3b
       -0.053688224 0.010975597 -0.053948577 0.005470976
000310 4c 82 ea ba 52 61 80 3d 75 e0 9d 3c b1 ee f2 3d
       -0.0017891615 0.062685624 0.019272069 0.11861933
000320 95 8e 94 bc 30 6c c6 ba e5 d1 85 3d 36 98 1f 3c
       -0.018134395 -0.0015138444 0.06534175 0.00974088
000330 2b cf 95 bc 18 30 08 3d 74 2a 41 bc ea db a2 3b
       -0.018287262 0.03324899 -0.011789907 0.0049700635
000340 61 4d 45 ba 10 b2 05 3d a5 da 4c 3c 1a 5e 25 ba
       -0.0007526484 0.032640517 0.012503301 -0.0006308273
000350 46 d0 c8 bd ba e7 03 bc d2 1a da 3c 25 ce b2 bc
       -0.0980535 -0.008050853 0.026624117 -0.021826813
000360 40 36 2a 3d d7 23 42 bc 46 45 95 3b ce 02 a5 3c
       0.041555643 -0.011849365 0.004555377 0.020142939
000370 b6 ca 15 3c 11 c3 5e 3c e2 32 76 ba b6 4d e6 3c
       0.009142568 0.013596312 -0.00093917374 0.028113227
000380 77 5e 3e 3c 8c 07 11 bd 6a ad b9 bb 67 90 65 3d
       0.011619202 -0.035407588 -0.0056664245 0.056045916
000390 27 fd ad 3c e1 8d 52 3c d2 b4 da bb e4 08 1a bd
       0.021238877 0.012851209 -0.0066743875 -0.037606135
0003a0 f0 1a 1b 3c 81 16 f9 ba 4b 8b 9d bd 70 e7 bb bc
       0.009466872 -0.0019003899 -0.07692584 -0.022937506
0003b0 58 af 05 3d 14 0b 71 bd 90 c4 1d bd f4 5b 92 3c
       0.032637924 -0.058848456 -0.038517535 0.017866112
0003c0 46 e2 90 bd e5 6c 1c bd cd b1 6b 3d 90 cb 06 3d
       -0.07074408 -0.038189787 0.05754261 0.032908976
0003d0 a8 f5 3d bd 00 83 14 bd a9 51 03 bd 6a e5 fe bc
       -0.046376854 -0.036257744 -0.0320603 -0.031115253
0003e0 65 0f b8 bc 59 e5 ef bb b3 83 bd bb 52 3d d6 bb
       -0.022468278 -0.0073210415 -0.005783522 -0.0065380717
0003f0 b7 8a 0b bd 96 c9 20 3d 59 5b 80 bd 03 e7 34 bd
       -0.034067836 0.039254747 -0.06267423 -0.044165622

bias f4 [64]
000000 e3 72 4f bd 26 a3 b9 bb 55 cc 99 bd 2d 56 8c bc
       -0.050646674 -0.0056652008 -0.07509676 -0.017130936
000010 cb d8 a0 bd 83 0d 83 bd 7d c3 b5 bc cd cc c9 bc
       -0.0785385 -0.063990615 -0.022187943 -0.02463379
000020 45 46 8c bd 14 e2 42 3b 7f 65 b6 bc 62 37 0c 3e
       -0.0684934 0.0029736804 -0.022265194 0.13693002
000030 fb 5c 50 bc 6d c8 ac bc 60 66 8d bd 9b dd a5 bd
       -0.012717481 -0.021091664 -0.06904292 -0.080989085
000040 79 9f 81 bd 39 44 21 bd 13 69 9e 3d 6f 8c 50 bd
       -0.06329245 -0.039371703 0.07734885 -0.050915178
000050 59 91 6c bd a6 5a 2f bc 15 f6 39 bd a3 fb 4c bd
       -0.0577558 -0.010702765 -0.045400698 -0.050044667
000060 dd f7 04 bc 3a 36 15 3b 7e c0 45 bd a1 db 93 bd
       -0.008115736 0.0022767917 -0.048279278 -0.07219625
000070 00 79 a6 bd 1c 2f 23 bd 31 d7 24 3e 43 78 f9 bc
       -0.08128548 -0.03983985 0.16097714 -0.030452853
000080 a5 cd c1 3d f6 d2 57 bd 68 85 4f 3d 26 02 04 3e
       0.09463052 -0.052691422 0.050664335 0.12891445
000090 c7 5f fb bc 15 e3 b7 3b 8d 7e db bd 75 c3 99 bc
       -0.030685319 0.005611787 -0.10717497 -0.018769959
0000a0 b2 50 c8 bc 79 f7 bb bc 08 2e 02 bd a6 03 18 bb
       -0.024452541 -0.022945153 -0.03178218 -0.0023195534
0000b0 bd 9f 95 bd d9 53 d9 3d f0 32 6b 3d c1 52 ab 3d
       -0.07305858 0.10611696 0.057421625 0.083653934
0000c0 ae fd 92 3c 6b f8 01 bd a6 18 97 3d 9d 6a 03 3e
       0.01794323 -0.03173105 0.07377748 0.12833638
0000d0 f1 bf a4 3d 3d 49 d7 3d 3a ca 47 bd 87 58 86 bd
       0.080444224 0.10512016 -0.048776843 -0.06559854
0000e0 2e ae 2d bd 6a f9 21 3d 32 e0 0b bc ca 87 f5 bc
       -0.04240244 0.0395445 -0.008537339 -0.029971976
0000f0 55 07 b3 3d fb 88 9e 3d 6e 0a ca 3d 16 b5 4d bd
       0.08741633 0.07740971 0.098652706 -0.050221525

weight f4 [64, 64, 3, 3]
000000 ea 05 3d bb a5 64 fd 3b ca 85 30 3d 17 c4 57 3d
       -0.0028842636 0.007732945 0.04309634 0.05267724
000010 90 d1 68 bd c5 6b c1 bc ee a3 60 bd 87 ad f0 3a
       -0.05684048 -0.023610959 -0.054843836 0.0018362262
000020 06 7c 46 3d 57 75 35 3c 60 c4 0c 3c 7c 70 0e 3c
       0.04845812 0.011075339 0.008591741 0.008693811
000030 db e1 9c bc e2 e8 90 bc 12 4f 5a 3c 4f 79 5d 3d
       -0.019150665 -0.017689172 0.013324516 0.054070767
000040 64 ec 36 3c 7d 91 9f bd 3b 38 d7 3c a0 bf 2d 3b
       0.011164758 -0.077914216 0.02627193 0.0026511922
000050 76 6f a3 bd f4 58 d4 3d 39 de 0c bd f5 30 53 bd
       -0.07980244 0.10368529 -0.034391616 -0.05156036
000060 49 93 2a bd 14 f9 c0 3c 7b 21 94 3c 80 19 7c bc
       -0.04164437 0.02355627 0.018082371 -0.015386939
000070 53 51 7f bd e2 0e 08 bc d8 91 03 3c 22 1e 33 bd
       -0.062333416 -0.00830433 0.008030377 -0.04372991
000080 19 13 5f bc e1 7b eb bc 2f d9 27 bd f5 da 77 bc
       -0.013615393 -0.028745594 -0.040978607 -0.015127887
000090 21 11 fd 3a c4 81 6c bc 5c eb 43 bd 0e 99 0d bc
       0.0019307473 -0.014435235 -0.047831878 -0.008642448
0000a0 90 72 de bc a9 27 a4 bd 38 87 bf bd 04 48 3c bd
       -0.027154237 -0.08015377 -0.09351963 -0.045967117
0000b0 e2 5c b7 bd 1f e4 b2 bd 8e 0e 84 bd 4e 3b 84 bd
       -0.08953263 -0.08734917 -0.064480886 -0.06456624
0000c0 ed ad 1e bd 8a 6b b3 bd 5e 97 88 3c 3c 9f 8b bc
       -0.038740087 -0.08760746 0.01667374 -0.017043702
0000d0 25 24 23 3d 10 78 ba 3d bf fd 7d bd 3a 5e 39 bd
       0.039829392 0.09104931 -0.06200957 -0.045255877
0000e0 b8 8d 87 bd 66 15 11 bd 4f 41 84 3d ef b0 b3 bc
       -0.066188276 -0.035420798 0.06457769 -0.021934954
0000f0 0b c8 d7 bd c9 1b 25 bc 67 3d 6c bd f8 7f 0a 3b
       -0.10536202 -0.010077425 -0.057675745 0.0021133404
000100 01 ed d4 3b 4a 1d 40 3d c7 28 bb 3b a6 73 21 3d
       0.0064979796 0.046902932 0.005711648 0.03941693
000110 0b 58 a9 3d 51 e6 e0 3c bb f3 09 3c 52 06 b4 3d
       0.08268746 0.027453573 0.008419926 0.08790268
000120 c2 96 2f 3d bd a1 3f bc bc 98 5d bd f0 0a 85 bd
       0.042868383 -0.011696276 -0.054100737 -0.06496227
000130 66 45 d5 3c 38 87 06 3a 02 66 04 bd 26 69 66 bd
       0.026034068 0.00051318435 -0.032323845 -0.05625262
000140 9d 63 0e 3d ce b5 7a 3d 82 a6 0c be c0 ef b5 bd
       0.034762967 0.06120854 -0.13735393 -0.08883619
000150 b5 9c d3 3d 2b d8 8c bd 0f 5e f0 bd d9 5d f5 3d
       0.10332624 -0.06877168 -0.1173669 0.11980791
000160 da 6e 8d bd d8 4a ae bd 21 fe 97 bc b6 f4 2a 3d
       -0.06905909 -0.08510369 -0.018553795 0.04173728
000170 c5 41 76 3b 66 6d 20 3b a7 cc ca 3c 34 e1 a7 bc
       0.0037575823 0.002447927 0.024755789 -0.020493127
000180 d1 d3 d0 bb 70 67 4a 3c 09 25 9a bd 94 37 62 3e
       -0.0063729067 0.012353763 -0.07526595 0.22091514
000190 f6 e8 6f 3e 6e ec 6a 3e 41 c3 0f 3d 68 25 70 bd
       0.23428711 0.22941753 0.035098318 -0.058629423
0001a0 99 52 f2 3b f9 cc db bd cb 36 90 3b 54 c7 ef bb
       0.0073951003 -0.10732455 0.004401063 -0.007317463
0001b0 73 f7 04 bc 2f 6c 09 3d ba 40 49 3c 38 e7 91 ba
       -0.008115637 0.033550438 0.012283498 -0.0011131531
0001c0 0a 40 41 3d 1c c9 31 3d a5 9b ec bb 82 6b f2 bc
       0.047180213 0.043404683 -0.0072207027 -0.02959228
0001d0 4d 0d 9f 3d dc 96 ec 3c 91 d7 8b 3d 1d 76 92 3d
       0.07766209 0.02888053 0.068282254 0.071514346
0001e0 36 1d 96 3d 1b d6 01 3d 62 b0 79 3c 61 96 b7 3b
       0.0732979 0.031698328 0.015239807 0.0056026434
0001f0 6f 3c 3d 3c 59 58 68 3d a1 ee 03 bd eb c8 da 3b
       0.011550053 0.05672488 -0.032209996 0.0066767833
000200 ff a6 5e bd f7 7d 15 bd 73 0a 47 3d ea ca a4 3d
       -0.05435848 -0.036497083 0.04859395 0.08046515
000210 16 de b0 bc a4 b8 82 3c 07 2d 28 3d 08 ea 80 bc
       -0.021590274 0.015957184 0.041058566 -0.015736595
000220 9d d6 03 3d 98 e4 03 3d ee 2d b6 bd b9 4c 93 bc
       0.032187093 0.032200426 -0.08895479 -0.01798092
000230 be a3 4e 3d 13 74 0c bd e2 62 a4 3d 4e 37 8b 3d
       0.050449125 -0.034290385 0.08026673 0.06797658
000240 2b 18 73 3d 43 aa 15 3c f6 21 77 3c 61 c7 73 3c
       0.05934922 0.009134832 0.0150837805 0.014879079
000250 6d e7 a9 3d eb 71 2f bc da e7 86 bb a3 b5 7f bc
       0.08296094 -0.0107083125 -0.0041169943 -0.01560727
000260 9e ca c2 bc 07 db 5f 3c 4e f8 39 bd 59 94 c2 bc
       -0.023778256 0.01366306 -0.045402817 -0.023752378
000270 4d d8 bf bc 2a af f3 bb f7 78 29 37 ab cd 1e bd
       -0.02341857 -0.0074366527 1.0101349e-05 -0.03877036
000280 3f 04 13 3d 4e 3c d3 bc 12 92 8a 3c ae 17 af bc
       0.03589272 -0.025785591 0.016915355 -0.021373596
000290 53 3c 00 bd cb 22 2f 3c dc 49 0b bd 34 18 e2 bc
       -0.03130753 0.010689448 -0.034005985 -0.027599432
0002a0 fd d7 0c 3c 0a fd 7d bd 41 86 d3 bd 77 f4 eb 3c
       0.0085964175 -0.062008895 -0.10328341 0.028803093
0002b0 f2 fa ac bd ff 66 1c be 2d 28 01 be 9a 13 1c bc
       -0.084463015 -0.15273665 -0.12612982 -0.009526158
0002c0 34 8b d3 3c df bd e2 3d f1 55 a0 3c d7 20 41 bd
       0.025823213 0.11071371 0.01957223 -0.04715046
0002d0 28 23 9a 3c ad 31 56 3d 06 76 c8 3b 15 cb 98 3d
       0.018815592 0.05229347 0.006117585 0.0746061
0002e0 e3 f3 61 3d f3 c2 c3 bb da 49 9e 3c f3 29 12 3d
       0.05516423 -0.0059741675 0.019322325 0.035684537
0002f0 b5 2d 38 3d 0c 36 3d 3d c4 0f c3 3c e9 42 c1 3c
       0.044965465 0.04619412 0.023811229 0.023591476
000300 cc ac c9 3c 2d e6 dd 3c f6 0e 2c bd b2 3f 19 bd
       0.024618529 0.027087295 -0.042006455 -0.03741426
000310 99 37 b1 3c 67 43 84 bd 96 d9 09 3d f9 e7 37 3d
       0.021632956 -0.064581685 0.03365477 0.04489896
000320 70 a0 d7 3b 16 fd a8 3c 3a f1 32 3d 9f cf a0 38
       0.006580405 0.020628493 0.043687083 7.668067e-05
000330 af 28 ae 3c f0 9d cb 3c 66 10 12 bc ca b4 25 3c
       0.021259634 0.024855584 -0.0089150425 0.010113904
000340 37 12 69 3c 89 f6 26 3d 0f c9 fa 3c 8c 97 83 3c
       0.014225534 0.040762458 0.03061345 0.016063474
000350 e3 99 ad 3b 7a 3c 9e 3c c4 1b 58 3d cb 3c b1 3d
       0.0052978857 0.019315947 0.052760854 0.086541735
000360 e4 f2 67 bc 2e bb e3 bc ba 49 86 bd 70 28 90 bd
       -0.014157031 -0.027799215 -0.06557031 -0.07038963
000370 bd 4d b3 bd 07 aa 21 bd 7b 0e 91 3c 7e ff 76 3d
       -0.08755062 -0.03946879 0.0177071 0.06030225
000380 9c fe e8 bb e7 18 12 bc e0 da 76 3d 22 d5 b4 3d
       -0.00711043 -0.00891707 0.06026733 0.08829714
000390 30 d7 2e bd ec ab 32 3d 9b b9 95 3d 83 cf 85 bd
       -0.042685688 0.04362099 0.07310792 -0.0653372
0003a0 22 5a 71 bc 4e 2d df 3c 92 ae 90 3d 7a f3 7c 3d
       -0.014730962 0.027243283 0.07064547 0.061755635
0003b0 64 da 58 3d 0f e2 57 3d 4a 27 5c 3d e8 91 36 3c
       0.05294265 0.05270582 0.053748406 0.011143185
0003c0 a4 98 a5 bc 77 f6 83 3b 38 aa 10 3d ad 08 d0 3d
       -0.020214386 0.0040271836 0.035318583 0.10157905
0003d0 5c 00 83 3c ce 22 81 bd bb 6f 11 3d d4 7b 66 bd
       0.015991382 -0.063054666 0.035506945 -0.056270435
0003e0 71 c1 71 3c cb f6 cc 3c f2 97 40 bd b8 94 be bc
       0.014755593 0.025020024 -0.047019906 -0.023264274
0003f0 31 10 d4 bb 52 8d 37 bd da e3 99 bd dc 20 00 3c
       -0.0064716567 -0.044812508 -0.07514162 0.007820334

bias f4 [64]
000000 29 20 59 bc c6 2e b0 bd 78 52 20 3c 06 9e 8f bd
       -0.0132522965 -0.08602671 0.009785287 -0.070125625
000010 19 77 a0 bd c3 76 43 3c f0 06 3a 3d 71 91 64 3d
       -0.07835216 0.0119301705 0.045416772 0.055802766
000020 24 17 0a be 00 ae 0e bc 2e 77 8e bc 86 db 33 bd
       -0.1348539 -0.008708477 -0.017390814 -0.043910526
000030 9a 8d 02 3c 69 b6 33 bd fa 2b 93 3b c0 27 81 3d
       0.007968331 -0.04387513 0.0044913264 0.0630641
000040 73 29 54 bd 8f 29 52 bd ae 6d 46 bc c7 23 0a bd
       -0.05179734 -0.051309165 -0.012111111 -0.033725526
000050 fc b3 b5 3d 65 3d 73 bc 73 ca 07 bc 4f 9c 9e bd
       0.0887222 -0.014846181 -0.008288014 -0.07744657
000060 5d af e2 bc d6 7a 7d 3d 03 12 bb bd 74 36 3e 3c
       -0.02767151 0.061884724 -0.09134295 0.011609662
000070 e9 db 2b bd 3c e2 45 bd 1f 34 fa bd f0 ef fa bc
       -0.04195777 -0.048311457 -0.122169726 -0.03063199
000080 e6 af 83 bd 77 43 1f bd 53 3e 08 bd 08 75 93 3c
       -0.06430034 -0.0388827 -0.033262562 0.01800014
000090 b1 22 b8 bd ce 24 bc bd 52 e3 c4 bd 78 84 e3 bd
       -0.08990992 -0.091867074 -0.096136704 -0.11109251
0000a0 79 6a 92 bc 5e 1e d4 bd 8a 3d 41 bd 56 82 18 3d
       -0.017873036 -0.103573546 -0.04717783 0.037233673
0000b0 19 f5 a4 bb ce 8d df bd 06 f4 47 bd f3 29 4f bd
       -0.0050341007 -0.10915719 -0.048816703 -0.050577115
0000c0 8e 84 c2 bd e7 1a 7b bd 10 23 b5 bd 7a 23 a7 bc
       -0.09497939 -0.061304953 -0.08844578 -0.020402659
0000d0 00 c7 af bd 29 c6 e9 bc 76 65 87 bd 6c 6f 21 3d
       -0.08582878 -0.028536873 -0.06611149 0.0394129
0000e0 5d f2 8e bd 37 a8 e7 bd 5a a0 3d 3c e8 23 81 3b
       -0.06979821 -0.11311381 0.011573875 0.003941048
0000f0 cf 6f 27 bd db 19 4e bd 35 dd 85 3b ac d3 1b bd
       -0.040878113 -0.050317626 0.004085208 -0.038043663

weight f4 [64, 64, 3, 3]
000000 fd 0d 4e be 68 84 ca bd bb 29 7d bd 42 19 41 bd
       -0.20122524 -0.09888536 -0.061807375 -0.04714323
000010 b8 66 2c 3c 78 51 6c 3d 62 2b 1e be 20 85 f7 3d
       0.010522537 0.057694882 -0.15446237 0.120859385
000020 47 08 1c 3e 86 7f af bd ad 38 f0 3c 36 17 79 3d
       0.15237533 -0.08569245 0.0293239 0.06081315
000030 51 12 85 bc 55 4f 2e bc 23 3e f3 3b 9f b3 b9 3c
       -0.016244086 -0.010639031 0.0074231788 0.022668658
000040 86 e7 46 bc 64 2c 08 bd 7b 14 52 3d 7d b9 89 3d
       -0.01214016 -0.03324546 0.051289063 0.06724832
000050 c7 b6 6e 3d 95 14 95 bd 24 08 07 3d f9 44 da 3c
       0.05827978 -0.07279316 0.032966748 0.026644217
000060 bc 3a ad bd 96 49 41 3c 89 7d e3 3b e0 b4 c6 3d
       -0.08458468 0.011797329 0.006942455 0.09702468
000070 dd f5 fc 3d c1 e2 79 bd 44 c0 42 3c a7 d8 ae bd
       0.12351582 -0.061007265 0.01188666 -0.08537417
000080 34 08 47 bd 08 6a 5f bd 7e c6 99 be 2f d6 2b be
       -0.048591807 -0.05454448 -0.3003425 -0.16780923
000090 b1 8a be bd 31 7f 0c be 98 f5 cf bd 7b 7d 68 3c
       -0.09303797 -0.13720395 -0.10154265 0.014190073
0000a0 59 17 16 bc 36 b3 28 bd 2a aa 05 3e 6b c9 8e 3d
       -0.00916084 -0.041186534 0.13053194 0.06972011
0000b0 16 45 28 3d 4a 90 04 be a0 83 8e bd 74 53 7b bd
       0.04108151 -0.12945667 -0.06958699 -0.061358884
0000c0 c1 a7 91 bc 33 f0 32 bd d9 7a 12 bd 25 af 48 bd
       -0.017780187 -0.043686103 -0.035761688 -0.048995156
0000d0 c1 48 b3 3d f2 fe ce 3d 84 e8 24 bd a9 6e 08 3d
       0.08754111 0.10107221 -0.040260807 0.03330866
0000e0 d6 46 16 bc 39 4f 20 be 7a 61 9a bd 80 76 5c bd
       -0.009172162 -0.15655221 -0.075381234 -0.053823948
0000f0 a3 b1 e2 bd 04 3f 14 bd ec 0b 00 bc 5c a6 01 be
       -0.11069038 -0.03619291 -0.007815342 -0.12661117
000100 07 da 82 bd 3b 71 ac bd 3b b7 e8 bd 71 58 83 bd
       -0.06389242 -0.084200345 -0.113630734 -0.06413353
000110 b7 40 4e bc 93 93 fd bd 3a 14 55 bd a6 68 7e bc
       -0.012588671 -0.12381663 -0.052021243 -0.01552788
000120 c8 b9 2d 3c 5d cb 77 bd a0 17 11 be 93 f6 08 bd
       0.010603376 -0.060496677 -0.14169168 -0.033438276
000130 b1 62 48 be 88 cb 72 be 7c 0a 1f bd 66 46 5b be
       -0.19568898 -0.23710454 -0.038828358 -0.21413574
000140 3a 2b 87 be 4b aa 93 3d a3 38 d4 3d 70 be 85 3d
       -0.26400167 0.07210215 0.10362365 0.06530464
000150 21 6d d7 3d 54 9a bd 3d 19 13 20 3d 9f 02 a5 3d
       0.105188616 0.092579514 0.039080713 0.080571406
000160 d8 fe 2c bc 7a fc 86 bd 31 0e e9 3d 80 c3 2c 3c
       -0.010558806 -0.06591125 0.1137966 0.010544658
000170 0b 2f b9 3c 1f 20 8b 3d 60 08 c3 3c 58 16 0f 3d
       0.02260544 0.06793236 0.023807704 0.034933418
000180 a6 26 18 3e 32 89 b6 3c c2 eb 77 3d 96 0a 88 3c
       0.14858493 0.022282217 0.06052757 0.01660661
000190 66 73 73 3d f5 e7 af 3d 86 28 ca bd c5 b1 a8 bd
       0.059436224 0.08589164 -0.098710105 -0.08237032
0001a0 75 02 af 3b d8 aa 82 bd 5d 99 2c be c5 5d ce bd
       0.005340869 -0.06380242 -0.16855378 -0.10076479
0001b0 7b 02 46 be c0 6b 18 bd 29 cb 27 3d e9 90 86 be
       -0.19336884 -0.037212133 0.040965233 -0.26282433
0001c0 70 cc 74 3d b1 6d 61 3d 59 72 b6 be ba f7 aa bb
       0.05976528 0.05503625 -0.35634115 -0.0052175196
0001d0 39 15 36 3c 6e 19 9e 3d e2 a5 8d 3d af 2a 94 bb
       0.011113458 0.07719694 0.06916405 -0.00452169
0001e0 dc f7 a5 bb fd 86 88 bd 3f c5 49 bc 67 64 6a be
       -0.0050649475 -0.06666372 -0.012315094 -0.22889863
0001f0 f0 d0 13 be 00 f3 ae 3c c3 b4 c1 3d c3 b6 9e 3d
       -0.14435172 0.021356106 0.09458306 0.07749703
000200 02 b1 8c b9 fa 05 81 3d 33 08 95 3d 77 87 66 3d
       -0.00026834762 0.06299968 0.072769545 0.056281533
000210 70 a8 e0 3c 1b 8f 84 bd 0c 51 a0 bd 3c 9f 27 bd
       0.027424067 -0.06472608 -0.078279585 -0.040923342
000220 20 29 0d 3d f6 4d 50 3d 4f d7 1f 3d 9e 7d 3e 3d
       0.034463048 0.0508556 0.039023694 0.046506517
000230 3c 6a 48 bd 21 98 bf 3d db b0 b2 bc 22 ee b2 bc
       -0.048929438 0.09355188 -0.021812847 -0.021842066
000240 fb b8 04 bd bc 0d 99 bc ff b1 00 bd 26 a2 9a bc
       -0.032402974 -0.018683307 -0.03141975 -0.018876147
000250 a0 54 a8 3d bd 82 76 3c 48 7d 3f bc 36 24 d0 bc
       0.08219266 0.015045819 -0.011687584 -0.025407892
000260 fb b9 83 3c 17 a9 83 3d 20 7a d5 3d fc 3f 3b bd
       0.016079893 0.06428736 0.10423684 -0.045715317
000270 a1 c2 2d 3d 66 85 db 3c b7 17 1c 3c 17 51 a5 3d
       0.04242194 0.026797008 0.009527138 0.08072107
000280 53 ac 84 bd c4 a4 f9 3c 06 c1 b3 bd 4c 1a 03 3e
       -0.06478181 0.030474074 -0.08777051 0.12803
000290 ba a8 ac 3d f1 c7 8d bc 3f 4a 94 3d 85 ae 81 3d
       0.084306195 -0.017307254 0.07240724 0.06332115
0002a0 0f df 51 3d e5 73 2e bd 23 99 1a 3d 6b 5e 0e be
       0.051238116 -0.042590994 0.0377437 -0.13903205
0002b0 4b 74 74 3d 17 5f c7 3c 54 b1 97 bd 32 f5 b4 3d
       0.059681218 0.024337335 -0.074068695 0.0883583
0002c0 2a 0f 13 ba b7 07 21 be ca 89 e3 bd f7 4d 1a bd
       -0.00056098646 -0.15725599 -0.111102656 -0.03767201
0002d0 05 05 16 bc c9 eb a4 3d 9a a5 f7 3c e5 28 17 bc
       -0.00915647 0.08052785 0.030230332 -0.009226059
0002e0 e1 e9 f9 ba 0a 98 6f 3a a6 6a 08 be 71 a4 5d 3d
       -0.0019066894 0.0009139782 -0.13321933 0.0541119
0002f0 10 0e e1 3c 80 8b af bd 86 1b ba bd 7a 43 e5 bd
       0.027472526 -0.085715294 -0.09087281 -0.11194511
000300 69 9e af bd 89 b7 17 bc 94 c3 03 be a0 d7 c5 bd
       -0.08575136 -0.009260067 -0.12867576 -0.09660268
000310 68 58 66 bd 09 f6 1b be 44 da 79 bc 9e 22 9c 3c
       -0.056236655 -0.15230574 -0.0152497925 0.019059476
000320 f7 10 8d bd d3 a0 19 3b ce 9f 5e 3d b6 f3 ed 3c
       -0.068880014 0.0023441806 0.05435162 0.029046874
000330 98 ca 8d 3b 24 ea b5 bc f7 60 a4 3c 73 ff 7a 3b
       0.0043271296 -0.022206374 0.020065768 0.0038299232
000340 6b 80 de bc f4 b7 ec 3b 2a f2 37 3c 6e a7 55 bd
       -0.027160844 0.0072240774 0.01122717 -0.052161627
000350 8b 4a c3 bb 36 54 8f bd 99 56 ab bd c2 9e f7 bc
       -0.005959814 -0.06998484 -0.083661266 -0.030227069
000360 c2 7e 86 3d d2 07 25 3d 51 96 63 3d fc c5 e4 3c
       0.06567146 0.04029066 0.055563275 0.027926438
000370 89 be b5 bd 1c 01 09 bd fd 6f 51 3c c4 15 16 bc
       -0.08874232 -0.033448324 0.012783048 -0.009160463
000380 07 46 20 3d 41 18 b1 3d 31 54 0b bc f6 5f 79 3d
       0.039129283 0.08647204 -0.0085039595 0.06088253
000390 97 3d 09 be b0 94 2b bd eb 3d 35 3c af e6 98 be
       -0.13402401 -0.041889846 0.011062126 -0.29863498
0003a0 49 77 62 3d aa 54 a9 3d 37 99 c6 3c d4 ac f5 3c
       0.05528954 0.082681015 0.02424298 0.029989637
0003b0 56 bc 93 3d 0c 36 92 3b 8e 59 1d 3d 4e 72 07 3e
       0.072136566 0.0044620093 0.038415484 0.13227198
0003c0 e5 c2 07 be 72 66 07 be e0 e2 90 bc 10 3f 65 bd
       -0.1325794 -0.13222674 -0.017686307 -0.055968344
0003d0 12 08 73 bc d5 18 5b 3a c5 db ce 3c ba 94 8d bc
       -0.014833467 0.0008357887 0.025251279 -0.017282832
0003e0 e0 93 09 bd c1 0f d0 3b aa 55 01 bc 01 0c 03 bd
       -0.03358829 0.0063495343 -0.007893959 -0.03199387
0003f0 c8 43 15 be 6f 87 a5 bc 19 2a de 3c d1 ad 62 bd
       -0.14576638 -0.020206181 0.027119683 -0.055341545

bias f4 [64]
000000 91 b2 16 3e 1d 47 f8 3b cc 95 ce 3d 19 03 93 bd
       0.14716555 0.0075768367 0.10087165 -0.07178325
000010 71 88 58 3b 98 e0 a3 3c 4b b4 0b 3d 65 ba a7 3c
       0.003304031 0.020004556 0.034107488 0.020474622
000020 76 71 6c bd ef 02 4c 3e b8 36 a2 bd 5a 47 e6 3c
       -0.057725392 0.19922994 -0.07920593 0.028110195
000030 3e aa 8f bd 3c 16 80 bd 1e fa d9 bd 4e f4 65 bd
       -0.07014893 -0.06254241 -0.10643409 -0.05614119
000040 e8 cd 2d bd 85 a1 64 bc aa 71 9b bd db 64 b7 3c
       -0.042432696 -0.013954525 -0.07590039 0.022386959
000050 57 91 18 3e 1b f6 32 bd 8a 03 06 3e 14 0b f5 bc
       0.14899193 -0.043691736 0.13087288 -0.029912509
000060 7f 4b ba 3d bf b4 95 bc 41 6a 1e 3a 6a 7e 55 3d
       0.09096431 -0.018274663 0.0006043055 0.05212251
000070 20 ec 69 3c b7 b3 8b bd 4a 02 8a 3d 72 4e 02 bd
       0.014277488 -0.06821387 0.06738718 -0.031813093
000080 27 2e 89 3d d7 0d b4 3d f4 6b 9b 3c eb 9b e1 bc
       0.06698256 0.08791702 0.018972374 -0.027540168
000090 68 71 00 3e 91 ba 20 3d 4d 22 10 bd f0 a3 a9 3c
       0.12543261 0.039240424 -0.03518896 0.020708054
0000a0 51 f5 3c 3e 3b 8e 6a bd 94 e3 4a bd 2e d6 b9 3d
       0.18452956 -0.057264548 -0.04953344 0.09074055
0000b0 14 05 61 bd c3 0c 9c 3c 31 bc e6 3d 6f 3e 1f bd
       -0.054936484 0.019049054 0.112663634 -0.0388779
0000c0 45 9f bd bd ce 39 29 3d c7 78 9f bd 79 08 8a bd
       -0.09258894 0.041314892 -0.07786708 -0.06739897
0000d0 22 79 e0 3c b2 64 df bc 09 9a cb 3d 6d e8 d5 bc
       0.02740151 -0.027269695 0.09941489 -0.026111806
0000e0 70 98 90 bd aa 60 6c bd 86 a9 15 3d af de de bd
       -0.07060325 -0.057709374 0.036538623 -0.10882317
0000f0 4b 10 a0 bc 79 25 56 bd 65 b9 96 bd a2 ff b0 3c
       -0.01953902 -0.05228183 -0.0735958 0.02160627

weight f4 [3, 64, 3, 3]
000000 03 f8 4c bd bd b4 26 3d 1f 62 9b 3d 83 d6 a3 bd
       -0.05004121 0.04069971 0.075870745 -0.07999899
000010 d6 6a f9 3c 52 68 d7 3a 05 ea 36 be d6 1c 08 3d
       0.030446451 0.0016434288 -0.17862709 0.033230625
000020 d4 1b 95 3c dd 86 5e be af 52 0e bd 82 39 64 3d
       0.018201746 -0.21731134 -0.034746822 0.055718906
000030 43 8a 46 3c 72 cc 98 3d e9 9e 7c 3d 9b 33 4a 3d
       0.012117925 0.0746087 0.061674986 0.04936562
000040 4b ed 5d 3c 12 aa 60 bc fb 35 07 bd 77 c3 65 3c
       0.013545345 -0.013712423 -0.033010464 0.014023653
000050 b2 85 4d 3c 5c 68 c8 3d ea c3 90 3d 5e 66 bc bd
       0.0125440825 0.0978553 0.07068618 -0.091992125
000060 3b d9 47 3d 93 3a 64 bc 30 d9 98 bd 6e 5a 1b 3d
       0.04879115 -0.013929981 -0.074633 0.037928037
000070 d6 38 e3 3c 68 d9 25 3c 06 7f 01 3d 5b 02 e3 3c
       0.027737062 0.0101226345 0.03161528 0.027711084
000080 3a f2 b6 bd ae 71 04 bc ad 0c 51 bd 48 5d 75 bd
       -0.0893292 -0.008083744 -0.05103748 -0.059903413
000090 a8 03 d4 3c c1 e1 88 bd 36 1d ec bb 74 06 b2 3b
       0.02588065 -0.06683684 -0.0072056307 0.005432898
0000a0 bf 24 0e bd 68 c0 59 bb 2f 33 9d bd 09 87 57 3d
       -0.034703013 -0.0033226255 -0.07675778 0.052619014
0000b0 2c f8 5c 3d 22 d7 f9 bc bf cf 8b bc c6 05 9f 3c
       0.053947613 -0.030498091 -0.017066834 0.019411933
0000c0 0c 1c 41 bd 04 1d 9d 3c ba 60 bc 3c 5d 56 b5 bd
       -0.04714589 0.019178875 0.022995342 -0.08854363
0000d0 2b 9d ac 3d 45 40 51 3d 41 4d d5 bd 15 0d 18 3d
       0.08428415 0.051086683 -0.10415126 0.03712185
0000e0 f3 91 f0 bc b3 e2 93 3d fd f0 9e bd 43 1e 6e 3d
       -0.029366469 0.07220974 -0.077608086 0.05813433
0000f0 7a 4e bc 3c e6 83 0f 3d f4 44 4b bd 19 b7 1c 3c
       0.02298664 0.035037898 -0.049626306 0.009565138
000100 96 a8 10 39 cc d3 d1 ba c9 07 82 3d 97 1a 6e 3c
       0.00013795713 -0.0016008555 0.06349141 0.014532707
000110 21 9e 1d bb 43 b1 98 3d 7b a1 ad bb 9d 13 9d bd
       -0.002405055 0.07455685 -0.005298791 -0.076697566
000120 89 b3 1e bd ea f1 b2 bd 9b 9b e9 3b 60 16 f4 3b
       -0.038745437 -0.08737548 0.0071291453 0.0074489564
000130 e0 f8 1b 3d 0d 07 4d bc 57 d0 6d bc 56 ea 81 3d
       0.038079143 -0.012513888 -0.014515004 0.06343524
000140 78 f7 86 3c 0a ff 77 bc 80 ad 78 bc 7a 10 2d be
       0.016475424 -0.01513649 -0.015178084 -0.16900817
000150 74 4d 20 bd eb d0 e5 3b 88 32 82 bd 94 04 af bb
       -0.039136365 0.0070134304 -0.06357294 -0.005341122
000160 9c f2 01 3d 3c 06 b8 bc 83 ae 19 3c cf 96 4b 3c
       0.03172551 -0.02246391 0.009379986 0.012426092
000170 48 54 41 bc 7f cf 85 3c 18 dc 97 bc 7b 01 eb bb
       -0.011799879 0.016334293 -0.018537566 -0.0071718073
000180 0f a7 9c 3c 44 1b 17 3b fb ef c7 3a 0a 8a 5a bd
       0.019122628 0.0023057023 0.0015254015 -0.0533543
000190 dd 03 50 bc db 2f 12 bd 1c 41 53 bd f3 32 28 3d
       -0.012696234 -0.03569017 -0.051575765 0.041064214
0001a0 e6 29 36 3d a8 b4 73 bd 3d 19 fc 3c 1c b4 17 3d
       0.04447355 -0.05949846 0.030773753 0.037037
0001b0 85 0f 07 bd 7f 55 61 ba 5c cb 32 bd bc e5 36 bc
       -0.032973785 -0.0008595809 -0.04365097 -0.011163171
0001c0 78 87 e0 bc ba 90 a1 3c be 6f a4 3b 3b e3 a8 bc
       -0.027408347 0.019722331 0.0050182035 -0.020616164
0001d0 66 05 80 bc 91 aa 32 3d c5 f1 7b 3d 3d a8 2f 3d
       -0.015627574 0.043619696 0.061509866 0.042885054
0001e0 01 19 06 3d d0 87 0b bd a6 34 06 bd b8 4a e1 bc
       0.03273869 -0.034065068 -0.032765053 -0.027501449
0001f0 67 44 9a bd fa 7b 4c bc f1 51 3e bc ee 6a 83 bd
       -0.07532578 -0.01248073 -0.011616216 -0.064168796
000200 23 02 91 bb 35 9f fe bc 2e 87 90 3c 15 a9 c9 3c
       -0.0044253035 -0.031081775 0.017642584 0.024616757
000210 0c b8 b0 bc b0 90 d4 bb 88 05 9b bc d9 54 36 bd
       -0.021572135 -0.0064869747 -0.018923536 -0.04451451
000220 c6 12 e0 3b da 64 3e 3d f3 8c 7a 3c a0 f2 fe bc
       0.0068381755 0.0464829 0.015292394 -0.031121552
000230 9f 7a bf ba 9a 3c 1e 3d 58 23 b5 3c 22 cf fd 3b
       -0.0014608687 0.038632013 0.02211158 0.0077456394
000240 d7 22 5a bd c5 fe 0f bd 4e af fd bb 59 5d 0d bd
       -0.053255882 -0.035155077 -0.007741845 -0.03451285
000250 ec c7 87 3c a5 da 46 3c 4e 3e 1f 3d a7 dc 8d 3a
       0.016574822 0.01213709 0.038877778 0.0010823206
000260 d5 c2 b2 3d 2b d2 d4 3c c7 cf 2d 3d de fa 54 bc
       0.087285675 0.025979122 0.04243448 -0.0129992645
000270 55 42 d7 bb 6d ce a3 3b f3 91 13 3d fb 6a bc bd
       -0.0065691867 0.004998973 0.03602786 -0.092000924
000280 be 7f 0a be 77 5d 05 be ed 71 f6 3c b1 ea 9b bc
       -0.13525292 -0.13023935 0.03008362 -0.019032808
000290 5e 56 3b bc 0b b0 37 3d e1 db af 38 bf 45 83 3c
       -0.011434166 0.044845622 8.385606e-05 0.016024468
0002a0 c7 3d 58 3b 0b 42 ec ba 27 09 3e bc 39 05 23 3d
       0.0032995807 -0.0018025053 -0.011598862 0.039799903
0002b0 db 1a 1f 3d d8 48 82 bc a0 6f 14 3d 44 04 eb 3c
       0.03884397 -0.015903875 0.036239266 0.028688557
0002c0 d2 37 28 bd a9 63 c6 3b 0e fa 07 3d 36 04 38 bb
       -0.04106886 0.006054361 0.033197455 -0.0028078682
0002d0 a7 6f a1 bc 8b b1 84 bd 3a 6f d8 bd 5c 0b 0b 3c
       -0.01970656 -0.06479176 -0.1056809 0.008486595
0002e0 60 1d 72 3b e2 ab 4d bd 4a 1a 5f 3d 80 1f ca 3b
       0.0036943778 -0.05021275 0.05446843 0.006168306
0002f0 10 da 0b 3c fa 2f 16 bc 6b 9c ae 3c 72 93 51 3d
       0.008535877 -0.009166712 0.02131482 0.051166005
000300 6a 46 d1 bc d1 b8 81 bc 6d b5 01 3d 61 f6 cc bc
       -0.025546271 -0.015835198 0.03166716 -0.025019826
000310 79 60 6b bd e1 26 b6 bd b6 b4 95 3c 1c e3 7b bc
       -0.05746505 -0.08894134 0.018274646 -0.015373971
000320 ca 1c d5 bd a3 80 11 3d ec f4 88 3d 98 28 97 bd
       -0.10405882 0.03552307 0.0668734 -0.073807895
000330 2e 01 39 3d 43 67 3d ba 4f 64 31 bd 5c de 90 bd
       0.04516714 -0.0007225165 -0.043308552 -0.07073662
000340 cb b3 ba 3c 15 4d 8d 3d cd c3 4b bd f8 7a 82 bd
       0.02279081 0.06899468 -0.049747277 -0.06371111
000350 6f 79 af 3d 7b 60 57 bb f5 0f a5 bd 7b 33 91 bd
       0.085680835 -0.0032863903 -0.08059684 -0.07089897
000360 70 e4 aa 3b 53 d9 33 bd c9 87 af 3c c4 ad 3f 3d
       0.00521522 -0.04390843 0.021427052 0.046796575
000370 a9 6e e6 bc 6e 85 cc bc d5 62 b8 3d c1 a9 da 3d
       -0.028128939 -0.024965968 0.09003226 0.10676909
000380 0b 03 b0 3b c7 71 3f 3d 83 1c 0b 3d c3 53 e7 bb
       0.0053714565 0.046739366 0.033962738 -0.0070595457
000390 6f 51 a9 bd 49 89 65 3d f2 6b f4 bc 3c 7a c0 bd
       -0.08267485 0.05603913 -0.029836629 -0.09398314
0003a0 65 08 2f 3d 09 73 ac 3c aa 4f bf 3c 03 a7 11 3d
       0.042732615 0.021050947 0.023353416 0.035559665
0003b0 ee 7e 01 3d e2 69 29 3d 31 48 af 3c 46 c1 06 bd
       0.03161519 0.041360743 0.021396728 -0.032899164
0003c0 da f1 5a 3d ee b8 86 3c a1 52 88 3b d1 95 72 bd
       0.053453304 0.016445603 0.0041602408 -0.059224907
0003d0 5c 99 45 3d 91 f1 da 3c 28 35 e0 3c ca 51 e2 3d
       0.048241958 0.026726516 0.027369097 0.11050756
0003e0 f1 b6 bf bc 7e f9 c8 bc 3e 82 96 bd 09 3a b8 bd
       -0.023402663 -0.02453303 -0.073490605 -0.08995444
0003f0 7e 2d 9e 3d fb 8d 31 3d d6 48 23 ba b4 13 07 3d
       0.07723521 0.043348294 -0.000622881 0.032977775

bias f4 [3]
000000 7d ce 85 3d 3d 74 e0 3a 83 32 d4 bd
       0.06533525 0.0017124485 -0.10361197
