TrainedModels/volcano/2020_08_17_20_29_39_video_train_depth_3_lr_scale_0.1_act_lrelu_0.05/0/netG_a.pth (torch_old, 460781 bytes, 12 tensors)

one_conv.conv.weight f4 [64, 3, 1, 1]
00000000: 8662 ad3a c3ec ea3b ddea 903c d528 823c
00000010: ac9d 2ebc c46b 76bc 4e28 49bc 63c1 023d
00000020: 5166 0a3d b84f c1bc a1a1 d93a 32c1 ab3c
00000030: b7ff 43bc c1be 97bb 31e2 dc3c f1e5 cdbb
00000040: 5a3d b9bc 78d2 3ebd f8d7 263c b2eb c03b
00000050: 5d2a 8f3c 8aba 03bd 89da 87ba 9604 e1bc
00000060: 3a76 803c 0a64 4cbc 1822 b2bc 7892 37bc
00000070: e4bc b33b cf9e c4bc de60 903c 25d2 b33c
00000080: 29e3 6b3c 083a 95bc 2ea1 063d 5662 8abc
00000090: 7672 3cbd 295a e23a 9102 663c 56a5 99bc
000000a0: b7da 2539 fb75 f93b 38e0 e13c fce7 b0bb
000000b0: cc20 933c eaae 45bb f88f dd3c 561b 97bc
000000c0: cd00 dcbb 265d e2bc 1d2b d1bc df7a 223c
000000d0: abc1 143c c7f8 133d 8fcf 643b 7a54 1fbc
000000e0: 86a0 d2bc 9473 b63c 3457 d63c 7145 fb3c
000000f0: a3d2 1bba e9e8 d6bb 5c8a c03c 53c2 4cbc
00000100: 0cc1 20bc 1c52 ecbb 0d4e d13b 3bfd 6939
00000110: 7218 383d 38b6 90bb 646a 16ba e857 483c
00000120: cff9 d9bc 36e3 aebc f673 9abc 6dd0 29bd
00000130: 9c89 98bc c4b0 80bc 868e fcbb c1bc 96bc
00000140: db59 fdbc 3cc1 68bc b477 14bc 7784 eb3b
00000150: c22a 8b3c e605 98bc c6b8 123d 40e6 b6bc
00000160: 2d10 ce3c 50c7 9b39 2824 1f3d 9276 91bc
00000170: 2de0 1c3c 612a d53c 610a 023c 29af 613c
00000180: 6ab8 32bd 2f5c 46bc 4307 ffbc 5ad9 70bc
00000190: 513e 053d d62a 14bc d4ec 203d 0850 903c
000001a0: 93f9 d3b9 68c9 24bc c419 c93c 328e 68bc
000001b0: 653f ecbb 7aea 933c 27e2 223b 9fbd 02bc
000001c0: 1fc9 edba 3419 a83b 8dff 023c e031 be3c
000001d0: 1af1 f73a 6da7 ecbc f78e 2b3c 4db7 8b3b
000001e0: b7b8 6d3c 43ee 70bb e805 dd3c 9355 a83c
000001f0: 55ab 98bb fd36 683c 3f7b 81bc f3ec 3bbc
00000200: 25f2 4a3c 0568 123d 6f95 c5bb 2f92 333c
00000210: 373e 6e3c 44a0 4b3c ad70 39bc cff8 483d
00000220: 7a13 65bc 9835 abbc 18f1 bbba 65db 263c
00000230: 667e a7b9 bcd3 823b ff2c b53c 53cb 34bc
00000240: 18c0 113c d453 84bc f7cb bdbc a730 1bbd
00000250: 03ca 113d 73cb 0d3c 7674 9c3a 17ca 15bc
00000260: fc44 273c 9d9c 2d3c c6f0 833c ac35 9c3c
00000270: c172 d33b 535a 883c 9816 c03c efcc 79bc
00000280: 8d0d aeba 0db5 b5bc 3c52 bcbc aa33 70bc
00000290: cf66 5c3c 57be 03bd f1d1 5a3a 0348 553c
000002a0: fe41 a2bc 5f5c f83c b6a7 153d a6a8 d4ba
000002b0: 6532 553b 16f6 803c d6f7 c9bc 7420 9e3b
000002c0: 8625 803a 5c94 7eba dcca e7bc e184 203d
000002d0: 38c0 9cbc 1328 df3c c478 d337 a453 0fbc
000002e0: e67a 8abc c0d8 80bc 7f4b 11bc c50a f3bc
000002f0: 090d 3bbc 3d3c 39bc fc77 c6bc 044e cfbc
0.0013228215 0.0071693375 0.017690117 0.01588861 -0.010657709 -0.015040342 -0.012277676 0.03192271
0.033788983 -0.023597583 0.0016603955 0.020966146 -0.011962823 -0.004630894 0.026963325 -0.0062835147
-0.022612263 -0.046587437 0.010183327 0.005887472 0.017476255 -0.03216032 -0.0010364811 -0.027468007
0.015681375 -0.012475023 -0.021744773 -0.011204354 0.005485164 -0.024001507 0.017624315 0.02195079
0.014397421 -0.018216148 0.032868557 -0.016892593 -0.046007596 0.0017269301 0.014038698 -0.018755596
0.00015817104 0.0076129413 0.027572736 -0.0053987484 0.017959975 -0.0030164071 0.027046189 -0.018445652
-0.0067139626 -0.027632307 -0.025533253 0.00991699 0.009079377 0.036125924 0.0034913754 -0.009724731
-0.02571131 0.022271909 0.026164629 0.03067276 -0.0005944168 -0.006558527 0.023503475 -0.012497502
-0.009811651 -0.0072119366 0.006387478 0.00022314947 0.044945188 -0.0044162534 -0.00057378993 0.01222799
-0.026608376 -0.021348577 -0.018854123 -0.041458536 -0.018620305 -0.015709288 -0.00770742 -0.018400552
-0.030926635 -0.014206227 -0.009061743 0.007187422 0.016988162 -0.0185575 0.035820745 -0.022326589
0.025154198 0.00029712403 0.03885284 -0.017756734 0.009574932 0.026021184 0.007937045 0.013774672
-0.043632902 -0.012106939 -0.031131392 -0.014700258 0.032530133 -0.009043416 0.039288357 0.017616287
-0.00040431003 -0.010057785 0.024548419 -0.014194058 -0.0072097057 0.018056143 0.0024854036 -0.0079797795
-0.0018141604 0.0051299576 0.007995498 0.023217142 0.0018916458 -0.028888429 0.010471097 0.0042637945
0.0145093715 -0.0036763109 0.026980355 0.020548617 -0.0046590962 0.0141732665 -0.015805839 -0.011470067
0.012386833 0.035743732 -0.0060297768 0.010960146 0.0145412 0.012428347 -0.011318368 0.049065407
-0.013981694 -0.020899579 -0.0014338819 0.010184144 -0.00031946896 0.003992526 0.022116182 -0.011034804
0.008895896 -0.016153254 -0.023168547 -0.037888195 0.035593044 0.008654463 0.0011936564 -0.00914242
0.010209318 0.010596422 0.01610602 0.019068561 0.0064528887 0.016644632 0.023448274 -0.015246614
-0.0013279185 -0.022181058 -0.022988431 -0.014660755 0.013452246 -0.032163944 0.0008347324 0.013017657
-0.019806858 0.030317483 0.036536895 -0.0016224578 0.0032531258 0.015742343 -0.02465431 0.004825646
0.0009776808 -0.00097114383 -0.028294973 0.039189223 -0.019134626 0.027240789 2.5209396e-05 -0.008747969
-0.016904306 -0.015728354 -0.008868097 -0.029668221 -0.011416682 -0.011305866 -0.024227135 -0.025305755

one_conv.conv.bias f4 [64]
00000000: 0c43 913e e0d9 9dbd f8b4 9d3e 968e 093f
00000010: e830 063e 280f c73d 405c b13c ddf1 11bf
00000020: ace1 01be 7208 80be 5b2b 8abe 8267 013f
00000030: 9247 74be 2827 8abd 0030 6a3c ec42 adbe
00000040: 7e64 32be 2e3d c6be 0cb8 b33e aaf9 88be
00000050: 14a5 a1bd 76a0 6fbe 144f d93e 2079 0b3f
00000060: c8d0 d63d a84f e73e 22c5 093f 0cd4 4c3e
00000070: b88b 103f d026 613e 2c15 0b3e 889b 913e
00000080: ce2b d4be 30ae e93e 0af6 bdbe 762c 013f
00000090: 864b ce3e 1058 de3e 1c52 f83e 18ad ff3d
000000a0: 6486 9b3e d856 e43e caae debe 785e ff3e
000000b0: d846 94bd ea5a 923e c696 e7be 4097 cf3e
000000c0: d71a febe 9407 003e 205b 05bf 36c5 b0be
000000d0: ea9c d63e e9b5 8cbe dede b03e dafb 35be
000000e0: e234 1ebe 7836 f83d 90e8 81bd f1bc dcbe
000000f0: 7cb4 ac3e b02c 733e ee22 083f 4c6c 033e
0.28371465 -0.07707572 0.3080213 0.53733194 0.13104594 0.09719688 0.021650434 -0.5700968
-0.12683743 -0.25006443 -0.26986203 0.50548565 -0.23855427 -0.0674575 0.014293671 -0.3384012
-0.17421147 -0.3871855 0.35101354 -0.2675298 -0.07892814 -0.23401055 0.42443144 0.544817
0.104890406 0.4517796 0.53816426 0.20002764 0.56463194 0.21987462 0.13582295 0.28438973
-0.4143967 0.45640707 -0.37101775 0.50458467 0.40291995 0.4342656 0.48500144 0.12484187
0.3037597 0.44597507 -0.43492728 0.4987676 -0.07240075 0.28584987 -0.45232219 0.40545082
-0.49629852 0.12502891 -0.5209217 -0.3452546 0.4191659 -0.27482536 0.34545034 -0.17771855
-0.1544986 0.12119764 -0.06343186 -0.431129 0.3373145 0.23747516 0.531783 0.1283428

head.conv.weight f4 [64, 3, 3, 3]
00000000: 89fe 94bc 2367 8d3c fe83 aa3c 5502 fcbb
00000010: 8cc9 bc3b 5680 8fbc 4503 69bd a59c d33b
00000020: 4a5a e3bc 6408 513b b1e2 f7bb e78b a5bc
00000030: 7d8d 873c 24a7 863c 40d8 b93c 573d 5abc
00000040: cbc8 a8bc 0b5c 9cbb df79 2f3d ecb1 713c
00000050: 2e68 943c 06cc 003c 624c ec3c aba9 933c
00000060: 15a3 47bd 9ff5 e13c 83be 05bd c07d 5abd
00000070: 67c3 6ebd 46ef e8bd e962 dcbc c031 54bc
00000080: f992 c8bc 7726 05ba 6aa2 113c 4057 a8bd
00000090: afcc d3bd 0638 d3bd 33b1 efbd deb3 37bd
000000a0: 0c55 25bd d37d df3c eb28 27bd d001 0fbc
000000b0: 829c bd3a 16eb d9bc 3868 983d 00ef 58bd
000000c0: ffe1 a4bc c1d0 ce3b 1804 f2bb 3048 64bd
000000d0: 596d 04bc 1fe4 3bbd bbe6 2d3e f474 263d
000000e0: 504b ac3d 09b6 fcba 37f3 ca3c 9779 c03b
000000f0: 504c 15bd a1d3 afbc da58 45bb 1718 e7bc
00000100: b6b3 c13d 36c1 733e d0de b8bc a2be 41bd
00000110: 0cba 673c eade 25bd e538 98bc 351c 423d
00000120: 403c 0e3e 030a 343e 3e18 0c3e 06d6 93bc
00000130: e943 623c 6bfb b43c 2a5b 1e3c cf5e ee3a
00000140: b1f9 42bc a95f 363d 304f fc3c 3eba 183d
00000150: d84a e0bb d6c4 473c e49a 2e3d c34f 6bbd
00000160: 8497 6c3c 95d1 163e 49dc 8f3b a805 033d
00000170: aa0b e53c 5db1 29bd 8661 823c a9d6 963a
00000180: f217 03be 9110 f93d 2adb a73c 3db9 1bbd
00000190: 51ba f2ba 843e 96bc f329 97bc 7b70 3f3b
000001a0: 4ee5 a5bc af7b bebd 912f 70bd e5f7 123e
000001b0: 3b51 2f3c 357a 16bc 3b73 00be 0983 a7ba
000001c0: 27dc 68bb 7eef 6ebb 66c0 b83b 6886 843c
000001d0: d5af f33a 10f3 ebbc 99f2 aabc 8702 ccbd
000001e0: c6e5 933a 094c 5e3c 9031 61bc 8398 f13b
000001f0: d819 28bc 383c ffbc 47e5 84bd c972 26bd
00000200: 961a 5fbe fbe5 d93a 2bea 9739 3f48 c4bc
00000210: a9e0 05bc ecfd 8dbc 64a9 0abd 249f 83bd
00000220: 9fd6 e2bc 60bc 3abd 1827 c9bb 7123 f33b
00000230: e2a4 3abc a3c4 efbb cf9e 723c 1c70 c1bb
00000240: 3947 a4bc 5c30 883d 5124 4ebc dcc5 a73c
00000250: 19ef 043c a09e 833a b354 a83b a119 1d3c
00000260: 6fec 893a 0ddf 993d f330 293d 3854 3c3d
00000270: 886b 9a3b f391 d63b edbd 2cbb ac58 953c
00000280: 2947 b23c abbf aa3c b46b 873d 816c 973c
00000290: 3ea0 793d c52c 8f3c a1d5 5d3c db1f 793d
000002a0: a958 6e3d 4a84 ad3d 0d9b 633b 10e2 de3d
000002b0: 20b7 373d 2fda 053e 74ac ae3d 8c64 493d
000002c0: bf8b 81bd 3d5c 0c3e 7542 e03d 727d 343d
000002d0: 76a8 b53d 8ca4 c3bc ece8 a2bc 7250 443d
000002e0: 19b4 143d 4e94 333d 4823 a03d b0e3 893d
000002f0: d5d6 893d 1e8b 273c 33fd 6a3a d45b 80b9
00000300: f991 17bc 06c9 eb3b e12c b93c 15bc 233e
00000310: b3ae a8bd 14c7 80be df00 603c 583d d23b
00000320: 8d7e e33b eede 95bb 7c66 933a 9b1b 41bc
00000330: b0f6 033e 6ced 513c 29a0 dc3c b25f afb9
00000340: 2051 87bb b2ce 36bb 1f96 f43b 6965 f7bb
00000350: 1cb9 b0bb 424a 02bd 9081 adbc d593 593e
00000360: c67c efbd 3350 743e 6934 af3c 32a8 45bb
00000370: e842 00bd 8e05 21bc 38ab 2cbd db3a a8bc
00000380: 0e67 3a3c acf2 f8bd 2c25 87bc 71a2 4a3e
00000390: cc57 08bd 5d1b a8bc a8fc 213c cecd 5bbc
000003a0: f6b1 863c 3e86 b33c dd7d b9bc 5435 86bd
000003b0: 6788 1ebe 6bbf ff3b 6ccf 63bc fc36 cfbc
000003c0: 52c4 cebc 0ccf a5ba 77a4 a1bc e169 9bba
000003d0: 41d2 833b 5331 3cbd f31f 78bb 2600 7fbb
000003e0: 0f87 cfba 2f2d 483b 675b 3c3a e27f ad3b
000003f0: 49dc 913a a082 ad39 6e28 0dbe 41ec 25bb
-0.018187778 0.017261093 0.020814892 -0.0076907077 0.005761331 -0.01751725 -0.056887884 0.0064578825
-0.027753014 0.003189587 -0.0075648655 -0.020208312 0.016546959 0.01643712 0.022686124 -0.013320289
-0.020603558 -0.0047717146 0.042840835 0.014751893 0.018116083 0.007861143 0.028845016 0.01802524
-0.04873951 0.027582942 -0.03265239 -0.05334258 -0.05829182 -0.11373763 -0.026902633 -0.012951314
-0.024484145 -0.0005079279 0.00888882 -0.082197666 -0.10341775 -0.1031342 -0.1170372 -0.04484927
-0.04036431 0.027281677 -0.040810507 -0.0087284595 0.0014466199 -0.026601356 0.07441753 -0.052962303
-0.020127295 0.0063115065 -0.007385742 -0.055732906 -0.008082711 -0.04587185 0.16982548 0.04063888
0.08412802 -0.0019280325 0.024774177 0.0058738696 -0.03644973 -0.021463217 -0.0030112774 -0.02820973
0.09458105 0.23804173 -0.022567183 -0.047300942 0.014143478 -0.04049579 -0.018581817 0.04739018
0.13890171 0.17581944 0.13681123 -0.01804639 0.013810136 0.022092542 0.00966529 0.0018186214
-0.011900351 0.044524822 0.030799478 0.03728699 -0.0068448596 0.012192925 0.042628184 -0.057449114
0.014440421 0.14728387 0.0043902737 0.031987816 0.027959663 -0.041428912 0.015915643 0.0011508066
-0.12802103 0.12161363 0.020490248 -0.038018454 -0.0018518661 -0.018340357 -0.01845262 0.002921133
-0.020250943 -0.093009345 -0.058639113 0.14352377 0.010700519 -0.00918441 -0.12543957 -0.001278014
-0.0035531612 -0.0036458666 0.00563817 0.016177371 0.0018591831 -0.028802425 -0.020867633 -0.099614196
0.0011283688 0.013567933 -0.013744727 0.007372917 -0.010260068 -0.031156644 -0.06489044 -0.04063681
-0.21787485 0.0016624326 0.00028975433 -0.02396023 -0.008171239 -0.017332993 -0.03385295 -0.06426838
-0.02769023 -0.045589805 -0.0061386935 0.0074199964 -0.01139185 -0.007317142 0.014808371 -0.005903257
-0.020053493 0.06649849 -0.012581901 0.020480089 0.008113646 0.0010041781 0.00513705 0.00958863
0.0010522733 0.07513247 0.041306447 0.045978755 0.0047125258 0.00654816 -0.0026358322 0.018230759
0.021762447 0.020843348 0.066123396 0.018484356 0.060943834 0.017477402 0.013539703 0.060821395
0.05819002 0.08472498 0.0034729869 0.10882962 0.044852376 0.13071512 0.085289866 0.049168155
-0.063254826 0.13707061 0.10950176 0.044064946 0.08870022 -0.023882173 -0.019886456 0.04792828
0.036304567 0.043842606 0.07819229 0.06732881 0.06730429 0.010226039 0.0008964121 -0.0002448248
-0.009251111 0.0071955947 0.022604408 0.15989716 -0.08236446 -0.25151885 0.013672083 0.006416004
0.0069425763 -0.0045736944 0.0011245753 -0.011786367 0.12887073 0.012812953 0.026931839 -0.000334499
-0.004129544 -0.0027894196 0.007464185 -0.007549931 -0.0053931605 -0.0318091 -0.021179944 0.212478
-0.116937205 0.23858719 0.021387296 -0.0030160067 -0.031313807 -0.0098279845 -0.042155474 -0.020535877
0.011377109 -0.12155661 -0.016497217 0.19788529 -0.033286855 -0.02052086 0.009886898 -0.013415767
0.01644228 0.021914598 -0.022643024 -0.0655314 -0.15481721 0.007804801 -0.013904434 -0.025294773
-0.025240097 -0.0012650206 -0.019731743 -0.0011857116 0.004022867 -0.045945477 -0.003786084 -0.003891
-0.0015833097 0.003054451 0.0007185251 0.005294786 0.0011128272 0.00033094455 -0.13784954 -0.002531782

head.conv.bias f4 [64]
00000000: 2cbc 193d cc05 1ebe 67e6 98bd 3b26 c9bd
00000010: 3e27 163d 86da b03c b022 6cbe 2206 4cbd
00000020: d120 09be fd0f 46bc e667 c8bc 2c92 ed3c
00000030: 16e7 b4bd 7652 653d c77d 4cbd 7957 2bbe
00000040: 2281 1fbe 3acb 6cbd 2168 c9bd aa2c 67be
00000050: 7b68 303c b853 3e3d 7ea6 bbbc ac66 21be
00000060: f2e6 d7bc 5472 4cbd 3fbe 2dbe bd8f 09be
00000070: 73a5 6a3c e7c5 c1bd 1842 0bbe a4f4 593c
00000080: fc28 98bc 85e1 42bd 9394 0ebe a65d 263c
00000090: 3c7f a13d c505 3abe 68f3 94bd c1fe 3dbe
000000a0: 76ad 32be 27d8 fd3c ef40 a53a 366a 95bd
000000b0: 30b9 a4bd 5183 123e 584c 9cbd 3212 ecbd
000000c0: 0ed4 2bbe e8f5 633c 298d 483c c091 b33c
000000d0: 32f0 0a3e 1279 25bb 0e78 56be 0893 86bc
000000e0: 4f76 85bd 7fba 8bbd e6a5 01bc 578c 0abe
000000f0: e048 c23c b385 e3bd 5cb0 933c 4231 cfbd
0.03753297 -0.15431899 -0.07465821 -0.09821745 0.036658518 0.021588575 -0.23060107 -0.049810536
-0.13391425 -0.012088773 -0.024463605 0.029000364 -0.08833139 0.055986844 -0.049924638 -0.16732587
-0.15576604 -0.057811 -0.09834314 -0.22575632 0.010767098 0.04646656 -0.022906538 -0.15761822
-0.02635524 -0.04991372 -0.16967104 -0.13433738 0.014321673 -0.09461575 -0.13599432 0.013302956
-0.01857423 -0.047578353 -0.13923864 0.010154163 0.07885596 -0.18166263 -0.072729886 -0.18554212
-0.17448983 0.030986859 0.0012607853 -0.07295649 -0.08043134 0.14307906 -0.07631749 -0.11526908
-0.16780111 0.013913609 0.012240686 0.021920085 0.1356819 -0.0025249165 -0.20944235 -0.016427532
-0.06516706 -0.06822681 -0.007913088 -0.13530098 0.02371639 -0.111094855 0.01802843 -0.10116817

body.0.block0.conv.weight f4 [64, 64, 3, 3]
00000000: 21c9 f9bc 2bc7 c5bc 5eb1 3fbc 026e 073d
00000010: 03f8 5839 694f 44bc 44cd 313c 598f 943a
00000020: f35c 4cbb eb0a 5dbd a3d4 5c3d 685d ccbd
00000030: 6569 183d ba50 ab3d 70aa 603b c27c 293d
00000040: 0f9e 333d fdee a1bd c1b0 b1ba 6938 e33c
00000050: 046e 40be 7528 8aba 4747 803d ac70 e0bb
00000060: e175 933d 18b1 123d dd64 30bc b742 d7ba
00000070: ca3e 7d3d e5a5 06be 9813 8a3d d677 933d
00000080: 85a9 43bc e814 033d d57a d0bb d224 96bb
00000090: 7000 81bd 29c0 0abc a90d 0fbe ee83 ec3c
000000a0: 75b8 533d b488 f4bd 91bd 5d3d 2aa5 453d
000000b0: 720d c3bd 1072 f6bc 8e2f bdbc 685c f7bc
000000c0: 3ea2 1d3c 2ee3 06bc f741 503a 4e4e b53d
000000d0: 0c44 643c 9ab9 253c 27d9 d73c 879c a7bc
000000e0: c876 3dbe 0865 41bd b60b 07bd 0d34 c4bd
000000f0: 5992 fcbc 5350 733b 4e61 b8bd fc76 4a3c
00000100: 82ac 9e3d ed72 3fbe c373 b23d 29cd a23d
00000110: 4537 64bd f67f 603d f409 113c c344 36bd
00000120: 5b3d 433d 6eac 43bd 16e1 9dbe 250d c03d
00000130: 614b cf3d 5e34 49be 38b2 923d f29e 9a3d
00000140: 6538 d1bc de39 443d 5fdf 293d 75d0 8bbe
00000150: bc69 a73d 7c48 a53d 2712 20be 1767 553d
00000160: b68c 0c3e 5ac4 c1bd 95e0 483b 5cf8 98bc
00000170: a0bb 8ebe 17c0 f93c 3b10 5b3d 11f4 22be
00000180: c3d5 5e3c f325 8d3d 2cd2 90bd 46fd 74bb
00000190: 3df4 0abd e9e3 0abd 0eb9 373d 0583 29bc
000001a0: 9a2f 12bd 8725 5e3d c8b1 093d 48b6 063d
000001b0: fb1f a73b ff11 4abd f605 01be bbf9 893d
000001c0: 05c7 b73c cf58 0abe bc86 4e3c bb02 cd3c
000001d0: 880c 32bd a59f 6ebd 9a96 02bd 0ddc 9fbb
000001e0: 0474 83bc 9dc5 fe3c 8cbb fd3c 82dd 4b3d
000001f0: 59e9 7c3d 9a00 68bc 13a2 50bb 32b6 e93d
00000200: 8ba1 b0bc c0f0 be3a e18f 913d 8b23 683d
00000210: b60a c93c f315 a93d 0d6f f63c 79aa 01be
00000220: b1db 20bd 569f 9cbd 184b 3d3d ce88 f7bb
00000230: ec35 8dbd a4ad c4bc 38b5 33bc 9621 6cbd
00000240: a695 f2bb 0daf 833d 37a7 92bd 952b 253d
00000250: a4cd 603c 8cc7 c7bd 42fe 2e3d 7d1e 113e
00000260: cef8 6bbd 9cae 8cbc 896e 533d 8ae6 1abe
00000270: 54d3 143d a271 243d 13b8 6abd d67c 513d
00000280: 6fd1 dd3c 1908 b4bd b0f9 1b3d d9ad e23c
00000290: e71c 02bd 8b61 95bc 4a7d 3e3d 2c62 acbc
000002a0: 9f1d 8d3d 2f3f eb3d 1ad4 713c fd67 88bd
000002b0: 6eda 9c3c eb9d 8fbd 1090 93bd 508b a33c
000002c0: bdf0 8e3c b143 2bbc 449a 46bd 7e83 9bbb
000002d0: 0efd b3bb bb4d d8bc 2695 aabd f1ae 08bd
000002e0: 9d16 373c 0d1c afbc 70f3 5dbc 88e7 b73d
000002f0: c4b4 e93a e337 c2ba 2f38 eebc 5403 52bd
00000300: 8b94 72bc 1d6c 143c a3bc 8e3d f834 913c
00000310: c9ad ea3b 954c 823d 4399 493c b4f1 063d
00000320: 9fe5 23bd 737c 8b3d 45bc 923d d8e6 59bd
00000330: 494f a83d 15fb 753d 41d3 923c 4e64 cc3a
00000340: 9c35 49bd fcf4 0dbe f898 de3d f35d e93d
00000350: c55b dabd df97 23bd c5fe c83d 0f49 79bd
00000360: d9d1 c83c 0255 503c c9dd 2fbe 2221 8cbb
00000370: 39b2 a73c 221d 02bc 8c40 323d f52d e13c
00000380: d863 b7bc 4389 9abd 0c8f 073d 25de 04bd
00000390: 671a 903b 4664 453c 736d 163d cdcb 8f3d
000003a0: 5193 923d 1226 493c b7ad 99bd 7f8d 173d
000003b0: 3a87 afbd f658 633c d616 723b 39a9 1ebd
000003c0: 3471 ae3d 1d26 7a3c 7a82 dbbc 3a84 263d
000003d0: d3b0 00bd 978b a3be 52e8 ba3d 6f8c 1b3e
000003e0: af4d e8bd af0d bd3d ba83 143e b307 61bd
000003f0: ea60 a3bd 1693 63bc 6ff1 a4bd c9be 23bd
-0.030491414 -0.024142822 -0.0117000025 0.033063896 0.00020691757 -0.0119818235 0.010852162 0.0011334225
-0.0031183332 -0.05396549 0.053913724 -0.09978753 0.037209887 0.08365007 0.0034281276 0.041378744
0.04385191 -0.079069115 -0.0013556705 0.02773686 -0.18791968 -0.0010540622 0.06263595 -0.006849369
0.07200218 0.03581342 -0.010766235 -0.0016423081 0.06182746 -0.13149221 0.067420185 0.07200591
-0.011942272 0.03200236 -0.006362299 -0.004582026 -0.062989116 -0.008468666 -0.13970055 0.028871503
0.051689584 -0.119401366 0.054135863 0.048253216 -0.09524049 -0.030083686 -0.023093965 -0.03019543
0.009621201 -0.008232875 0.00079444 0.08852826 0.013932239 0.010115052 0.026348663 -0.02046038
-0.18502343 -0.04721549 -0.032970153 -0.095802404 -0.030831503 0.0037126734 -0.090029344 0.01235747
0.07747747 -0.18696184 0.08713486 0.079492874 -0.05571677 0.054809533 0.008852471 -0.04449917
0.047665935 -0.047771864 -0.3083579 0.09377507 0.10121799 -0.19648883 0.07162899 0.07549848
-0.025539586 0.04790675 0.04147279 -0.27307478 0.08174464 0.08070466 -0.15631925 0.052100267
0.13725552 -0.09461279 0.003065144 -0.018673114 -0.27877522 0.030487103 0.053482275 -0.15913416
0.013600769 0.06892004 -0.07071337 -0.0037382408 -0.03392433 -0.03390876 0.044854216 -0.010346179
-0.035689928 0.054235008 0.03361681 0.03288868 0.005100248 -0.04933357 -0.1259993 0.067370854
0.022433767 -0.1351044 0.012605365 0.025025716 -0.043468982 -0.058257718 -0.031881906 -0.004878527
-0.016046531 0.031100089 0.030973218 0.049771793 0.061745975 -0.0141603 -0.0031834885 0.11411704
-0.021561405 0.0014567599 0.07107521 0.05667452 0.02454124 0.082561396 0.03008225 -0.12662686
-0.039272014 -0.076475784 0.046214193 -0.00755415 -0.068950504 -0.02400858 -0.010968499 -0.057649218
-0.0074030934 0.06429873 -0.071608 0.040324766 0.013720904 -0.097548574 0.042722948 0.14171787
-0.057610326 -0.017173104 0.051619086 -0.15127006 0.03633435 0.04014743 -0.057304453 0.051144443
0.027077405 -0.08790607 0.038079917 0.027670788 -0.031765845 -0.018234989 0.046506204 -0.021042906
0.068904154 0.11486661 0.014760042 -0.06660459 0.019147124 -0.07012542 -0.07205212 0.01996389
0.017448777 -0.010453151 -0.048486963 -0.0047458997 -0.005492813 -0.026404252 -0.08329229 -0.033369962
0.011174825 -0.02137568 -0.01354681 0.08979708 0.0017830362 -0.0014817681 -0.029079525 -0.051272705
-0.014805923 0.009058979 0.06969573 0.017725453 0.00716183 0.06362263 0.012304607 0.03294535
-0.040013906 0.06810846 0.07164816 -0.053198665 0.082182474 0.060053904 0.017923 0.0015593858
-0.04912339 -0.13862985 0.1086902 0.113948725 -0.10662035 -0.039939757 0.098142184 -0.06086069
0.024514126 0.01271558 -0.17174448 -0.0042764107 0.020470725 -0.007941516 0.043518588 0.027487734
-0.022386476 -0.07545712 0.033095405 -0.032438416 0.0043976787 0.012047833 0.036725473 0.07021294
0.071570046 0.012277143 -0.075038366 0.037000176 -0.08570714 0.01387619 0.003693988 -0.038735602
0.085176855 0.015267876 -0.026795615 0.040653445 -0.031418633 -0.31942436 0.09126343 0.1519029
-0.11342942 0.092311256 0.14503375 -0.054938983 -0.07977469 -0.0138900485 -0.08053862 -0.03997687

body.0.block0.conv.bias f4 [64]
00000000: d8e7 dc3d 6ea7 c13d 8ca1 d6bc c360 0b3d
00000010: 9d73 54bd c94c 09bd f86d 52bd b8c3 7fbd
00000020: cd7c 99bd 7ef0 a9bc 76c5 b8bc f184 9cbd
00000030: f963 083e df08 043e 704f cc3d cae0 b0bd
00000040: bb9b e03d 6c04 46bd 6736 0ebd 7f77 c1bd
00000050: 8bcb 72bd 06e2 8a3e 7beb d9bc 0132 cabd
00000060: 1eca acbd 4b56 223e b23b e7bc a269 fb3d
00000070: aac2 793d f98f 33bc 78d8 68bd 4c65 2fbd
00000080: 76fc f3bc 69bd 5d3e 1c11 de3d 9222 44bd
00000090: 0309 e93d d1de eabd bb5b 8fbd d588 c93d
000000a0: 56ad 1abd fa0c 10bd 400a 98bb 67af 4fbd
000000b0: 3c65 4b3d 042a 24bd 6dd3 8ebd 817c a2bb
000000c0: 74ac 5b3e aa58 8c3d 7f7d f93d 400b 77bd
000000d0: 9601 2b3e 01ec 8bbd 837e 263e 77b3 153c
000000e0: 6a20 893b f59c 86bd 9043 403d e63f b6bd
000000f0: 8060 44bd c65e c9bc 140d 113e 8722 293c
0.10786408 0.09455763 -0.026200078 0.034027826 -0.05186807 -0.033520494 -0.051374406 -0.06244251
-0.07494507 -0.020744558 -0.022555094 -0.07642544 0.13319387 0.12894009 0.09976089 -0.08636625
0.10967203 -0.04834406 -0.03471985 -0.0944662 -0.059276145 0.27125567 -0.026601544 -0.09872819
-0.08436988 0.1585323 -0.028226707 0.12276007 0.06097666 -0.010959619 -0.056847066 -0.042821214
-0.029783469 0.21654285 0.10843107 -0.04788453 0.11378672 -0.1146828 -0.06999918 0.09840552
-0.037762962 -0.035168625 -0.004639894 -0.050704386 0.04965709 -0.04007913 -0.0697392 -0.0049586897
0.21452504 0.06852849 0.121821396 -0.060313463 0.16699824 -0.068321235 0.16259198 0.009137026
0.0041847723 -0.06572906 0.046939433 -0.088989064 -0.047943592 -0.024581324 0.14165145 0.010323173

body.0.block1.conv.weight f4 [64, 64, 3, 3]
00000000: 5911 09bc 4166 883d 509b 983d de83 24bd
00000010: f1c2 28bd f91c 1bbd 5d49 bdbc 9727 383c
00000020: d56f 9abd c75d 873c ad5b 3f3d 791e e8bc
00000030: f286 e13b b519 1b3d 95aa 013d 9a8d a83c
00000040: af3a 593d 8105 8fbb 2d91 503d dad5 eabd
00000050: f152 aabd f777 fe3c d0f0 6cbc 6105 76bd
00000060: f2e1 21bd bbf0 a8bd cccb 8abd 4106 15be
00000070: 9755 95bd 413b 0bbc ea0b 9cbd c7c8 c73c
00000080: 697e d93c c581 cc3a 6d05 11bd 9697 9f3c
00000090: 3e1d 583d 10cf 463d 1777 123c f65b 0abc
000000a0: 4029 9fbc 2978 623d 0879 373c 214a aabd
000000b0: 6efc 6d3d 019b 223d dd65 fd3c 164e f43d
000000c0: f36c 58bc 2d3a 513d c31a b53d 3b49 a73c
000000d0: 0b45 af3c f4f6 ca3c ba82 2fbd f50d edbb
000000e0: 500a f7bc 9c40 1dbd f30f bcbc 9bda c9bc
000000f0: c4d4 90bc d9e2 f2bc 7c54 87bc d695 f4bc
00000100: 0a1b 32bb 610e b23d 6125 26bd bbdf 94bd
00000110: 24fb 32bd 0897 89bd 5baf b4bd 5961 4abd
00000120: 6ea1 85bc 624e 48bd 293d 79be 0dca f23b
00000130: 3c2b 00bc 213f 10be c7a9 483d e790 833c
00000140: 8e86 bcbd 9757 c8bd 082a ddbb a807 b83c
00000150: a8d3 643b d6b4 f7bb f34f 0fbd fbe5 bfbc
00000160: 2276 a9bc b2e2 63bd b036 da3b 485f 7dbb
00000170: 5332 653d c377 65bc 6343 79bc bb87 3d3c
00000180: 33b2 1abc 565f 5c3c 3174 2b3c 3767 26be
00000190: f648 1fbd b312 8e3d 6b5f 43bd 1b3a 51bd
000001a0: 3ff4 5bbd fc78 3739 a721 31bd 67e0 d8bd
000001b0: 8175 d0bc b0c2 31bc 75ee 62bd 4936 4c3d
000001c0: 0f43 c6bc caa0 49bc 31f3 aa3d 9be7 2a3d
000001d0: 116a 9bbb 39ed 61be 92d3 a9bd 6aa6 0c3d
000001e0: 1aea 73bd f4b1 903c cece 28bc 1b74 40bd
000001f0: e3f0 21bc 7cfd 96bc 0fd4 b9bd 6832 053d
00000200: d16a a93d 2526 07bc bc57 243d f90d 153d
00000210: adb5 0ebb 533c 3cbc ba79 943c eb08 b43d
00000220: 7cee 96ba d183 03bd de02 873d 76f5 563d
00000230: e71c 44bc 3b78 923d 7ac7 0b3d 601b 1c3d
00000240: 493e 04bd 0912 6039 c1de 8d3d 1c32 123c
00000250: afaf 913d 871f 283d 7c2b 1c3c 2de9 8fbc
00000260: c024 c2bb af8e a0bd b250 943c ef6d 0e3d
00000270: 20b5 bfbb 4bdb 19bd 1f73 81bd 04f7 7fbc
00000280: e9c6 0cbd c1a3 c1bd 9281 ae3c 7ed5 26bd
00000290: b5a8 f9bd fc16 013d 6ce5 ef3b b87f cfbd
000002a0: 2bf4 903d 3a11 003c 81e5 5abd 421a b8bc
000002b0: 8a31 583d bc6c d43c f943 6f3c 8728 b2bc
000002c0: 8df8 a5bd 135e 313c 9b07 72bc bac0 38bd
000002d0: 251f 02bc 3298 9b3d 9df6 d63d 4adf d8ba
000002e0: a015 353c c96c a23d 31d2 a83c 0c32 eabc
000002f0: b0ae 8b3d a705 acbd c951 00bd 65ab 0d3d
00000300: fd95 80bc d7d1 943c 1219 8b3c 0de2 3bbd
00000310: 22a7 113c a964 53bd e0a0 47bc 274a ac3b
00000320: a260 723d e288 683c f2b8 403d b217 e43b
00000330: bd23 3a3c 4461 66bc 508c fbbc 368d 853d
00000340: fb04 073d ea76 02bd cf3f c03d 443b 853d
00000350: 0161 1d3c ba3b 2b3d edfe 543d adc4 2e3d
00000360: 5ee2 633d f633 58bd 6ff4 58be 12a5 7f3d
00000370: 7eee 59bc c61f 98bd 1a2a 0f3c a7c0 15bb
00000380: d950 b9bd f318 f73d 9386 7b3d b326 253d
00000390: 26b8 cb3b 1f48 a23b e26e fcbc fb57 9a3c
000003a0: ae63 89bd b238 a6bc de0c 50bc 9798 703c
000003b0: 48c3 913c 1c68 9cbc 72e4 713d e12c ef3c
000003c0: e248 3e39 5406 ea3c 73f6 033d 9b0d d0bb
000003d0: 55a4 843d f359 5b3d b8c6 173c 4438 6dbb
000003e0: 5064 80bd 42ed bf3b 6cf1 92bd e325 b7bd
000003f0: 3e53 0bbe 132d 1ebd 9c46 723d 2238 203c
-0.008365952 0.066601284 0.074514985 -0.04016482 -0.041201536 -0.037869427 -0.023106271 0.011239908
-0.075408615 0.016524209 0.04671829 -0.028334843 0.006882542 0.037866313 0.03165682 0.020575333
0.05303448 -0.00436467 0.0509197 -0.1146657 -0.08316601 0.031063063 -0.014461711 -0.060063723
-0.03952212 -0.08249041 -0.067771524 -0.14553167 -0.072917156 -0.008498014 -0.0761946 0.02438773
0.026549535 0.0015602639 -0.035405565 0.019481461 0.052762263 0.048537314 0.008939526 -0.008444777
-0.01942885 0.055290375 0.01119829 -0.0831492 0.058102064 0.039698604 0.030932361 0.11928956
-0.013209569 0.05108087 0.08842995 0.020420661 0.021395227 0.02477596 -0.04284928 -0.00723433
-0.030156285 -0.038391694 -0.022956824 -0.024640372 -0.01767958 -0.029649185 -0.016519777 -0.029856604
-0.002717676 0.08694149 -0.04056299 -0.07269236 -0.043696538 -0.0671826 -0.08822509 -0.049409244
-0.016312327 -0.048902877 -0.24339737 0.0074093402 -0.007822808 -0.14086582 0.048990037 0.016060306
-0.09205352 -0.097823314 -0.0067493953 0.022464588 0.0034916196 -0.007559399 -0.034988355 -0.023425093
-0.020686213 -0.055636115 0.0066593513 -0.0038661528 0.055956196 -0.014005604 -0.01521382 0.011568005
-0.0094419 0.013450464 0.010464714 -0.16250311 -0.03888794 0.0693716 -0.04769842 -0.051080804
-0.053699728 0.0001749731 -0.043244984 -0.10589676 -0.025446655 -0.01084964 -0.05540319 0.049856458
-0.024201898 -0.0123064015 0.08347166 0.041724782 -0.0047428687 -0.2206315 -0.08292307 0.034338392
-0.05954943 0.01766298 -0.010303212 -0.046985727 -0.009884092 -0.018431418 -0.0907365 0.032518774
0.08272327 -0.00824884 0.040122733 0.03639028 -0.0021775768 -0.011488992 0.01812445 0.087907635
-0.0011515166 -0.03210813 0.06592344 0.052480184 -0.0119697815 0.071518384 0.034125783 0.038112044
-0.032285962 0.00021369023 0.069272526 0.00892308 0.07113587 0.04104569 0.009531852 -0.017567242
-0.005924791 -0.07839715 0.018104885 0.03477281 -0.005850449 -0.03756265 -0.06320786 -0.015622858
-0.034369383 -0.09455062 0.021302018 -0.040730946 -0.121903814 0.03151606 0.0073210504 -0.10131782
0.07077821 0.007816607 -0.05344153 -0.022473458 0.05278162 0.025930755 0.014603608 -0.02174784
-0.08104048 0.010825652 -0.014772321 -0.045105673 -0.007941996 0.07597388 0.104962565 -0.0016546038
0.011052519 0.07930905 0.02060804 -0.028588317 0.06820428 -0.083995156 -0.031327996 0.034587283
-0.01569652 0.018166466 0.016979728 -0.045869876 0.008889945 -0.05160967 -0.012184352 0.005257863
0.059174187 0.014192792 0.047051378 0.0069608325 0.01136106 -0.014061276 -0.030706555 0.065210745
0.032963734 -0.031851687 0.093871705 0.06505445 0.009605647 0.041805007 0.05200093 0.042668033
0.055635802 -0.05278393 -0.21186994 0.062413283 -0.01330149 -0.07427935 0.008738065 -0.0022850425
-0.090486236 0.120653056 0.061407637 0.04032011 0.0062170206 0.004952445 -0.030814592 0.01884078
-0.067084655 -0.020290706 -0.01269838 0.014684818 0.017793313 -0.019092612 0.059055753 0.029196205
0.00018146963 0.02856747 0.032217454 -0.006349278 0.06476656 0.05355258 0.009263687 -0.0036196867
-0.06269133 0.0058571408 -0.07174954 -0.08942773 -0.13605973 -0.038617205 0.05914937 0.009779008

body.0.block1.conv.bias f4 [64]
00000000: 6e97 d1bc b909 99bd 046f 32bd 61a4 5ebd
00000010: 046e dbbd 2af1 65bd 6bad 8dbd 26c4 89bd
00000020: bbe0 76bd 36fe 1fbd 1a1a 74bc d4a8 6fbc
00000030: 7ec3 0ebd d61e babd 7e2c 6a3c 4e42 b63c
00000040: b914 703a b184 c3bd adb2 e9bc 634f dcbc
00000050: de0a 0dbd 04d3 e0bc 17ae 40bd a474 cbbc
00000060: aeb9 75bd deea acbd 40db a5bd 1c7b 79bd
00000070: f17c f93b 505e 08bd 8dd2 d1bb 333f 533d
00000080: 831e 80bd dab9 14bd cba0 9fbd 2d96 0d3c
00000090: 7c60 d0bc 2e26 04bd 2acb 903b e1d5 8fbd
000000a0: 7e19 dbbc f044 7fbd 22d7 6bbd 7796 363c
000000b0: d8bd b7bc fba2 bfbd 7532 10bd 38a3 ecbd
000000c0: eb9e ecbc 11bf ccbc 33ce 13bd 6901 debc
000000d0: 3293 bdbc 3f24 09bb 6257 39bd 2055 87bd
000000e0: b060 ecbc d14a d3bd 122c c9bd 7bdf 0abd
000000f0: f7cd f7bb 30d1 9dbc 432e dfbc 276c d1bc
-0.025584903 -0.074725576 -0.043562904 -0.054355983 -0.10714343 -0.056138195 -0.069178425 -0.067268655
-0.060272913 -0.039060794 -0.014898801 -0.014627654 -0.034854405 -0.09087913 0.014292834 0.022248413
0.00091583614 -0.09546793 -0.028527582 -0.026893323 -0.034434192 -0.02744437 -0.047041025 -0.024835892
-0.05999153 -0.08443235 -0.08098459 -0.060908422 0.007613771 -0.03329307 -0.0064032734 0.051573943
-0.0625582 -0.036310054 -0.07794341 0.008641762 -0.025436632 -0.032262973 0.0044187503 -0.07023216
-0.026745554 -0.062321603 -0.057578214 0.011144272 -0.022429392 -0.09357258 -0.03520437 -0.11554569
-0.028884372 -0.024993451 -0.03608532 -0.027100282 -0.023141477 -0.0020926145 -0.04524935 -0.06608033
-0.028854698 -0.103170045 -0.09822859 -0.033904534 -0.0075623947 -0.019264787 -0.027243739 -0.025564266

body.0.block2.conv.weight f4 [64, 64, 3, 3]
00000000: b325 4a3d 2339 ecbc 20ef a4bd 5297 da3b
00000010: 3bd6 2f3d 961e 8ebd ab82 05bc c91c 37bd
00000020: 76f2 23bd 869c b138 1b51 783b 6c3a c93b
00000030: bad1 1fba c5fe 563d 8227 223c 8056 953d
00000040: 8775 163e 9096 703d f9a6 49bd f6ae 41bd
00000050: da3a 64bd b35b b5bd 4eb3 78bd 410f 27bd
00000060: 39d4 44bd 1bef 28bd 9716 e1bc 7370 323d
00000070: 211d 533d 3791 133d 2307 52bc 85c0 91bc
00000080: 76f5 aebc 6fa6 133c 8eb1 b3bc dd40 08bd
00000090: cd44 96bd 6857 18bd 5e56 94bd 1154 66bd
000000a0: 3cb5 3bbd 7a41 95bd 20dc 373d 47d1 ad3c
000000b0: fa79 91bb f428 263c 00d3 313c 2522 493d
000000c0: 97ec 053d 3c94 66bb f452 65bd c0d4 683d
000000d0: 3536 c63b eb8a 54bd 8d75 563d b037 013c
000000e0: 1746 303b ad32 5aba 5aa1 363c 2b6e 603c
000000f0: 80a0 69bc 24b3 483d 1cdb 1abb ffe5 503d
00000100: ef0a 7ebc 7c7d fbbb 6275 b83c 859b e7bb
00000110: 1ae8 d8bc 0324 5b3d 2d49 883d b6f8 0f3d
00000120: bbea a4bd fa39 96bd 9ef3 89bd d5bb a3bd
00000130: 0e36 3dbd c61a 70bd b308 0fbd 4f65 a23c
00000140: be77 a3b9 be4e 633d d374 753d 8104 ab3c
00000150: 8a7d a33c 602a 41bc dbd9 acbc 048d 0d3d
00000160: 5783 97bd 0c9c f2bd 413c fa3c b98e b23d
00000170: 90ee 873c b51f 01bd c4b1 4d3d d22b 083d
00000180: d6f1 f5bd f080 a5bd 8be4 cc3c ae52 323d
00000190: 0a93 3a3c 808f 363c c026 163c b9f9 c93c
000001a0: 93c2 753c 5a65 d3bc 8dfa c6bb 619e 793b
000001b0: 4c83 183d 0803 563d d4b7 ad3d 6d2b e43d
000001c0: 5286 e83d 8091 103e e86e 173e 4f0c cf3d
000001d0: 4567 283e 0841 f3bb be35 f1bb 96ea a0bc
000001e0: ac55 b2bc b6e1 b0bb e635 1bbd ab7a da3c
000001f0: 7319 dbbc 46e8 65bc 7f22 0ebd e468 9dbb
00000200: 3479 8fbd 864e 30bd acad 0e3b 4741 00bd
00000210: 0bad 473d cb9b 8c3c 4a4e 77bc cd10 b03d
00000220: 4167 b43d 8c72 09ba c11b d539 a146 b43d
00000230: 4a1b a93c 365a b7bc 49d5 cf3d 8134 983c
00000240: e1fc fabc 1f59 54bd 0345 55bd 4668 1fbd
00000250: 7803 48bc 3a6a 04bd e3b1 fd3b ca96 91bc
00000260: 14ea dbbc a06b edbb 3ebe 05bd 2a50 3dba
00000270: dc76 d7bc 123d 013b 57da 74bc f06a 963c
00000280: bbb6 63bc 8330 84bb 7833 653d c045 c43c
00000290: be91 713d 8678 913d e531 f13c 2409 4bbb
000002a0: 0fb4 f13d d478 193c 6ed6 56bb 41c6 473d
000002b0: 593c 033e 25d1 803d 6824 613d a518 d33c
000002c0: 442a d33c c5ff fa3c 3d8b 0bbc 9d35 34bd
000002d0: 2f12 2ebd 4d3c 75bd 08b3 21bd d2b8 7fbd
000002e0: b7ab 7ebd 004b 12bd 63f2 07bd 1643 273c
000002f0: d08a 7038 977b 873d 36b8 cabc 285d 16bc
00000300: 7230 143d 8234 9d3c 99c2 8dbc 3fac 9d3c
00000310: cd36 973d b27d 173d 4cc4 a8bd 6145 38bd
00000320: d0c1 c5bd 9db1 34bd 3bdc 173c 00c0 8fbd
00000330: ea20 11bd 231c 813a a801 8e3c ba06 54bd
00000340: 822e 66bd dd4e 46bd 52bc 24bd 5f96 e3bd
00000350: 9548 64bd 8560 47bc d704 8ebd a914 68bd
00000360: 2037 babb 6d44 f73c 65b9 91bb d8cc 833c
00000370: 9d7b 1f3c 0c0f 07bd abf6 7fbc e606 3f3d
00000380: ec57 543b 5002 513d 2d45 66bc 28f0 913c
00000390: 2dd9 18bc 4687 0f3d cb43 40bc 551f eabc
000003a0: 7a71 acbc 1af0 a1bc 7ee6 933d c3c4 45bb
000003b0: 79cd 923c aea9 eb3c 3ff3 3dbb 6923 9f3d
000003c0: f28e 2fbb 7a29 0f3d 8345 993c 8627 afbd
000003d0: 8cd9 5cbd e0db 7cbd 1b30 b7bc 9423 8ebc
000003e0: 08f0 0dbd d3b3 48bd e538 d23c 32a4 a3bc
000003f0: 5fb1 5d3c 1012 0b3d 2242 e83c b48f 1f3d
0.04935236 -0.028835839 -0.08053422 0.006670871 0.042928915 -0.069394276 -0.008148829 -0.044705186
-0.04002615 8.4691725e-05 0.003789014 0.0061409976 -0.00060966203 0.05248906 0.009897115 0.07291889
0.1469327 0.058737338 -0.049231503 -0.047285996 -0.055720188 -0.08855381 -0.060717873 -0.04078603
-0.048053954 -0.041243654 -0.027476592 0.04356427 0.05154145 0.03602716 -0.012819084 -0.017791996
-0.02135728 0.009011849 -0.02193525 -0.033264983 -0.073373415 -0.037192732 -0.07243036 -0.056232516
-0.045827135 -0.07287879 0.044887662 0.021217955 -0.0044395896 0.0101416 0.010853529 0.04910483
0.032696333 -0.003518357 -0.055987313 0.05684352 0.0060489425 -0.051890295 0.0523582 0.007886812
0.0026897246 -0.00083235913 0.011146868 0.013698141 -0.014259458 0.048998967 -0.0023629135 0.05100059
-0.015505536 -0.007674871 0.02251691 -0.0070681 -0.026477862 0.05350114 0.06654582 0.0351493
-0.08052584 -0.07335277 -0.067359194 -0.079948105 -0.04619413 -0.058619283 -0.034920406 0.019823698
-0.00031178998 0.055495016 0.059925865 0.020876171 0.019957323 -0.011789888 -0.021099975 0.03455831
-0.07398098 -0.1184617 0.03054631 0.087186284 0.016593248 -0.03152438 0.05021836 0.033244915
-0.12009017 -0.080812335 0.025011322 0.04353588 0.011387596 0.0111426115 0.009164512 0.02465521
0.015000003 -0.025805164 -0.0060723484 0.0038088786 0.03723459 0.052248985 0.08482328 0.11141095
0.113537446 0.14118004 0.14788401 0.101097696 0.16445644 -0.007423524 -0.007361143 -0.01964311
-0.021769367 -0.0053980006 -0.0378932 0.02666982 -0.026745534 -0.014032429 -0.034700867 -0.0048037637
-0.070055395 -0.043043636 0.0021770997 -0.031312253 0.04874901 0.017164132 -0.015094349 0.085969545
0.088087566 -0.0005243204 0.00040647204 0.08802534 0.020642895 -0.022381883 0.10148103 0.018579723
-0.03063816 -0.051842805 -0.052067768 -0.038917802 -0.012207858 -0.032327868 0.007742153 -0.017772097
-0.026845016 -0.007245496 -0.032652132 -0.0007221723 -0.026301794 0.0019720239 -0.014944634 0.018361539
-0.013898547 -0.0040341034 0.055957288 0.02395904 0.05897688 0.07103066 0.029442737 -0.003098079
0.118019216 0.009367187 -0.0032781619 0.048773054 0.1281599 0.06289891 0.05496636 0.025768587
0.02577699 0.030639539 -0.008517084 -0.043996442 -0.04249781 -0.05987196 -0.039477378 -0.062432118
-0.06217548 -0.035716057 -0.033190142 0.010208866 5.734974e-05 0.0661537 -0.024746042 -0.009177484
0.036179014 0.019190077 -0.017304705 0.019247172 0.07383499 0.036985107 -0.08240566 -0.04498804
-0.096561074 -0.044114698 0.009268816 -0.07019043 -0.03543178 0.0009850304 0.017334774 -0.051764227
-0.056196697 -0.048415054 -0.04021866 -0.111126654 -0.055733282 -0.012169008 -0.06934517 -0.056660328
-0.005682841 0.030183995 -0.0044471496 0.016088888 0.009734062 -0.032973334 -0.015622775 0.04663744
0.0032401038 0.051027596 -0.014054579 0.01781471 -0.0093291225 0.035041116 -0.011734913 -0.028579393
-0.021050204 -0.01976781 0.07221697 -0.0030177094 0.017920243 0.028767433 -0.0028984097 0.07770426
-0.0026788083 0.034951665 0.018709904 -0.0855246 -0.053918406 -0.061733127 -0.022361806 -0.01735095
-0.03465274 -0.04899962 0.025661895 -0.019975755 0.013531058 0.033952773 0.028351847 0.038955405

body.0.block2.conv.bias f4 [64]
00000000: 80ce a5bc 2f7d 3dbd ddbb 103c f61a 07bd
00000010: ca50 e83b 7989 603c 0e1f ad3c 4168 e43c
00000020: 3bfb 07bc ad98 c9bd 6383 01bd 2a94 6d3c
00000030: 4c5a 0b3c fc02 55bc 508a d4bd c2a4 113d
00000040: fb7e 13bd d561 303c fc60 cabd eeda 11bd
00000050: ba8c dabc 658c 96bc b3e0 3bbd 1aca 5ebc
00000060: 2fd6 d7bd 9ed8 0fbd acf5 4b3c 6249 86bc
00000070: 7a22 05be 2638 34bd 14ba efbc 8adf 59bd
00000080: 9a2e 42bd cfc0 2b3d 3c05 1abd 8af8 13bd
00000090: 396a 0b3d 70b9 b7bd 6c87 e43c eca5 73bd
000000a0: 943b 9ebd e695 483d 55a5 dfbc a16c b93c
000000b0: b3f8 9a3c 9eaf fcbc 7f07 adbd 56fb e0bd
000000c0: d9a0 613c fc21 0cbe 0234 d83c 6def e4bc
000000d0: 31fe f73c 1901 963b 30e5 01bd 506e feba
000000e0: fb87 07be 7911 6dbd 55b6 aabd 6074 dcbd
000000f0: b5de 2abe 2694 633d 409a 54bd 15c0 0dbc
-0.020240068 -0.046261963 0.008833853 -0.032984696 0.007089709 0.013704651 0.021132972 0.027881743
-0.008299644 -0.09843574 -0.03161944 0.014500657 0.008505415 -0.0130012 -0.103779435 0.035557516
-0.03600977 0.0107655125 -0.098817796 -0.03560918 -0.026678432 -0.018377492 -0.045868587 -0.013597989
-0.10538899 -0.03511869 0.012448709 -0.016392414 -0.13001433 -0.04399886 -0.029263534 -0.0531917
-0.047407724 0.041931923 -0.03760265 -0.036125697 0.03403685 -0.08970916 0.027896605 -0.059484407
-0.077262074 0.04897108 -0.027300516 0.022634806 0.018917417 -0.03084546 -0.084486954 -0.109854385
0.013771259 -0.13684839 0.026391987 -0.027946198 0.030272575 0.0045777676 -0.03171271 -0.0019411538
-0.13235466 -0.05787799 -0.08335558 -0.10764384 -0.16686518 0.055561207 -0.051904917 -0.008651753

tail.0.weight f4 [3, 64, 3, 3]
00000000: 13a4 f63c 1283 d73b 0268 cc3b 55be cbbc
00000010: 33b7 90bc 3e41 08bc f456 50bd 0f75 73bd
00000020: 5b26 5a3c 2444 893d c359 013e 1a48 0b3e
00000030: 125b 07bd 8012 bb3b 7ad3 053d 2163 36bb
00000040: cd0a 123d f83d c9bc 2471 483d e2b4 ae3c
00000050: bb02 b5bc d9ca 2f3d 2a3c 37bd 32f0 34bc
00000060: 4736 783c 6fc4 6a3b edc5 b63c e9bf 803c
00000070: 3c74 43bd a6b4 7ebd 8a16 f03b 1567 513c
00000080: 26e2 16bc 0429 89bc d62e d13b f2fd 363d
00000090: df4e 833c 5da2 ab3b d620 00bc 7704 9abc
000000a0: 33c1 bd3b 0839 dfbc f7b9 f2ba 7472 223d
000000b0: 93b4 3b3d d5a6 e9bb f7ee a53c 07b6 a13d
000000c0: 78fd fd3c cf74 773c 4683 8f3d 9b4c 153d
000000d0: 027d 36bb 6409 0b3c b911 7c3c 43d3 493c
000000e0: 4312 cdbc afce 8bba 990c f6bc 074a 203d
000000f0: 4fc5 43bd 3ba8 8fbb 1785 4b3e 6bb7 9d3c
00000100: 4104 e6b9 7d05 873d a2d9 cebc 16f8 eb3c
00000110: 18a4 6d3d 8d9e bbbb 0ae6 fa3c 8437 7b3d
00000120: e626 86bd 4242 41bd fe2b 0a3e afcf 0ebd
00000130: 31ed ae3b 9d0f 573d ac0c 96bc 4f1a 17bd
00000140: fcef 1ebd 7eda 4b3d cb55 44bd ffee 98bb
00000150: 7440 4e3c a48b 2dbd dfb0 a5bd 18cc 05bd
00000160: f6e7 223b 959b 343c 279a 0abd 6791 09bd
00000170: 238b 98bc e8f5 0dbd 8ec8 2e3c 3013 d1bb
00000180: 1ed3 4a3c 6029 013d 8664 e43c a171 223b
00000190: fb7a 33bd c920 a7bb b3b6 36bc 1605 e03c
000001a0: f43e a0bb e6a5 3bbc 3380 a73d d3c0 ac3d
000001b0: 8f57 853b 9985 30bd 5665 ee3a a3a1 1b3d
000001c0: 092a 4fbb a1bb 44bd 684c 0c3d bf06 aabc
000001d0: 87e4 9a3b b8fa e93c 6d2a 8fbc 82f6 28bc
000001e0: 553c 773c e0c7 9d3c 8d53 5abd eef8 5fbc
000001f0: bd90 803c fc51 53bd f421 71ba 47ef 6f3a
00000200: 1223 2c3c f0df 663b ea41 46bd 05b9 f43b
00000210: 64ff 133c 5ea6 183b 675d 203d 973f a23c
00000220: d9ef 8b3d ab45 103e c9a0 06bd c061 00b9
00000230: d694 2cbc 6a68 edbc c690 d7bb 97c0 c8bc
00000240: d8df 863d 8850 fe3c bb4f 943d 6c85 ab3c
00000250: b082 043c 32c2 b93b 2eeb 28bc f61d c33b
00000260: 8441 dcbb a44a 94bc 52c3 463c 7c7b 3dbd
00000270: f440 c33b 4759 883a 13d1 343d 0bc2 da3c
00000280: 302e 58bc 4651 ff3d 4778 55bc 40d0 193d
00000290: baa4 843c 2102 73bd aa8a c13b 9936 9d3a
000002a0: dad9 f7bc 1d68 a23c 32e0 733d b4fc 353c
000002b0: 94e4 7d3b 5229 a4bc a5d2 943c f684 4a3c
000002c0: d4bb 32bd 5832 793d 6068 a33d de2c 1e3c
000002d0: 2f88 1bbc 7980 c1bd 432d 44be efda 08bd
000002e0: 7749 15bd 745c 17bd e188 fdbc d969 913c
000002f0: 5a7b 093d bc8c 14ba e2be a3bc 443b 3cbd
00000300: f98a b2bc 4416 02bb c71c 303d 38aa 79bc
00000310: 402e 853d 4a68 8c3d 6a1b f6bc f105 e5bc
00000320: aa69 3cbb fde8 823c 584a 123d 125a 583c
00000330: c470 1e3c 9776 ebbc 5c35 a8bd e105 c8bc
00000340: 4ca4 743b f0b1 0dbd 0241 7fbc d872 d63c
00000350: 1251 983c 5be7 eb3b c290 a03d f61d 8c3d
00000360: 2f04 313c 2bd3 973c 4457 0b3d e634 813c
00000370: 489c 8e3c 4e97 7d3b b1a9 833d 9154 b23c
00000380: 98ad f53a 2e31 b73b ebdf 62bc c2f3 ccbc
00000390: e9f2 383c 1cbe d7bc fb88 033d 724b 1dbc
000003a0: 3814 dc3c 9e84 af3c ab62 7d3c 1b57 d73c
000003b0: 2447 87bd ad72 993c 2c5f f9b9 c719 aebc
000003c0: f7f0 123d bac3 483d 2110 9a3d 9b95 bcbd
000003d0: 6402 5cbc 067c 5e3d 6c1b 49bd 6e81 db3b
000003e0: 39fb af3c 66ae d3bc 30fe f43c 67ac 823d
000003f0: b6f2 e33d bb5b 9c3d 2bb5 a2bd ad54 ad3d
0.030107534 0.006576904 0.0062379846 -0.02487103 -0.017665481 -0.008316336 -0.050864175 -0.059437808
0.013314809 0.0670245 0.12631898 0.13601723 -0.033045836 0.0057089925 0.032672383 -0.0027830082
0.03565483 -0.024565682 0.048936024 0.021326486 -0.022096029 0.04291806 -0.04473511 -0.011043595
0.0151496595 0.003582265 0.022311175 0.01571651 -0.04771827 -0.062184 0.0073269056 0.012780924
-0.009209191 -0.01674319 0.006383757 0.044675775 0.01602882 0.005237861 -0.007820329 -0.018800957
0.0057908534 -0.027248874 -0.0018518557 0.039659932 0.045826506 -0.0071304836 0.020255549 0.07896047
0.031004652 0.015103533 0.0700746 0.03645001 -0.0027845507 0.008486126 0.015385085 0.012318435
-0.025033122 -0.0010666455 -0.030035304 0.039133098 -0.04779559 -0.0043840683 0.19874988 0.0192525
-0.00043872188 0.06592844 -0.02525026 0.02880482 0.05801782 -0.005725688 0.03062727 0.06133224
-0.06550388 -0.04718233 0.13493344 -0.03486603 0.005338334 0.052505124 -0.01831659 -0.036890324
-0.038803086 0.049768917 -0.04793338 -0.0046671624 0.012588609 -0.0423695 -0.08090376 -0.032665342
0.0024857498 0.011023422 -0.033838417 -0.033585932 -0.018621033 -0.034658343 0.010667933 -0.006380461
0.012379436 0.0315336 0.027879965 0.0024786966 -0.043818455 -0.005100344 -0.011151957 0.027346175
-0.004890317 -0.0114531275 0.08178749 0.08435216 0.0040692757 -0.04309616 0.001818816 0.037995946
-0.0031610748 -0.0480305 0.034252554 -0.02075517 0.0047269496 0.028561935 -0.017476285 -0.010312678
0.015090068 0.019260347 -0.053302336 -0.013670189 0.015694017 -0.05159186 -0.000919848 0.00091527816
0.010506408 0.0035228692 -0.048402704 0.007468345 0.009033058 0.0023292522 0.039151575 0.019805713
0.06832857 0.14089076 -0.03286818 -0.00012243446 -0.010533532 -0.028980453 -0.0065785376 -0.024505896
0.065856636 0.03104426 0.0724177 0.020937644 0.008087799 0.005668902 -0.010309977 0.0059544994
-0.0067216773 -0.018101998 0.012131529 -0.046260342 0.0059586708 0.0010402583 0.0441447 0.026703855
-0.013194606 0.124666736 -0.013029165 0.03755212 0.016191829 -0.059328202 0.0059064226 0.0011994421
-0.030255247 0.019825036 0.05953998 0.011107612 0.003874098 -0.020039234 0.01816685 0.012360802
-0.043636158 0.060839027 0.07978892 0.009654252 -0.009492918 -0.09448332 -0.19157891 -0.033411916
-0.036447015 -0.036953405 -0.030949058 0.017750667 0.033564903 -0.0005666723 -0.019988481 -0.045954958
-0.021794783 -0.0019849697 0.042996194 -0.015238337 0.06502962 0.06855829 -0.030042369 -0.027956935
-0.0028749504 0.015980238 0.03571543 0.013205068 0.00967044 -0.028743071 -0.082133025 -0.024416866
0.0037329374 -0.034593523 -0.015579464 0.026177809 0.018593345 0.0071992106 0.0784011 0.06841652
0.01080422 0.01853331 0.03401877 0.015772294 0.017408505 0.003869492 0.064288504 0.02176884
0.0018743752 0.0055905795 -0.0138473315 -0.025018577 0.011288383 -0.026335768 0.032113057 -0.009600507
0.02686511 0.021425541 0.015465419 0.026286652 -0.06605366 0.01873144 -0.0004756389 -0.021252526
0.035874333 0.049014784 0.075226076 -0.092082225 -0.013428304 0.054317497 -0.049098417 0.006698779
0.021482097 -0.025839996 0.029906362 0.063805394 0.11130278 0.07634684 -0.07944711 0.08463416

tail.0.bias f4 [3]
00000000: 16ea a73d 0472 9c3d 472a 863d
0.08198945 0.07638934 0.065510325
