TrainedModels/volcano/2020_08_17_10_39_56_video_train_depth_3_lr_scale_0.1_act_lrelu_0.05/1/netG_b.pth (torch_old, 936141 bytes, 46 tensors)

total_ops f8 [1]
0	0x0000000000000000	0.0

total_params f8 [1]
0	0x0000000000000000	0.0

total_ops f8 [1]
0	0x0000000000000000	0.0

total_params f8 [1]
0	0x0000000000000000	0.0

weight f4 [64, 3, 1, 1]
0	0xbb706458	-0.0036680903
1	0x3c52e92d	0.012872976
2	0xbc1e82e6	-0.009674763
3	0x3ab9cc1c	0.0014175209
4	0x3c2c928a	0.0105329845
5	0x3d03ccf9	0.0321779
6	0x3d176473	0.03696103
7	0xbcf4f086	-0.029899847
8	0xbcbf9e66	-0.02339096
9	0x3d08e421	0.033420686
10	0x3c9b9724	0.018992968
11	0xbcb95983	-0.02262569
12	0xbc222a19	-0.009897732
13	0x3c7b58f4	0.015341032
14	0xbd017dc5	-0.031614084
15	0xbba119a1	-0.0049163853
16	0x3cb988a3	0.022648161
17	0xbc39cd0a	-0.011340389
18	0x3d0ea1e3	0.034822356
19	0x3cb6cc5f	0.022314249
20	0xba99bdaa	-0.0011729498
21	0xbc7a65cf	-0.015283062
22	0xbd14353c	-0.03618358
23	0xbc0f6f2b	-0.008754532
24	0xbc28b445	-0.010296886
25	0x3cac17f6	0.02100752
26	0x3cb7662d	0.022387588
27	0xbb3d49f4	-0.002888319
28	0xbbafa00d	-0.0053596557
29	0x3c267f84	0.010162238
30	0x3af67d9f	0.0018805749
31	0xbc2b8ad8	-0.010470115
32	0xbc23278a	-0.009958157
33	0xbba42e83	-0.0050104274
34	0xbd152ad9	-0.036417816
35	0x3d1bb45d	0.038013805
36	0xbc011119	-0.007877612
37	0xbd506586	-0.05087807
38	0x3c8dd688	0.01731421
39	0xbd22a1bb	-0.03970502
40	0x3a346197	0.0006880997
41	0x3c5da9ff	0.0135293
42	0xba7eebe6	-0.00097244827
43	0xbc49cbfc	-0.0123167
44	0x3b5a63f6	0.0033323742
45	0xbd3cb2c8	-0.046068937
46	0x3bc8410a	0.006111269
47	0xbcf96adb	-0.03044646
48	0x3bf9bb2e	0.0076211905
49	0xbb435bd6	-0.0029809377
50	0xbc9af5aa	-0.01891597
51	0xbc5fcde4	-0.013659928
52	0xbbf9a3c0	-0.0076183975
53	0xbbf5a5a8	-0.0074965544
54	0xbc9e8260	-0.019349277
55	0xbbacb461	-0.0052705263
56	0x3cf5c6e8	0.030002072
57	0x3ce24bb8	0.027623996
58	0xbc9d067c	-0.019168131
59	0x3d202e16	0.03910645
60	0x3c737832	0.0148602
61	0x3ca529c4	0.020161517
62	0xbc04d70d	-0.008107913
63	0xbc3c65ba	-0.011498863
64	0xbc43253b	-0.011910732
65	0xbc0693b8	-0.00821393
66	0x3aff951a	0.0019499392
67	0xbcc88bf2	-0.024480794
68	0x3c85b521	0.01632172
69	0x3c8ee786	0.017444383
70	0x3ca9b36a	0.020715434
71	0xbb49324c	-0.0030700145
72	0x3d013851	0.031547848
73	0xbb6c07b3	-0.0036015331
74	0xbc2fb2ee	-0.0107238125
75	0xba936b12	-0.0011247119
76	0xb9cba856	-0.00038844597
77	0x3c62347c	0.013806459
78	0x3b82a800	0.0039873123
79	0x3bef3463	0.007299946
80	0xbc44200d	-0.011970532
81	0xbbb66728	-0.0055664964
82	0xbc979f68	-0.018508628
83	0x3ba7dd46	0.0051228134
84	0xbc010ee9	-0.00787709
85	0xbcc91ad3	-0.024548924
86	0xbbcf4d32	-0.006326341
87	0xbbb5ee91	-0.005552121
88	0x3c968ea6	0.018378567
89	0x3bb786d2	0.0056007886
90	0xbc426b7b	-0.011866446
91	0x3c3afce8	0.011412837
92	0x3c2ce356	0.010552248
93	0xbc68ccca	-0.014208982
94	0xbc412a29	-0.011789837
95	0xbc0f605a	-0.008750999
96	0x3cd428b3	0.025898313
97	0x3d3f6408	0.046726257
98	0xbc6fa5da	-0.014626944
99	0xbbba252f	-0.005680702
100	0x3cd0da6d	0.025494779
101	0x3d198ad3	0.03748591
102	0x3bc6b713	0.0060643046
103	0x3cbd22a1	0.023087801
104	0xbaedd06a	-0.0018143777
105	0x3ba24f00	0.004953265
106	0xbc2fbb60	-0.010725826
107	0xbc859473	-0.016306138
108	0xbc75226d	-0.014961821
109	0xbd0ee12e	-0.034882717
110	0x3cc91161	0.02454442
111	0x3c2d4bad	0.010577125
112	0xbb0afe03	-0.0021208532
113	0x3d017353	0.031604122
114	0x3c890de5	0.016730258
115	0xbcc315c0	-0.023814082
116	0xbc0ea8f2	-0.008707272
117	0xbcd52c31	-0.026022049
118	0x3c59e933	0.013300228
119	0xbc03301f	-0.008007078
120	0xbbc8251c	-0.0061079394
121	0xbb46b2e8	-0.0030319039
122	0xbb708864	-0.003670239
123	0xbbc3456f	-0.005959205
124	0x3c80669f	0.015673934
125	0x3c7df617	0.015500567
126	0x3ce6fc8e	0.0281966
127	0x3b92fe58	0.0044858865
128	0xb96a5444	-0.0002234737
129	0x3d02fd4f	0.031979855
130	0x3d03d361	0.03218401
131	0xbc3326a0	-0.010934502
132	0x3cde4a4c	0.027135037
133	0xbcbc10f3	-0.0229573
134	0xbc2bc534	-0.010484029
135	0xbd39626d	-0.04525988
136	0xbcb11141	-0.021614673
137	0x3b2ca856	0.0026345453
138	0x3c833811	0.016017945
139	0x3ab126ac	0.0013515553
140	0x3d116051	0.035492245
141	0x3b315ae9	0.0027062243
142	0xbbaaa486	-0.005207601
143	0x3c9f822d	0.019471252
144	0xbcecb79a	-0.028896142
145	0x3b709a36	0.003671301
146	0x3b19a421	0.0023443776
147	0xbc101e61	-0.008796305
148	0xbcb1d3f8	-0.02170752
149	0x3c96c913	0.018406427
150	0x3aa06d33	0.0012239575
151	0xbbc563c9	-0.006023858
152	0x3d156460	0.03647268
153	0x3ce7dd1a	0.028303672
154	0x3cc6dfe1	0.024276676
155	0x3b776838	0.0037751328
156	0xbc77713c	-0.015102681
157	0xbbba1bb3	-0.0056795715
158	0x3bc7de44	0.006099494
159	0x3bb21cd2	0.0054355646
160	0x3cc7606a	0.024337966
161	0xbc9a795c	-0.018856697
162	0x3bacbd61	0.005271599
163	0xbc45997f	-0.012060522
164	0xbc6ea7f4	-0.01456641
165	0x3c04ed8c	0.008113276
166	0xbb5e5e6a	-0.0033930787
167	0xbcc6bcfc	-0.024260037
168	0xbbd9680f	-0.006634719
169	0xbbec3bc4	-0.007209273
170	0xbbc5113f	-0.006014019
171	0xbbe36e54	-0.0069406424
172	0x3b9168cd	0.004437542
173	0xbcf15f4a	-0.029464383
174	0xbbcd2793	-0.006260821
175	0xbc3b2b12	-0.011423843
176	0xba2a0297	-0.0006485371
177	0xbd02c843	-0.031929266
178	0x3cec385a	0.028835464
179	0xb9ea690f	-0.00044710233
180	0xbb8dd1ea	-0.004328002
181	0xbcabe377	-0.020982487
182	0x3b98e064	0.0046654213
183	0x3cc88be5	0.02448077
184	0x3cb537fb	0.02212142
185	0x3c87137f	0.016488789
186	0xbd02c9ce	-0.031930737
187	0xbbf7746d	-0.007551721
188	0xbca350cc	-0.019935988
189	0xbbd155ca	-0.0063884007
190	0x3c11d5a2	0.008901032
191	0xbc9dd31d	-0.019265706

bias f4 [64]
0	0x3eedadb4	0.46421587
1	0x3e853528	0.26017118
2	0xbe76e318	-0.24110067
3	0x3df23210	0.11825955
4	0x3e874c74	0.26425517
5	0x3e496ac4	0.19669634
6	0xbec55c7b	-0.3854712
7	0x3e3e0f74	0.18560582
8	0x3ee3d8cc	0.4450134
9	0x3e78847c	0.24269289
10	0x3e69ad30	0.22819972
11	0xbde8377c	-0.11338708
12	0xbd7d2d30	-0.061810672
13	0x3eb42d4a	0.35190803
14	0x3e83505c	0.25647247
15	0xbe903022	-0.28161722
16	0x3e81e0f8	0.2536695
17	0x3eb725de	0.35771078
18	0x3ef03bd0	0.46920633
19	0xbec92ed6	-0.39293545
20	0x3e8ddf90	0.27709627
21	0x3ed93370	0.42422056
22	0xbe8c33d1	-0.27383283
23	0x3d129dd0	0.035795033
24	0x3ed5cfa8	0.41759992
25	0x3eabd916	0.3356406
26	0x3ef12708	0.4710009
27	0xbf05366d	-0.5203617
28	0xbf033149	-0.5124708
29	0x3ed71b98	0.4201324
30	0xbe91112e	-0.2833342
31	0x3e848e7e	0.25889963
32	0x3ed90998	0.42390132
33	0xbe75786e	-0.23971722
34	0x3efd87d4	0.4951769
35	0x3f0ba1b8	0.5454364
36	0x3de1f000	0.110321045
37	0xbea35b6b	-0.31905684
38	0x3ebb372a	0.36565524
39	0x3e1049c0	0.14090633
40	0xbe84df79	-0.25951746
41	0xbe6538f2	-0.22385004
42	0x3ee28398	0.44241023
43	0x3ee39e74	0.44456828
44	0x3f126f96	0.57201517
45	0xbe952f39	-0.2913759
46	0x3ea5f6f2	0.32414967
47	0x3f0452fc	0.51689124
48	0x3d5fb900	0.05461979
49	0x3e84ccca	0.25937492
50	0x3ed97500	0.42472076
51	0xbed1484f	-0.4087548
52	0xbed745b2	-0.4204536
53	0x3f03a250	0.51419544
54	0x3f110d7e	0.5666121
55	0xbd9ad308	-0.07559782
56	0x3f014c92	0.5050746
57	0x3dc3fe00	0.09569931
58	0xbdb4c494	-0.08826557
59	0xbece5794	-0.40301192
60	0xbec218f4	-0.37909663
61	0xbd559500	-0.05214405
62	0xbe451352	-0.19245651
63	0xbef18ee7	-0.47179338

total_ops f8 [1]
0	0x0000000000000000	0.0

total_params f8 [1]
0	0x0000000000000000	0.0

weight f4 [64, 3, 3, 3]
0	0xbd9a38ce	-0.07530366
1	0xbd330cb3	-0.043713283
2	0xbda7a4c4	-0.081857234
3	0x3d14ad5a	0.036298133
4	0x3d22393e	0.03960537
5	0x3c89fc23	0.016843861
6	0xbd441d2e	-0.04787939
7	0x3d889be4	0.06670359
8	0xbd5129c2	-0.051065214
9	0x3d5f1ebb	0.054472666
10	0x3d014918	0.03156385
11	0x3ce214c3	0.02759779
12	0x3d1fb8f7	0.038994756
13	0xbc8127e2	-0.015766088
14	0xbcc29d40	-0.023756623
15	0xbd5fa651	-0.05460197
16	0xbc36c4d9	-0.011155331
17	0x3c3385bc	0.010957178
18	0x3c32e176	0.010918012
19	0x3d44c2a9	0.048037205
20	0x3db6737f	0.08908748
21	0xbd21a238	-0.039461344
22	0xbb6459b1	-0.00348435
23	0xbd91d172	-0.07120027
24	0x3d448045	0.04797389
25	0x3b361151	0.0027781317
26	0xbd24ebeb	-0.04026405
27	0x3d5d4390	0.05401951
28	0xbcefcf49	-0.029273646
29	0xbd0b2c02	-0.033977516
30	0xbccdec1f	-0.025137005
31	0x3c6e0571	0.0145276645
32	0xba184cff	-0.0005809813
33	0xbdefceb9	-0.11709351
34	0xbc9e3b0f	-0.01931527
35	0xbcd928d9	-0.026508735
36	0xbd424151	-0.04742557
37	0x3b7cd3f4	0.0038578482
38	0x3d1f3cdf	0.03887641
39	0xbc77778f	-0.015104189
40	0xbac1ad6a	-0.0014776413
41	0xbd82de0b	-0.063900076
42	0xbd85ac10	-0.06526959
43	0x3c0d3216	0.008617898
44	0xbcfd1e81	-0.030898334
45	0x3d32a039	0.04360983
46	0x3c97a412	0.018510852
47	0x3d8fcb6c	0.070212215
48	0xbd018252	-0.031618424
49	0x3d479f6d	0.048736025
50	0xbc3da38e	-0.011574639
51	0xbd4b0462	-0.049564727
52	0xba274987	-0.0006381501
53	0xbab135ea	-0.0013520096
54	0x3b9b3d60	0.004737541
55	0x3d032071	0.03201336
56	0xba2116be	-0.00061450514
57	0x3c17cd25	0.009265219
58	0x3c182122	0.009285243
59	0x3c564d63	0.013079974
60	0xbcfcf279	-0.030877339
61	0x3b674111	0.0035286585
62	0xbd91d720	-0.0712111
63	0xba8660d3	-0.0010252245
64	0x3d45d600	0.04829979
65	0x3d93e6b8	0.072217405
66	0xbca8e3a8	-0.020616367
67	0xbbce9825	-0.006304758
68	0x3d63dabb	0.05562852
69	0xbdb42f20	-0.08798051
70	0xbd076c00	-0.03306198
71	0x3c9b21a7	0.018936945
72	0xbccb44ad	-0.02481302
73	0xbc392b37	-0.011301807
74	0xbd28e9df	-0.04123866
75	0x3df041b2	0.117312804
76	0x3da4ae58	0.08041066
77	0x3cc2b0ad	0.023765886
78	0x3cb71a83	0.022351509
79	0xbcf55f23	-0.029952591
80	0xbd1ad994	-0.037805155
81	0xbd8d40e5	-0.06897143
82	0xbe2e0e28	-0.16997588
83	0x3da789e0	0.081805944
84	0xbd007552	-0.031361885
85	0xbbe6efa4	-0.0070476104
86	0xbd008bcf	-0.031383332
87	0xba9f6625	-0.0012161179
88	0x3d5c0569	0.053716097
89	0x3c48694e	0.012232138
90	0xbd538aae	-0.051645927
91	0x3cbc6990	0.022999555
92	0x3d305a41	0.043054823
93	0x3d031e1d	0.03201114
94	0xbd4cd76a	-0.050010122
95	0x3a5f27a4	0.0008512682
96	0xbd3bb48f	-0.04582649
97	0xbc0c1689	-0.008550295
98	0x3cdaf711	0.026729139
99	0xbdd535bc	-0.1041064
100	0x3b7c7e9b	0.0038527611
101	0x3daf0117	0.0854513
102	0x3bc52b75	0.0060171434
103	0xbd62b4a8	-0.05534807
104	0xbdc3f736	-0.09568636
105	0xbce7ad44	-0.028280862
106	0x3d175ab8	0.03695175
107	0xbc0ee821	-0.008722336
108	0x3d22c4b8	0.039738387
109	0x3d33d8c3	0.043907892
110	0x3c15f6e8	0.009153105
111	0x3d609357	0.054828014
112	0x3d0e813e	0.034791224
113	0xbd83e7c4	-0.0644069
114	0xbd61c952	-0.055123635
115	0xbc976607	-0.018481268
116	0xbc6cea2f	-0.014460131
117	0x3cb44a34	0.022008039
118	0x3d8f90af	0.07010018
119	0xbb1c51b1	-0.0023852403
120	0xbc3de1ba	-0.011589462
121	0x3d27478a	0.04083971
122	0xbc779fba	-0.015113765
123	0xbd628b35	-0.05530854
124	0xbdc10426	-0.094246194
125	0xbccd880a	-0.025089283
126	0xbca4389d	-0.020046527
127	0x3d3cf36d	0.046130586
128	0x3c9bfa7c	0.019040339
129	0xbd56b06b	-0.05241434
130	0x3c737621	0.014859707
131	0xbc58cdae	-0.013232632
132	0x3c944837	0.018100841
133	0xbd1914c9	-0.037373338
134	0x3c39a0e6	0.011329865
135	0xbdf48a7b	-0.119404756
136	0xbdb2d5d0	-0.08732188
137	0xbc97752a	-0.018488485
138	0x3d1e0640	0.03858018
139	0x3d697e07	0.057004955
140	0xbc04d143	-0.0081065325
141	0x3c52821e	0.012848405
142	0xbd6f07d4	-0.058357075
143	0xbd3c48eb	-0.045967977
144	0xbdb5fc7e	-0.0888605
145	0x3d42b498	0.04753551
146	0x3d84281c	0.06452963
147	0xbc79303d	-0.015209255
148	0xbcff1746	-0.031139027
149	0xbd3b9613	-0.04579742
150	0xbdac4526	-0.084116265
151	0xbc916765	-0.017749498
152	0xbcf8fa32	-0.03039274
153	0xbd2b5ec2	-0.041838415
154	0xbdd40e23	-0.10354259
155	0xba45870c	-0.0007535077
156	0xbc52fe2d	-0.012877983
157	0x3ce1beeb	0.027556857
158	0x3c7d9357	0.015477023
159	0x3b5acc7e	0.0033386047
160	0xbd79e30e	-0.06100755
161	0x3b9c00ab	0.004760822
162	0x3e3cb071	0.18426682
163	0xbd9ee3c6	-0.07758288
164	0xbe13c2b7	-0.14429747
165	0x3d1ac096	0.03778132
166	0x3bb48057	0.0055084634
167	0x3c8d776f	0.017268864
168	0x399533ea	0.00028458174
169	0x3c8035dc	0.015650682
170	0x3cde4158	0.027130768
171	0xb993ee6d	-0.00028215666
172	0x3ca0e2da	0.019639421
173	0xbe242f04	-0.1603356
174	0x3cf8d856	0.030376595
175	0xbd1077c2	-0.03527046
176	0xbce1b139	-0.027550327
177	0x3d884545	0.06653837
178	0xbd1533e9	-0.03642646
179	0xbd24d72b	-0.040244263
180	0x3dee853d	0.11646507
181	0x3d9bf025	0.07614163
182	0x3d7fbf1d	0.06243812
183	0xbb549b55	-0.0032441218
184	0x3b5cbdba	0.0033682422
185	0x3cbc9857	0.02302186
186	0x3ca30765	0.019900987
187	0xbce66669	-0.028125005
188	0xbc6b2bc7	-0.014353699
189	0xbd26c77f	-0.040717598
190	0x3cc43857	0.023952646
191	0x3dd049c0	0.10170317
192	0xbc89cb9a	-0.016820718
193	0x3c9f579b	0.019450953
194	0xbc0d1595	-0.008611103
195	0x3d0933fa	0.033496834
196	0xbc3a1c69	-0.011359313
197	0x3c406025	0.011741673
198	0xbdbfdebe	-0.093686566
199	0xbdf23772	-0.118269816
200	0x3e6f2fe6	0.23358116
201	0xbc286d91	-0.010280029
202	0x3cf1ff73	0.029540753
203	0xbc837aec	-0.016049825
204	0x3c096265	0.0083852755
205	0x3c8a6454	0.016893543
206	0xbcf4426f	-0.029816834
207	0x3c77b0c6	0.01511783
208	0x3d53210e	0.051545195
209	0xbe482cb1	-0.19548298
210	0x3c18ef5f	0.009334414
211	0x3d4deaea	0.05027286
212	0xbba2530e	-0.0049537485
213	0x3b02991f	0.0019927693
214	0x3b937de2	0.0045010904
215	0x3cbaf830	0.022823423
216	0xbd1a682a	-0.037696995
217	0xbc40a1a7	-0.011757291
218	0x3b0bd36d	0.0021335736
219	0xbcc60069	-0.024170117
220	0x3bdd7344	0.0067581255
221	0x3b4af7a4	0.003097036
222	0xbce7ecc5	-0.028311143
223	0x3cbdfbd5	0.023191372
224	0xbcfcddb9	-0.030867444
225	0xbb491231	-0.003068101
226	0xbd36ce0d	-0.0446301
227	0x3d4130af	0.04716557
228	0x3d1123d9	0.035434578
229	0xbd5e29ff	-0.05423927
230	0x3be1af8c	0.006887382
231	0xbcea0031	-0.028564544
232	0x3d10cf63	0.03535403
233	0xbcf14760	-0.02945298
234	0x3cc2d38c	0.023782514
235	0x3d7152f9	0.05891702
236	0xbd2f5611	-0.04280669
237	0xbc5ef0a4	-0.013607178
238	0xbd0805ac	-0.033208534
239	0x3d13b8d2	0.03606493
240	0xbcb48fc8	-0.022041216
241	0x3c3d3698	0.011548661
242	0xbd2a5be9	-0.04159156
243	0xbd179d96	-0.03701552
244	0xbcbd1aae	-0.02308401
245	0x3cb8bfa8	0.022552326
246	0xbb21f377	-0.0024711767
247	0x3c9663c5	0.01835812
248	0xbd475d82	-0.04867316
249	0xbdb3ca2a	-0.08778794
250	0x3cafd342	0.02146304
251	0xbd06db94	-0.03292425
252	0xbdb7dcf3	-0.089776896
253	0xbb970d97	-0.0046097743
254	0xbd490f0f	-0.049086627
255	0xbd162a86	-0.036661647

bias f4 [64]
0	0xbe331064	-0.17486721
1	0x3dbd3b37	0.0923981
2	0xbe23cd64	-0.15996319
3	0xbde554e1	-0.1119783
4	0xbe01b1ff	-0.12665556
5	0x3d3baa6e	0.04581683
6	0xbdd1f1f0	-0.10251224
7	0xbdb4d80a	-0.08830269
8	0xbe892f51	-0.26793912
9	0x3d1935b3	0.037404727
10	0x3d30a869	0.04312936
11	0xbdddd587	-0.10831743
12	0xbcde8f90	-0.027168065
13	0xbe446fc8	-0.19183266
14	0xbdf8ebbb	-0.12154337
15	0xbe471937	-0.19443212
16	0xbde4f84d	-0.11180172
17	0xbe784553	-0.24245195
18	0xbdddf19f	-0.10837101
19	0xbe018c3a	-0.12651148
20	0xbdc2f9e9	-0.09520323
21	0xbe8475f2	-0.25871235
22	0xbe6519fb	-0.22373192
23	0xbe85eb91	-0.26156285
24	0xbdfccf1f	-0.12344193
25	0x3c9db3b2	0.019250724
26	0xbe114c7f	-0.14189337
27	0x3d0c8cb6	0.03431388
28	0xbdeef019	-0.11666889
29	0x3cae0c2f	0.021246044
30	0xbe279338	-0.16364753
31	0xbe4f1303	-0.20222096
32	0xbe033573	-0.12813358
33	0xbe28fab8	-0.16501892
34	0xbe58de46	-0.2117854
35	0xbe1c5930	-0.15268397
36	0xbe0deeba	-0.13860598
37	0xbd84d403	-0.064857505
38	0xbdec6e66	-0.11544494
39	0xbe4a2eb3	-0.19744377
40	0xbc310834	-0.010805178
41	0xbe9a5238	-0.30140853
42	0xbe3e7375	-0.18598731
43	0xbe820185	-0.25391784
44	0xbd4c9990	-0.049951136
45	0xbe424bcf	-0.18974231
46	0xbe2ec237	-0.17066275
47	0xbdea256d	-0.1143292
48	0xbe81cf8f	-0.25353667
49	0xbe10bcb5	-0.14134486
50	0x3c606cd0	0.013697818
51	0xbe88b618	-0.26701427
52	0x3d7a358e	0.06108623
53	0xbe0e831f	-0.13917206
54	0xbdfac679	-0.12244887
55	0xbdfcb663	-0.12339475
56	0xbd4703b1	-0.048587505
57	0xbe3afa5f	-0.18259571
58	0xbd9abbf6	-0.07555382
59	0x3db6aec5	0.089200534
60	0xbd6cef4c	-0.0578454
61	0xbd7b2d74	-0.061322644
62	0xbdae4474	-0.0850915
63	0xbccb0c1a	-0.024786044

total_ops f8 [1]
0	0x0000000000000000	0.0

total_params f8 [1]
0	0x0000000000000000	0.0

total_ops f8 [1]
0	0x0000000000000000	0.0

total_params f8 [1]
0	0x0000000000000000	0.0

total_ops f8 [1]
0	0x0000000000000000	0.0

total_params f8 [1]
0	0x0000000000000000	0.0

weight f4 [64, 64, 3, 3]
0	0x3d9490b6	0.07254164
1	0x3c9a2b19	0.018819379
2	0xba90deda	-0.0011052743
3	0x3c7e42b7	0.015518836
4	0xbddca4f4	-0.1077365
5	0x3c460f71	0.012088642
6	0xbd244cd0	-0.040112317
7	0xbdb19c80	-0.08672428
8	0x3d3255df	0.043538924
9	0xbd05b3e8	-0.032642275
10	0xbc44559a	-0.0119833
11	0xbcd7eade	-0.02635711
12	0xbddc582e	-0.107590064
13	0xbcd98de9	-0.026556926
14	0xbce6736a	-0.028131206
15	0xbd76b756	-0.060233437
16	0xbcfa39c1	-0.030545117
17	0xbbb66f95	-0.005567501
18	0x3c210440	0.009827673
19	0x3a8035a3	0.000978161
20	0x3daac84c	0.08338985
21	0x3db19711	0.08671392
22	0x3a1afcb5	0.000591229
23	0x3cef4474	0.029207446
24	0xbbf0f0dc	-0.0073529314
25	0x3ddf13a3	0.10892417
26	0x3d973b2e	0.073843345
27	0x3d3113c3	0.043231737
28	0xbd0e1f4a	-0.03469781
29	0x3d3def7a	0.04637096
30	0xbd827d15	-0.06371514
31	0x3b8d1a46	0.0043061106
32	0xbdc3d510	-0.09562123
33	0xbd54d0a7	-0.0519568
34	0xbd2278a5	-0.039665837
35	0xbd180929	-0.03711811
36	0x3d0418e0	0.032250285
37	0x3c3dc67b	0.011582966
38	0x3d84a869	0.06477434
39	0xbcdcd185	-0.026955375
40	0x3d5ca973	0.053872537
41	0x3e00ae11	0.12566401
42	0xbd00b43c	-0.031421885
43	0x3dac47b2	0.08412112
44	0x3db19861	0.08671642
45	0x3cadc915	0.021214047
46	0xbc2af381	-0.010434032
47	0x3d5123dd	0.051059593
48	0xbc9cd10d	-0.019142652
49	0xbcae3c5a	-0.021269012
50	0x39839e2f	0.00025104123
51	0xbd9301e1	-0.07178093
52	0x3b0d5ee1	0.0021571445
53	0xbc5d9f9a	-0.0135268215
54	0x3c170e3f	0.009219705
55	0x3d13074b	0.035895627
56	0xbd2e64f8	-0.04257676
57	0xbca65c3e	-0.020307656
58	0xbcb3e0f4	-0.021957852
59	0xbd237034	-0.039901927
60	0x3bf2e866	0.007412958
61	0xbbff9cea	-0.007800688
62	0xbcb8a905	-0.022541532
63	0xbd59a6da	-0.053137638
64	0x3d9d46ca	0.076795176
65	0x3d3d7519	0.04625425
66	0x3ce09685	0.027415523
67	0xbd7f2501	-0.06229115
68	0xbd32dd80	-0.04366827
69	0x3cc07330	0.023492426
70	0xbd51c89c	-0.051216707
71	0xbd6639bb	-0.0562074
72	0x3dde2237	0.1084637
73	0x3e336403	0.1751862
74	0x3d4e7930	0.050408542
75	0x3d864516	0.06556146
76	0x3da702a0	0.081547976
77	0x3d518522	0.051152356
78	0x3d79c8e9	0.06098262
79	0xbc9a0150	-0.018799454
80	0x3cff6f5e	0.031181034
81	0xbb191004	-0.0023355493
82	0xbcf82abd	-0.030293817
83	0xbc150220	-0.009094745
84	0xbce9ee94	-0.028556146
85	0xbd3cdbee	-0.04610818
86	0x3b3a440c	0.0028421907
87	0xbd296107	-0.041352298
88	0x3cfa46ef	0.030551402
89	0xbcb6ce7d	-0.022315258
90	0x3c8d85f4	0.017275788
91	0x3c32abf7	0.010905257
92	0xbd47537d	-0.048663605
93	0x3c2a9cd8	0.010413371
94	0xbd2920c3	-0.04129101
95	0xbdb062fa	-0.08612628
96	0xbcc13c99	-0.023588466
97	0xbc166fbc	-0.009181913
98	0xbd2804db	-0.041020256
99	0x3c2e7d88	0.010650046
100	0xbc1e2846	-0.009653157
101	0xbd3a2e93	-0.045454573
102	0x3d02ae8f	0.031904753
103	0xbdb16f65	-0.08663825
104	0x3d394b96	0.0452381
105	0x3d48789c	0.048943147
106	0xbc8e646b	-0.017381867
107	0x3d502cb4	0.050823882
108	0x3daa0058	0.08300847
109	0x3c02ec72	0.007990943
110	0x3cba7be3	0.022764152
111	0x3b249c38	0.0025117528
112	0xbc38cb59	-0.011278951
113	0x3d3580eb	0.0443124
114	0xbd6822b3	-0.056673717
115	0xbd35493c	-0.044259295
116	0xbca0c24d	-0.0196239
117	0xbdc06ca9	-0.09395725
118	0xbd944269	-0.07239229
119	0xbddd6968	-0.1081112
120	0x3c4f19f6	0.012640467
121	0x3c5c298b	0.013437639
122	0xbd1c3ab1	-0.03814191
123	0xbdb414d7	-0.087930374
124	0x3d277283	0.04088069
125	0xbda54583	-0.08069899
126	0xbd43a03e	-0.04776024
127	0xbd49578d	-0.04915576
128	0xbd0dd2d0	-0.034624875
129	0xbe0e4410	-0.13893151
130	0xbd4c251f	-0.04984009
131	0x3d2fbf36	0.042906962
132	0xbe1086ec	-0.14113969
133	0xbd123fa3	-0.03570522
134	0x3c95ef9a	0.018302727
135	0xbd3958b4	-0.04525061
136	0xbc2d6cd5	-0.01058503
137	0xbca74eec	-0.020423375
138	0x3d89c666	0.067272946
139	0x3da901ce	0.08252297
140	0x3d0a7098	0.033798784
141	0x3dd2cdc5	0.10293154
142	0x3de64db4	0.112452894
143	0x3db4aad6	0.08821647
144	0xbc8f57a4	-0.017497845
145	0x3c39c1b0	0.011337683
146	0x3d697447	0.056995656
147	0xbdc2e795	-0.09516827
148	0xbd8bc9cb	-0.06825598
149	0xbb41302c	-0.0029478176
150	0xbca8eda8	-0.020621136
151	0x3d6b2477	0.057407822
152	0x3c8a8fe3	0.016914314
153	0xbd93a94d	-0.07210026
154	0xbd8e5375	-0.06949512
155	0x3d4a690d	0.04941659
156	0x3d3326ed	0.043738294
157	0x3ccfdc2f	0.025373546
158	0xbd88c3c6	-0.06677966
159	0x3e3d6e91	0.18499209
160	0x3d0b56b1	0.034018222
161	0xbc7ca4b9	-0.015420132
162	0x37f4bba6	2.9174447e-05
163	0xbd3863e7	-0.04501715
164	0xbbe30c7e	-0.0069289794
165	0x3d4bbb82	0.04973937
166	0xbd050c64	-0.03248252
167	0x3acfa732	0.0015842675
168	0x3d4247c2	0.047431715
169	0xbd17a04e	-0.037018113
170	0x3cced69c	0.025248818
171	0xbbd2eb1a	-0.0064367177
172	0x3d8d7606	0.06907277
173	0x3dc250dc	0.09488079
174	0xbcb37b8a	-0.021909494
175	0xbcb4c661	-0.02206725
176	0x3deac1fa	0.11462779
177	0x3d191286	0.03737118
178	0x3ddd59b8	0.10808128
179	0x3e191c9e	0.14952323
180	0xbcefe5d4	-0.029284395
181	0xbd707316	-0.058703505
182	0xbc8965de	-0.016772207
183	0xbcc21843	-0.02369321
184	0xbd1c4402	-0.038150795
185	0xbd4cb573	-0.04997773
186	0x3d9d24e0	0.07673049
187	0x3b5a6faa	0.0033330717
188	0x3badf4b7	0.0053087133
189	0xbcbe6500	-0.02324152
190	0x3d27426b	0.040834825
191	0x3df87b30	0.12132871
192	0xbd2cc586	-0.04218056
193	0x3dd78537	0.105234556
194	0x3e370ea5	0.1787668
195	0x3dfde004	0.12396243
196	0x3e2931cd	0.16522904
197	0x3e7d2704	0.24721915
198	0xbd191787	-0.037375953
199	0xbbc1dea6	-0.0059164343
200	0xbd8c5990	-0.0685302
201	0xbcd0a5f3	-0.025469756
202	0xbbfa3cd6	-0.0076366467
203	0xbd428222	-0.047487386
204	0xbd235ed7	-0.03988537
205	0x3ce1aabd	0.027547235
206	0x3c869f84	0.016433485
207	0x3da99679	0.082806535
208	0xbd33a0b5	-0.043854434
209	0x3c24e4b9	0.010064297
210	0x3ccef32e	0.025262441
211	0x3cc0b79e	0.023525055
212	0x3b641a08	0.0034805555
213	0x3d5cc3b5	0.05389758
214	0x3d027fb5	0.031860072
215	0x3cab3974	0.02090142
216	0xbd341bb0	-0.043971717
217	0x3dbba415	0.091621555
218	0x3e426f8c	0.18987864
219	0xbb107519	-0.0022042452
220	0x3d2dbb35	0.042414863
221	0x39203095	0.00015276887
222	0x3d7492c7	0.05971029
223	0x3d770cc0	0.060314894
224	0x3deae8c9	0.114701815
225	0xbd168320	-0.036746144
226	0xbc9b77e0	-0.01897806
227	0x3d5590a7	0.052139904
228	0x3bba0885	0.005677285
229	0xbcc7065b	-0.024295023
230	0xbd57925b	-0.05262981
231	0xbae9cf15	-0.0017838205
232	0xbd2a2cc5	-0.0415466
233	0x3d358e0f	0.04432493
234	0x3d0a2703	0.03372861
235	0x3d03d7f0	0.032188356
236	0x3d474b3f	0.048655745
237	0x3d379716	0.04482182
238	0xbd1f10f8	-0.038834542
239	0xbcd4f481	-0.025995495
240	0xbc82c002	-0.015960697
241	0xbcb65da3	-0.022261446
242	0x3cbba9c2	0.022908095
243	0x3c68ac0c	0.014201175
244	0x3b7a3231	0.003817689
245	0x3d3c45a0	0.045964837
246	0xbd2b7585	-0.041860122
247	0xbceec7eb	-0.029148063
248	0x3c0c17c0	0.008550584
249	0x3d2e76b0	0.042593658
250	0x3ce10135	0.027466396
251	0xbc8bbfc0	-0.017059207
252	0xbcc4133a	-0.02393495
253	0x3af83623	0.0018937032
254	0x3d673a44	0.05645205
255	0x3d61b6dd	0.055106033

bias f4 [64]
0	0xbdbbab31	-0.091635115
1	0xbd822145	-0.06354002
2	0xbd74383b	-0.059623938
3	0xbd990c1b	-0.07473012
4	0xbcce8058	-0.025207683
5	0xbd036abe	-0.03208422
6	0xbd7dd2ee	-0.061968736
7	0xbcbc8a55	-0.02301518
8	0x3dcd1d7c	0.10015389
9	0x3c8bb94f	0.017056135
10	0xbc9f31e0	-0.019432962
11	0xbc8829ed	-0.016621554
12	0x3db0d2f4	0.08633986
13	0xbd63165f	-0.055441257
14	0xbbfa1619	-0.007632029
15	0x3dc6e8ec	0.09712395
16	0xbda9eef6	-0.08297531
17	0x3c94b2d0	0.01815167
18	0xbda76d93	-0.081751965
19	0x3d83cdbc	0.06435725
20	0xbcc846a3	-0.024447745
21	0xbd462547	-0.048375394
22	0x3e784d7b	0.24248306
23	0xb95920e4	-0.00020706985
24	0xbccec32e	-0.025239553
25	0xbd293b68	-0.04131642
26	0xbd4238e2	-0.04741753
27	0x3d32f50b	0.043690722
28	0x3c004668	0.007829286
29	0xbd43fda2	-0.047849305
30	0xbce432f2	-0.027856324
31	0xbda23ae9	-0.079213925
32	0xb94a357a	-0.00019284143
33	0xbd69dd52	-0.057095833
34	0x3ab7c15e	0.001401942
35	0xbd2057a7	-0.03914609
36	0xbde56984	-0.11201766
37	0x3e19f964	0.15036541
38	0xbc94f825	-0.01818473
39	0x3e58ce65	0.21172483
40	0xbd382874	-0.044960454
41	0xbc3d557c	-0.011556026
42	0xbd90568e	-0.07047759
43	0x3e1f9b81	0.15586664
44	0xbc8ff16b	-0.017571172
45	0x3bce142c	0.006289026
46	0xbd475237	-0.04866239
47	0xbd953776	-0.07285969
48	0xbdb84caf	-0.08999001
49	0x3d999bd8	0.07500428
50	0x3d85c9a9	0.06532604
51	0xbdb1c0f5	-0.08679382
52	0xbdd0ed34	-0.10201493
53	0xbcb9e21e	-0.022690829
54	0x3baef1a4	0.0053388644
55	0xbd7a8257	-0.061159458
56	0xbd57979b	-0.052634817
57	0x3cd008ac	0.02539476
58	0x3c7d13d0	0.015446618
59	0xbda84d03	-0.08217814
60	0xbd618549	-0.05505875
61	0xbd0f72fe	-0.035021774
62	0xbd5d78ed	-0.054070402
63	0x3da49295	0.08035771

total_ops f8 [1]
0	0x0000000000000000	0.0

total_params f8 [1]
0	0x0000000000000000	0.0

weight f4 [64, 64, 3, 3]
0	0xbdcf829a	-0.10132332
1	0xbcc0ee0c	-0.02355101
2	0xbd8694d0	-0.065713525
3	0x3ba3cd9a	0.004998875
4	0xbc3851d0	-0.011249974
5	0x3c6bfee1	0.01440403
6	0xbd174d8b	-0.036939185
7	0x3b9f22af	0.0048564295
8	0x3d095428	0.033527523
9	0x3d65655c	0.056004867
10	0x3c6776f4	0.014127482
11	0xbd62bdff	-0.055356976
12	0x3ce9dc37	0.02854739
13	0x3cc8df08	0.024520412
14	0xbd53de55	-0.051725704
15	0x3d9591eb	0.07303222
16	0x3c9c1b0d	0.019055868
17	0xbd565e19	-0.052335832
18	0x3cf4cfa0	0.02988416
19	0xbc754d9b	-0.014972116
20	0xbde43188	-0.1114226
21	0x3dd7c445	0.10535482
22	0xbd1171e3	-0.035509
23	0xbda0d7cc	-0.0785366
24	0x3cd682ff	0.02618551
25	0xbc217db5	-0.009856631
26	0xbd1cedad	-0.038312603
27	0x3babb57c	0.0052401405
28	0xbda65e66	-0.08123474
29	0xbd8687e9	-0.065688916
30	0xbd280fe1	-0.04103077
31	0xbbc46128	-0.0059930272
32	0xbd8ff87e	-0.07029818
33	0xbd8db313	-0.06918921
34	0xbc2cd51a	-0.010548854
35	0xbc85b0f9	-0.016319739
36	0x3b6e59be	0.0036369408
37	0xbd23ca72	-0.03998799
38	0x3a84ee62	0.0010141844
39	0x3d0a8d16	0.033825956
40	0x38c07498	9.176991e-05
41	0x3db48034	0.08813515
42	0x3d44b4e1	0.048024062
43	0x3d179531	0.037007514
44	0x3da6154c	0.08109531
45	0xbd0531d0	-0.032518208
46	0xbc536842	-0.012903275
47	0xbc67b209	-0.014141568
48	0xbb91b1bf	-0.004446238
49	0xbc495f73	-0.012290823
50	0xbd09d1d9	-0.033647392
51	0x3d8427f7	0.06452935
52	0xbc8c8fd5	-0.017158428
53	0xbbacc6c0	-0.0052727163
54	0x3c3170fa	0.010830158
55	0x3d1022c7	0.035189416
56	0xbcf63d63	-0.030058568
57	0x3cdcc519	0.026949452
58	0xbd1a7d6e	-0.037717275
59	0x3d0927bc	0.03348516
60	0x3cd17716	0.02556948
61	0xbcb1896d	-0.021671975
62	0xbc74075c	-0.014894333
63	0xbd956e02	-0.07296373
64	0x3d03813b	0.032105666
65	0x3e23fba2	0.16013959
66	0xbe032f05	-0.12810905
67	0xbdc29d07	-0.09502607
68	0x3d0fbd22	0.03509248
69	0xbe491d50	-0.19640088
70	0xbe0f7f74	-0.14013463
71	0xbd763f47	-0.06011894
72	0xbd956b0a	-0.07295807
73	0xbe108dd2	-0.141166
74	0xbbbcda16	-0.0057633026
75	0xbb98b70d	-0.004660493
76	0xbe1dc7c0	-0.1540823
77	0x3dc1e8bb	0.09468218
78	0xbd10f910	-0.035393775
79	0xbe0b29a1	-0.13590099
80	0xbbf5936d	-0.007494381
81	0xbd32f56e	-0.04369109
82	0xbd2773fd	-0.0408821
83	0xbd73e793	-0.05954702
84	0xbc2853ba	-0.010273868
85	0xbce3392d	-0.027737224
86	0xbd4be316	-0.049777113
87	0xbc0dc837	-0.008653692
88	0xbb2237f0	-0.002475258
89	0xbc7c75c9	-0.015408942
90	0xbc172f5e	-0.009227602
91	0xbab7e31e	-0.0014029478
92	0x3d7fa45f	0.062412616
93	0xbcaa0c5c	-0.020757847
94	0x3bb65b85	0.005565109
95	0x3d6957bb	0.056968432
96	0xbc8c2ac7	-0.017110242
97	0x3cf72011	0.030166658
98	0x3d70ed71	0.05882019
99	0x3a7f80c2	0.00097466644
100	0xbc63340e	-0.013867391
101	0xbcdbfdae	-0.026854362
102	0x3d01b166	0.03166332
103	0xbcc883c6	-0.024476897
104	0xbd099611	-0.03359038
105	0x3cba655c	0.02275341
106	0xbc8a5666	-0.016886901
107	0xbc0081b3	-0.007843423
108	0xbc3460f3	-0.011009443
109	0x3c7194ab	0.014744918
110	0xbcd42216	-0.02589516
111	0x3d260eb4	0.040541366
112	0x3c8b88f0	0.01703307
113	0xbc5e8594	-0.013581652
114	0xbcbb062c	-0.022830091
115	0xbd865b86	-0.065604255
116	0xbd12dedc	-0.035857067
117	0xbddd9837	-0.10820048
118	0xbd32ec88	-0.043682605
119	0x3ae3f1f0	0.0017390829
120	0xbdf191d1	-0.117953904
121	0xbd6c0a53	-0.057627033
122	0xbc98128f	-0.018563537
123	0xbd19b9b5	-0.03753062
124	0xbd8613e1	-0.0654676
125	0xbca5d64a	-0.020243783
126	0x3991ce8d	0.00027810448
127	0xba295741	-0.000645984
128	0x3b9ba411	0.004749783
129	0xbc1f0bce	-0.009707404
130	0xbc8018ef	-0.01563689
131	0xbcb908e5	-0.022587249
132	0x3c360e2e	0.011111779
133	0xba6063ad	-0.0008559775
134	0xbb8a905e	-0.0042286357
135	0xbdc4508e	-0.09585677
136	0xbe2c41ba	-0.16821948
137	0xbe7d335c	-0.24726623
138	0xbd803a91	-0.06261171
139	0xbd3f5ec8	-0.04672125
140	0xbcd07317	-0.025445504
141	0x3c378fd8	0.011203729
142	0xbd7fed12	-0.062481947
143	0xbd8a2f6d	-0.06747327
144	0x3c5544ae	0.013016863
145	0xbdf2ef49	-0.11862046
146	0xbe0b0726	-0.13576946
147	0x3c821998	0.015881345
148	0xbd6555c9	-0.055990014
149	0xbdf76ae7	-0.12080937
150	0x3c26e4bc	0.01018637
151	0xbc4ce081	-0.012504698
152	0xbd7ef02f	-0.062240776
153	0xbd2bd258	-0.041948646
154	0x3b7f1695	0.0038923372
155	0xbb9808fa	-0.004639742
156	0xbd83b71c	-0.0643141
157	0x3d82474b	0.06361254
158	0x3d36ac4b	0.044597905
159	0xbbc07d80	-0.0058743358
160	0xbb80d364	-0.0039314497
161	0xbd170220	-0.03686726
162	0xbd8f84b3	-0.07007732
163	0xbd4ccf2b	-0.05000226
164	0xbd075245	-0.033037443
165	0xbd8fbedb	-0.07018825
166	0xbd06a4d9	-0.032872055
167	0xbca9258d	-0.020647788
168	0xbd5b9d2f	-0.0536167
169	0x3c33ff05	0.010986094
170	0x3c244d49	0.010028192
171	0x3b559469	0.003258968
172	0xbca453c7	-0.02005948
173	0x3c860b89	0.016362922
174	0x3c5d988f	0.013525142
175	0x3ccb32ba	0.024804462
176	0x3caf175b	0.021373441
177	0x3c384a7e	0.011248229
178	0x3a8029d8	0.0009778095
179	0xbcf4343f	-0.02981007
180	0xbc8cd667	-0.017192079
181	0xbb3ea5b1	-0.002909046
182	0xbd08ba59	-0.03338084
183	0xbcac57da	-0.021037985
184	0x3d0020f6	0.031281434
185	0xbd463c3a	-0.04839728
186	0x3c521927	0.01282338
187	0xbd8dcf73	-0.069243334
188	0xbd9a632f	-0.07538449
189	0xbd4c6d50	-0.049908936
190	0xbdabdef0	-0.08392131
191	0xbe1f1c1f	-0.15538071
192	0xbd2677b3	-0.040641498
193	0xbcf3a42f	-0.029741375
194	0xbdbf4cd7	-0.09340828
195	0x3ca73f4b	0.020415923
196	0xbd16bb2f	-0.036799606
197	0xbd402c94	-0.046917513
198	0x3e13f285	0.14447983
199	0x3b66d3e0	0.0035221502
200	0x3a894fc4	0.0010476043
201	0x3e199ab9	0.15000428
202	0x3cbdfd2b	0.023192009
203	0x3d21c4ef	0.03949445
204	0x3dc4ca17	0.09608858
205	0x3d145392	0.03621251
206	0x3b918759	0.0044411835
207	0xbd3da96a	-0.046304144
208	0xbce33b5b	-0.027738264
209	0xbd2c6dd6	-0.042096935
210	0x3d6dffc1	0.058105234
211	0xbbe287ed	-0.0069131763
212	0x3d0b8dbf	0.034070726
213	0xbce92647	-0.028460635
214	0xbc139895	-0.009008546
215	0xbcb4fba3	-0.022092646
216	0xbc4e6b79	-0.012598866
217	0xbbf09a2c	-0.0073425975
218	0xbcafb1ba	-0.021447051
219	0x3cacb50f	0.02108243
220	0xbcc4b0ff	-0.02401018
221	0x3bd5baba	0.0065225037
222	0x3d2329c2	0.039834745
223	0xbaf1d324	-0.0018449766
224	0xbd31e03b	-0.043426733
225	0x3dfb017f	0.12256145
226	0x3e05bbbc	0.13059896
227	0x3dc15bb1	0.09441317
228	0x3cc0efa8	0.023551777
229	0x3c3e939c	0.0116318725
230	0xbc92e31c	-0.01793056
231	0xbe095e90	-0.13414979
232	0xbe139233	-0.1441124
233	0xbe4306b3	-0.19045524
234	0x3c83bf57	0.016082449
235	0x3c25de14	0.010123748
236	0x3bfc2591	0.007694908
237	0xbce48d9b	-0.027899554
238	0xbd11f088	-0.03562978
239	0xba7b367c	-0.0009583009
240	0xbc5354bc	-0.01289862
241	0xbc3ce0e9	-0.011528232
242	0x3c78cff2	0.015186297
243	0xbe124f16	-0.14287981
244	0xbd9f26a6	-0.077710435
245	0xbd670025	-0.056396622
246	0xbcccc447	-0.024995936
247	0xbde6c188	-0.11267382
248	0xbd43e536	-0.047826014
249	0xbcf961a8	-0.030442074
250	0xbe09ee9b	-0.13469927
251	0xbdd71cf7	-0.105035715
252	0xbcf9c1bc	-0.030487888
253	0x3d7b4199	0.061341856
254	0x3d9b7eaf	0.07592522
255	0xbcb68e73	-0.022284722

bias f4 [64]
0	0x3d580e7d	0.052748192
1	0xbdeb0ad1	-0.114766724
2	0xbd09c2e1	-0.033633117
3	0xbce07ecb	-0.02740421
4	0xbd374b6d	-0.044749666
5	0xbdcabed9	-0.098996826
6	0xbd1f71b3	-0.03892679
7	0xbcbf77d1	-0.023372563
8	0xbdf34ec2	-0.11880256
9	0xbdcc8a70	-0.09987342
10	0xbd0e449c	-0.0347334
11	0xbdc7616d	-0.09735379
12	0xbd80f357	-0.062964134
13	0xbd954b47	-0.07289749
14	0xbc52d3a7	-0.012867845
15	0xbd8df958	-0.06932324
16	0xbc67c2bc	-0.014145549
17	0xbc219778	-0.009862773
18	0xbc4bc24d	-0.012436462
19	0xbd0e6d58	-0.034772247
20	0xbd881151	-0.06643928
21	0xbd64dbe2	-0.05587376
22	0x3d91d977	0.07121556
23	0x3c4194e3	0.0118152825
24	0xbcf28544	-0.029604562
25	0x3ca8a840	0.02058804
26	0x3d562d18	0.0522891
27	0xbca6fcf8	-0.020384297
28	0x3da65bab	0.08122953
29	0x3c333017	0.0109367585
30	0xbd8e02d4	-0.06934133
31	0xbbe10aae	-0.006867728
32	0xbb6b085f	-0.0035863144
33	0xbd61ecfe	-0.055157654
34	0xbdbe23e2	-0.09284188
35	0xbdd27890	-0.10276902
36	0xbc9fa6d6	-0.019488733
37	0xbd966241	-0.07342959
38	0xbd7782aa	-0.060427345
39	0x3c8a43c7	0.016878022
40	0xbd00033c	-0.031253085
41	0xbd9a51fe	-0.0753517
42	0xbd8a30ee	-0.06747614
43	0xbd5e7c1e	-0.054317586
44	0xbd44dcd6	-0.048062168
45	0xbd8e7110	-0.06955159
46	0xbd0670e9	-0.032822523
47	0x3d8a1cc1	0.067437656
48	0xbdb90126	-0.09033422
49	0xbd1b4ece	-0.03791695
50	0xbd295d53	-0.041348767
51	0xbd0a4385	-0.033755798
52	0x3c97dc14	0.018537559
53	0xbc57548c	-0.013142716
54	0xbd92caef	-0.07167613
55	0xbc74905b	-0.014926995
56	0xbd6e6073	-0.05819745
57	0xbdb7c3af	-0.089728706
58	0xbd8754ed	-0.06607995
59	0xbd575a8a	-0.05257658
60	0xbd88e8d6	-0.06685035
61	0xbcee5980	-0.029095411
62	0x3caa2dbe	0.020773765
63	0x3dc2f918	0.09520167

total_ops f8 [1]
0	0x0000000000000000	0.0

total_params f8 [1]
0	0x0000000000000000	0.0

weight f4 [64, 64, 3, 3]
0	0xbd2a56d5	-0.041586716
1	0x3d40589a	0.046959497
2	0x3d165847	0.03670528
3	0xbdb81b61	-0.08989597
4	0x3cb3950f	0.021921663
5	0x3c7a7858	0.015287481
6	0x3bd08502	0.006363512
7	0x3d34b0c4	0.04411389
8	0x3d8d2b80	0.068930626
9	0xbe194790	-0.14968705
10	0x3ce39076	0.027778845
11	0x3c9ea2d5	0.019364754
12	0xbdd97b85	-0.106192626
13	0xbc6d07d5	-0.014467199
14	0x3d3a49e8	0.04548064
15	0xbd8dc012	-0.069214
16	0xbd9767c9	-0.07392842
17	0xbdf18b5c	-0.11794159
18	0x3bf75b2e	0.0075487113
19	0xbc188489	-0.009308943
20	0x3cd1016e	0.025513377
21	0x3d37eadc	0.044901714
22	0xbd3958db	-0.045250755
23	0x3cbdd495	0.023172656
24	0x3ccce498	0.025011346
25	0xbc04de6a	-0.008109668
26	0xbc92a480	-0.017900705
27	0xbe106a46	-0.1410304
28	0xbd966cae	-0.07344948
29	0xbce1f969	-0.027584748
30	0x3c2ac1ef	0.010422214
31	0xbdb21e78	-0.08697218
32	0xbd20d764	-0.039267913
33	0x3e3a9292	0.18219975
34	0x3dc46226	0.09589033
35	0x3db5c1ae	0.08874832
36	0x3ca816c5	0.02051867
37	0xbd89b6e3	-0.06724336
38	0xbcefa483	-0.02925325
39	0x3c0ed62e	0.008718057
40	0x3b96ae91	0.0045984467
41	0xbd5feede	-0.05467116
42	0xbd3c8c81	-0.046032432
43	0xbd0c81b5	-0.034303386
44	0x3cfb17b0	0.030650944
45	0xbb3c4877	-0.0028729716
46	0xbc9bdd31	-0.01902637
47	0xbcde98cd	-0.02717247
48	0xbd1c086a	-0.03809396
49	0xbc94ac3c	-0.018148534
50	0xbaf04243	-0.0018330294
51	0xbbc82c40	-0.0061087906
52	0xbb02b188	-0.0019942243
53	0x3b066f1d	0.0020513006
54	0xbcc75a76	-0.024335127
55	0xbd43ec48	-0.047832757
56	0xbd251c10	-0.040309966
57	0x3d186753	0.037207913
58	0xbd2febf6	-0.04294964
59	0xbcfd951d	-0.030954892
60	0x3db7efed	0.08981309
61	0xbc758a1c	-0.014986541
62	0xbc287cb3	-0.010283637
63	0x3d8428bb	0.06453081
64	0x3d61d0b2	0.055130668
65	0x3d720f4a	0.059096612
66	0x3cd6fff0	0.026245087
67	0x3c7caea9	0.015422502
68	0x3c847034	0.016166784
69	0x3cfb410c	0.030670665
70	0x3c152948	0.0091040805
71	0x3cfb527a	0.030678976
72	0x3e2a3d28	0.16624892
73	0xbb48827e	-0.0030595358
74	0x3d0dd75a	0.034629203
75	0x3e3be366	0.18348464
76	0xbd35988c	-0.044334933
77	0x3ce466a0	0.027880967
78	0x3e3ef2d3	0.18647318
79	0xbd4bbf22	-0.049742825
80	0x3d8b98e1	0.06816269
81	0x3b9fda37	0.004878308
82	0xbdd8e20d	-0.10589991
83	0x3de1a31e	0.1101744
84	0x3e03106c	0.12799233
85	0xbd1a3bb7	-0.037654605
86	0x3cb12284	0.021622904
87	0x3e2255cc	0.15853041
88	0x3bd42e20	0.006475225
89	0x3c27002e	0.010192914
90	0x3ce57c34	0.028013326
91	0x3dfb990d	0.122850515
92	0x3df1f5f0	0.11814487
93	0xbda84fc1	-0.08218337
94	0xbd1f0318	-0.03882131
95	0xbc927077	-0.017875893
96	0xbdbcdbde	-0.09221624
97	0xbbfa4ded	-0.007638684
98	0xbd281ceb	-0.041043203
99	0xbc98a1b1	-0.018631788
100	0x3d855f1d	0.06512282
101	0x3d167e2e	0.036741428
102	0xbd8acebb	-0.06777712
103	0x3d377bd3	0.044795822
104	0x3d6f7652	0.05846245
105	0xbd4f318c	-0.05058436
106	0x3c67d2a9	0.014149346
107	0xbd1fd64b	-0.039022725
108	0xbde7310d	-0.112886526
109	0x3cabb53f	0.020960448
110	0x3d20c0a7	0.039246228
111	0xbd842555	-0.06452433
112	0x3c51baa2	0.012800844
113	0x3d186a45	0.03721072
114	0xbd094089	-0.03350881
115	0xbd376c3f	-0.044780966
116	0x3c460a81	0.012087465
117	0xbcf1be8c	-0.029509805
118	0xbdec7fe3	-0.1154783
119	0xbe1051cd	-0.14093705
120	0x3ccfdca4	0.025373764
121	0xbdba1eae	-0.09087883
122	0xbde2a813	-0.11067214
123	0x3e1c5570	0.15266967
124	0xbc126b2b	-0.008936684
125	0xbd3542ad	-0.04425304
126	0xbc8ba112	-0.017044578
127	0x3da8d164	0.08243063
128	0x3dfa7170	0.12228668
129	0xbe3b1dc4	-0.18273073
130	0xbd2e1c80	-0.04250765
131	0xbd3852eb	-0.04500095
132	0xbd1e583f	-0.038658377
133	0x3d7cdcbe	0.061733954
134	0x3d780be0	0.0605582
135	0x3d76dc83	0.06026889
136	0xbdabad1a	-0.08382626
137	0xbe171377	-0.14753519
138	0x3dec8af1	0.115499385
139	0x3d510451	0.051029507
140	0xbd708221	-0.05871785
141	0x3d1a9199	0.03773651
142	0x3d2c336b	0.042041223
143	0xbca09943	-0.01960433
144	0xbda777be	-0.08177136
145	0x3de1857a	0.11011787
146	0x3c3cd6db	0.011525835
147	0xbe0aadf8	-0.13542926
148	0x3d45f683	0.048330795
149	0x3cd2fcbf	0.025755284
150	0xbe597733	-0.21236877
151	0x3cc56626	0.02409656
152	0xbd5ec3ae	-0.054385833
153	0x3d472c40	0.048626184
154	0xbd1d5d0f	-0.038418826
155	0xbbfa31ab	-0.0076353154
156	0xbd6e22c7	-0.058138635
157	0xbd9ee3dd	-0.07758305
158	0xbd3d5f7f	-0.04623365
159	0x3d22aa01	0.03971291
160	0xbe12295b	-0.14273588
161	0xbdadebe5	-0.08492259
162	0xbbebec23	-0.0071997805
163	0xbcfb7fde	-0.03070062
164	0x3b85b2e5	0.004080164
165	0x3ca7c81b	0.02048116
166	0xbc21753e	-0.009854613
167	0x3cb726fb	0.022357455
168	0x3db17a75	0.08665935
169	0xbc23539b	-0.009968664
170	0x3c4eb468	0.012616254
171	0xbdb7c8e0	-0.08973861
172	0x3cc038c8	0.023464575
173	0xbcebdf34	-0.028792955
174	0xbdc5d017	-0.096588306
175	0xbcae0834	-0.021244146
176	0xbd3f2f56	-0.046676002
177	0xbdb7f555	-0.0898234
178	0xbd783d2f	-0.060605224
179	0xbd8dac46	-0.06917624
180	0xbd7ec13d	-0.062196005
181	0x3cd36fe8	0.025810197
182	0x3c979ca7	0.018507315
183	0xbdb182da	-0.08667536
184	0xbca38602	-0.01996136
185	0x3ba6e71f	0.0050934698
186	0xbcf26718	-0.029590175
187	0xbd6de8a2	-0.058083184
188	0xbde00dcc	-0.109401315
189	0xbc9c2866	-0.019062232
190	0xbdaaa5bf	-0.08332395
191	0xbd6fe849	-0.058571134
192	0xbd97bd1d	-0.07409117
193	0xbda1ffe0	-0.079101324
194	0xbd8eec72	-0.06978692
195	0xbdcbe84b	-0.09956416
196	0xbdebe952	-0.11519112
197	0xbd3f6641	-0.046728376
198	0xbccbd794	-0.02488307
199	0x3c07596c	0.008261066
200	0x3d101fda	0.035186626
201	0xbbba1931	-0.0056792726
202	0x3ccd7180	0.025078535
203	0x3d843ec8	0.06457287
204	0xbd523017	-0.051315393
205	0x3d015fbc	0.03158544
206	0x3d495107	0.04914954
207	0x3ba59f0c	0.0050543603
208	0x3c7b37fb	0.015333171
209	0xbbc11b09	-0.0058931154
210	0xbd9322c7	-0.071843676
211	0xbc3f9bac	-0.01169483
212	0x3d5a653c	0.0533192
213	0xbce4422f	-0.02786359
214	0xbcf5dd3b	-0.030012717
215	0x3d903bf4	0.07042685
216	0xbe127464	-0.14302212
217	0xbdc590c0	-0.096467495
218	0xbd017835	-0.03160878
219	0xbdf3b38a	-0.11899479
220	0xbd81fbcc	-0.063468546
221	0xbd792254	-0.060823753
222	0xbd963e88	-0.07336146
223	0xbcf4fc72	-0.029905532
224	0x3d457173	0.048203897
225	0xbdaf57c9	-0.085616656
226	0xbcbfcd70	-0.02341339
227	0xbd8ae2ad	-0.06781516
228	0xbca9bdf1	-0.020720454
229	0x3d2f6d64	0.042828932
230	0x3bc5eea2	0.00604041
231	0x3da20e6e	0.079129085
232	0x3d92cca4	0.07167938
233	0x3d2c56e7	0.042075064
234	0xbd9c5da8	-0.07635051
235	0xbd2e30de	-0.042527072
236	0xbc6f0b07	-0.0145900315
237	0xbcf16491	-0.0294669
238	0xbd8838a1	-0.06651426
239	0xbcd6f198	-0.026238248
240	0xbd03b2b3	-0.032152843
241	0xbd9f3086	-0.07772927
242	0xbd806513	-0.062692784
243	0xbdf1c3d9	-0.11804933
244	0xbcb83ccd	-0.02248993
245	0x3d89ca41	0.0672803
246	0xbd7603d8	-0.06006226
247	0x3aaf26c6	0.0013362996
248	0x3d5bf2c8	0.05369833
249	0x3c60ac4e	0.013712956
250	0xbd1a2109	-0.03762916
251	0xbd4412f1	-0.047869626
252	0xbde12f48	-0.10995346
253	0xbb2b3aea	-0.0026127645
254	0x3ca4b002	0.020103458
255	0xbe49f607	-0.19722758

bias f4 [64]
0	0xbe0bbc07	-0.13645945
1	0xbd9282c0	-0.07153845
2	0xbc974327	-0.018464638
3	0xbca0a231	-0.019608589
4	0x3e15e402	0.1463776
5	0x3d8ff473	0.07029047
6	0xbcd5c0aa	-0.026092846
7	0xbd22af3b	-0.039717894
8	0xbdade466	-0.08490829
9	0xbd95c239	-0.07312436
10	0x3c61bdf0	0.013778195
11	0x3dc49db1	0.0960039
12	0xbd74c329	-0.05975643
13	0x3d6a3447	0.05717876
14	0x3d1fd4a0	0.039021134
15	0xbae476c9	-0.001743042
16	0xbc921c82	-0.01783586
17	0xbd913344	-0.07089856
18	0xbbd627d9	-0.006535512
19	0x3dc6db5c	0.09709808
20	0x3dfa0662	0.12208249
21	0x3c6ff530	0.01464586
22	0x3c358e04	0.011081222
23	0x3d26e348	0.040744096
24	0x3db9cd7f	0.090723984
25	0x3d2ad74b	0.041709226
26	0xbd772b80	-0.06034422
27	0xbd10c0c4	-0.035340086
28	0xb95e4495	-0.00021197119
29	0xbdbee6af	-0.09321343
30	0x3cfe8de9	0.031073527
31	0x3dd6357e	0.104594216
32	0x3d384f44	0.04499747
33	0xbda8b57f	-0.08237743
34	0xbda690ce	-0.08133088
35	0x3da264bd	0.079293706
36	0x3d17576d	0.03694861
37	0xbd822e9a	-0.06356545
38	0xbd9fa837	-0.07795756
39	0xbd792c73	-0.060833406
40	0xbcdf5b15	-0.027265111
41	0xbd9a05ca	-0.075206354
42	0x3cfd81be	0.030945655
43	0x3b37cfe9	0.0028047508
44	0xbd7037e3	-0.058647048
45	0xbcbfb45a	-0.023401428
46	0xbc535dd6	-0.01290079
47	0xbda4b6e6	-0.080426976
48	0xbd74ec53	-0.05979569
49	0xbaa28424	-0.0012399
50	0x3cd0bc16	0.025480311
51	0x3dc84bf8	0.09780115
52	0x3d15cd24	0.03657259
53	0xbc765fa7	-0.015037454
54	0xbd91a6e6	-0.071119115
55	0xbcc78ba1	-0.024358572
56	0xbd8acaf6	-0.06776993
57	0xbd958609	-0.07300956
58	0xbe0e3a5c	-0.1388945
59	0xbd948027	-0.072510056
60	0x3d0c56cd	0.034262467
61	0x3c1ce21e	0.009575395
62	0xba7bdbd9	-0.000960765
63	0x3d9e2b12	0.07723059

total_ops f8 [1]
0	0x0000000000000000	0.0

total_params f8 [1]
0	0x0000000000000000	0.0

total_ops f8 [1]
0	0x0000000000000000	0.0

total_params f8 [1]
0	0x0000000000000000	0.0

weight f4 [64, 64, 3, 3]
0	0x3d31d74b	0.04341821
1	0x3b851879	0.0040617553
2	0xbc59dc7b	-0.013297196
3	0x3d484fd3	0.04890425
4	0xbd6102cf	-0.05493432
5	0x3d3b734a	0.045764245
6	0xba8bcb7d	-0.0010665503
7	0xbce238b6	-0.027614933
8	0x3e11ec26	0.1425024
9	0x3db9f055	0.09079043
10	0x3da0970b	0.07841309
11	0xbd4621fe	-0.04837226
12	0xbd70c466	-0.05878105
13	0x3c19066e	0.009339912
14	0xbd7043ce	-0.058658414
15	0xbc561a07	-0.013067729
16	0xbdb602b5	-0.08887235
17	0x3b68271c	0.0035423702
18	0xbd38a7c0	-0.045081854
19	0xbcf01de1	-0.029311122
20	0x3de3cc52	0.111229554
21	0x3d344be0	0.044017673
22	0xbcb56f43	-0.02214778
23	0x3d6d7808	0.0579758
24	0x3d1683c7	0.036746766
25	0x3e3aaf96	0.18231043
26	0x3e04d602	0.12972263
27	0xbd276b3b	-0.040873747
28	0xbd35259f	-0.04422533
29	0xbd6e9385	-0.058246154
30	0x3cf6505b	0.030067613
31	0x3d1bbe74	0.038023427
32	0xbda6ef5e	-0.081511244
33	0x3d770dd1	0.06031591
34	0x3d772bba	0.060344435
35	0x3c037db7	0.008025578
36	0x3c99657e	0.018725153
37	0x3c98ddf6	0.018660527
38	0x3d967a39	0.07347531
39	0xbd340e21	-0.043958787
40	0x3cccb9a1	0.024990859
41	0x3de5f0f0	0.11227596
42	0xbd783709	-0.06059936
43	0x3d5675bf	0.052358385
44	0x3d22ea22	0.039774068
45	0xbe5827a1	-0.21108867
46	0xbd7b8926	-0.06141009
47	0x3d33d3cb	0.043903153
48	0xbe05849e	-0.1303887
49	0xbe0984fe	-0.13429639
50	0xbcfc0d62	-0.0307681
51	0xbd8ba2d7	-0.068181686
52	0xbcf63c7b	-0.030058136
53	0xbd79ac57	-0.06095537
54	0x3d8c3746	0.0684648
55	0x3dcc371e	0.0997145
56	0xbcce2475	-0.025163868
57	0x3cf9a2ab	0.030473074
58	0x3c2a64a3	0.01039997
59	0xbd75260b	-0.059850734
60	0x3d929d88	0.07158953
61	0x3c396adc	0.011316981
62	0xbd3dd746	-0.04634788
63	0xbdc264cc	-0.09491882
64	0xbb2c7e75	-0.0026320491
65	0xbd3ffb89	-0.046870742
66	0xbd80f3bc	-0.06296489
67	0xbdd382dd	-0.103276946
68	0xbdedd3b6	-0.11612646
69	0xbc2d7da5	-0.010589038
70	0xbe0ffcfc	-0.1406135
71	0xbdba1bf7	-0.09087365
72	0x3de6cd33	0.112696074
73	0x3da40916	0.080095455
74	0x3c91b627	0.017787052
75	0x3d886210	0.06659329
76	0xbb83674c	-0.0040101167
77	0xbba5e443	-0.0050626113
78	0x3d6a1af4	0.05715461
79	0xbd1ae6aa	-0.037817635
80	0x3cf0d724	0.029399462
81	0xbcb4b006	-0.02205659
82	0xbdced309	-0.100988455
83	0xbdefdf1b	-0.11712476
84	0x3c988999	0.0186203
85	0xbdba6cf0	-0.091028094
86	0xbcb30049	-0.021850722
87	0xbd2512b0	-0.040301025
88	0x3a92b9b3	0.0011194259
89	0xbd82dc9d	-0.06389735
90	0x3ceeb3ae	0.029138412
91	0x3dd8e3f2	0.10590352
92	0x3bbf7dfe	0.005843877
93	0xbc9b72bc	-0.018975608
94	0x3ae0e5af	0.0017158295
95	0xbd676b6a	-0.056498922
96	0xbd5e0e3b	-0.05421279
97	0xbd1e8653	-0.03870232
98	0xbd823bf9	-0.06359095
99	0x3da93625	0.082622804
100	0x3cc6da92	0.024274144
101	0xbd8400ce	-0.06445466
102	0x3da3790a	0.07982071
103	0xbd33d166	-0.04390087
104	0x3c1b8972	0.009493219
105	0x3ca885f2	0.020571683
106	0xbcd9542f	-0.0265294
107	0x3cea292b	0.028584084
108	0x3d3b1965	0.045678515
109	0x3d4b2556	0.049596153
110	0x3d98e7ea	0.07466109
111	0xbc66dbfe	-0.014090536
112	0x3c9955e7	0.01871772
113	0x3d678620	0.056524396
114	0xbddb52a3	-0.10709121
115	0xbd18734a	-0.037219323
116	0xbd9abd4d	-0.075556375
117	0xbdf55dd3	-0.11980786
118	0xbdc3cf0b	-0.09560975
119	0xbe183e49	-0.1486751
120	0x3c474b60	0.012163967
121	0xbcb8b06f	-0.022545068
122	0xbd5c0992	-0.053720064
123	0xbdcff539	-0.101541944
124	0xbc726ce8	-0.014796473
125	0xbdf38c5a	-0.11892004
126	0xbc852ce6	-0.01625676
127	0xbd5ef9c1	-0.054437403
128	0xbb920e1d	-0.004457249
129	0xbe28de8d	-0.16491146
130	0xbde4abbb	-0.111655675
131	0x3c3644fb	0.011124845
132	0xbe399364	-0.18122631
133	0xbdb4de2c	-0.088314384
134	0xbd8a7237	-0.06760066
135	0xbcd1dd5b	-0.025618246
136	0xbc4318e0	-0.011907786
137	0x3c7edec8	0.015556045
138	0x3d982c1a	0.07430287
139	0x3d943c2e	0.07238041
140	0x3ce2e5ef	0.027697532
141	0x3ded444e	0.11585294
142	0x3dec5cfa	0.11541171
143	0x3dc5f42d	0.096657135
144	0xbd3aa89a	-0.045570947
145	0xbd6643e8	-0.056217104
146	0x3cb7b6fd	0.022426123
147	0xbdb571cd	-0.088595964
148	0xbd91d2b8	-0.071202695
149	0xbc8235a0	-0.015894711
150	0x3d26a610	0.040685713
151	0x3d8d2642	0.06892063
152	0x3c07ce7d	0.008288977
153	0xbd84bcc9	-0.064813204
154	0xbdc242c9	-0.094853945
155	0x3daecb7f	0.085349075
156	0xbd2aa103	-0.04165746
157	0xbd1947ad	-0.03742187
158	0xbd624f17	-0.055251207
159	0x3e1425c1	0.14467527
160	0xbc7cfda5	-0.015441333
161	0xbcf58118	-0.029968783
162	0xbc22c05e	-0.009933559
163	0x3d1de305	0.03854658
164	0x3db5f460	0.088845015
165	0x3dc416a1	0.095746286
166	0x3c3e3e06	0.011611467
167	0x3d1550e5	0.0364541
168	0x3d6d5651	0.057943646
169	0x3cd00e1b	0.025397351
170	0x3dab2935	0.08357469
171	0xbd0509a5	-0.0324799
172	0x3d57cc95	0.05268534
173	0x3d7872c0	0.06065631
174	0xbc8345fa	-0.016024578
175	0xbca6ac22	-0.020345751
176	0x3de5b11e	0.11215423
177	0x3ba9ada8	0.005178172
178	0x3dc7d8c0	0.09758139
179	0x3df54cbb	0.11977526
180	0xbd2e9039	-0.04261801
181	0xbdc502da	-0.096196845
182	0xbd46f63e	-0.04857468
183	0xbd1a042d	-0.03760164
184	0xbd3826e0	-0.04495895
185	0xbd972680	-0.0738039
186	0x3dcb9c92	0.09941973
187	0xbc20bfdf	-0.009811371
188	0x3be2e45d	0.0069241957
189	0xbcc0e3d7	-0.023546143
190	0x3da65e99	0.08123512
191	0x3d9cebee	0.076621875
192	0xbd9f9894	-0.07792774
193	0x3d8df2f7	0.069311075
194	0x3df955b3	0.12174549
195	0x3dacb89f	0.08433651
196	0x3dec83a1	0.11548544
197	0x3e2bcfaf	0.16778444
198	0xbe119cd0	-0.14219975
199	0xbd1e0088	-0.038574725
200	0xbdc29783	-0.09501555
201	0xbcd3b20b	-0.025841733
202	0x3c7a078e	0.01526059
203	0xbcae5c9f	-0.0212844
204	0xbd4962ae	-0.049166374
205	0x3d8e90fa	0.06961246
206	0x3d9a39fb	0.0753059
207	0x3dd3d063	0.10342481
208	0x3b00fe17	0.00196827
209	0x3baae79e	0.005215599
210	0x3ddbbf63	0.107298635
211	0x3d9f6ca8	0.077843964
212	0x3c8bcfcd	0.01706686
213	0x3dd16f4f	0.102263086
214	0x3d7946ee	0.06085866
215	0x3d217535	0.039418418
216	0xbca74064	-0.020416446
217	0x3dd05b7c	0.10173699
218	0x3e545b4c	0.20737952
219	0xbc0c48a9	-0.008562245
220	0x3a835be4	0.0010021892
221	0xbc59877b	-0.01327693
222	0x3c38bec1	0.011275948
223	0x39a4b242	0.0003141333
224	0x3d9e7e8d	0.077389814
225	0xbc9439ec	-0.018094026
226	0xbcf420f1	-0.029800864
227	0x3d1b568a	0.037924327
228	0x3d924f7f	0.07144069
229	0xbba2fe26	-0.0049741445
230	0xbd5ebc74	-0.05437894
231	0x3ddc1ca8	0.10747653
232	0xbbfde25b	-0.007747931
233	0x3d9a6a13	0.07539763
234	0x3d96709a	0.07345696
235	0x3cdaba2a	0.026700098
236	0x3d3e4f75	0.046462495
237	0x3ce0aecb	0.027427098
238	0xbd0c7beb	-0.034297865
239	0xbb9726f9	-0.0046128
240	0xbc4b89c3	-0.012422982
241	0xbd196aed	-0.037455488
242	0x3cb11ec1	0.02162111
243	0x3d220735	0.039557654
244	0xbb0819cb	-0.0020767327
245	0xbc0cb377	-0.00858771
246	0x3d295c13	0.041347574
247	0x3c219453	0.009862023
248	0x3c5e20ce	0.013557626
249	0x3dfcd8b4	0.1234602
250	0x3d673cf7	0.056454625
251	0xbcbfe150	-0.023422867
252	0xbe082a15	-0.13297303
253	0xbe0a30b4	-0.13495141
254	0xbd9d9968	-0.076952755
255	0x3caa8ed8	0.020820066

bias f4 [64]
0	0xbdeba94f	-0.115069024
1	0xbdbbcfee	-0.09170519
2	0xbe0b0225	-0.13575037
3	0xbdf0b363	-0.11752965
4	0xbddd9880	-0.10820103
5	0xbd22d173	-0.039750528
6	0xbe0ade1b	-0.13561289
7	0xbdd65bf8	-0.104667604
8	0x3d8b4cc4	0.06801751
9	0x3c8236a2	0.015895192
10	0xbcb618db	-0.022228649
11	0xbc9ed2b5	-0.019387582
12	0x3d31c5ce	0.043401532
13	0xbd41a802	-0.047279365
14	0xbd9becbd	-0.076135136
15	0x3d68feb8	0.056883544
16	0xbe151284	-0.14557844
17	0xbd226e26	-0.039655827
18	0xbdd05b0a	-0.10173614
19	0x3c856184	0.01628185
20	0xbd1b15b7	-0.037862506
21	0xbd79f9cf	-0.06102925
22	0x3e40d08f	0.18829559
23	0xbb464039	-0.0030250682
24	0xbdca32c2	-0.098729625
25	0xbd0ee5ac	-0.034887
26	0xbd805f31	-0.06268156
27	0x3b0947b0	0.002094727
28	0xbd1e6f25	-0.038680214
29	0xbc0d9ff7	-0.008644096
30	0xbd4e930b	-0.0504332
31	0xbd5d1fc1	-0.05398536
32	0xbc86aa20	-0.016438544
33	0xbd44e3e3	-0.048068892
34	0x39c99b0e	0.00038453232
35	0xbd4928be	-0.04911112
36	0xbe1e25fc	-0.15444177
37	0x3de67d3b	0.112543546
38	0xbd978366	-0.07398109
39	0x3e22a62b	0.158837
40	0xbd62af0c	-0.05534272
41	0xbda57531	-0.08078993
42	0xbd3a5a39	-0.0454962
43	0x3d926322	0.07147814
44	0xbd175238	-0.036943644
45	0xba8135b4	-0.0009857924
46	0xbdde6418	-0.10858935
47	0xbdae4516	-0.08509271
48	0xbe17292d	-0.14761801
49	0x3d1010cb	0.035172265
50	0xba557ef3	-0.0008144222
51	0xbdd4b1c2	-0.10385467
52	0xbdf576d3	-0.119855545
53	0xbd7b698f	-0.061379965
54	0xbc7fdc90	-0.015616551
55	0xbd64e03a	-0.0558779
56	0xbdae0f8f	-0.08499061
57	0xbd5442ae	-0.051821403
58	0xbda6028e	-0.08105956
59	0xbe013126	-0.12616405
60	0xbda2a4cd	-0.079415895
61	0xbdc083e3	-0.094001554
62	0xbd7bc969	-0.061471377
63	0x3c88281f	0.016620694

total_ops f8 [1]
0	0x0000000000000000	0.0

total_params f8 [1]
0	0x0000000000000000	0.0
