TrainedModels/volcano/2020_08_17_20_29_39_video_train_depth_3_lr_scale_0.1_act_lrelu_0.05/2/netD_b.pth (torch_old, 454648 bytes, 9 tensors)

head.conv.weight f4 [64, 3, 3, 3]
0.010768068 -0.021065788 -0.03265399 -0.04380315 0.02758153 0.004489571 0.024642374 -0.033916604
-0.013363068 0.0050157723 0.0041730953 -0.011322245 -0.0067402213 0.017787999 -0.006309282 -0.004323926
0.015756689 0.014478374 0.050873682 -0.005240257 -0.011458586 -0.011932001 0.031780936 0.025141433
-0.0070331446 0.027882552 -0.017961567 -0.006228316 -0.055013992 -0.03665523 0.013288297 0.029973714
0.027088046 0.020671723 0.050348446 0.026535034 0.0038013118 -0.07486238 -0.032666784 0.008153738
0.025407244 0.000137978 0.013742755 0.06572995 0.0031017133 -0.010379212 -0.026699007 -0.0670345
-0.01233506 0.040727694 0.008539255 0.016700495 0.05085871 0.008094651 -0.03357202 0.01728175
-0.0051511545 0.002456028 -0.03165477 -0.00013032883 -0.03137344 -0.021189095 0.065347396 -0.05900092
-0.0068918276 -0.019681698 0.03951134 0.036720112 0.04598218 0.012402782 0.016406132 0.013215604
-0.04971746 0.0070173442 0.004285616 -0.022314934 -0.0017494268 0.009312451 0.013271635 0.026859231
0.023404218 0.07233916 0.02609524 -0.078247525 0.035431106 -0.040037777 -0.0051489603 -0.05696818
-0.08606394 0.18600923 0.099880286 0.03263362 -0.10155561 0.0312553 -0.03752826 -0.027110802
-0.08379689 -0.08257524 0.16098243 0.06558397 0.038592324 -0.12502272 0.0143513195 -0.037819155
-0.0028141346 -0.05693561 -0.084819295 0.16006638 0.00987312 -0.009882437 0.010603086 0.008450691
0.018422294 -0.051118534 0.025023341 -0.010454138 -0.22061804 -0.0061955536 0.0011833252 -0.0019458791
0.003347379 -0.023235543 -0.025433129 -0.025170388 -0.021056863 -0.23088057 -0.0052618003 0.009372582
-0.020209083 -0.011488063 0.00084712956 -0.0165891 -0.0029452133 -0.024866642 -0.18114358 0.01677496
-0.0133866165 0.05105999 -0.028508857 0.0019040315 -0.020902723 0.036822107 -0.06518199 -0.012661938
0.019116627 0.014644429 0.032371294 -0.012558171 -0.011735823 -0.017310753 0.016545966 -0.032788448
0.010208349 0.024506226 0.017518451 0.0256635 0.0046965037 -0.00084824825 -0.029157504 0.035699114
-0.0624516 0.017567419 0.09857756 0.0024842226 0.06546327 0.008870132 -0.019414814 -0.010682916
0.06911118 0.00722103 -0.0038717631 0.01901065 -0.0146274995 0.04016926 -0.07077184 -0.02901976
-0.018472323 -0.0099641085 0.010249712 -0.04894646 0.041900773 -0.00134078 0.042231828 -0.045098364
-0.055899296 -0.005071542 0.012459673 0.008992838 -0.021274036 0.031981576 -0.00093335885 -0.11411939
-0.03810695 -0.05092566 -0.00697616 -0.00176663 0.01950647 0.14401725 0.012657213 0.010714312
-0.1310712 -0.009809306 -0.065987855 -0.010058461 0.00339364 0.04418663 0.15633138 0.042897563
-0.0106508555 -0.12125888 0.012231099 -0.06422222 -0.0024363822 0.009619162 0.027059684 0.15560098
0.046107605 0.0087522855 0.054077566 0.05090679 0.021419985 0.009957003 -0.026852362 -0.043201018
-0.027332416 0.06362866 0.036029737 0.06436099 0.058396533 0.023699906 0.017501991 -0.024491103
-0.045696348 -0.041121315 0.042633448 0.027538665 0.04875234 0.059144806 0.03776099 0.009842809
-0.03324732 -0.04214576 -0.042051397 0.009533955 -0.0026277388 0.018932953 0.01658379 -0.00088589004
-0.006408154 -0.001718646 0.004478204 0.1347992 0.013609811 0.0033843832 0.012300318 -0.012417095
00000000: 8d6c 303c 2992 acbc 31c0 05bd ef6a 33bd
00000010: a9f2 e13c 401d 933b cede c93c 23ec 0abd
00000020: c5f0 5abc 595b a43b 76be 883b f080 39bc
00000030: 13dd dcbb 23b8 913c 18be cebb b8af 8dbb
00000040: 2c14 813c b436 6d3c ec60 503d 76b6 abbb
00000050: cbbc 3bbc 717e 43bc ba2c 023d 68f5 cd3c
00000060: 4b76 e6bb f369 e43c 2324 93bc e716 ccbb
00000070: 5a56 61bd cb23 16bd 28b7 593c 6f8b f53c
00000080: c0e7 dd3c bf57 a93c 2c3a 4e3d 0060 d93c
00000090: 6e1f 793b 7351 99bd 9bcd 05bd 4297 053c
000000a0: da22 d03c 30ae 1039 4b29 613c 6d9d 863d
000000b0: 1d46 4b3b 920d 2abc e0b7 dabc 6249 89bd
000000c0: fe18 4abc 15d2 263d 3be8 0b3c 7acf 883c
000000d0: 3951 503d 6d9f 043c d082 09bd 7592 8d3c
000000e0: 04cb a8bb 50f5 203b 6fa8 01bd e1a8 08b9
000000f0: 7081 00bd c194 adbc dbd4 853d f3aa 71bd
00000100: d7d4 e1bb 833b a1bc a5d6 213d d467 163d
00000110: cf57 3c3d 0a35 4b3c 2766 863c 4386 583c
00000120: 89a4 4bbd c0f1 e53b 5a6e 8c3b cfcd b6bc
00000130: 064d e5ba 4093 183c 4671 593c e407 dc3c
00000140: 34ba bf3c 8e26 943d afc5 d53c 3d40 a0bd
00000150: 3520 113d a7fe 23bd 9cb8 a8bb 7757 69bd
00000160: 4a42 b0bd 3479 3e3e 098e cc3d d5aa 053d
00000170: 63fc cfbd 8f05 003d 3cb7 19bd 7917 debc
00000180: b49d abbd 351d a9bd 94d8 243e e350 863d
00000190: fc12 1e3d f505 00be cc21 6b3c 42e8 1abd
000001a0: 586d 38bb 5035 69bd bdb5 adbd 71e8 233e
000001b0: dec2 213c f2e9 21bc 91b8 2d3c c474 0a3c
000001c0: 5aea 963c ab61 51bd c0fd cc3c d547 2bbc
000001d0: b2e9 61be 1204 cbbb ce19 9b3a de0c ffba
000001e0: b35f 5b3b 7758 bebc 2359 d0bc 2132 cebc
000001f0: 717f acbc f56b 6cbe 2e6b acbb 758f 193c
00000200: 858d a5bc 6e38 3cbc e711 5e3a dde5 87bc
00000210: 7b04 41bb 21b5 cbbc b47d 39be a46b 893c
00000220: 8a53 5bbc 4824 513d 688b e9bc b290 f93a
00000230: 303c abbc c7d2 163d 237e 85bd 0474 4fbc
00000240: 799a 9c3c 30ef 6f3c c397 043d c9c0 4dbc
00000250: 9c47 40bc 48cf 8dbc 688b 873c 2e4d 06bd
00000260: eb40 273c 48c1 c83c db82 8f3c 433c d23c
00000270: 21e5 993b fa5c 5eba b8db eebc 3c39 123d
00000280: 40cd 7fbd 8ce9 8f3c 08e3 c93d 57ce 223b
00000290: 9b11 863d 0854 113c d10b 9fbc 6607 2fbc
000002a0: 2a8a 8d3d 649e ec3b 68bd 7dbb 39bc 9b3c
000002b0: 2ea8 6fbc 8688 243d d4f0 90bd d9ba edbc
000002c0: 4553 97bc 8040 23bc 68ee 273c 157c 48bd
000002d0: 25a0 2b3d 1dbd afba 48fb 2c3d 10b9 38bd
000002e0: a9f6 64bd 2e2f a6bb a823 4c3c b256 133c
000002f0: e346 aebc 1dff 023d a7ac 74ba 6db7 e9bd
00000300: 0916 1cbd 6d97 50bd 4698 e4bb 448e e7ba
00000310: 08cc 9f3c 4279 133e 3360 4f3c 158b 2f3c
00000320: 8737 06be 36b7 20bc a424 87bd 3ecc 24bc
00000330: d567 5e3b 0afd 343d 5515 203e 5bb5 2f3d
00000340: ed80 2ebc 9356 f8bd f364 483c f086 83bd
00000350: b6ab 1fbb b199 1d3c 45ac dd3c dd55 1f3e
00000360: 54db 3c3d bf65 0f3c 7080 5d3d a383 503d
00000370: f778 af3c b322 233c 7cf9 dbbc 8df3 30bd
00000380: 3be8 dfbc be4f 823d eb93 133d b2cf 833d
00000390: 3431 6f3d 4e26 c23c 5660 8f3c 91a1 c8bc
000003a0: 182c 3bbd d36e 28bd 69a0 2e3d c498 e13c
000003b0: 89b0 473d d341 723d 45ab 1a3d bc43 213c
000003c0: 582e 08bd 08a1 2cbd 163e 2cbd 4e34 1c3c
000003d0: 2436 2cbb 4819 9b3c bada 873c 133b 68ba
000003e0: 7efb d1bb 3144 e1ba e6bd 923b cd08 0a3e
000003f0: affb 5e3c 87cc 5d3b 4687 493c 1271 4bbc

head.conv.bias f4 [64]
0.0406946 0.00031794055 0.12067184 -0.017934805 -0.0030253602 0.053816628 0.023971152 0.0001130001
-0.32170475 0.0015502945 0.19736761 0.00013573062 0.06589581 0.003962291 -8.080592e-05 0.036752492
0.0005820715 0.13675727 0.25822148 -0.0009870805 0.19777724 -0.0018439931 0.094122194 0.25522193
0.21101801 -0.32283646 -0.3506268 9.530292e-05 0.29955593 0.12803055 0.001245907 0.0006897369
0.0009904946 0.00035549753 0.050780546 0.000670154 0.1904878 -0.002564022 0.075130336 0.04321234
-0.010444209 0.357132 0.04053923 0.12279226 -0.0029628945 0.03791962 -0.00012802839 -0.00234929
0.07019055 0.05759359 0.05573831 0.13058828 0.055595405 0.0007360337 -0.0021358647 0.00080152304
-0.0030764027 0.04228889 -3.261861e-05 -0.0024702675 0.04094196 0.042796675 -7.592094e-05 0.0012079446
00000000: 62af 263d 42b1 a639 cc22 f73d 03ec 92bc
00000010: 1f45 46bb d36e 5c3d 265f c43c 77fa ec38
00000020: 7cb6 a4be 4033 cb3a bc1a 4a3e e952 0e39
00000030: 62f4 863d 1bd6 813b 5976 a9b8 c889 163d
00000040: 2896 183a 190a 0c3e 9b35 843e ed60 81ba
00000050: 1e86 4a3e 24b2 f1ba 23c3 c03d 73ac 823e
00000060: 1b15 583e d24a a5be 5b85 b3be 5edd c738
00000070: 655f 993e 711a 033e b44d a33a 76cf 343a
00000080: 7cd3 813a 1262 ba39 43ff 4f3d 46ad 2f3a
00000090: 3c0f 433e 2709 28bb efdd 993d 6cff 303d
000000a0: 301e 2bbc 01da b63e 770c 263d 827a fb3d
000000b0: 1f2d 42bb 9a51 1b3d 5c3f 06b9 8cf6 19bb
000000c0: 10c0 8f3d 42e7 6b3d db4d 643d efb8 053e
000000d0: 02b8 633d 63f2 403a ddf9 0bbb 4d1d 523a
000000e0: 799d 49bb 1d37 2d3d f7cf 08b8 36e4 21bb
000000f0: c2b2 273d 914b 2f3d bf37 9fb8 e553 9e3a

body.block0.conv.weight f4 [64, 64, 3, 3]
-0.07215042 -0.036922064 -0.033811532 0.042978585 0.013315184 -0.0069645303 0.009955971 -0.090532415
-0.109613955 -0.094450764 -0.008670957 -0.015720975 0.0035993615 -0.014330602 0.021129983 0.035717137
0.07328028 0.026840094 0.1512766 0.07658992 0.03587811 0.03575579 -0.0014597956 -0.0014002941
0.039854567 0.012450202 -0.006323766 -0.024208365 -0.01607882 -0.018668465 0.11949954 0.03920792
-0.035549905 0.11756233 0.083630316 0.001381075 0.034703087 -0.027972575 -0.03956589 -0.005539895
0.050121278 0.07558666 0.103348106 0.055747323 0.0852438 -0.040257987 -0.086566605 -0.089336544
0.068537846 -0.017441407 -0.045879357 0.041915655 -0.07294257 -0.08102527 -0.09890187 -0.04973761
-0.05233665 0.013628365 0.0068536005 -0.030200776 -0.011373077 -0.008485131 -0.06153913 0.00045721303
0.14712882 0.110507324 -0.003699713 0.029231656 0.086748526 0.080711015 0.10166996 0.085232474
-0.058595125 -0.05790291 -0.013069888 -0.062419605 -0.050937902 -0.11337347 -0.15519768 -0.06518308
-0.14347653 -0.075226195 -0.0142396 0.0295702 0.029731086 0.04306353 0.13134056 0.08423793
0.10746088 0.23954827 0.03903656 0.032243766 -0.028640425 0.009206005 -0.011136511 0.009305633
0.12523013 0.056346435 0.029757632 -0.04194854 -0.0897357 -0.06532529 0.09595771 -0.027132262
0.029536115 0.16169478 -0.050467756 0.086617865 0.08299278 -0.027093431 -0.08171169 0.05492491
-0.046051174 -0.03324028 0.041215107 0.020529624 0.060426056 0.07836516 0.116408676 0.05256018
0.06663731 0.004480582 0.020162646 0.055607893 -0.005489696 0.06806139 0.058657948 0.06702597
0.029466184 -0.083781704 -0.04368204 -0.0007802162 -0.09849468 -0.07623666 0.011428206 0.053146333
0.02917354 0.013918835 0.017277464 -0.012420449 -0.038866602 0.07269064 0.0066298055 0.0041176425
-0.13049741 -0.083835304 -0.02502467 0.0140402 0.0009194888 0.07376853 0.037960336 0.076455444
0.1424771 -0.07965153 -0.008390535 -0.08982351 0.05347582 0.043154173 -0.036827825 -0.06447293
0.0008563489 -0.044684812 0.1370863 0.052529085 0.07401735 0.045217205 0.015251869 0.055481963
0.11581004 0.07704945 0.06881046 0.034165565 0.005514508 0.045145627 -0.038011484 -0.025634179
-0.04979591 0.085838094 0.011647266 0.003576254 0.09107138 0.07645746 0.11426004 0.017932149
-0.011844853 0.05064998 -0.008735184 -0.019459473 0.006004898 -0.07343391 -0.010558986 -0.026463646
-0.026749294 -0.037040196 -0.036599807 0.08265173 -0.010435599 -0.012686743 0.09410328 0.07297776
0.08814624 0.025108904 -0.0030382704 -0.0073903 0.043004274 0.0046367426 -0.0757325 -0.13343927
-0.028498543 -0.06480675 -0.02912385 0.015776819 -0.014845428 -0.07327968 -0.070205845 -0.10717647
-0.2514132 -0.20021945 -0.22283341 -0.25187665 -0.12738243 -0.19342318 -0.22976546 -0.12202355
-0.17627156 -0.14078654 0.025610454 0.12641768 -0.14808683 0.041241813 0.13657866 -0.22313379
-0.06900712 0.042054445 -0.1867101 -0.17694567 -0.17884897 -0.11580131 -0.07268144 -0.086168036
-0.082045294 -0.03397317 -0.043243013 0.27017182 0.119362876 0.007841465 0.041571595 -0.02239109
-0.023674939 -0.04788583 0.004693476 0.021366848 0.1585769 0.111557476 0.1399823 0.044450246
00000000: 99c3 93bd 973b 17bd f67d 0abd 500a 303d
00000010: ee27 5a3c b736 e4bb 5e1e 233c 0f69 b9bd
00000020: 487d e0bd 676f c1bd a110 0ebc 46c9 80bc
00000030: 44e3 6b3b e7ca 6abc c918 ad3c 224c 123d
00000040: f913 963d c2df db3c 41e8 1a3e 2ddb 9c3d
00000050: edf4 123d aa74 123d 9d56 bfba 138a b7ba
00000060: 8b3e 233d effb 4b3c 9837 cfbb 9f50 c6bc
00000070: bbb7 83bc 9cee 98bc 2dbc f43d 7c98 203d
00000080: c79c 11bd 85c4 f03d 5f46 ab3d 3005 b53a
00000090: d324 0e3d be26 e5bc d80f 22bd 0288 b5bb
000000a0: f84b 4d3d 2ecd 9a3d 2ca8 d33d 4e57 643d
000000b0: 4d94 ae3d 8fe5 24bd d549 b1bd 14f6 b6bd
000000c0: 925d 8c3d 48e1 8ebc feeb 3bbd c0af 2b3d
000000d0: ea62 95bd 94f0 a5bd 108d cabd aab9 4bbd
000000e0: f55e 56bd 8149 5f3c 2b94 e03b 9e67 f7bc
000000f0: 2456 3abc 3805 0bbc 7410 7cbd 18b6 ef39
00000100: f0a8 163e aa51 e23d e276 72bb 3a77 ef3c
00000110: 36a9 b13d d14b a53d 5738 d03d 5d8e ae3d
00000120: 7101 70bd 9a2b 6dbd 1523 56bc b3ab 7fbd
00000130: 43a4 50bd 5a30 e8bd 24ec 1ebe b57e 85bd
00000140: 83eb 12be 3110 9abd 364d 69bc 343d f23c
00000150: 9b8e f33c 6263 303d 247e 063e f084 ac3d
00000160: 7314 dc3d 244c 753e cde4 1f3d 0a12 043d
00000170: 539f eabc c9d4 163c ea75 36bc a776 183c
00000180: 543c 003e 85cb 663d 47c6 f33c 3bd2 2bbd
00000190: 5ac7 b7bd 44c9 85bd 7a85 c43d 7a44 debc
000001a0: b9f5 f13c 5193 253e 47b7 4ebd b564 b13d
000001b0: 1ef8 a93d 0bf3 ddbc 7558 a7bd f1f8 603d
000001c0: 28a0 3cbd f626 08bd 2cd1 283d be2d a83c
000001d0: 5081 773d ea7d a03d ac67 ee3d 5849 573d
000001e0: 2479 883d d9d1 923b 222c a53c 1ac5 633d
000001f0: e8e2 b3bb c563 8b3d 5143 703d e944 893d
00000200: 1163 f13c be95 abbd f0eb 32bd 6c87 4cba
00000210: 94b7 c9bd f721 9cbd 5f3d 3b3c f8af 593d
00000220: 59fd ee3c d30b 643c 7889 8d3c 247f 4bbc
00000230: 9632 1fbd d5de 943d d73e d93b 4aed 863b
00000240: 1da1 05be d8b1 abbd 8900 cdbc de08 663c
00000250: d909 713a f413 973d 4c7c 1b3d ac94 9c3d
00000260: 84e5 113e 5720 a3bd 7478 09bc 63f5 b7bd
00000270: 7609 5b3d 6ec2 303d c6d8 16bd 620a 84bd
00000280: 9a7c 603a 6c07 37bd 5a60 0c3e bd28 573d
00000290: 6996 973d ad35 393d fae2 793c 0e41 633d
000002a0: d02d ed3d 1acc 9d3d 80ec 8c3d 31f1 0b3d
000002b0: 0cb3 b43b 9fea 383d eeb1 1bbd c5fe d1bc
000002c0: ccf6 4bbd e2cb af3d 2dd4 3e3c 965f 6a3b
000002d0: a283 ba3d bb95 9c3d 2b01 ea3d 71e6 923c
000002e0: ea10 42bc 5a76 4f3d 041e 0fbc 7969 9fbc
000002f0: bcc4 c43b 8564 96bd 99ff 2cbc 4aca d8bc
00000300: 5621 dbbc 76b7 17bd aee9 15bd 4f45 a93d
00000310: 13fa 2abc 0fdc 4fbc 38b9 c03d 5d75 953d
00000320: 0486 b43d 30b1 cd3c b81d 47bb 542a f2bb
00000330: 4025 303d d1ef 973b a419 9bbd 4ea4 08be
00000340: c775 e9bc 67b9 84bd 2495 eebc 633e 813c
00000350: 3d3a 73bc a813 96bd 15c8 8fbd 567f dbbd
00000360: 3bb9 80be 5406 4dbe 712e 64be faf5 80be
00000370: 8a70 02be ba10 46be a347 6bbe 7ce7 f9bd
00000380: 8880 34be 592a 10be 04cd d13c a373 013e
00000390: 13a4 17be 2ded 283d 47db 0b3e 2f7d 64be
000003a0: 9b53 8dbd 4841 2c3d ef30 3fbe 3f31 35be
000003b0: 2f24 37be 3d29 edbd 02da 94bd de78 b0bd
000003c0: 5d07 a8bd 7327 0bbd 961f 31bd f653 8a3e
000003d0: 8674 f43d 7d79 003c fa46 2a3d 856d b7bc
000003e0: f2f1 c1bc ef23 44bd bbcb 993b 8709 af3c
000003f0: fc61 223e 3f78 e43d 8557 0f3e 7611 363d

body.block0.conv.bias f4 [64]
-0.0016599334 0.07456326 0.03879712 0.023924803 -0.01835952 0.18885413 0.15031338 -0.058948472
0.16650642 -0.063854165 -0.07832731 0.19078223 0.12133184 0.0069907377 0.12284793 0.038155098
0.2503553 0.29482925 0.08759999 0.20340247 0.14942649 -0.10305477 0.005141952 0.093329445
-0.122592986 -0.0040063486 -0.0076613487 0.018707585 0.12543994 0.14281039 0.30698577 0.06892532
0.026218627 0.085083455 0.12289286 0.20297325 0.028021533 0.057701837 0.16116203 0.19198409
0.15047888 0.13247119 -0.004185174 0.10914777 0.13840878 0.013370968 0.21154 0.08581612
0.12727563 0.2817054 0.10413864 0.09242712 0.13696855 -0.007621174 0.13132259 0.24745877
0.069479875 -0.07314778 -0.0038038504 0.124270685 0.09990003 -0.0033773466 0.07420821 -0.016007729
00000000: 1f92 d9ba 9fb4 983d bbe9 1e3d f3fd c33c
00000010: b466 96bc fa62 413e c0eb 193e f473 71bd
00000020: a980 2a3e f9c5 82bd 126a a0bd 6b5c 433e
00000030: d47c f83d 8f12 e53b b297 fb3d 8548 1c3d
00000040: 922e 803e dcf3 963e a067 b33d bd48 503e
00000050: 4203 193e 610e d3bd d27d a83b 8223 bf3d
00000060: 0812 fbbd b047 83bb 0d0c fbbb a640 993c
00000070: 5473 003e e33c 123e 3d2d 9d3e b828 8d3d
00000080: 72c8 d63c 3c40 ae3d 40af fb3d 38d8 4f3e
00000090: 6a8d e53c c358 6c3d a907 253e 7a97 443e
000000a0: 2317 1a3e 87a6 073e c923 89bb de88 df3d
000000b0: 08bb 0d3e e811 5b3c f19d 583e 5dc0 af3d
000000c0: 8b54 023e b13b 903e a446 d53d 6e4a bd3d
000000d0: 7c41 0c3e 0bbb f9bb 6e79 063e d565 7d3e
000000e0: 774b 8e3d 81ce 95bd 054a 79bb a181 fe3d
000000f0: 6398 cc3d 7956 5dbb 79fa 973d a422 83bc

body.block1.conv.weight f4 [64, 64, 3, 3]
0.08503674 0.035265986 -0.0523044 0.072446585 0.015518603 -0.044770077 0.124645665 0.018609928
-0.05053148 0.044620514 0.078856476 -0.0026422718 0.02126517 0.039005704 0.07470023 0.034251235
0.03353921 0.04939794 0.009235713 -0.03512603 -0.0606434 -0.055156216 -0.026106123 -0.027943408
-0.09066242 -0.00041234048 0.018660923 0.099006414 0.010188526 -0.03047624 0.054926604 -0.047419466
-0.030845713 0.09073843 -0.023787873 -0.14355175 -0.035723154 -0.066794425 -0.105479844 0.041743837
-0.0312994 -0.08131271 0.08321368 0.06300679 -0.058510177 -0.10029719 -0.074378565 -0.025886893
-0.04446191 -0.07465267 -0.03640597 -0.06317948 -0.07406799 -0.06441586 -0.11263962 -0.073458456
-0.10110931 -0.011799684 -0.0016056399 -0.09610878 -0.032868885 -0.015294852 -0.026853563 -0.18488997
-0.031100215 -0.10664614 -0.096528515 -0.005813852 -0.04212572 -0.03430123 0.06587026 0.1251003
0.028550684 -0.027904915 -0.057067543 0.018948857 -0.010792281 -0.0564032 -0.012235026 -0.044839498
-0.05226264 0.030597113 0.027906142 0.02739551 -0.032570813 -0.021673087 0.028056804 -0.10730972
-0.059729937 0.02980027 0.066717625 -0.032798596 0.033393007 0.019947814 0.024745665 -0.00031936617
0.022438109 0.019106431 -0.01637219 -0.039559286 0.011265871 -0.05326639 0.054274984 0.032074913
-0.010447238 0.072299995 0.094669454 0.0089035565 0.036136664 0.025955908 -0.024908958 0.03279579
0.025018848 0.032096736 0.03682852 0.019951351 -0.033352293 0.0713378 -0.03505977 -0.05814273
0.033524636 -0.03421181 0.0076440466 0.050503355 0.011844882 -0.044706848 0.040406343 -0.014109799
0.038936134 0.033760633 -0.003963047 0.026580688 0.033043202 0.04082391 0.046448633 -0.045472004
-0.016340721 -0.034885254 0.050865643 0.06652853 0.0103856195 0.07131297 0.05815372 0.07189388
0.11709615 -0.016102012 0.011891925 0.086624295 0.020356929 0.041492946 0.07079866 0.07613774
0.09480919 0.054970264 0.011501539 -0.0055588633 0.030960439 0.007804312 -0.055749156 -0.024492987
-0.022028811 -0.09324188 -0.015741859 0.036612157 -0.053422675 -0.0046971254 -0.006082228 0.01156581
-0.044614684 -0.027361205 0.031178866 0.07302473 0.098897 0.025218453 0.031477273 -0.015524816
-0.0036680794 -0.018604057 -0.0041939933 0.007882438 0.033598978 -0.005969945 -0.03495896 -0.0045963903
-0.012809022 -0.017878626 -0.02164539 -0.09242981 0.017395657 0.02346387 0.01977487 -0.03881635
0.047513217 0.0022197561 -0.00029264655 0.048923347 0.048465177 -0.0016080351 0.064378984 0.034550793
-0.047369614 0.094232306 0.07150416 -0.030170418 0.08810059 0.10888481 0.04307728 0.08495355
0.042428456 0.017353069 0.066650435 0.013582383 0.023279542 0.08756331 0.056872655 0.06303522
-0.08132965 -0.06066638 -0.057573408 -0.0020597416 0.028503701 0.03508923 -0.021976545 0.073098734
0.1269893 0.002961649 -0.015651587 -0.052585658 0.08667385 0.04016726 -0.0035884865 0.025637394
0.04418796 0.03687605 -0.10087361 -0.051511846 -0.058021717 -0.05406191 -0.03226201 -0.032342885
-0.054342244 -0.0045485375 -0.0067344536 -0.014832574 -0.04899831 -0.034340627 0.040161557 0.0014048346
-0.0034227392 0.037554767 0.004526338 0.020988002 -0.03771832 -0.015865816 -0.016416786 -0.020685708
00000000: be27 ae3d 1173 103d 233d 56bd e05e 943d
00000010: bd41 7e3c d460 37bd 3a46 ff3d d973 983c
00000020: 19fa 4ebd 00c4 363d 817f a13d f729 2dbb
00000030: 4b34 ae3c 72c4 1f3d 6ffc 983d 064b 0c3d
00000040: 6960 093d 7f55 4a3d 6351 173c 50e0 0fbd
00000050: 3765 78bd 7ceb 61bd 82dc d5bc 93e9 e4bc
00000060: 38ad b9bd 672f d8b9 cbde 983c e0c3 ca3d
00000070: c6ed 263c 4fa9 f9bc b8fa 603d ea3a 42bd
00000080: 26b0 fcbc 12d5 b93d c9de c2bc 3bff 12be
00000090: 7152 12bd 84cb 88bd d105 d8bd 96fb 2a3d
000000a0: cd33 00bd 4787 a6bd ef6b aa3d b409 813d
000000b0: 5ea8 6fbd 9d68 cdbd ca53 98bd c010 d4bc
000000c0: b11d 36bd 80e3 98bd 6d1e 15bd 3e64 81bd
000000d0: f5b0 97bd 76ec 83bd 9aaf e6bd 6371 96bd
000000e0: 6612 cfbd 7653 41bc 5674 d2ba aed4 c4bd
000000f0: 86a1 06bd 4297 7abc 01fc dbbc cc53 3dbe
00000100: e1c5 febc 4b69 dabd beb0 c5bd 2082 bebb
00000110: 058c 2cbd 727f 0cbd fde6 863d 4b1a 003e
00000120: 20e3 e93c d998 e4bc a8bf 69bd a23a 9b3c
00000130: 1bd2 30bc 0b07 67bd 6b75 48bc 9fa9 37bd
00000140: 5a11 56bd cca6 fa3c 6c9b e43c 8c6c e03c
00000150: f968 05bd c28b b1bc 62d7 e53c 33c5 dbbd
00000160: 61a7 74bd b21f f43c 40a3 883d d257 06bd
00000170: 1bc7 083d 9969 a33c 6cb7 ca3c 9a70 a7b9
00000180: 20d0 b73c 1785 9c3c f91e 86bc eb08 22bd
00000190: 7d94 383c dc2d 5abd 724f 5e3d fc60 033d
000001a0: e42a 2bbc 0512 943d 0fe2 c13d 39e0 113c
000001b0: 0a04 143d 7ca1 d43c df0d ccbc e154 063d
000001c0: 54f4 cc3c de77 033d 81d9 163d 0471 a33c
000001d0: 6a9c 08bd 8d19 923d d59a 0fbd 1227 6ebd
000001e0: 2151 093d af21 0cbd e97a fa3b 9bdc 4e3d
000001f0: 0911 423c 871e 37bd 1f81 253d c92c 67bc
00000200: 7f7b 1f3d 9748 0a3d 73dc 81bb bebf d93c
00000210: 4f58 073d f936 273d ec40 3e3d da40 3abd
00000220: fadc 85bc d7e3 0ebd 7e58 503d 1c40 883d
00000230: 7228 2a3c 890c 923d 9832 6e3d 193d 933d
00000240: 1bd0 ef3d 5ee8 83bc 59d6 423c 1468 b13d
00000250: 93c3 a63c 82f4 293d e3fe 903d 1aee 9b3d
00000260: 522b c23d 8028 613d f370 3c3c 2027 b6bb
00000270: bfa0 fd3c 50bb ff3b 3a59 64bd 84a5 c8bc
00000280: c475 b4bc 99f5 bebd 12f5 80bc a1f6 153d
00000290: bcd1 5abd 58ea 99bb 6d4d c7bb 867e 3d3c
000002a0: e3bd 36bd 9b24 e0bc d26a ff3c fd8d 953d
000002b0: 838a ca3d ee96 ce3c 50ee 003d cc5b 7ebc
000002c0: 2964 70bb 8967 98bc c46d 89bb 5725 013c
000002d0: 159f 093d 879f c3bb 2031 0fbd 519d 96bb
000002e0: efdc 51bc 3276 92bc ac51 b1bc d74b bdbd
000002f0: 5681 8e3c 4d37 c03c e8fe a13c e5fd 1ebd
00000300: 389d 423d 5479 113b 5b6e 99b9 d963 483d
00000310: 6c83 463d b4c4 d2ba 21d9 833d 2285 0d3d
00000320: a406 42bd defc c03d c670 923d f427 f7bc
00000330: 156e b43d 00ff de3d cd71 303d 20fc ad3d
00000340: 76c9 2d3d 0628 8e3c 0680 883d a588 5e3c
00000350: bdb4 be3c 6554 b33d 4df3 683d 9c18 813d
00000360: 2990 a6bd 4f7d 78bd 18d2 6bbd bbfc 06bb
00000370: 9880 e93c b9b9 0f3d 2808 b4bc cab4 953d
00000380: 7c09 023e 3a18 423b c237 80bc 0f64 57bd
00000390: 0f82 b13d 6d86 243d d02c 6bbb 8305 d23c
000003a0: 6ffe 343d 570b 173d d396 cebd 16fe 52bd
000003b0: 2ea8 6dbd 0570 5dbd 2b25 04bd f979 04bd
000003c0: f995 5ebd e60b 95bb b1ac dcbb 5304 73bc
000003d0: 74b2 48bd c2a8 0cbd 7280 243d 6d22 b83a
000003e0: 0950 60bb 07d3 193d ad51 943b 08ef ab3c
000003f0: 867e 1abd 07f9 81bc 7f7c 86bc 1375 a9bc

body.block1.conv.bias f4 [64]
0.13198894 0.19560497 0.014760348 0.35435215 0.03332453 0.14754948 0.19386172 0.1974519
0.18489897 -0.080216885 0.28222403 0.13274445 -0.034831747 0.20561938 0.0130508505 0.20630525
0.19193074 0.1241974 0.27764195 0.17065871 0.081669286 0.09233017 0.19373333 0.11044555
0.5138596 0.085529186 0.13583378 0.20904963 0.17949107 0.16581146 0.22636446 0.102690056
0.063804194 0.08667453 0.26329365 0.26033464 0.18617633 0.0038715904 0.108633265 0.10870571
0.029716926 0.28023443 -0.029177967 0.047102366 0.28266317 0.02029495 0.26896316 0.10910951
0.2735133 0.22584015 0.14253366 0.042993855 0.173141 0.14903834 0.2258325 0.23611292
0.025579305 0.03025076 0.25512287 0.19644521 0.18000734 0.11856803 0.03899781 0.11357685
00000000: 1c28 073e ab4c 483e 63d5 713c a56d b53e
00000010: 4d7f 083d 3617 173e b083 463e d530 4a3e
00000020: 2856 3d3e c048 a4bd ab7f 903e 29ee 073e
00000030: bcab 0ebd e38d 523e 3cd3 553c af41 533e
00000040: 7e89 443e 355b fe3d 1627 8e3e 28c1 2e3e
00000050: 3a42 a73d 9a17 bd3d 0862 463e 4731 e23d
00000060: 4e8c 033f ed29 af3d 0318 0b3e 1b11 563e
00000070: 82cc 373e 7bca 293e 16cc 673e 2a4f d23d
00000080: c6ab 823d 6a82 b13d 6dce 863e 954a 853e
00000090: 02a5 3e3e 82ba 7d3b 1e7b de3d 19a1 de3d
000000a0: e970 f33c e37a 8f3e a206 efbc 69ee 403d
000000b0: 3ab9 903e 9841 a63c 8ab5 893e cf74 df3d
000000c0: ef09 8c3e a442 673e 58f4 113e 531a 303d
000000d0: e04b 313e 829d 183e a340 673e 96c7 713e
000000e0: b18b d13c 71d0 f73c 779f 823e ef28 493e
000000f0: d853 383e ccd3 f23d 2bbc 1f3d fb9a e83d

body.block2.conv.weight f4 [64, 64, 3, 3]
0.07120329 -0.004913613 -0.023304636 0.03274436 0.037008926 0.047451027 0.037126612 0.058125254
0.08071769 0.05999142 0.025804663 -0.036448076 0.052066416 0.021740517 -0.038746882 -0.017670132
-0.06513796 -0.14755677 -0.076531395 -0.050980847 0.03165317 -0.09474288 -0.003487731 0.052135166
-0.056709886 0.09252919 0.096657306 0.08954887 -0.035799816 -0.07445053 0.075503394 -0.036731146
-0.03256598 0.08960064 0.022673784 0.010204277 -0.11970345 -0.039079774 0.059766337 -0.08044445
0.0032342097 0.16404752 -0.14847878 -0.0040295273 0.16098945 -0.098036766 0.011837882 0.12532249
-0.04437738 -0.02254571 0.10386091 0.042560317 0.1343318 0.13520001 -0.16870198 -0.03466398
0.07889937 -0.13495897 0.039361212 0.10887517 -0.027194954 0.088756435 0.17189425 -0.055781834
0.008337765 -0.051926874 0.019127434 0.024456413 0.005134943 0.0039693345 0.0032677574 -0.0089879995
-0.018784346 -0.0069678086 -0.05876632 -0.017228989 0.031896442 0.051420398 0.04876589 0.01931186
0.122608684 -0.14287144 -0.09162778 0.046483062 -0.120371215 -0.033949737 0.07789032 0.089433916
0.16153613 0.18311633 0.07517532 0.022235714 -0.019504383 0.022116056 -0.012842313 -0.04288631
-0.025208518 -0.00798469 -0.09521032 -0.1282085 -0.03219124 -0.068575725 -0.0522069 -0.008414899
0.023518112 0.025762757 0.058715478 0.05764604 -0.1415128 -0.03402868 -0.03691319 -0.03321256
0.0022166176 -0.001152611 0.18646581 0.17791298 0.001042475 -0.076194994 -0.0044289087 -0.0034924368
-0.060827315 -0.014727605 0.07588001 -0.04642498 0.071803324 0.1654818 -0.15379684 -0.07778507
0.15854524 -0.11005522 -0.032888837 0.11342203 0.107335374 0.053768773 0.17530812 0.032927636
0.053548537 0.0034888545 0.087503366 0.026140558 -0.013175486 -0.02679455 -0.01159408 -0.027118677
-0.033031303 -0.0056776004 0.055714376 -0.10328857 -0.018533994 0.025445614 -0.22552986 -0.098830454
0.043244794 0.025311332 0.06726124 0.12652987 0.057000376 0.021212764 0.03985431 0.08315406
-0.022829408 -0.053989567 0.022625798 0.009285695 0.01633535 -0.025504487 -0.033456497 -0.04474643
0.033035386 0.036906503 -0.049955785 -0.023337403 -0.070258096 -0.05923702 -0.021600343 -0.0016509016
-0.031947635 -0.16171384 -0.088587284 0.037279632 -0.07838289 0.017078644 0.088643275 -0.11789794
-0.0024114307 0.05399894 0.00976442 0.13132298 0.18739334 -0.12295359 -0.06947172 0.14643937
-0.024462335 -0.02133174 0.111263186 0.09992152 -0.05087316 0.0073256684 0.020106263 -0.05922038
-0.028395956 0.028725455 -0.05255136 -0.041944172 0.029489838 -0.010135414 -0.029029444 0.22171128
-0.010741648 -0.13316995 0.056646593 -0.043197285 -0.18063956 -0.04922674 -0.101543814 -0.08818554
0.049779657 0.04992449 -0.025862873 0.046217404 0.061228756 -0.034556985 0.09922573 0.07865819
-0.021686317 -0.15510362 -0.01555275 0.08458521 -0.10562966 0.024298577 0.04689278 -0.093334414
0.08205142 0.14255585 -0.15125069 -0.04891146 0.04924964 -0.114737324 -0.07601448 0.013131403
-0.043714672 0.05762683 0.11751863 -0.06313597 -0.032642294 -0.04248512 0.005508083 -0.01489798
0.056224924 -0.023496864 0.06685592 0.058600865 -0.099093854 -0.038922235 -0.08591156 -0.04162534
00000000: 08d3 913d 6002 a1bb 5de9 bebc f31e 063d
00000010: ac96 173d 025c 423d 1312 183d bf14 6e3d
00000020: 514f a53d 90b9 753d 4d64 d33c 944a 15bd
00000030: 9843 553d 2b19 b23c 0db5 1ebd f4c0 90bc
00000040: 0d67 85bd 1f19 17be 7ebc 9cbd 4bd1 50bd
00000050: c1a6 013d 8e08 c2bd 6b92 64bb af8b 553d
00000060: a048 68bd f27f bd3d 44f4 c53d 6665 b73d
00000070: d4a2 12bd 8579 98bd 86a1 9a3d 6673 16bd
00000080: e863 05bd 8a80 b73d 5fbe b93c d72f 273c
00000090: 1527 f5bd 1d12 20bd 8ccd 743d 0fc0 a4bd
000000a0: 09f5 533b 13fc 273e d20a 18be 200a 84bb
000000b0: 6bda 243e 80c7 c8bd adf3 413c 8a54 003e
000000c0: 0ec5 35bd c8b1 b8bc 07b5 d43d ba53 2e3d
000000d0: 468e 093e df71 0a3e 36c0 2cbe d1fb 0dbd
000000e0: fe95 a13d af32 0abe 3939 213d f2f9 de3d
000000f0: f4c7 debc efc5 b53d 0c05 303e 7e7b 64bd
00000100: 1f9b 083c 46b1 54bd 23b1 9c3c d158 c83c
00000110: 0643 a83b 3111 823b df27 563b 6742 13bc
00000120: a1e1 99bc 3752 e4bb f4b4 70bd cf23 8dbc
00000130: d8a5 023d 329e 523d bebe 473d e833 9e3c
00000140: 431a fb3d e44c 12be 58a7 bbbd 0665 3e3d
00000150: 2f85 f6bd e10e 0bbd f684 9f3d 2129 b73d
00000160: ba69 253e d982 3b3e 85f5 993d ac27 b63c
00000170: a8c7 9fbc bb2c b53c 9168 52bc 8ea9 2fbd
00000180: 1882 cebc 38d2 02bc a1fd c2bd 1749 03be
00000190: f6da 03bd 6e71 8cbd e7d6 55bd a5de 09bc
000001a0: 0ea9 c03c 6b0c d33c a47f 703d 411e 6c3d
000001b0: bbe8 10be a861 0bbd 4932 17bd e509 08bd
000001c0: ac44 113b 3513 97ba e5f0 3e3e d22e 363e
000001d0: a8a3 883a 1f0c 9cbd 6120 91bb 5ee1 64bb
000001e0: 1026 79bd 0d4c 71bc fb66 9b3d 1f28 3ebd
000001f0: 9f0d 933d 1074 293e eb7c 1dbe c74d 9fbd
00000200: af59 223e a264 e1bd 72b6 06bd cf49 e83d
00000210: a6d2 db3d a53c 5c3d f983 333e 21df 063d
00000220: b655 5b3d 44a5 643b f734 b33d b924 d63c
00000230: fedd 57bc 3e80 dbbc 19f5 3dbc fd27 debc
00000240: d54b 07bd 2a0b babb c234 643d f588 d3bd
00000250: 9ad4 97bc 5273 d03c 4df1 66be 9f67 cabd
00000260: 7421 313d b659 cf3c 43c0 893d 0c91 013e
00000270: 3a79 693d 64c6 ad3c 463e 233d ad4c aa3d
00000280: bd04 bbbc 2a24 5dbd bd59 b93c 0723 183c
00000290: b6d1 853c c9ee d0bc ae09 09bd 0848 37bd
000002a0: 1d50 073d 462b 173d 709e 4cbd 152e bfbc
000002b0: 7ae3 8fbd 84a2 72bd 34f3 b0bc 1163 d8ba
000002c0: 86db 02bd 5098 25be 406d b5bd 87b2 183d
000002d0: 3587 a0bd 83e8 8b3c 9b8a b53d 7a74 f1bd
000002e0: 1809 1ebb fe2d 5d3d f2fa 1f3c 8879 063e
000002f0: 0ae4 3f3e 17cf fbbd 3047 8ebd 34f4 153e
00000300: 3c65 c8bc e7bf aebc f4dd e33d a7a3 cc3d
00000310: 6060 50bd 290c f03b e4b5 a43c 1291 72bd
00000320: a39e e8bc a551 eb3c 1840 57bd a7cd 2bbd
00000330: ac94 f13c 020f 26bc 28cf edbc 4808 633e
00000340: bdfd 2fbc b45d 08be 4206 683d a3ef 30bd
00000350: 94f9 38be faa1 49bd 34f6 cfbd 9f9a b4bd
00000360: c1e5 4b3d 9f7d 4c3d 60de d3bc 764e 3d3d
00000370: 01cb 7a3d a08b 0dbd dc36 cb3d 8c17 a13d
00000380: 81a7 b1bc 7cd3 1ebe f6d0 7ebc 033b ad3d
00000390: 5d54 d8bd cf0d c73c a512 403d 1d26 bfbd
000003a0: 930a a83d 29fa 113e 76e1 1abe 6257 48bd
000003b0: feb9 493d 67fb eabd 7bad 9bbd 1925 573c
000003c0: 280e 33bd 1c0a 6c3d 9cad f03d 6e4d 81bd
000003d0: edb3 05bd e104 2ebd 267d b43b a816 74bc
000003e0: 1b4c 663d 7f7c c0bc c2eb 883d 7607 703d
000003f0: b8f1 cabd ec6c 1fbd 66f2 afbd 557f 2abd

body.block2.conv.bias f4 [64]
-0.1583889 0.25104454 0.5953801 0.74733377 1.0396695 1.0044645 0.61810124 -0.11192542
0.040779475 0.6996635 -0.024524093 0.0445623 0.7044452 0.4156395 0.03861351 0.8310971
0.048656415 -0.061230842 0.76550615 0.5729215 0.772723 0.905989 0.8906831 0.6739995
0.2674027 0.8468692 0.05634952 0.275638 -0.0053166077 0.028569259 0.68653995 0.020049646
0.35478777 0.66870344 -0.026128702 0.0118538635 0.062904224 0.32355544 0.7779996 0.790715
1.1394724 0.2683304 0.021046354 0.051282 0.09274196 0.120271556 0.62424767 0.11708098
0.22900267 0.16558184 0.19962408 0.0064659775 0.14047384 0.23393495 0.3408808 0.71042603
-0.012139725 0.84541094 0.8371017 0.20552991 0.16075261 0.70788836 0.563318 0.9784664
00000000: b330 22be e988 803e d56a 183f 4451 3f3f
00000010: e413 853f 4b92 803f e23b 1e3f 2839 e5bd
00000020: 6108 273d 261d 333f c0e6 c8bc f586 363d
00000030: 8556 343f b3ce d43e 3329 1e3d c8c2 543f
00000040: f34b 473d 31cd 7abd 36f8 433f fcaa 123f
00000050: 2dd1 453f e5ee 673f cf03 643f 3b8b 2c3f
00000060: 02e9 883e 6bcc 583f c1ce 663d 6d20 8d3e
00000070: f036 aebb 140a ea3c 15c1 2f3f 283f a43c
00000080: bea6 b53e 2630 2b3f dc0b d6bc b536 423c
00000090: eed3 803d 0fa9 a53e fb2a 473f 4c6c 4a3f
000000a0: 3bda 913f 9a62 893e 6769 ac3c 130d 523d
000000b0: 7fef bd3d ef50 f63d b2ce 1f3f 27c8 ef3d
000000c0: ad7f 6a3e 498e 293e 416a 4c3e 8de0 d33b
000000d0: 60d8 0f3e a58c 6f3e ee87 ae3e 7bde 353f
000000e0: b2e5 46bc da6c 583f 4c4c 563f 6f76 523e
000000f0: 559c 243e 2c38 353f 9c35 103f c67c 7a3f

tail.weight f4 [1, 64, 3, 3]
0.014725026 0.02149841 0.043195684 -0.012480881 -0.008784994 0.06545114 -0.05569376 -0.0024572287
0.07109224 -0.03630964 -0.06637359 0.001511271 -0.028761826 -0.05656701 -0.0035187823 0.11027712
-0.013169278 0.03597355 -0.066378705 0.009969904 -0.063135885 0.00040184753 0.035178628 0.03923562
-0.014693308 0.023941228 0.050250195 -0.0422365 -0.03831388 -0.049473807 -0.016171828 -0.0066469857
0.0073633376 0.004457176 0.06284483 0.028895704 0.06665889 0.08297473 0.107106045 -0.00030857004
-0.019280046 -0.017048916 -0.08876938 -0.07883976 -0.0136680985 0.11677391 0.08476465 0.103879586
-0.026929101 -0.0086375475 0.05060625 -0.112837896 -0.11477484 -0.061922044 0.011539226 -0.0074339
0.025711052 0.048240792 0.008242859 -0.037072804 -0.052513003 -0.006486862 0.014633234 -0.12259047
-0.09783516 -0.08711144 -0.045991134 -0.0525845 -0.019249523 0.14523049 0.102297194 0.10626793
0.013231942 -0.004616707 0.07656963 0.05956968 -0.025128206 0.04238975 0.091226794 -0.05178967
-0.15828492 -0.020144947 0.044636704 -0.025181433 0.027696613 0.03225644 0.039395683 -0.03424845
-0.019618167 -0.07331507 -0.090344 -0.0956527 -0.09368413 -0.0048116334 -0.030845523 -0.044108238
0.16469611 0.05620306 0.047929015 -0.0042526885 -0.025769506 -0.039904155 0.022893766 0.010740937
0.029700644 0.032033525 0.012473012 0.027172241 -0.05861296 -0.08196834 -0.10052178 0.014804591
0.057165895 0.036360834 0.026683023 0.05769873 0.07635726 -0.0166249 0.00874293 -0.00050220836
0.0041506635 0.037917294 0.013614172 -0.0014666009 -0.012721633 0.014298813 -0.028776456 -0.014826211
0.030337473 -0.012261235 -0.029961511 -0.017607724 0.030646933 -0.0026444944 0.021022493 -0.04623013
-0.051954944 -0.07935595 0.01986767 0.011182631 0.009636314 -0.03609865 0.050024338 0.06798267
-0.040372834 -0.07540947 0.028801093 0.0060038664 -0.061812785 -0.019535908 0.071295924 0.0031292862
-0.014163844 0.041286435 0.011996968 0.014925751 -0.0206482 -0.031120256 0.027804855 -0.016725658
-0.002333498 0.02660196 -0.017547049 -0.022414844 -0.043672215 -0.007973607 -0.016206734 0.0065432866
-0.06356566 0.059733775 0.12909906 0.01883826 0.01625372 0.011926073 0.03516754 0.047425717
-0.011152504 -0.024575472 -0.0429809 -0.036907993 0.015892575 -0.026461165 -0.0038245649 0.012056754
-0.0028814143 0.02696296 -0.078613006 -0.034636218 0.033014543 -0.05520414 -0.020563185 -0.05584385
-0.027398063 0.04423549 0.048344728 -0.011307266 0.06681707 0.02731475 0.06076399 0.016065583
0.019318383 -0.00489924 0.011131496 -0.004611452 -0.06557471 -0.026638335 0.018681645 -0.06470826
0.0059478492 -0.010969374 -0.022046773 9.844878e-05 -0.019020703 0.026640896 0.03995393 -0.019465802
0.029017549 0.009940239 -0.01827894 0.018046016 0.01593642 0.0039245277 -0.05386374 0.02254729
0.039331034 -0.05745815 -0.063578255 -0.10802432 0.049571905 0.024485493 -0.0052666594 0.017640341
0.021240342 0.048381813 -0.028608007 -0.027598435 -0.025959583 -0.06336451 0.0045052026 -0.037204154
0.04270828 0.0542092 0.0833164 -0.008900393 -0.0029729302 -0.022844251 0.027717302 0.037721604
-0.0023043184 -0.0098384 -0.024273293 -0.017428543 0.013390705 -0.0044007017 -0.014684789 -0.011102199
00000000: 3c41 713c 6f1d b03c f5ed 303d 9c7c 4cbc
00000010: efee 0fbc 3f0b 863d 241f 64bd 7509 21bb
00000020: cf98 913d 6bb9 14bd e0ee 87bd d715 c63a
00000030: ec9d ebbc cfb2 67bd 5f9b 66bb f8d8 e13d
00000040: f5c3 57bc 0059 133d 8ff1 87bd cf58 233c
00000050: 634d 81bd 10af d239 7717 103d 88b5 203d
00000060: 33bc 70bc 6520 c43c 26d3 4d3d 2e00 2dbd
00000070: 04ef 1cbd 0ca5 4abd c87a 84bc f5ce d9bb
00000080: 2748 f13b 810d 923b cab4 803d afb6 ec3c
00000090: 7584 883d a8ee a93d 6a5a db3d 92c7 a1b9
000000a0: 30f1 9dbc 2baa 8bbc b8cc b5bd bd76 a1bd
000000b0: 29f0 5fbc 2927 ef3d 1799 ad3d d2be d43d
000000c0: 6b9a dcbc 8084 0dbc 8048 4f3d 8e17 e7bd
000000d0: 120f ebbd f8a1 7dbd 060f 3d3c 1398 f3bb
000000e0: fc9f d23c 2398 453d 0e0d 073c a7d9 17bd
000000f0: e017 57bd be8f d4bb 3bc0 6f3c b610 fbbd
00000100: cd5d c8bd 7c67 b2bd 3361 3cbd d862 57bd
00000110: 2db1 9dbc 4db7 143e 3181 d13d 00a3 d93d
00000120: caca 583c bf47 97bb 8ad0 9c3d 56ff 733d
00000130: abd9 cdbc e0a0 2d3d 1dd5 ba3d 6821 54bd
00000140: 7115 22be 0407 a5bc fad4 363d 4b49 cebc
00000150: 02e4 e23c 541f 043d 5e5d 213d 1a48 0cbd
00000160: 47b6 a0bc 3626 96bd 4606 b9bd 90e5 c3bd
00000170: 77dd bfbd e8aa 9dbb c0af fcbc d7aa 34bd
00000180: 19a6 283e 2e35 663d 3751 443d 235a 8bbb
00000190: 921a d3bc 8a72 23bd b58b bb3c c1fa 2f3c
000001a0: c44e f33c 9635 033d 9b5b 4c3c 5298 de3c
000001b0: 2514 70bd 04df a7bd 5dde cdbd f58e 723c
000001c0: c926 6a3d 19ef 143d 5b96 da3c 8155 6c3d
000001d0: 3261 9c3d f130 88bc 823e 0f3c a2a6 03ba
000001e0: 4a02 883b 2a4f 1b3d fa0d 5f3c f63a c0ba
000001f0: 656e 50bc 9245 6a3c 9abc ebbc a3e9 72bc
00000200: 4b86 f83c 59e3 48bc d871 f5bc 133e 90bc
00000210: 470f fb3c 414f 2dbb 5d37 ac3c ce5b 3dbd
00000220: b5ce 54bd 5f85 a2bd 86c1 a23c 5b37 373c
00000230: a1e1 1d3c 2edc 13bd 52e6 4c3d 803a 8b3d
00000240: fc5d 25bd 4870 9abd 45f0 eb3c 15bc c43b
00000250: 672f 7dbd c509 a0bc 9903 923d b614 4d3b
00000260: 780f 68bc f71b 293d ee8e 443c 238b 743c
00000270: 6a26 a9bc e8ef febc 02c7 e33c 3f04 89bc
00000280: 9aed 18bb 5bec d93c d4be 8fbc 569f b7bc
00000290: a3e1 32bd bba3 02bc fcc3 84bc 1169 d63b
000002a0: b62e 82bd 67ab 743d 8b32 043e b252 9a3c
000002b0: 8526 853c 9365 433c d70b 103d 7841 423d
000002c0: feb8 36bc 8052 c9bc bd0c 30bd d62c 17bd
000002d0: 2531 823c 16c5 d8bc 8da5 7abb b189 453c
000002e0: 1cd6 3cbb 6de1 dc3c dbff a0bd b5de 0dbd
000002f0: 423a 073d bc1d 62bd 2074 a8bc 85bc 64bd
00000300: e771 e0bc 4630 353d 1f05 463d 1c42 39bc
00000310: 63d7 883d 2fc3 df3c a9e3 783d f89b 833c
00000320: 9641 9e3c ce89 a0bb e160 363c aa1b 97bb
00000330: 094c 86bd a338 dabc 400a 993c c485 84bd
00000340: 2de6 c23b e4b8 33bc 6f9b b4bc 4976 ce38
00000350: 4ed1 9bbc 023e da3c bba6 233d bf76 9fbc
00000360: 36b6 ed3c 62dc 223c b7bd 95bc 3dd5 933c
00000370: 188d 823c 5399 803b 3aa0 5cbd 18b5 b83c
00000380: 9419 213d 3d59 6bbd 5135 82bd db3b ddbd
00000390: e90b 4b3d cd95 c83c f193 acbb 7a82 903c
000003a0: 3a00 ae3c 022c 463d 575b eabc 1d16 e2bc
000003b0: 31a9 d4bc 41c5 81bd 61a0 933b 6263 18bd
000003c0: e1ee 2e3d 770a 5e3d caa1 aa3d f4d2 11bc
000003d0: 7ed5 42bb de23 bbbc 650f e33c f881 1a3d
000003e0: 0c04 17bb 3e31 21bc c9d8 c6bc 4ec6 8ebc
000003f0: b064 5b3c c333 90bb 7898 70bc ffe5 35bc
